geoinr/model/mlp/pretrained/plane_splus_model3L_256_100b.pth (torch, 797767 bytes, 9 tensors)

net.0.linear.weight f4 [256, 3]
000000 ee d0 80 3e 65 57 10 bf 47 01 1d 3f 98 85 83 bf
       0.251594 -0.56383353 0.61330074 -1.0275145
000010 eb e6 aa bf 31 cc 38 bf 79 1b b3 3f 84 89 61 3f
       -1.335172 -0.7218657 1.3992759 0.8810046
000020 1e eb ec be d1 24 66 3f af 31 c2 3e fc cb a3 3f
       -0.4627313 0.8989993 0.3792853 1.2796626
000030 98 7e 5d be 08 cd 6d bf e9 c4 7f bf 44 38 49 bf
       -0.21630323 -0.9289098 -0.99909836 -0.7860148
000040 56 f1 13 3f 4f 7f 3b 3f 36 eb a2 bf 43 66 4a be
       0.57790124 0.7324113 -1.2728031 -0.19765572
000050 9c cd e5 3e a2 f9 38 3f 2e 03 8b bf 4e 6e f7 3e
       0.4488343 0.7225591 -1.0860345 0.48326343
000060 bf be 57 bd 82 4e a3 3f d6 73 90 3f b3 12 88 bf
       -0.052672144 1.2758334 1.128535 -1.0630707
000070 50 35 77 bf d7 ab 75 bf a4 58 e1 be db 7b 97 3e
       -0.96565723 -0.9596533 -0.4401294 0.29586682
000080 74 64 63 bf 51 2d 6a 3f d1 72 a5 3f 51 4b 93 bf
       -0.88825154 0.914754 1.2925664 -1.150736
000090 2f 8e 06 3f 3d 00 0b bf e9 89 a6 3e 5e d7 86 bf
       0.52560705 -0.5429724 0.32527092 -1.0534475
0000a0 d6 1a b2 3f 3e 99 e4 3e 4a 6d 99 bf 1b d9 ff 3c
       1.391444 0.44648165 -1.1986477 0.031231454
0000b0 54 23 3b 3e ea 2f d9 be d0 25 e1 3e 3c 90 a9 3e
       0.18275195 -0.42419368 0.4397416 0.33117855
0000c0 59 26 8e bf e4 de dc 3e 61 d7 92 3f 00 c1 4d 3f
       -1.1105453 0.43138802 1.1471978 0.8037262
0000d0 7f 36 53 3f a4 2d b1 3e 53 91 b1 bf cf 16 99 3f
       0.8250503 0.34605134 -1.3872474 1.1960086
0000e0 1a e7 8f bf 07 59 a7 3f af 8e 75 3f da d5 dd bc
       -1.1242402 1.3074044 0.9592084 -0.027079511
0000f0 25 56 71 be c4 ab da be ba c7 92 be 21 89 bf be
       -0.23568018 -0.42709172 -0.28668004 -0.3740931
000100 94 0f 0a 3f 8d bc b9 be 93 51 97 bf c4 9d 3e bf
       0.5393002 -0.36276665 -1.182177 -0.7445948
000110 a0 78 31 3f 4c 57 3e 3f dd 49 89 bf 25 44 68 3f
       0.69324684 0.74351954 -1.0725666 0.9072898
000120 e3 21 b2 3e b7 fc 29 be 0e 0f f3 3d 50 d8 94 3e
       0.3479148 -0.1660031 0.11868106 0.29071283
000130 23 fc e7 be 90 46 2b bf 80 5a 04 bf 23 ee 4d bf
       -0.45309553 -0.66904545 -0.5170059 -0.8044149
000140 09 84 a0 bf 61 27 5a bf 7a ef ad bf bd 90 b9 be
       -1.2540294 -0.8521634 -1.3588707 -0.3624324
000150 c3 32 06 3b 7e 0a 7d bf 58 9e dc 3e 65 b8 9f bf
       0.0020477034 -0.98844135 0.43089557 -1.2478148
000160 e9 cf 8a 3f 51 2d 4a bf be c4 55 3f de c9 81 3f
       1.0844699 -0.789754 0.8350333 1.013973
000170 41 b7 95 3e 64 63 ad be af e6 63 3e d3 06 8a be
       0.29241374 -0.33864892 0.22255968 -0.2695833
000180 1c a1 42 bf 06 74 97 3f 72 60 a2 bf 16 94 8c 3e
       -0.76027083 1.1832283 -1.2685683 0.2745673
000190 bd 5d 30 be 8c 14 58 bf d9 b0 ac 3f f8 e1 0c bf
       -0.17223258 -0.8440635 1.349147 -0.550323
0001a0 d4 34 a6 3f dd 28 b4 3f 4a 0f 22 bf 91 1f 9f bf
       1.2984872 1.407497 -0.6330458 -1.2431508
0001b0 83 ef c3 3e d1 e4 5c bf a1 53 14 bf 27 2d 83 bf
       0.3826867 -0.86286646 -0.5794011 -1.0248154
0001c0 6a be 9e 3f e9 28 31 be b0 a0 ac bf b6 15 75 bd
       1.240186 -0.17300762 -1.3486538 -0.05983516
0001d0 a5 3e 98 bf 3e a2 72 3f 47 9f 69 3f 2b 33 92 3e
       -1.1894118 0.9477881 0.9125866 0.28554663
0001e0 75 73 85 3e ba 74 9c 3e f7 37 74 bf 71 9f f8 be
       0.2606465 0.30557805 -0.95397896 -0.48559144
0001f0 e8 cf 8a bd b0 b2 4b bf de 4a a3 3e a5 0f 0c bf
       -0.06777936 -0.7956953 0.31893057 -0.5471137
000200 d3 9d 30 3e c9 05 7a bf fc c3 00 bf 18 8d 8e 3f
       0.17247705 -0.9766508 -0.5029905 1.1136808
000210 33 97 db be ea 5e df 3e 31 6e a0 3f 07 39 0c 3f
       -0.42888793 0.436271 1.2533628 0.54774517
000220 a5 75 1f bf 34 85 3a bf 39 a3 d8 bd 3c ea 43 bd
       -0.62288886 -0.728595 -0.10578007 -0.047830805
000230 75 57 de be 0d 0b 83 3f d8 9a 1c 3f 0e 76 1c bf
       -0.434261 1.0237747 0.6117377 -0.6111764
000240 f9 06 58 bf d5 d8 37 3f cd 3b 8f bf 77 13 63 bf
       -0.8438564 0.71815234 -1.1190125 -0.88701576
000250 b5 7d 83 bf f7 da 4f 3f a3 21 a9 3f 0e 7d 4f bf
       -1.0272738 0.8119349 1.321339 -0.81050193
000260 37 bf 69 bf 97 c3 62 bf b0 86 94 3e 0a 8c 31 3e
       -0.91307396 -0.88579696 0.29009008 0.17338577
000270 1a ad af 3f 32 22 4c be cc 26 73 3e cd 54 10 bf
       1.3724701 -0.1993492 0.23745269 -0.56379396
000280 a3 d2 8d 3f 41 5b 8e 3f 71 ec 04 bf db 77 72 bf
       1.1079906 1.1121598 -0.5192328 -0.94714135
000290 d7 cf 09 bf 5d 51 05 bf 87 44 d3 3e 4a 64 90 3f
       -0.53832763 -0.52077276 0.4126322 1.1280606
0002a0 59 91 4f 3f 84 6a 78 be 32 99 7c bd ff 1f 15 be
       0.8108116 -0.24259382 -0.061669536 -0.14562987
0002b0 91 0d a6 3f 62 d0 0a 3f 7a 99 cd be 8f ef 8d be
       1.297289 0.54224217 -0.40156156 -0.2772183
0002c0 ef 63 6d 3f 65 92 19 bf 64 a3 a1 bf c2 46 8b be
       0.9273061 -0.59989005 -1.2627988 -0.2720242
0002d0 0d 6c 70 bf b7 6d 80 bd c2 16 96 bd ad 15 94 be
       -0.9391487 -0.062709264 -0.073285595 -0.28922787
0002e0 38 fe b2 bf c6 a3 c8 bd 33 8a 61 bf 1b f2 8a bd
       -1.3983831 -0.09796862 -0.881015 -0.06784459
0002f0 df 79 b0 3f 63 75 32 bf a6 86 48 3f 19 cf 14 bf
       1.3787192 -0.6971037 0.7833046 -0.58128506
000300 70 3c a7 3f ad 7e 2e bf c1 a9 5e 3f 1f ea aa bf
       1.3065319 -0.6816204 0.86977774 -1.3352698
000310 3d 69 6a bf fc ba c5 3e 5b 25 a4 3d 9b 84 24 bd
       -0.9156683 0.3861922 0.080149375 -0.040165525
000320 b0 02 ae bf 80 f1 b4 3e 27 98 92 bf d9 0e 13 3e
       -1.359457 0.353405 -1.1452683 0.14361133
000330 f2 c5 0b bf 2d 4c af bf c9 11 81 be 49 9e b6 bd
       -0.54598916 -1.3695122 -0.25208881 -0.08916909
000340 f3 7f a2 3f b9 df 93 3f ad 52 d0 3e 96 4d 28 bf
       1.2695297 1.155265 0.40688077 -0.65743387
000350 ed 0c 5f 3f bb 38 f6 be 0c 3f 6f 3f 1f 43 89 bf
       0.871291 -0.48090157 0.93455577 -1.0723609
000360 61 71 8d bf 4c ae 95 bd 2d 08 9d bf 88 cf 2e bf
       -1.1050225 -0.07308635 -1.226812 -0.6828542
000370 39 44 11 bf 58 36 84 3e d5 91 50 3f d6 c5 c8 3e
       -0.56744725 0.2582271 0.8147252 0.39213437
000380 36 a4 14 3f 19 b2 c6 be 28 63 2f be 80 b8 a1 3e
       0.58063066 -0.38807753 -0.17127669 0.31586075
000390 08 ce 81 bf 48 d8 4a bd 0b 72 68 bf 43 58 b0 3f
       -1.0141001 -0.049522668 -0.90799016 1.3776935
0003a0 e1 6f 90 bf 8c f2 7e 3f 43 9b ef 3e c5 44 05 3f
       -1.1284143 0.9958885 0.46798143 0.5205806
0003b0 ce 31 67 bf 0e 1a b4 bf fc 69 33 bf 32 62 12 bf
       -0.9031037 -1.4070451 -0.70083594 -0.57181084
0003c0 dc 7e 7b bf 48 10 c3 bd 4f 1d a2 3f c9 e4 9c be
       -0.9824045 -0.0952459 1.2665194 -0.306433
0003d0 f2 e5 83 bf 85 bf 0f 3f d8 66 c9 3d 33 db 51 bf
       -1.0304549 0.5615161 0.09834069 -0.81975096
0003e0 5b 80 6b bf 93 26 9a bf f0 08 e3 3e a5 1d f1 3d
       -0.9199273 -1.2043022 0.44342756 0.11773232
0003f0 f6 99 f5 be 63 01 9e 3f 00 dd 40 bf 49 3f 65 bf
       -0.47969025 1.2344173 -0.7533722 -0.8954969

net.0.linear.bias f4 [256]
000000 b6 3e 0e 3e 47 e4 b7 bd 8e ec a5 be 94 80 e4 3d
       0.1389111 -0.08979087 -0.3240704 0.11157337
000010 dc a6 bf 3d bc 5a c6 3e 13 ae e7 3d a3 d7 2d bd
       0.09357998 0.387411 0.11312499 -0.042441975
000020 38 17 10 bf 1e 44 1d 3d 3f c8 e6 3e 58 34 a4 3d
       -0.5628543 0.03839504 0.4507465 0.08017796
000030 be c3 d6 3e 4a 69 2f be cb d2 d7 3e 6d 7e e9 be
       0.41946214 -0.17130008 0.4215301 -0.45604268
000040 21 00 ae 3e 52 38 93 bd e4 bd 51 be 16 e8 82 3d
       0.33984473 -0.071884766 -0.20482594 0.06391923
000050 0d 43 ed 3e cf 2d d4 3d 91 6a 60 3e e4 a1 aa 3e
       0.46340218 0.103603 0.21915652 0.33326638
000060 be 7e f5 3d 72 64 7e 3e 9b 47 7e 3d 97 13 87 bd
       0.11987065 0.24843004 0.062080007 -0.06595533
000070 1e 35 54 3e 6e dd 0e 3f 30 88 e8 bd cc da 07 3e
       0.20723388 0.55806625 -0.11354101 0.13267058
000080 47 b5 30 3d 5b 26 4d be f0 26 0d 3f f6 46 36 3e
       0.04314163 -0.20034163 0.5513754 0.17800507
000090 1d 5e c0 bc a1 bb b4 be 20 a8 8c 3e 20 07 05 3f
       -0.023482377 -0.352994 0.2747202 0.51963997
0000a0 0c 80 20 be 01 00 7d 3e b7 e8 bb be 2c 67 3d 3e
       -0.15673846 0.24707033 -0.36700985 0.18496388
0000b0 6a 9a 5f 3e 77 c4 ff 3e 0a 51 03 3f 80 91 88 3e
       0.21836248 0.49954578 0.5129553 0.26673508
0000c0 31 02 98 3e 92 57 26 bb 24 03 e8 3e 02 86 d8 be
       0.29689172 -0.0025381786 0.45314896 -0.4228974
0000d0 fe 92 cf be f7 ee cf be cd b0 0b bf 30 c0 03 be
       -0.40541834 -0.40612003 -0.5456665 -0.12866282
0000e0 e2 24 05 bf b2 59 fa 3e a1 27 07 3f 54 31 cc 3e
       -0.52009404 0.48896557 0.52794844 0.39881384
0000f0 ba c1 39 be f2 69 6a be 65 a1 c5 be b4 d5 4b 3e
       -0.18140307 -0.22891977 -0.38599697 0.1990574
000100 be 8c e5 3e 8b 46 de 3e 0f 84 07 bd 9f 8d fc 3e
       0.4483394 0.43413195 -0.033084925 0.49326798
000110 eb cd 0d 3f e5 e0 91 be 1f 6b e6 3e 79 6e 04 3e
       0.5539233 -0.28491893 0.45003602 0.12932767
000120 e8 3d 04 bf bc 74 f6 be 09 62 dc be 9c b9 0b bf
       -0.5165696 -0.48135936 -0.43043545 -0.5458009
000130 95 b3 96 3e bb e6 dd bd 87 67 ba 3d e0 c1 d7 be
       0.29433885 -0.10835024 0.091017775 -0.42140102
000140 ef fd f3 bd c6 f0 a3 3e f7 f6 3c be 4d a9 d4 3d
       -0.11913668 0.32019633 -0.18453585 0.10383854
000150 be cd 71 be 6f 28 ee 3e b1 a9 d4 be cc c2 54 be
       -0.2361364 0.46515223 -0.41535714 -0.20777434
000160 3a 2f 4e bd 9e fa 58 3e 01 6f cf be 3b c7 c6 be
       -0.050338008 0.21189353 -0.40514377 -0.38823876
000170 a0 04 0d bf 79 6b 31 bd 50 9a c1 3e f8 0c d8 be
       -0.5508518 -0.043315385 0.37813044 -0.42197394
000180 97 38 ed 3c 61 64 c5 be fe 27 08 bf 0a d9 e5 be
       0.028957648 -0.38553146 -0.53186023 -0.4489215
000190 5b d7 22 3d 36 1f 05 bf 73 62 66 be cb a9 26 3e
       0.03975616 -0.5200075 -0.22498493 0.16275708
0001a0 b2 c1 cc 3e f3 2e 49 bd 80 6b 02 3f c2 51 fa 3e
       0.39991528 -0.04911704 0.5094528 0.488905
0001b0 e7 75 de 3d 3e 31 b3 3e 05 04 6f 3e f6 26 68 be
       0.10862332 0.34998506 0.23341377 -0.22671112
0001c0 9e 3d fe 3c b7 0a 01 3f c4 30 51 3d d7 3a 83 be
       0.03103524 0.50406975 0.051071897 -0.2563083
0001d0 ee a5 4f 3e 2a 2e 36 3e fc 3c 79 3e 6b 8e 49 be
       0.20278141 0.17791048 0.2433967 -0.19683234
0001e0 6a 20 4a be ae 2b a8 3d 58 58 c1 be 28 66 fc 3e
       -0.19738927 0.08211456 -0.37762713 0.4929669
0001f0 83 d8 82 be 0f 02 0c 3f 66 7b 83 3e 3b 5e 87 bd
       -0.2555581 0.5469064 0.25680083 -0.0660977
000200 b6 ba 34 be a1 4a cd 3d fe fe 99 3e 2b df 84 3d
       -0.1764935 0.10024 0.30077356 0.064878784
000210 50 9e c9 3d 53 6c c3 be ea c3 b8 be 2d 2d 01 bf
       0.09844649 -0.38168582 -0.3608697 -0.5045956
000220 22 ea 84 3d 78 ec 5c be 90 db de be 1c c8 1f 3d
       0.0648997 -0.2157458 -0.43526888 0.0390092
000230 72 78 02 3f 28 84 18 3e 59 85 00 bf 83 a1 de be
       0.50965035 0.14894164 -0.5020347 -0.434826
000240 a2 71 bf 3d 63 c9 fa be 22 58 50 be bd 8e ad ba
       0.093478456 -0.4898177 -0.2034612 -0.0013241392
000250 e3 53 41 3e 74 44 0d bf 78 d1 2e be 26 ea 5c be
       0.18879656 -0.55182576 -0.17072093 -0.21573696
000260 5e 48 e3 be ad 95 6b be d8 5d ec bd 13 11 9e 3e
       -0.4439115 -0.23006316 -0.11541337 0.30872402
000270 7b 35 df 3d 98 ad e2 3e 11 90 eb 3e a6 a2 75 be
       0.108988725 0.44273067 0.4600835 -0.23987827
000280 a0 f6 b1 be fd a4 9d 3e be e9 10 bf fa 8e 80 3e
       -0.34758472 0.3078994 -0.5660666 0.25109082
000290 d1 f0 1d be 4e 76 00 3f e1 12 6b 3b 83 27 57 be
       -0.15423895 0.5018052 0.0035869407 -0.21011166
0002a0 f2 be 94 3d 42 76 36 3e 2f 8e 4c 3e 78 d7 42 be
       0.072629824 0.1781855 0.19976114 -0.19027507
0002b0 13 95 ac be c2 94 85 be 4f 3c 81 be 14 d5 51 be
       -0.33707485 -0.26090056 -0.25241324 -0.20491439
0002c0 38 cc 96 3e b6 c7 57 3c c3 3d df 3e 0c 71 9d 3e
       0.29452682 0.013170173 0.43601808 0.3075031
0002d0 cf 75 b0 be 2f c2 ae 3d e1 6c d4 be df f7 d2 be
       -0.3446488 0.08533131 -0.41489318 -0.41204736
0002e0 df cf b3 be 2c e8 ab be 42 1c 40 3e 40 4d dc 3e
       -0.3511953 -0.3357557 0.1876078 0.43027687
0002f0 c8 d8 ba 3e 5e 7d fa 3d 18 22 29 bd eb ba c3 be
       0.36493516 0.12230943 -0.04129228 -0.38228545
000300 80 15 ec be 33 37 9a be e9 43 aa 3e b6 d2 cd bc
       -0.46110153 -0.3012024 0.33254936 -0.025124889
000310 86 9b 9d 3d 20 24 c2 be 6a a1 f5 be c3 8d fd 3e
       0.07695679 -0.37918186 -0.47974712 0.49522218
000320 37 ae 83 3e c0 da eb 3c 6e 9e 27 3e 46 d9 8a be
       0.25718853 0.028790832 0.1636903 -0.2711889
000330 d1 07 92 3e 8f 59 9d 3e c5 e5 12 3f e8 da 0c bf
       0.28521588 0.3073239 0.5738185 -0.55021524
000340 3f b8 be 3e 60 49 15 bd 2c f9 fe 3e c7 01 f4 be
       0.37249944 -0.03644693 0.49799478 -0.47657606
000350 8b 16 f2 be 4a ef 54 3e 04 75 03 bf 24 9a f3 be
       -0.47282824 0.20794407 -0.51350427 -0.47578537
000360 9d 81 64 3d 14 ce 06 bf 1a 3e a4 be 83 57 57 3e
       0.05578767 -0.526582 -0.3207863 0.21029477
000370 b2 f8 64 be 86 12 73 bc 22 65 df be 4f 7b 9f 3e
       -0.22360495 -0.014835959 -0.43631846 0.31148764
000380 25 43 ab 3d ea 1e 4f 3e 99 27 92 be fb 63 cb 3e
       0.08362416 0.20226637 -0.28545836 0.39724717
000390 42 d1 fd 3d 72 69 b4 3d c8 7a 17 3e 1b 54 ab 3d
       0.123934284 0.088091746 0.14792931 0.08365651
0003a0 1b f8 af be 30 d0 f3 be 04 69 05 bf 9c 6e 80 be
       -0.34368977 -0.47619772 -0.52113366 -0.25084388
0003b0 bc d8 eb be 55 7b af 3e 99 c0 b4 be 10 00 26 3e
       -0.46063793 0.34273782 -0.3530319 0.16210961
0003c0 2d a9 e0 3e 74 c6 aa 3d a5 7a 99 3e 32 3c e7 be
       0.4387907 0.08338633 0.29976383 -0.45163113
0003d0 c2 18 cd be c9 fd 4c 3d 64 b2 13 3f f8 95 94 3d
       -0.4005795 0.050046716 0.5769408 0.07255167
0003e0 f5 fc fe 3e 75 6a 7c be e0 f0 0d 3f 5a 01 c5 3e
       0.49802366 -0.24649985 0.5544567 0.38477594
0003f0 70 80 06 bf 00 cf 09 bf fc ab ca be 35 9c 13 3f
       -0.5253973 -0.5383148 -0.3958434 0.5766023

net.1.linear.weight f4 [256, 256]
000000 3e 89 38 3d ba 1b 26 3c 98 cb 0c be a8 da ab bd
       0.04505276 0.010138446 -0.1374954 -0.08391315
000010 a4 ab ee bd af 66 0b be 80 1e 03 be bb 99 21 3d
       -0.116538316 -0.1361339 -0.12804604 0.03945325
000020 9a a4 16 3e e2 df 00 be 8d 08 39 bb b1 1f 82 ba
       0.14711228 -0.12585405 -0.0028233856 -0.0009927658
000030 e0 2b 58 3d d1 b6 92 3d af 57 f0 3d 6d 71 f2 3d
       0.052776217 0.07163776 0.11735474 0.118380405
000040 7c c1 cb 3d 8e 09 1a 3e 27 a0 84 3b e0 24 b5 3c
       0.099490136 0.15042707 0.004047412 0.02211231
000050 04 d1 ef bd e1 21 31 3c 09 eb f6 bc 8d fa 91 bc
       -0.117097884 0.0108113 -0.03014137 -0.017819667
000060 bc fd 7f bd 21 07 09 be a5 23 c1 bd 71 60 a0 3d
       -0.06249784 -0.13381626 -0.09430627 0.07830895
000070 f4 0d f2 bd 11 7b f2 3d 4f 16 d7 3c cf 4e f5 bc
       -0.118190676 0.11839879 0.026255755 -0.029944805
000080 5f 28 46 bd 1e 97 9a bd e6 fe 15 3e 39 f6 19 be
       -0.048378345 -0.075483546 0.14648017 -0.15035333
000090 32 0c 11 3e bf 4b 9f bc 8a 47 1d 3e 0e 08 c0 3d
       0.14164808 -0.019445298 0.15359321 0.09376536
0000a0 4b 79 5b bd e1 61 12 be c5 41 08 3e 04 43 cc bd
       -0.05358247 -0.1429515 0.13306339 -0.0997372
0000b0 a4 db dc 3d 7e 82 fd 3d bb 41 93 3c 3d a0 0a 3e
       0.107840806 0.12378405 0.017975679 0.13537689
0000c0 dc c5 a8 3d 2a 31 19 be 92 52 89 3c 96 6c 0f 3e
       0.08240864 -0.14960161 0.016763005 0.14006266
0000d0 47 7b b2 3d fc df b5 3d 02 80 11 be d1 92 13 3e
       0.087149195 0.08880612 -0.14208987 0.14411475
0000e0 ca f3 13 3e f4 c2 01 3c 62 0f e7 3c 5d 8d da bd
       0.14448467 0.007920016 0.028205577 -0.10671494
0000f0 ac 0b f8 3d e7 ed a5 bc ca a0 a4 3d 7c 42 12 3e
       0.12111601 -0.020255042 0.080384806 0.14283174
000100 cf 47 3a bd 20 3d 13 3e 30 3a a8 3d 5e 5b f2 bd
       -0.04547864 0.14378786 0.082142234 -0.11833833
000110 b0 b8 ac 3d ae a2 fc 3d 0b 55 15 3e 10 2b 96 bd
       0.08433664 0.12335716 0.14583223 -0.07332432
000120 b5 2e 70 bc 31 44 a5 bd 42 60 1a be 25 43 e9 bd
       -0.014659573 -0.08069647 -0.15075782 -0.1138976
000130 54 55 22 3d f4 da 82 3b e2 c7 18 be e0 0c 7b bc
       0.039632156 0.0039933864 -0.14919999 -0.015322894
000140 7a bd 05 be ba 84 0b 3c 80 3a 85 3b 23 f4 b6 bd
       -0.13060561 0.008515531 0.0040658116 -0.08933284
000150 91 dd 71 bd 2d 25 25 3b 15 3b b6 3d 3c c9 d5 bd
       -0.059049193 0.002519916 0.08897988 -0.10438773
000160 d8 d4 4c 3d 2a b5 8d bd 7a ca 83 3d 29 05 84 bd
       0.05000767 -0.0691932 0.06435104 -0.06446297
000170 5f 71 14 3e 35 d1 f2 bd 63 1f 0a bb 14 db 19 be
       0.14496373 -0.11856309 -0.0021075837 -0.15024978
000180 32 30 a0 3d 06 13 28 3d e9 86 9d 3d 7e 3d 0c be
       0.078216925 0.041033767 0.07691748 -0.13695332
000190 d2 b6 1e 3e bb db f3 3b df 97 e1 3d 52 42 ea 3d
       0.15499428 0.0074419654 0.11015295 0.11438431
0001a0 48 e1 39 bd 76 be 46 bb 31 7d 0e be 13 7b 77 3b
       -0.04538086 -0.0030325926 -0.13914944 0.0037762567
0001b0 50 95 95 3d 90 eb b7 bc b8 8a 0c be ff 0e ad 3d
       0.0730387 -0.022451192 -0.13724792 0.08450126
0001c0 c3 6e c6 3d 9d 34 97 bd 7a 6b 88 bb 5e 1d fb 3c
       0.09689095 -0.07383082 -0.004163203 0.030653652
0001d0 7c 54 19 3e 92 62 e3 3d 84 09 c8 3d 49 f1 8e 3d
       0.14973634 0.11102785 0.0976744 0.06979615
0001e0 f1 be 89 3d d2 a7 01 be ff 66 14 be 9a 4b f9 3d
       0.06725872 -0.12661675 -0.14492415 0.12172623
0001f0 e4 35 03 be 49 73 a8 bd 5b b8 7b 3d d0 ab d8 bc
       -0.12813526 -0.08225114 0.061455112 -0.026449114
000200 11 2d 55 bd 89 a5 1d 3e 0e eb 05 3e 2b 51 c9 3c
       -0.05204493 0.15395178 0.13077947 0.024574837
000210 8f 66 c2 3d e5 47 03 3e ff 62 1c bd 92 15 8a 3d
       0.09492218 0.12820394 -0.038180348 0.067423955
000220 7a 0b f6 3d 7d 8a f7 bd 4b 69 28 bd d3 56 fb bd
       0.12013908 -0.120869614 -0.04111604 -0.1227242
000230 e2 7e 36 3d c1 fe 4e 3c d8 0b e8 3d 13 02 79 3d
       0.0445546 0.01263398 0.11330384 0.060792994
000240 11 95 9f bd 34 53 76 3c d3 19 17 3d 5e 7a ae bc
       -0.07792104 0.015034486 0.036889862 -0.021298584
000250 11 f2 f9 3d e3 cc 17 3e 85 24 73 3d 7c d6 c4 3d
       0.12204374 0.14824252 0.059361 0.09611222
000260 82 d4 91 bd 8f 5b 03 3e 6d 62 7f bd 84 7d b0 bd
       -0.07120611 0.12827896 -0.062349726 -0.0861769
000270 2f 20 cb 3d 53 04 76 3d 2a b0 06 3d f8 76 ff bd
       0.09918248 0.060062718 0.032882847 -0.12473863
000280 b3 97 41 3d 7c 9b 3c bd 07 eb 79 3b 4a 44 b8 3b
       0.047263812 -0.04604672 0.0038134472 0.005623375
000290 1f c1 06 be 24 f3 08 bd f5 8c d8 bd c4 68 82 bd
       -0.13159607 -0.033435002 -0.105737604 -0.06367639
0002a0 05 1b a4 bd 51 59 1b 3e 89 b0 94 3d e0 79 40 bc
       -0.08012966 0.1517079 0.07260234 -0.011747807
0002b0 9d 50 d7 3d e0 3c 84 bd 78 61 0e 3e 2e 2f 99 bd
       0.10513423 -0.064569235 0.13904369 -0.07479702
0002c0 b8 3f 2b 3c 3a dc ec 3d 9f 60 d6 bd a0 73 1c bd
       0.010452203 0.115654424 -0.10467648 -0.038196206
0002d0 c0 b2 9b 3d af b6 59 3c a3 b1 b2 bd d4 ac 60 3d
       0.07602453 0.013288184 -0.08725288 0.05485232
0002e0 60 ac 12 be 84 e8 16 be 47 db 66 bc d1 09 14 3e
       -0.14323568 -0.14737135 -0.014090366 0.1445687
0002f0 17 e6 bb bc c0 34 64 3c 9c b7 a7 bd bc 36 55 bd
       -0.022936864 0.013928592 -0.081893176 -0.052054152
000300 94 4f 18 3e bb 83 c9 bd 57 30 1b bc 47 af a3 bd
       0.14874107 -0.09839579 -0.009471974 -0.07992416
000310 ab 7e d6 3d 7e 82 98 bd 3f 0d 6f 3d 0d fc 5f 3d
       0.10473379 -0.074467644 0.05836224 0.054683734
000320 9a 4b 17 3e fd 6b 77 3d bc b9 7b 3d 5c 12 d5 3d
       0.14774933 0.06040572 0.061456427 0.104038924
000330 c0 f4 24 bd 73 99 3a bc bc 6d e1 3d a0 5a aa 3d
       -0.040272474 -0.011389124 0.11007258 0.083180666
000340 c5 2e a8 bd b5 3d ac bc 3c 77 ce bd 17 18 ef 3d
       -0.082120456 -0.021025518 -0.10081336 0.11674517
000350 28 c7 8d bc c9 b9 60 3c 3e 21 c8 3d 55 81 02 3e
       -0.01730688 0.01371617 0.097719654 0.12744649
000360 dc 5c 19 bd a0 28 02 3d d4 70 6c bc d1 27 5b bd
       -0.037442073 0.031777024 -0.014431197 -0.05350477
000370 fb f0 55 bd 00 c8 a7 3d 90 20 9d 3b d4 8a 77 bd
       -0.05223177 0.08192444 0.0047951415 -0.06043513
000380 b1 b0 ea bc 2a fe 88 3c fc ca b5 3c a4 b5 d3 bd
       -0.028648706 0.016722757 0.022191517 -0.103373796
000390 5f a8 31 bc b6 e9 d3 bd 9b 9a f0 bc 26 8b fd bc
       -0.010843365 -0.10347311 -0.029370597 -0.03095014
0003a0 27 9e 8c bd c2 0c 88 bd 0e 2d c3 3c 26 90 6e bd
       -0.06866103 -0.06643058 0.023825195 -0.05824294
0003b0 7e 60 c2 bc 5f b7 f8 3d bf c2 c1 3d b2 35 f5 bc
       -0.023727652 0.1214435 0.09460973 -0.02993283
0003c0 59 94 06 3e 77 73 f1 3d 18 2a f6 3d 2d 01 9f bd
       0.13142528 0.11789601 0.120197475 -0.07763896
0003d0 8a 73 d3 bd 91 c0 e7 3d 55 19 96 3b da d3 df 3d
       -0.10324772 0.11316026 0.0045806565 0.10929079
0003e0 1e 12 4c bd cc a1 7f bd 78 e5 f9 3d d6 ad 9b 3d
       -0.049821965 -0.06241016 0.12201971 0.07601516
0003f0 96 61 f9 3d a1 90 e9 bd f6 f5 a5 3c b0 b1 09 3e
       0.12176816 -0.11404539 0.020258885 0.13446689

net.1.linear.bias f4 [256]
000000 00 b7 d3 bb dc 72 af bc bb 6d b2 bb 8b 9b 6b 3b
       -0.0064610243 -0.021417074 -0.00544521 0.0035950865
000010 85 b8 13 3a 16 75 00 bc c5 54 1b bc 53 87 d4 3c
       0.00056351005 -0.007840415 -0.00948066 0.025943434
000020 42 a5 0b bc 5a 25 49 3c 60 46 4b 3d 76 e9 12 bd
       -0.008523287 0.012276972 0.04962766 -0.035867177
000030 e9 47 b9 3c ce 84 ac bc 9a 4d 96 3c 64 d9 32 3a
       0.022617297 -0.02105942 0.01834755 0.0006822555
000040 a9 37 49 3c 96 33 72 bd 9f 5a a0 bb d4 24 bd 3c
       0.012281337 -0.059131227 -0.0048936154 0.02308885
000050 29 4d 2c bd 47 32 ac bc 9c 82 08 3c ba 4b 62 3d
       -0.042065773 -0.021020068 0.008331921 0.055248
000060 5d 01 5c bd 90 32 31 bd 8a 4d 76 bd e3 2c 4f 3d
       -0.053712238 -0.04326111 -0.06013254 0.050579917
000070 f6 86 fa 3c 86 1d 0f 3d 1d 79 e1 3c 10 c6 61 3d
       0.030581933 0.034940265 0.027523572 0.055120528
000080 e8 19 c4 3c 6f 9f bf bc 9a 9f db bc 39 0d 4e 3d
       0.023938134 -0.023391454 -0.026809502 0.05030558
000090 96 d8 18 3d 52 50 79 bb 07 f3 45 3d 2f da bb bb
       0.037315927 -0.003804226 0.048327472 -0.0057327966
0000a0 2d 52 ac 3b d0 2c 67 bd 01 4d 0b 3d cd c4 08 ba
       0.0052588196 -0.05643922 0.034008984 -0.0005217314
0000b0 da 78 bf 3b e5 fb 44 3d 33 28 30 3d d2 59 6f 3d
       0.005843264 0.048091788 0.043007087 0.05843527
0000c0 8b 60 10 bc bf a0 56 3d e0 25 23 bc d3 3f 7c bd
       -0.00881208 0.052399393 -0.009957761 -0.061584305
0000d0 e9 c7 65 3d 64 75 36 3d 66 39 09 bb 96 62 7f bd
       0.056098852 0.044545546 -0.0020938753 -0.06234988
0000e0 b2 66 15 3b fd a4 64 3d c1 94 81 bd 82 93 e1 3c
       0.0022796807 0.055821408 -0.06327201 0.027536158
0000f0 66 5c 78 3d 0a 64 cb 3c 75 4d 45 bd f2 33 82 3c
       0.060634993 0.024827976 -0.048169572 0.01589391
000100 d7 4c ea 3b a7 ff ee bc 53 0d 33 3d 1c 80 13 bc
       0.0071502733 -0.029174639 0.04371388 -0.009002712
000110 8b 1a ef 3c 15 5a 48 3d fa 8b a6 bc b6 80 4f bd
       0.029187461 0.048914034 -0.020330418 -0.050659858
000120 2e d7 ff 3c 63 9d 59 bd 5c d6 f9 3c b1 18 33 3d
       0.031230535 -0.05312861 0.030497722 0.04372472
000130 9a 82 ab bc e7 db 41 3c 2e 84 cc 3b e7 a1 28 3d
       -0.0209363 0.011832214 0.006241343 0.041170027
000140 fb 84 1d 3d 6e 33 84 bc 43 7a b0 3c 8e 3d 7e bd
       0.0384569 -0.016137805 0.021542674 -0.062070422
000150 ab a3 81 3c 79 2a f8 3c 6f a4 20 bd c2 06 5c bd
       0.015825113 0.03029369 -0.039219316 -0.053717382
000160 2f e2 e8 3c 40 07 14 3d b7 b2 1c 3c fc 7e 15 bd
       0.028428165 0.036139727 0.009564093 -0.036498055
000170 61 1b c4 bc 0e b2 7d 3d 7f 9a 20 b9 f2 39 35 bd
       -0.023938837 0.061937384 -0.00015316343 -0.044244714
000180 82 4a 62 3d 5d a9 42 bb 42 2a 34 bc 55 77 5f bc
       0.055246837 -0.0029703 -0.010996403 -0.013639291
000190 52 d2 4c 3d dd 0d 00 3d 6a eb 21 bd 03 98 34 bd
       0.050005265 0.03126322 -0.03953115 -0.044090282
0001a0 e7 0b 97 bc 2a 67 5d bc 55 27 36 bb 04 47 93 bc
       -0.018438293 -0.013513366 -0.002779444 -0.017978199
0001b0 45 8d 04 3d f1 21 3d 3d 5f 58 09 bd 8b dc 83 bc
       0.032361288 0.046174947 -0.033531543 -0.016096374
0001c0 81 49 53 3c 3e e5 5f 3d d9 19 7a bc 30 88 4f bd
       0.012895943 0.05466198 -0.015264952 -0.050666988
0001d0 99 1b 60 3d 12 f1 ea 3c 1b a0 bf 3c 4b 37 f2 bb
       0.05471382 0.028679404 0.023391774 -0.0073918453
0001e0 56 cb 75 bd 0e 21 1f bd 65 10 30 bd a9 81 7a bd
       -0.06000837 -0.038849883 -0.042984385 -0.06115881
0001f0 a5 8c 73 3b 65 ec f2 bc 6f 62 5b 3c af 85 07 3b
       0.0037162688 -0.029653737 0.013390168 0.0020679047
000200 44 7d 5c bc e3 ba 84 3c d7 e3 01 bc bc 2d 58 3d
       -0.0134576 0.016202396 -0.007927856 0.05277799
000210 13 2d 9d 3c 58 e7 aa bc bb b0 4f 3d 18 bc 2b 3b
       0.019186532 -0.020862266 0.050705653 0.0026204642
000220 27 26 57 3d 31 98 e4 3a 46 7b 5b 3d 6e c4 6c 3d
       0.05252662 0.0017440376 0.05358436 0.057804517
000230 bf f7 73 3d 9b 12 22 3d 65 3a eb 3b b0 bc ad 3c
       0.05956244 0.039568525 0.007178592 0.021208137
000240 5e 54 72 bd 7a ec 78 bd fd 0b 2e 3d 20 a4 6d bd
       -0.05916249 -0.060772397 0.0424919 -0.05801785
000250 62 47 08 3d 81 34 64 3d 11 b3 5f bd b8 41 d7 bc
       0.0332712 0.055714134 -0.05461413 -0.026276454
000260 86 72 8b 3c 7a 19 9e bb c0 bd 0e 3d fd 42 57 bd
       0.017022382 -0.0048248144 0.03484893 -0.05255412
000270 b2 d9 a4 3c 4b 71 87 bc 09 06 f8 3c 9c b9 7d 3d
       0.020123336 -0.016533514 0.030276315 0.06194459
000280 21 c4 33 bd a3 8b d6 bc 99 7d 34 3d 80 06 5c 3c
       -0.043888215 -0.02618963 0.04406509 0.013429284
000290 34 15 81 bd df 05 0d bd 54 35 2e 3d 0a 06 05 bc
       -0.06302872 -0.034429427 0.042531326 -0.008119116
0002a0 7a e2 eb bc ba de 98 3c 8c a7 35 bc c5 13 6a 3c
       -0.028794516 0.018660892 -0.01108731 0.01428694
0002b0 99 1c 08 3d 69 2f 47 3d 2e 8f 72 3c 47 8b 7e 3c
       0.033230398 0.0486292 0.0148046445 0.015536136
0002c0 29 32 c0 3c 11 52 e6 3c 49 20 fe bc f1 2e 68 3d
       0.023461418 0.028115304 -0.031021254 0.05668539
0002d0 e8 0b b1 3c 12 06 7a 3d cc b3 ba b9 de 50 f8 3b
       0.021612123 0.061040945 -0.00035610644 0.0075779995
0002e0 03 c1 c0 bc b4 07 bb 3c 26 7b 8b bc 92 52 62 3a
       -0.023529535 0.022830822 -0.017026495 0.000863352
0002f0 10 b9 6d 3b 48 dc 24 3d 87 d9 58 3d 38 d7 7f bd
       0.0036273636 0.04024914 0.052941825 -0.062461108
000300 a7 27 70 bd aa 13 78 3d 78 e6 d6 bc a3 fd 60 3d
       -0.058631565 0.060565628 -0.026232943 0.054929387
000310 ba fa a1 3b e3 48 6d bd 5c 0e 68 bc 14 a9 6e bd
       0.004943219 -0.05793084 -0.01416358 -0.058266714
000320 2d 5c d7 bc af 3c 31 bd cf 65 a5 3c 87 09 73 3d
       -0.02628907 -0.043270763 0.020190148 0.059335258
000330 2d f6 a7 3c 92 42 a9 3c 34 bb 16 3d 0a ae 1c bd
       0.020503128 0.020661626 0.036799625 -0.038251914
000340 5b 12 f2 bc 30 44 5d bd 10 0e 3a bc 8d 11 22 3d
       -0.029549768 -0.054020107 -0.011355892 0.03956752
000350 5e 08 78 3d 02 0a 35 bd 91 2c 1d bd 5f ec 3b bd
       0.060554855 -0.044198997 -0.03837258 -0.045879718
000360 22 44 1a 3d 56 8a 44 bc 8a 75 93 bc 3b 26 75 bd
       0.037662633 -0.0119958725 -0.018000383 -0.059850913
000370 d7 31 87 bc 54 9e 0c 3d 75 17 23 3d 3e 01 d4 bb
       -0.016503258 0.03433068 0.039817292 -0.0064698746
000380 70 ce e1 bb 2d d2 d0 3c de e3 4b bd c0 37 bd 3c
       -0.0068910643 0.025490845 -0.049777858 0.023097873
000390 22 6a 6c 3a 31 98 7b 3c cc 44 b8 39 94 5e a6 39
       0.00090185006 0.0153561095 0.00035146473 0.00031732453
0003a0 e9 88 40 3d a3 a6 62 3a c7 8b c7 3c 82 a5 2c bc
       0.047005568 0.00086460466 0.024358643 -0.010537507
0003b0 e0 11 13 3d 26 3f 3b bd cc 92 0a 3c bc fe 4c 3d
       0.03590572 -0.04571452 0.008457851 0.05004762
0003c0 e0 6c c4 3c 4c 16 46 bd cd 07 9b 3c 19 bb bc bb
       0.023977697 -0.048361108 0.018924618 -0.0057596085
0003d0 65 25 f4 bc 03 59 6e 3d 1e 78 22 bd 82 c2 69 bd
       -0.029802987 0.058190357 -0.039665334 -0.057070263
0003e0 44 72 89 3a 2c 75 2b 3d 21 c2 de bb 8a 65 f8 3c
       0.0010486324 0.04185979 -0.0067980443 0.030321855
0003f0 fe 4b 88 bc aa a7 52 bc 0d b2 c3 3c 0c bc 44 3c
       -0.016637798 -0.012857357 0.023888612 0.0120077245

net.2.linear.weight f4 [256, 256]
000000 d2 0e e4 bd 68 38 59 bd d6 f1 17 3e 34 f8 9a bd
       -0.11135639 -0.05303231 0.14838347 -0.07566872
000010 aa f2 0b be 55 4a 1b 3e 76 77 0a 3e 21 67 c4 3d
       -0.13666788 0.15165074 0.13522133 0.09589983
000020 52 64 9b bd 7c 61 05 3d 84 63 7d 3c 8f d0 db 3d
       -0.07587494 0.03256367 0.015465621 0.10733139
000030 23 c7 0e be 53 11 f5 bd 56 db 95 bc 05 dd c9 3d
       -0.13943152 -0.11966195 -0.018293064 0.09856609
000040 5f ca 52 bd 30 59 e3 bd bb f7 8e 3d 3b b6 07 3e
       -0.051462527 -0.111009955 0.069808446 0.13253109
000050 87 e0 f1 bd 07 2b 91 bd fd 83 60 3d cd 4f 19 3e
       -0.11810403 -0.07088285 0.054813374 0.14971848
000060 b5 bf 08 be 20 17 2c 3c 04 8a 98 3d 38 51 5b 3d
       -0.1335438 0.01050356 0.074481994 0.053544253
000070 32 f7 83 3d ee cb 03 be aa 73 cb bd d6 cb 86 3b
       0.06443633 -0.12870762 -0.099341705 0.0041136546
000080 b7 86 cb 3d 3d e0 2a ba 14 e2 f6 3d c3 21 d2 bd
       0.09937804 -0.00065183995 0.1205484 -0.10260346
000090 a5 11 0f be fd 4a 8b bd 91 b9 ba bd 34 3a f2 3d
       -0.13971575 -0.06801412 -0.09117425 0.118275076
0000a0 df 51 16 bd 29 9d 04 be 9d 9d bc 3c bd e9 16 be
       -0.036699172 -0.12950577 0.023024375 -0.14737602
0000b0 f4 36 12 3e 78 bb f4 bd 23 7b f7 3d d4 4f 81 3c
       0.14278775 -0.11949819 0.12084033 0.015785135
0000c0 ca c0 f2 bd 4c 93 18 be ce 91 8b bd 56 61 72 bd
       -0.11853178 -0.1489994 -0.068149194 -0.059174858
0000d0 05 af 18 be 77 8f 83 3c 4f 57 03 3d 6f 73 2b 3c
       -0.14910515 0.01605962 0.032065686 0.010464533
0000e0 af de d3 3c 44 9d e6 bd 98 b0 d9 3d b9 cd 01 3d
       0.02586302 -0.11260465 0.10629386 0.031690333
0000f0 26 ef d6 bb c5 aa 5d bd 8b 39 a5 bd db 53 34 3d
       -0.0065592704 -0.054117937 -0.08067616 0.044025283
000100 a2 76 8d 3c 87 cb be bc 73 44 9c bd 5b 33 fb bc
       0.017268483 -0.023290409 -0.07630243 -0.030664137
000110 c5 93 a0 3c ba cf dd 3d 9c dd bd bc d5 63 c0 3d
       0.019601712 0.10830636 -0.02317696 0.093940414
000120 81 04 58 3d 8e 0f a6 3d ab 08 01 3e 33 37 94 bb
       0.05273867 0.081084356 0.12600963 -0.004523182
000130 4c 51 9a 3d 3c 2c 98 3d 1b 0a b0 bd 6b e0 9e bb
       0.075350374 0.07430312 -0.085956775 -0.00484853
000140 86 1c 97 3d 54 be a3 bd e4 90 e1 bd 4b e8 ea bd
       0.07378487 -0.079952866 -0.11013964 -0.114700876
000150 6e 7e cf 3d 62 d1 e7 3c c3 9f 6d 3d 42 6b 16 be
       0.101315364 0.028298084 0.05801369 -0.14689353
000160 67 03 b1 3c bf e8 5d 3d 70 86 12 3e c9 38 8f bd
       0.021608068 0.054177042 0.14309096 -0.06993253
000170 09 ef dc bd f9 3f d9 3d 49 81 74 3c d6 22 ca 3d
       -0.1078778 0.10607905 0.014923402 0.09869926
000180 ac e0 06 be 9c a1 46 3d ce 0b e4 3c a5 d0 f2 3d
       -0.13171643 0.048493966 0.02783766 0.11856202
000190 db 22 a1 bd 8c 5d df 3c fb 2b 72 3d ac 95 56 3d
       -0.07867976 0.027266286 0.059123974 0.052388832
0001a0 76 4d 11 bd c0 45 f5 3c 74 8b 04 be 76 05 f8 3d
       -0.035474263 0.029940486 -0.12943822 0.121104166
0001b0 b2 6b 26 bd 61 d3 c1 bd bd bd 44 3d b4 15 d1 bd
       -0.04063005 -0.094641455 0.04803251 -0.10209218
0001c0 c3 a3 a0 bd 04 34 69 bd 09 90 a2 bd 59 13 0b be
       -0.07843735 -0.05693437 -0.07937629 -0.135816
0001d0 e5 1a 8d bd 95 09 31 3d 98 bc 2c 3d 4b e2 09 be
       -0.06889895 0.04322203 0.042172045 -0.1346523
0001e0 c1 83 3d 3d 19 8c d5 bd 48 4c 33 3c b3 a6 08 3e
       0.04626823 -0.10427112 0.01094348 0.1334484
0001f0 53 a3 17 be 9b b3 8f bd 29 a8 f7 bc 98 ab 11 be
       -0.14808397 -0.07016679 -0.030231552 -0.14225614
000200 ba 90 0e bd 69 cf 97 bd 2b e9 80 bd 29 d1 c3 bd
       -0.03480599 -0.07412607 -0.06294473 -0.095613785
000210 92 3c ca bd 0e 9b b0 3d 30 7c cc 3d 1a 8a 61 bc
       -0.09874834 0.08623324 0.099846244 -0.013765836
000220 28 a1 c6 bc 6e 45 66 3d 01 7d fd 3d 33 0d 0e be
       -0.024246767 0.056218557 0.12377358 -0.13872223
000230 c3 0d d7 3d 67 13 cb 3d 67 6b 24 bd 9f 2e 05 be
       0.10500672 0.0991581 -0.04014149 -0.13006066
000240 9c 66 d9 3c ed 25 f7 ba 17 42 27 bd 35 5c f0 3d
       0.026538186 -0.0018855907 -0.040834513 0.11736337
000250 cb df cc 3d 5c a1 cb 3d 8e e1 9a 3d 26 38 ef bd
       0.100036226 0.09942886 0.075625524 -0.11680631
000260 2a d1 d2 bd 70 29 37 3c ab a4 dd bd c6 11 ba bd
       -0.10293801 0.011179313 -0.108224235 -0.09085421
000270 37 0d 07 bd d8 f0 d7 bd 40 6c 16 3e a2 97 84 bd
       -0.032971587 -0.10543984 0.14689732 -0.06474234
000280 4a 00 10 3d df ad 04 be 92 36 b1 3d 71 95 11 bd
       0.035156526 -0.12956952 0.086529866 -0.03554291
000290 f1 70 96 bd a8 13 42 3d 13 ec 4a 3d 9a e4 06 3e
       -0.073457606 0.047382027 0.049541544 0.13173142
0002a0 e8 c8 f3 3b ed 37 9e bd 15 67 e4 3c 9f 1d e6 3d
       0.0074397214 -0.07725511 0.027881185 0.112361185
0002b0 95 62 1d 3e 32 df 17 be 32 ac f9 bd 1c aa fc bd
       0.15369637 -0.14831236 -0.12191047 -0.12337133
0002c0 42 5e 13 bd 29 b1 b7 3b e5 1a 26 bc f6 41 be bd
       -0.035978563 0.005605836 -0.010138248 -0.09289925
0002d0 c6 d4 16 3e e9 5d be bd f8 4b ed 3d 93 66 cf 3d
       0.14729604 -0.09295256 0.115867555 0.10126986
0002e0 6e ab 17 be 47 97 10 3e a7 fa 9c bd 95 88 e0 3d
       -0.14811489 0.14120208 -0.07664996 0.10963551
0002f0 9a ba a9 3d e8 81 20 3e 96 c2 d1 3d 3c 58 83 3d
       0.082875445 0.15674555 0.102421924 0.06413314
000300 38 73 c4 3d 3d 4f 14 be 9d 3b 92 3d 6d e8 03 be
       0.09592289 -0.14483352 0.071402766 -0.12881632
000310 53 a3 07 3e f2 ff 91 bd 57 61 e0 3c 31 12 c5 bd
       0.13245897 -0.07128896 0.027390165 -0.0962261
000320 b6 78 11 be 82 26 5a 3d fd a8 aa bc 0f a8 0a bd
       -0.14206204 0.05325938 -0.020832533 -0.03385168
000330 58 fb 11 bd 91 f1 30 3d 76 59 1a 3e df 17 94 bd
       -0.03564009 0.043199126 0.15073189 -0.072311155
000340 e7 76 89 bd 89 37 a2 3d 70 70 96 3d 30 99 b2 bc
       -0.06712132 0.07920749 0.073456645 -0.021801561
000350 a2 2e 21 bd d1 2c 8b bd 71 d2 24 3d 0e cc 1a 3e
       -0.039351113 -0.067956574 0.040239755 0.15116903
000360 b8 89 3d 3d 48 5e 1c be a2 a0 53 bc 84 ca 9a bd
       0.046273917 -0.1527034 -0.012916716 -0.07558158
000370 91 56 8d 3d fd f8 7a bd 48 62 03 bd 44 2c ad bd
       0.06901277 -0.06127261 -0.03207615 -0.084557086
000380 d6 75 5e 3c ac 07 10 3e f8 da d6 3d 68 56 14 3d
       0.013577899 0.14065427 0.10490984 0.036215216
000390 83 e1 95 bd 8b 89 82 bd de 3e ba 3d a7 74 83 bd
       -0.073184036 -0.063738905 0.09094022 -0.06418734
0003a0 a2 56 e8 3d 45 3c b0 bd a0 d3 cd bd c2 6a e8 bd
       0.11344649 -0.086052455 -0.1005013 -0.113484874
0003b0 9b 12 ae 3d 5c 4a 8d bd f7 2f d1 3d f4 11 54 3d
       0.084996425 -0.068989486 0.10214227 0.051774934
0003c0 7e bd 3b 3d 20 4f 11 3e eb a1 f1 bd 2c b3 5e bd
       0.04583501 0.1419034 -0.117984615 -0.05437009
0003d0 cd 9d e5 bd 4c d4 02 3e 73 12 fc 3d 87 7f a5 bd
       -0.11211739 0.12776297 0.123082064 -0.080809645
0003e0 5d f5 0f 3e 18 fd bd bb aa 7c a0 bd 45 ea 9b 39
       0.14058442 -0.0057979934 -0.07836278 0.00029738448
0003f0 2e 38 0f be 64 c7 08 be f4 f5 eb bd d7 00 ae 3d
       -0.13986275 -0.13357311 -0.11521521 0.08496254

net.2.linear.bias f4 [256]
000000 94 9d 20 3d 0c 46 47 3c 54 f8 f6 bb 88 76 4b 3d
       0.03921278 0.012162697 -0.0075369272 0.049673587
000010 12 f9 a6 3c df d6 4a bd e3 8d 64 bd 8d 23 e9 3c
       0.020382438 -0.049521323 -0.055799376 0.028459335
000020 44 b7 4a 3d da 1e 80 bd f9 a6 76 3d ba 15 63 bd
       0.049491182 -0.062558845 0.06021783 -0.055440642
000030 97 94 1c bc 07 15 64 bd d8 f8 0d bd 42 42 cd 3c
       -0.009556911 -0.055684116 -0.034661144 0.025056008
000040 a7 68 21 3d dd 0c 5f 3d 48 7b 9c bc 3f b9 6c bc
       0.039406445 0.054455627 -0.019101754 -0.014448463
000050 9a 2c 3f bd 02 94 3d bc f2 8a 16 3c 50 4e 9c bc
       -0.046673395 -0.011570932 0.009188401 -0.019080311
000060 42 b7 27 3d ea 1e 27 bd 66 e8 af bb fd 6b a5 3c
       0.040946253 -0.040800966 -0.00536828 0.020193094
000070 ef 84 08 bd 20 3c 01 3d 6f 87 2d bd e5 41 e7 bc
       -0.0333299 0.03155148 -0.042365488 -0.028229663
000080 bc 02 76 bd 0f 0a e3 3c 26 0f 1e bd 0a 39 4b 3d
       -0.0600612 0.027714757 -0.038588665 0.049614944
000090 6d 88 18 3b 6a 00 eb 3c 5c 9f 9e 3c a7 bb b0 3c
       0.0023274675 0.02868672 0.019363098 0.021573855
0000a0 c4 30 5b 3d 9a f9 75 3d cc 30 e9 3c ce 1b 7a 3d
       0.053513303 0.06005249 0.028465651 0.061061673
0000b0 53 26 1a bd a8 6d 74 bd 26 d4 5c bd 7a 78 6e bd
       -0.037634205 -0.05967489 -0.053913258 -0.058220364
0000c0 77 38 c8 bc 75 90 58 bd f6 b7 6c 3c 68 11 fe bc
       -0.024440987 -0.05287214 0.014448157 -0.03101416
0000d0 9c 8e 8c 3c e4 f2 c4 bc 69 5b 72 bd 50 5a b3 bc
       0.017157845 -0.0240416 -0.059169207 -0.02189365
0000e0 1a be 20 3c 12 65 4a 3d 03 35 08 3d 06 d6 26 3d
       0.009810949 0.049412794 0.03325368 0.040731452
0000f0 f1 85 2e bd ea 69 dd 3c 43 9a 75 3c 81 9f 7c 3c
       -0.042608205 0.027028043 0.014990392 0.015418888
000100 89 04 51 3d e0 49 d9 bc 85 3c 22 bd fc 3e 83 bc
       0.051029716 -0.026524484 -0.039608497 -0.016021244
000110 33 08 b7 3c db 8d 35 3d 5d 6f c1 39 5a d4 a9 3c
       0.022342777 0.044324737 0.000368948 0.02073114
000120 58 13 6d bd e0 a4 3e 3c e6 67 61 bd ba 3a 6e 3b
       -0.057879776 0.011635989 -0.055030726 0.0036350922
000130 42 be a2 bc 12 50 6b bd 6c ec fa 3c b6 91 33 3d
       -0.019866113 -0.057449408 0.030630313 0.043840133
000140 7d 42 7a 3d 8e f4 50 3d 8e d3 23 bd 95 84 55 bd
       0.061098564 0.051014476 -0.039996676 -0.052128393
000150 d0 46 95 3c de 14 0c bd 2c a6 ae bc ec a1 19 bc
       0.018222243 -0.034199588 -0.021319471 -0.009376984
000160 28 89 51 bd 5e f7 0d 3d 48 f8 13 3c a5 22 83 3d
       -0.051156193 0.034659736 0.009031363 0.06403092
000170 eb 7d 43 3c 1b f6 0d 3d 0d 43 db 3c 7c a5 57 bc
       0.011931877 0.034658533 0.02676537 -0.013162013
000180 9b 96 89 bc 70 ff 78 3d ff 68 b6 3c c1 44 09 3d
       -0.016795447 0.06079048 0.022266863 0.033512834
000190 71 83 5f bd 73 e9 ed ba e6 75 83 bc 32 1d 69 3d
       -0.05456871 -0.0018151238 -0.01604743 0.05691261
0001a0 bf b7 cd 3a 9d 6e 70 3d 22 7b 0b 3d 89 28 49 bd
       0.0015695019 0.05869924 0.034052975 -0.049110923
0001b0 3e 45 3f bc c2 f7 3b 3c 85 66 32 3d 93 d1 48 3d
       -0.0116742235 0.011472644 0.0435548 0.04902799
0001c0 bc 2d d6 bc b4 17 77 3d fe d8 7e 3c 0f 0a fa bc
       -0.026144855 0.06032534 0.015554665 -0.030522374
0001d0 7d f5 92 bc 5a 6e 48 3b ac 08 9d 3c b5 d5 3d 3d
       -0.017939324 0.0030583353 0.019169174 0.046346385
0001e0 25 d0 3c 3c 14 21 a5 3c 73 1e 36 3d 06 17 d0 3c
       0.011524235 0.020157374 0.044462632 0.025401603
0001f0 50 c7 21 bc a7 bf 5b 3d 31 6a 82 3d 37 a9 6b bd
       -0.00987418 0.05364957 0.06367911 -0.057534423
000200 50 39 46 3c e0 97 59 3d 8f 76 1b 3d 90 97 3d bd
       0.012098625 0.053123355 0.037954863 -0.04628712
000210 b2 0a 40 3c f7 64 00 3d 17 20 b0 3a 71 19 39 bd
       0.0117213 0.031346288 0.0013437298 -0.04519028
000220 c2 43 26 bd ee 9d 5c bd 4d b3 f7 bc a4 54 63 3d
       -0.040591963 -0.05386155 -0.030236864 0.05550064
000230 5f 0d fe bb ad 39 74 bd 1d 97 03 3d 51 51 21 3d
       -0.007753059 -0.059625316 0.032126535 0.03938419
000240 b3 c3 fa bc c8 7a 81 bc 8d a9 c9 bc 7e a6 c7 3c
       -0.030610895 -0.015805617 -0.02461698 0.024371382
000250 90 07 64 bd 06 d4 ef bb a1 c0 2d 3d 16 bb 7d 3c
       -0.055671275 -0.0073189763 0.042420033 0.015486499
000260 5a b7 a9 3c e4 83 0a bd 75 82 d8 bc 0a a5 6a 3d
       0.020717312 -0.033817187 -0.026429394 0.0572863
000270 bd 54 4a 3d 3f 9d 85 3c 66 f5 84 3d c2 e1 2e 3d
       0.04939722 0.016310332 0.064921185 0.04269577
000280 bb cb 41 bd 40 38 a0 bc 8f 11 1a bd df 96 86 bc
       -0.047313433 -0.019558072 -0.0376144 -0.016429363
000290 9e ed 44 3d 6c 71 76 bc 95 ee 7b bd b5 86 7a bd
       0.048078172 -0.01504169 -0.061506826 -0.061163623
0002a0 76 91 18 3d f3 df 60 3d ad cf 40 bd 31 4b 17 bd
       0.037248097 0.054901075 -0.047073055 -0.036936942
0002b0 31 99 2b bd 42 62 c9 3c dc 88 23 bd 16 62 69 3d
       -0.04189414 0.024582986 -0.03992544 0.056978308
0002c0 8b db 60 bd 1a 09 0e 3d 60 e0 4e 3d 58 9a 5d bc
       -0.054896872 0.03467665 0.05050695 -0.013525568
0002d0 7d c6 7e 3d 33 66 5b bd 7c a6 83 bc 52 96 16 bc
       0.062201012 -0.05356426 -0.016070597 -0.009191113
0002e0 80 83 35 bb d8 e4 b9 bc 9b 06 7b 3d e3 f5 54 3d
       -0.0027696788 -0.022692129 0.061285596 0.05199231
0002f0 1e d0 84 bd bc 96 0a 3d 49 12 4b bd 2a 80 10 3d
       -0.06485008 0.033835158 -0.049577985 0.035278477
000300 9c d1 74 3d e7 c6 4e 3d fc b6 0c bb ab a2 1c bd
       0.05977021 0.050482657 -0.0021471372 -0.03824107
000310 ac 45 12 bd bf de 51 3d 37 d3 f6 3c 6e 68 34 3c
       -0.035710976 0.051237818 0.030130012 0.011011226
000320 51 f5 a8 bc 84 5b 37 3d 35 29 8d 3c a1 dc 24 bd
       -0.020624788 0.04476501 0.017231563 -0.04024947
000330 83 4c 1f 3d 50 52 1e bc 55 aa 92 3c 6d 95 55 bd
       0.038891327 -0.0096631795 0.017903486 -0.052144457
000340 11 3c 78 3d 6f 84 76 bd c6 ed e0 bc 5c 76 b3 bb
       0.06060416 -0.060184892 -0.02745713 -0.005476756
000350 0a 41 59 3d a2 72 54 bd de 0c 58 3d a6 8a 4a 3d
       0.05304054 -0.051867135 0.052746646 0.04944863
000360 63 ea 7d 3c b0 ed ef 3a 74 f3 53 bd 95 cf 46 bd
       0.015497777 0.0018305089 -0.051745847 -0.04853781
000370 e8 44 10 bd 66 9f 35 3c f7 fd 15 3d 39 28 54 bd
       -0.035221964 0.011085367 0.036619153 -0.05179617
000380 51 72 42 3c 57 52 29 3d ea 98 ea 3c 85 1a 72 bd
       0.0118680755 0.04133829 0.028637368 -0.059107322
000390 e8 b9 0f bd 2e 02 6d bd ea 61 34 bd 49 32 d5 3b
       -0.035089403 -0.057863407 -0.04403869 0.0065062386
0003a0 39 38 a9 3c 83 b8 e3 3c b9 f8 5b 3d 51 5e 3d 3d
       0.020656692 0.027797943 0.053703997 0.046232525
0003b0 2e 71 b4 bb 79 97 4b bc 2a a0 82 bc a9 6b 36 bd
       -0.005506656 -0.012426251 -0.015945513 -0.044536266
0003c0 dd 0e 51 3d 99 e9 24 bd 9e 1a b8 3c 93 0a 3f 3c
       0.051039565 -0.04026184 0.02247363 0.011660236
0003d0 82 b2 5c 3d 04 1e 34 3d 93 87 5a bd 3f b8 26 3c
       0.053881176 0.043973938 -0.05335195 0.010175764
0003e0 5f 02 65 3d 8a 5d a6 3b ed 21 40 3d 76 d2 73 bc
       0.055910464 0.0050770687 0.046907354 -0.014881721
0003f0 92 3c 07 3c dc 6f 38 bd 0b f8 f7 bc 6c fb 6d bd
       0.008254187 -0.045028552 -0.030269643 -0.058101103

net.3.linear.weight f4 [256, 256]
000000 ed 20 0a be 73 e6 87 3d 01 02 39 bd 22 54 a8 3d
       -0.13489123 0.066357516 -0.045167927 0.08219172
000010 55 2a 82 bd c1 67 f2 3c 12 da c9 3d 92 04 f4 bd
       -0.063557304 0.02959049 0.09856047 -0.11914934
000020 68 41 9e 3d 18 c0 80 bd 5f 7f 9a 39 8b 92 eb 3d
       0.07727319 -0.06286639 0.00029468068 0.1150256
000030 69 cb 8c bd 2e 9e 07 3e 38 ac 5f 3d a6 bb d3 bd
       -0.06874735 0.13243935 0.0546076 -0.103385255
000040 25 6e 66 bd 3c 4d f2 3d 29 63 56 3d 63 f6 38 3d
       -0.056257386 0.118311375 0.05234066 0.045156848
000050 3f 41 8f bd 84 44 f2 bd 04 81 2b bd 37 ef 83 bd
       -0.069948666 -0.118294746 -0.041871086 -0.06442111
000060 a5 4f 02 3e 14 bd ee 3d f4 8d cb 3d e3 48 da 3d
       0.12725694 0.116571575 0.09939185 0.10658433
000070 c1 5c 91 bd 8b b6 b5 bc b8 af a4 bd 8b 67 d3 bd
       -0.070977695 -0.02218177 -0.08041328 -0.10322484
000080 2c 9c 0f 3c e2 8b bb bd 1e 66 be bc c4 06 e9 bb
       0.008765262 -0.0915754 -0.023242053 -0.007111402
000090 52 a4 11 3e 2c fc 61 3d c9 fb d0 3c c4 84 de bd
       0.1422284 0.05517213 0.025510686 -0.10865167
0000a0 27 d1 fa 3c 54 6a 87 bd 2e 00 4d ba 71 94 04 3e
       0.03061731 -0.06612077 -0.0007820156 0.12947251
0000b0 da 8e 16 bd 24 60 9e bd ba 07 09 3e 0e d7 0d 3e
       -0.036757328 -0.07733181 0.13381854 0.13851568
0000c0 e2 45 06 3e 44 7d 87 3d 93 a1 63 3d 2d 51 97 3d
       0.13112596 0.066156894 0.05557401 0.0738853
0000d0 03 66 e9 3d 4b e7 31 bc 2a 78 0d 3e 37 7d 56 bd
       0.1139641 -0.010858367 0.1381537 -0.052365508
0000e0 45 88 ae 3d e0 d0 e8 3c 4f de 9a bd 58 36 09 3d
       0.08522085 0.028419912 -0.07561933 0.033499092
0000f0 27 05 cb 3d a2 01 6c bd 16 71 2b 3d e7 da 1b 3e
       0.09913092 -0.057618745 0.041855894 0.15220223
000100 6e cb 80 bd 3e 73 3f bb f3 36 09 be 30 39 7b 3d
       -0.06288801 -0.0029212977 -0.13399868 0.061333835
000110 e0 f4 fe 3d 19 e7 16 be c4 28 10 be 80 82 03 be
       0.1244905 -0.14736594 -0.14078051 -0.1284275
000120 42 f3 0c 3e 18 ad c0 bd 86 01 07 3d 14 f0 f2 bd
       0.1376467 -0.09408015 0.032960437 -0.118621975
000130 82 2c 9b bd 7d 82 0d 3d 72 80 0a 3d 45 e5 f9 3d
       -0.075768486 0.03454827 0.0338139 0.12201933
000140 43 39 93 bd 81 17 6a 3d 89 df 29 bd 32 cf f8 bd
       -0.07188656 0.05715132 -0.041472945 -0.12148894
000150 76 aa 87 bc ce d1 fc 3d b8 46 09 be 35 16 96 bd
       -0.016560774 0.123447046 -0.13405883 -0.073284544
000160 47 93 01 3e 79 c7 81 3d 51 d3 da 3b d8 de fa 3d
       0.12653838 0.063368745 0.006678023 0.12249535
000170 a4 ce 08 be 32 c6 f5 3c 06 7b 15 3c 9a c2 84 3b
       -0.13360077 0.030001733 0.009123569 0.0040515186
000180 f4 45 9c 3d ad 8d 07 bd 51 77 00 3e 85 cc 46 3d
       0.0763053 -0.033094097 0.12545516 0.04853489
000190 f2 5c f3 3d a7 c0 06 bd e2 56 2d 3d f6 1d cb 3d
       0.11882962 -0.03289857 0.042319186 0.09917824
0001a0 72 89 38 bd 4a 7a 08 be 3f 6a 0e 3e 8e bf 16 be
       -0.045052953 -0.133279 0.13907717 -0.1472151
0001b0 6f bd 8f bc 0e 95 99 3d 25 5e f2 3d 49 82 1c bd
       -0.017546384 0.07499133 0.11834363 -0.038210187
0001c0 44 b0 ae bc 75 51 14 be 2e 8d 46 bd 27 10 11 3e
       -0.021324284 -0.14484198 -0.048474483 0.14166318
0001d0 e8 48 b3 3c 05 7f ba 3c aa 8b d2 3d 1f f9 75 3d
       0.02188535 0.022765646 0.10280545 0.060052034
0001e0 9f 45 a3 bc 2d 1c ae 3b b7 4d f5 b9 cd a2 1d 3d
       -0.019930659 0.0053134174 -0.00046787944 0.038485337
0001f0 35 0e 1a be 2f d3 5e 3d a9 a7 39 3d 9e 62 84 bd
       -0.15044482 0.05440062 0.04532591 -0.06464122
000200 83 22 e6 3c a4 ac b6 bd 7a e4 79 3d 8a fd 2d bd
       0.028092628 -0.08919647 0.061008908 -0.04247812
000210 7a ad 88 3d d7 be 44 bd fe 6f 19 3e 1c b8 13 be
       0.06673713 -0.04803356 0.14984128 -0.14425701
000220 27 16 c0 bd 29 a2 f1 3d 64 54 58 3d 48 26 e5 bd
       -0.09379225 0.11798508 0.052814856 -0.11188942
000230 ba 5f fd bc 68 2b a6 3d cc ba 1b bd 72 40 73 bb
       -0.030929435 0.08113748 -0.03801994 -0.003711727
000240 b5 8a 12 3e 0d 26 04 be 0d 68 c1 3d ed 8f 07 be
       0.14310725 -0.1290514 0.09443674 -0.13238497
000250 eb d4 f2 bc 11 db 09 bd 1d 33 dd bd 84 2d 53 3d
       -0.029642543 -0.033656184 -0.10800765 0.05155708
000260 68 02 1f bd 2a 77 06 be c4 ce 0d 3e e8 7c e6 ba
       -0.038820654 -0.13131395 0.13848406 -0.0017584832
000270 b6 0c 0e 3e e3 19 0c 3e 2c c0 b4 bd b6 02 d8 3d
       0.13872036 0.1368175 -0.088257164 0.10547392
000280 9f 54 d9 bc 1d b8 41 bd cb 80 01 3e 78 43 f6 3b
       -0.026529608 -0.047294725 0.12646787 0.007515367
000290 f7 b1 8d bd b9 33 eb 3d ac 8d 3f ba 1b de fe bd
       -0.0691871 0.11484475 -0.00073071825 -0.12444707
0002a0 30 d9 04 be 91 59 f1 bc 03 74 0f 3e 53 4e d2 bd
       -0.12973475 -0.029461654 0.14009099 -0.102688454
0002b0 fd af d0 3c 3f 0f 27 3e 36 1a 15 3e 7d f7 e9 bd
       0.025474543 0.1631441 0.1456078 -0.11424158
0002c0 dc 5d cd bd 6a c3 13 3e 73 55 16 be 1f 5b af bd
       -0.10027668 0.14430013 -0.14681034 -0.08562302
0002d0 f8 4e 34 3b 12 8d 91 bd df 68 14 be 08 99 10 bd
       0.002751289 -0.07106985 -0.1449313 -0.035302192
0002e0 3d ee 42 bc 11 de 8b 3d 6d 0e 3f 3d 66 8a 6a bd
       -0.011897621 0.06829465 0.046644617 -0.057260893
0002f0 2f 15 e2 bd 0d d6 07 3d ae 59 e0 bd 8e b9 06 3e
       -0.11039197 0.03316312 -0.10954605 0.13156721
000300 f0 31 03 3e 44 a5 fd bd 9d ba 0d 3e 1f 2f b2 bd
       0.12812018 -0.123850375 0.13840719 -0.08700394
000310 b1 99 7f bd f3 95 18 3e 52 5e eb 3d 69 03 e9 bd
       -0.06240243 0.14900951 0.114925995 -0.113776036
000320 ea b8 0a 3e 29 fc 82 bc bc cb e1 bd cf 4b 80 3c
       0.13547102 -0.01598938 -0.110251874 0.015661148
000330 6a c7 87 bd 35 33 06 bd 53 35 e0 3d 5c 5f 32 bb
       -0.06629832 -0.03276368 0.10947671 -0.0027217483
000340 43 45 f6 bd b5 90 01 be 9c 40 ea bc 27 7b 53 bd
       -0.120249294 -0.12652858 -0.028595261 -0.05163112
000350 5c a9 9d bd 11 fe dd 3d cb 4a de 3d 76 36 83 bd
       -0.07698318 0.10839475 0.108541094 -0.06406872
000360 40 62 ca bd 61 d0 fa 3d 86 4f c3 3d 9d 22 a4 bd
       -0.09882021 0.12246776 0.09536652 -0.080144145
000370 ed 70 fd 3d 6e 7e bf bd fc 79 c4 bd 96 4d 88 bd
       0.123750545 -0.093502864 -0.09593579 -0.06655423
000380 24 25 b1 bd 4f 21 55 3d ca 14 c9 bc 6d 21 40 bd
       -0.08649662 0.05203372 -0.024546046 -0.046906877
000390 4f 41 ea 3d 17 e8 ec bd eb c3 92 bd bc d5 2c 3d
       0.11438238 -0.11567705 -0.07166275 0.04219602
0003a0 5b 9b b4 3d 2b c8 16 be 98 7c e4 bc 5e 45 c0 bd
       0.08818694 -0.14724796 -0.027891442 -0.09388231
0003b0 f0 cc 1e bd ce 89 d4 bd 87 6b ee bd f7 59 cc bd
       -0.038769662 -0.10377847 -0.11641603 -0.09978097
0003c0 37 d4 2e bd 87 6d 84 3d 07 ff 05 3e 61 bd 30 3d
       -0.042682853 0.06466203 0.13085566 0.043149356
0003d0 33 57 fa 3d a3 2c ec 3d 31 ab 71 3c 09 ea 10 be
       0.12223663 0.11531951 0.014750288 -0.14151777
0003e0 4f 00 b9 3b 32 b1 0a 3d 27 75 6c 3d 0e 3e 79 3d
       0.0056457887 0.033860393 0.057728913 0.060850196
0003f0 f3 0c 0f be 87 90 44 3d 18 a0 a0 3d 90 bd ea 3d
       -0.13969783 0.047989395 0.078430355 0.114619374
