geoinr/model/mlp/pretrained/plane_selu_pmodel2.pth (torch, 803975 bytes, 9 tensors)

net.1.linear.weight f4 [256, 9]
000000 a4 f5 83 3e 4b 1f b0 3e 91 5b 11 3e 1b c5 08 3d
       0.25773346 0.34398875 0.14195086 0.0333911
000010 08 ab b7 bd 01 79 08 be 6b b3 c3 bd d7 06 69 be
       -0.089681685 -0.1332741 -0.09555706 -0.22756515
000020 b6 9f 09 3e 5c bf 59 be b5 26 bb be 84 6f 1c 3d
       0.13439831 -0.21264404 -0.3655297 0.038192287
000030 e8 e3 9f 3e 59 a6 37 3d 8e e6 89 be 81 bd aa be
       0.31228566 0.044836376 -0.26933712 -0.33347705
000040 c6 ca d7 3c ff fa 83 be fe 6e c5 be b5 6a a1 be
       0.026341807 -0.25777432 -0.38561243 -0.31526724
000050 c3 18 60 3e d5 51 e9 bd 20 76 53 be f9 56 95 bd
       0.21884446 -0.11392561 -0.2065053 -0.07291979
000060 54 de 90 3e 65 ac b9 be 26 6a a2 bb 0e d3 8f 3e
       0.28294623 -0.3626434 -0.0049565015 0.2809071
000070 c3 32 bf 3e 7d c1 f7 3d cd 1e 70 3e 60 ed c6 bd
       0.37343416 0.12097452 0.2344925 -0.097132444
000080 22 94 2c 3d 0e 96 42 3e d0 dc a7 be e1 57 b3 3d
       0.042133458 0.19002554 -0.32785654 0.08756996
000090 fd 7c e4 be bd 58 e9 be e3 6f 96 3e d3 d9 5a be
       -0.44626608 -0.45575514 0.29382238 -0.21372156
0000a0 0c e9 ac bd b2 3f 49 3e 39 f2 87 3e 72 3a a7 3e
       -0.08442888 0.19653204 0.2655199 0.32661778
0000b0 9b fc 0c be 85 65 17 be 26 a2 10 bf 35 dc 90 be
       -0.13768236 -0.1478482 -0.5649742 -0.28293005
0000c0 32 36 d9 3e 40 ae aa be 66 5f 7b 3d ef 15 51 be
       0.4242416 -0.33336067 0.061370276 -0.20418523
0000d0 98 50 a9 3e a3 ef 5b be 40 f0 84 be 9d a3 15 3e
       0.330693 -0.21478133 -0.25964546 0.14613195
0000e0 77 a8 f6 3d 73 e1 a8 be a0 e1 2e 3e 44 38 e6 be
       0.12043851 -0.32984504 0.17078257 -0.44964802
0000f0 cd 84 45 3e 6b c7 43 3e e3 e6 3b be 38 24 49 bd
       0.1928894 0.1911904 -0.18349795 -0.049106807
000100 01 74 23 3e b4 bf 86 3e ba a4 c2 3d 7f 9d 69 be
       0.1596222 0.26318133 0.09504075 -0.22813986
000110 68 13 8b 3e 0b 2f bb be 20 fd b7 be 04 38 8f 3d
       0.27163243 -0.36559328 -0.35935307 0.06993106
000120 b2 65 58 be 47 67 95 be 17 a2 8e be af 9d 8d 3e
       -0.21132544 -0.29180357 -0.2785804 0.27659366
000130 df 2b 43 be b2 65 ae 3e db d1 5b 3d ea 8b 51 bd
       -0.19059704 0.34061962 0.05366693 -0.051158823
000140 8c d3 9b be d4 ef 6c 3d 51 67 ec 3d 2e 2c 35 be
       -0.30434835 0.057845905 0.115431435 -0.17692634
000150 50 ca 2e 3e 97 a3 ae 3e b8 f5 8d 3c f4 41 78 3e
       0.17069364 0.34109184 0.017329082 0.24243909
000160 1a f4 70 be 8a 0d 4e 3c 50 bc c6 3e e6 00 1f be
       -0.23530617 0.01257647 0.38815546 -0.15527686
000170 b1 e2 30 be 2a 74 86 3e 12 e7 a2 3e ee 33 28 3e
       -0.17273976 0.262605 0.31816918 0.1642606
000180 cf 9d 94 be 0e e5 81 be b9 97 c6 bd 6e 04 4a bd
       -0.29026648 -0.25370067 -0.096969076 -0.04932063
000190 86 3c cd be 92 e6 87 3e cc 84 51 be 0e b6 0b be
       -0.40085238 0.265431 -0.20460814 -0.13643667
0001a0 7f 2c da 3d 37 41 af 3e 92 8c d4 bd b3 4b dd 3d
       0.10653018 0.34229442 -0.10378374 0.10805454
0001b0 04 d5 9d be cf bf 97 be a0 b1 1f 3e e8 e1 83 be
       -0.3082658 -0.29638526 0.15595102 -0.2575829
0001c0 d3 2d 50 be fd 76 e3 3d 08 d0 8a bd 41 73 54 be
       -0.2032998 0.111066796 -0.0677796 -0.20747091
0001d0 22 fa 95 3e d9 72 87 be b6 1e 7c 3d 18 f5 46 3e
       0.292924 -0.2645481 0.061552726 0.19429433
0001e0 e8 06 6c 3e de 96 8b bd 72 d6 d0 3d 38 a4 b8 bc
       0.2304951 -0.06815885 0.10197152 -0.022539243
0001f0 f3 bb 96 3e e0 8d 52 be ca cf 9c be 2e 8d fb bd
       0.2944027 -0.20561934 -0.3062728 -0.12282787
000200 57 77 66 3e 19 7c 84 3e f3 30 88 3c 99 56 e0 bc
       0.22506462 0.2587593 0.016624903 -0.027385043
000210 8b 3c 80 3e 7e 73 40 be b1 8a 14 be fd ce fb 3d
       0.2504619 -0.18794057 -0.14506032 0.12295339
000220 a4 0b 98 3e 55 4e 45 bf 17 0c ab 3d 2a 27 69 3d
       0.2969638 -0.7707265 0.08351915 0.056922115
000230 e6 5c 41 bd 00 18 39 be e7 e1 18 3e 38 c0 84 bd
       -0.047207735 -0.18075562 0.14929925 -0.06481975
000240 a8 06 e2 be e5 41 ad be 9a 55 e4 be fe 69 58 be
       -0.44145703 -0.33839336 -0.4459656 -0.21134183
000250 55 c6 fe bd 32 80 9b bd 6a 56 44 3d b9 55 11 3e
       -0.124401726 -0.07592811 0.047933973 0.14192857
000260 a8 ef 24 3e e2 35 5d 3e 47 84 7a be 61 29 f0 be
       0.16107047 0.21602586 -0.24464522 -0.4690657
000270 cb bb 61 3e be 5c c6 be cc f5 b2 3d a6 8b a7 be
       0.22044294 -0.38742632 0.08738288 -0.3272373
000280 c7 89 76 3b 69 59 bb 3e 8a c6 3c be b0 21 58 bd
       0.0037618743 0.36591652 -0.18435112 -0.052766502
000290 a1 c8 01 bf 5b bf 3b 3e f2 9a e3 3d d4 40 8f be
       -0.5069676 0.18334715 0.11113538 -0.27979147
0002a0 41 34 9a 3e a1 1c 19 3d e4 20 29 bd 2f e4 3c be
       0.30117992 0.03738082 -0.041291133 -0.1844642
0002b0 80 f3 a9 be af d8 c4 be 30 73 57 3d 7d 2e c5 bd
       -0.33193588 -0.38446566 0.052600086 -0.096280076
0002c0 31 45 d7 3c 7d 01 62 3e 8b ae f8 bd e7 d0 6d be
       0.02627811 0.2207088 -0.121426664 -0.23224221
0002d0 4d 93 88 3e 86 aa 03 3e 24 cb 86 be e9 27 9c bd
       0.26674882 0.12858018 -0.2632686 -0.076248
0002e0 49 a6 70 bd a3 4f a3 bd 02 17 8f be 7f 7e 53 bd
       -0.058752332 -0.07974174 -0.2794724 -0.051634308
0002f0 c5 d2 8b 3e 8e c6 14 3e 4a 64 ab 3e 8b cd 08 3e
       0.27309242 0.14528868 0.33474952 0.13359658
000300 43 00 87 3e 6a b7 96 3c c6 ca 6e be 08 3f cb 3e
       0.26367387 0.018398006 -0.2331954 0.39696527
000310 85 a5 a3 3e 2d 8d 06 3e ce e2 48 be 7a 27 ce be
       0.3196222 0.13139792 -0.19617769 -0.40264493
000320 97 78 85 3d 4a 4a 5c bc 6e 62 26 3d a5 53 60 be
       0.06517141 -0.013445446 0.040621214 -0.21906908
000330 55 56 b8 bc 53 cf 19 bd 28 96 9e 3e d9 02 12 3e
       -0.022502104 -0.037551235 0.30973935 0.14258899
000340 ce a9 87 be d2 cc a4 3c dc 75 15 3e 0e 43 19 3d
       -0.26496738 0.020117197 0.14595741 0.037417464
000350 5b 05 ab be 69 29 0b be 1e 94 2b 3d f7 b2 ed 3d
       -0.33402523 -0.13590015 0.041889302 0.116064005
000360 0f 36 bb bd 60 8f c7 bd 50 ee 45 3e 38 50 32 3e
       -0.0914117 -0.097441435 0.1932919 0.17413414
000370 fb 39 c3 3c a3 3c b3 be bb cb 9f be 96 68 bf bd
       0.023831358 -0.350072 -0.31210122 -0.0934612
000380 40 9b 91 3e d4 a6 87 bd fc 81 be be 2d 89 17 bf
       0.2843876 -0.06623617 -0.37208545 -0.5919369
000390 bc 3c d5 3d a2 84 43 3e 15 b7 fc bd 9d 08 48 3e
       0.10411975 0.19093564 -0.123396076 0.19534536
0003a0 9d ec 47 3e 3a 3d ce 3d d1 c0 b3 3e eb 08 d1 3d
       0.19523855 0.10070272 0.35108045 0.10206779
0003b0 9a bf ad 3d 99 a9 5b 3e 90 d0 00 3e eb ef 69 3d
       0.08483811 0.21451415 0.1257956 0.05711357
0003c0 76 ab e6 bd 36 7d 35 3c ef 34 50 3e 6c 7b ae bd
       -0.11263172 0.011077216 0.20332693 -0.085196346
0003d0 af 36 a7 be 64 cd a3 bb 7c 9d 78 be d8 21 a0 be
       -0.32658908 -0.0049988497 -0.24278826 -0.3127582
0003e0 8e 5f 44 3e 87 0d 8f be 1d d6 54 be 6b 5c c8 bd
       0.19177076 -0.27940008 -0.20784803 -0.09783252
0003f0 04 e9 1e be 02 4b af be e2 9c fb bd f2 11 b4 be
       -0.15518576 -0.34236914 -0.122857824 -0.3516994

net.1.linear.bias f4 [256]
000000 f7 79 c8 3e af 1a ca be 47 4a 5d be 07 77 b6 3e
       0.39155552 -0.39473483 -0.21610366 0.35637686
000010 c9 03 9d 3d ae e8 37 3e d0 a4 1c 3e b4 2c a9 be
       0.076667376 0.17959854 0.15297246 -0.33041918
000020 d1 8b dc bd 01 b7 ba be 0a be e1 be 69 f0 aa be
       -0.10768855 -0.36467746 -0.440903 -0.33386543
000030 ae 0d 9e be a7 18 af be f0 cf 38 be 5a 41 ab be
       -0.30869812 -0.34198496 -0.18048072 -0.33448297
000040 e7 9b 8f 3e b2 31 2e be 32 1f b9 be 1d a9 7a 3e
       0.28048632 -0.17011145 -0.36156613 0.24478574
000050 49 e4 a5 be 23 53 60 3e 34 ff b0 be b1 6b db 3e
       -0.3240073 0.21906714 -0.34569705 0.428556
000060 6c 7b 9e be ec 2b cf 3d 87 84 a4 3d 13 8e a3 be
       -0.30953538 0.10115799 0.0803309 -0.31944332
000070 2c 25 72 be 4e 52 c0 be 5c 12 95 3c 78 c3 6c be
       -0.23646992 -0.37562793 0.018197231 -0.2312144
000080 b4 ec 6a 3e 34 36 2b 3e 29 9a da be 29 4e 1a 3d
       0.22941858 0.16719896 -0.4269574 0.037672196
000090 79 8e 9d bd 5d b8 43 be 26 f9 20 be b2 ac f4 bd
       -0.0769319 -0.19113298 -0.15720043 -0.119470015
0000a0 0a 7d 29 be a9 35 44 be bf 3d 91 3e 10 61 92 be
       -0.16551605 -0.19161095 0.2836742 -0.28589678
0000b0 6e fb 89 3d 43 10 66 be 92 3a 2a be 09 77 b0 be
       0.067374095 -0.22467141 -0.16623905 -0.34465817
0000c0 f8 f4 f2 be a6 ae af be d8 b0 9d be 9b 6b 8f be
       -0.4745252 -0.34312934 -0.30798984 -0.28011784
0000d0 67 89 06 bf a4 11 10 3e 5d d6 9b be 06 f0 74 bc
       -0.5255341 0.1406923 -0.30436984 -0.014949804
0000e0 3e 7d de 3c 99 74 cb be e8 fb d9 be e5 ba 96 3d
       0.02715933 -0.39737394 -0.42575002 0.07359866
0000f0 77 ad a0 3d f6 f5 f2 be cd 48 96 bd c6 9e e5 be
       0.07845586 -0.47453278 -0.073381044 -0.44847697
000100 08 ad 11 3e d4 0e 3d be 3e a5 e9 3c 4a 25 46 be
       0.14226162 -0.18462688 0.028521176 -0.19350162
000110 b9 b8 85 be 51 fc d7 be bf b3 0d bf 99 a5 4c be
       -0.26117495 -0.4218469 -0.55352396 -0.19985045
000120 cc aa 1b 3e 2a 71 76 be e6 66 e2 be ef 47 cd be
       0.15201873 -0.24066606 -0.4421913 -0.40093943
000130 70 7a a7 3e e3 88 ae bc 2d 58 7e be cd da af be
       0.327106 -0.021305507 -0.24838324 -0.3434662
000140 a5 cf 14 3d 07 4f 92 be ec d9 84 bd 69 4e 89 be
       0.036330838 -0.28575918 -0.06486878 -0.26817635
000150 f7 ce c6 bc 9d 31 b9 be 29 de ae be 0b e5 8d be
       -0.02426861 -0.36170664 -0.3415387 -0.27713808
000160 c2 f6 ca be d4 eb eb 3e 7b 7d 44 bd 43 94 60 3d
       -0.39641386 0.4607836 -0.04797123 0.054828893
000170 af ae 1b bf a0 d6 5f be 76 2b b0 be f8 70 cd be
       -0.6081342 -0.21859217 -0.34408158 -0.4012525
000180 61 11 bd be 30 c3 1c be 27 69 36 bd c5 d6 b5 be
       -0.36927322 -0.15308833 -0.044533875 -0.3551542
000190 df 53 04 be 1e 39 a1 be 70 eb 09 bd a4 8a 8f be
       -0.1292262 -0.3148889 -0.033671796 -0.28035462
0001a0 8e 33 a9 be ae e9 5a be e8 a6 de bc c2 b9 0b be
       -0.33047146 -0.21378204 -0.027179196 -0.1364508
0001b0 c6 59 52 be 96 da 42 3d 55 ee 2c be 11 03 a4 bd
       -0.20542058 0.04757174 -0.16887791 -0.08008397
0001c0 29 b7 43 be 9d 8e 6d bd b6 f5 f7 3d 6e 99 49 bd
       -0.19112839 -0.057997335 0.121074125 -0.049218588
0001d0 12 61 80 be 5f ac e9 bd 41 f6 5e 3d 06 7c c9 be
       -0.2507406 -0.1140983 0.054434065 -0.39352435
0001e0 6f a2 09 3e 34 d5 75 be ac 9d 7d 3e 05 06 23 3e
       0.1344087 -0.24007112 0.24767178 0.15920265
0001f0 45 aa 23 be cc 93 5c 3d 85 ee ae be 7d 8d ab be
       -0.15982921 0.053851888 -0.3416635 -0.33506384
000200 dd 0a d6 3d b7 0d 82 bd 0b a7 cc be 7f a9 3e be
       0.10451291 -0.06350272 -0.39971194 -0.18619345
000210 50 32 37 bd 13 cc 7e 3e f8 e6 ea be 65 7a 83 3d
       -0.044725716 0.24882536 -0.4587934 0.06419829
000220 aa bc 9a be c4 ba 82 3e 38 21 4b 3d 90 12 da be
       -0.30222064 0.25533116 0.049592227 -0.42592287
000230 84 8b dc be 2e f4 39 be b4 36 58 be 01 64 05 bb
       -0.43075192 -0.18159553 -0.21114618 -0.0020353796
000240 c7 79 93 3e d6 94 82 be e5 31 58 3e de 42 d5 be
       0.28803846 -0.25504178 0.21112783 -0.41652578
000250 e6 28 b9 3e 0f bf 89 3d 85 72 ca be 92 e7 41 3e
       0.36164016 0.06725895 -0.39540496 0.18935993
000260 3e 20 79 3e 55 f7 4b 3e 4f df 38 3e eb d5 7a be
       0.24328706 0.19918568 0.18053935 -0.24495666
000270 36 1b 87 be 7a b5 ee be 52 04 00 bf 88 ea a4 bd
       -0.26387948 -0.4662283 -0.5000659 -0.08052546
000280 b0 3a 63 bd 94 f7 cf 3e 97 25 62 be e5 d7 06 3e
       -0.05547589 0.40618575 -0.22084652 0.13168295
000290 0d 3c e9 be f0 c2 28 3d e3 35 e1 be ce 97 51 3b
       -0.45553628 0.041201532 -0.43986425 0.0031981352
0002a0 b0 20 7c be 1b fc 3e be 7b 5c a9 3e 94 8e 2e be
       -0.24621844 -0.18650858 0.3307837 -0.17046577
0002b0 82 b6 ec 3d 30 61 e9 bd 59 66 ec be b0 b0 bd 3c
       0.11558248 -0.1139549 -0.46171835 0.02315554
0002c0 6f 74 c0 3e 7a f5 a3 bd cf 7c b6 3e e3 79 be be
       0.37588832 -0.08005805 0.35642096 -0.37202367
0002d0 89 78 32 bd d4 8e 0f be 1b a5 58 3e cb 6f e4 be
       -0.043571983 -0.14019328 0.21156733 -0.4461654
0002e0 24 76 bd bd dd e8 d3 be 51 1b ea bd 19 36 a9 bd
       -0.09251049 -0.41388598 -0.114309914 -0.082622714
0002f0 c3 fc d0 be 5d 5f e2 be a7 64 f3 3c 40 10 aa bd
       -0.40817842 -0.4421338 0.02971108 -0.08303881
000300 61 d3 cc be e6 70 88 3e 51 b6 d5 3d c9 2d f2 3d
       -0.4000502 0.26648635 0.10435165 0.11825139
000310 9c 39 b7 3e 52 78 c7 be c3 6d 89 be 48 16 15 3e
       0.3578614 -0.38958985 -0.26841554 0.14559281
000320 ee 7b 4e be 3e 10 a3 be 55 74 33 3e 3c 9a ca 3c
       -0.20164463 -0.3184833 0.17524846 0.024731748
000330 33 db 08 bd 14 7a 38 be 7d 58 aa bc f7 a2 9d be
       -0.03341217 -0.18015319 -0.020794148 -0.30788395
000340 e1 61 fa 3e 45 97 00 bf 4c 7f bf 3e ec 3a 05 bd
       0.489028 -0.5023082 0.37401807 -0.032526895
000350 32 e0 08 3d 99 6d a5 be 2d b3 52 be cf e7 df be
       0.033416934 -0.3231018 -0.20576163 -0.43731543
000360 6a b5 64 3e 58 a2 84 be c6 0d c2 be b3 4e a0 3d
       0.22334829 -0.25905108 -0.37901133 0.07827511
000370 91 d8 1e be a8 95 64 bd 67 2a ca be 6a aa 31 3e
       -0.15512301 -0.055806786 -0.39485475 0.17350164
000380 f1 ab db be 80 fc 42 3e 13 fe af be f9 20 41 bd
       -0.42904618 0.19041634 -0.3437353 -0.047150586
000390 01 b1 a6 bd e9 da 47 be 02 7e 60 be 10 dd 00 bf
       -0.081392296 -0.19517101 -0.21923068 -0.50337315
0003a0 e3 bc 7d be b9 8b 8c be 7b b6 91 be 84 f8 65 be
       -0.24779086 -0.2745035 -0.28459534 -0.22458082
0003b0 b2 f8 2c 3e f8 7d 51 be 82 f5 55 3e 3c 92 0d bf
       0.16891745 -0.2045821 0.20894435 -0.5530126
0003c0 ee 47 88 bd 90 1b cd be 55 f2 92 be 69 ae 43 3e
       -0.066543445 -0.4006009 -0.2870051 0.19109501
0003d0 81 90 a6 3d a2 f9 b1 be 31 ae 95 3d db 0f 1c bf
       0.08133031 -0.34760767 0.07308615 -0.60961694
0003e0 be 79 de be da 42 5d 3d ec 4b 03 bc 1d 86 08 3e
       -0.43452257 0.054018833 -0.008013707 0.1333241
0003f0 b2 b3 bb be f3 91 0e 3c 3f 68 a9 be 9e 30 69 3d
       -0.36660534 0.008701789 -0.33087346 0.05693113

net.2.linear.weight f4 [256, 256]
000000 40 bd d9 bc 5e 48 e7 3c 81 01 03 3d 5d b0 89 bd
       -0.0265795 0.02823275 0.031983856 -0.06723092
000010 cc 67 a6 bd fd 4d 79 bd 8a cf f1 bd 0e 7d 5d 3d
       -0.081252664 -0.06086539 -0.11807163 0.05407434
000020 27 81 ce ba 97 7d f6 3d 32 12 19 3e a1 4a 36 3c
       -0.0015755043 0.12035673 0.14948347 0.011126191
000030 87 fe 3a 3d 3b 67 d7 3d 97 c1 b1 3d c1 47 6c bd
       0.045652892 0.105177365 0.086795025 -0.057685617
000040 10 e5 85 bd 7b 0b 94 3d f5 91 ee 3b 63 21 b5 bd
       -0.06537831 0.07228752 0.007280583 -0.08844259
000050 ba e5 06 3e 27 3a df 3c 56 31 9b 3d 89 41 f0 bc
       0.13173571 0.027249409 0.075777695 -0.029328125
000060 9f 53 55 3d 56 4b 27 bd 2d 5f b3 3b b4 79 44 bd
       0.0520817 -0.04084333 0.0054739923 -0.047967628
000070 4f ef ad bc 11 aa e8 3c c9 c8 20 be 5e 44 82 bc
       -0.021232275 0.028401406 -0.15701593 -0.01590174
000080 e9 f6 3e bd b0 ed 1a be 49 27 6b bd 3c 84 50 bd
       -0.04662219 -0.15129733 -0.057410512 -0.05090736
000090 c2 e1 57 bd 37 de a4 bc 5e 60 4e 3d 39 29 5c bd
       -0.052705534 -0.020125492 0.05038487 -0.05375025
0000a0 ec bc 97 bc e3 1b 9e 3b 14 8e 5f bd 3d d1 74 3d
       -0.018522702 0.0048251017 -0.054578856 0.059769858
0000b0 b8 56 fa bd 88 7a 48 bb 99 d2 9c 3c 62 7e 85 3d
       -0.122235715 -0.0030590612 0.01914339 0.06518246
0000c0 dc f2 b6 3c 39 0a ee 3d 81 a3 57 bd a4 a6 0e 3d
       0.022332601 0.116230436 -0.052646164 0.03482689
0000d0 66 6b 3f 3d 19 34 12 bd 9a e3 95 3d 7e f0 b2 3c
       0.046733283 -0.035694215 0.07318802 0.021843191
0000e0 5a 50 a4 bd 04 c9 a7 3d 20 c6 66 3c 7c 13 48 bd
       -0.08023138 0.081926376 0.014085323 -0.048846707
0000f0 fd 62 af bd c8 fc 26 3e 14 09 00 be 0f 1b 59 3c
       -0.085638024 0.16307366 -0.12503463 0.01325108
000100 a4 66 3c 3d 1f 0b e6 3b 6d 8a 6d 3d 8c 51 0c bd
       0.045996323 0.0070203687 0.05799334 -0.034257457
000110 e1 0f fc 3c bb ac c4 3d 66 7f ba 3d dd da 0b 3d
       0.03076929 0.09603258 0.091063306 0.03414427
000120 32 82 55 bd a1 cb 06 3e 65 16 d9 3d 25 f5 d2 39
       -0.052126117 0.13163616 0.105999745 0.00040236968
000130 92 7d 41 bd 27 32 a0 3d 76 ae 36 bc a4 0f f4 3d
       -0.047238894 0.07822066 -0.011149993 0.11917046
000140 34 3c 93 bd b9 8f 0b 3d d2 0f 93 3d 2f 98 11 3d
       -0.07189217 0.03407261 0.07180752 0.035545524
000150 08 c5 81 bd ce b0 a7 3c 85 39 0b bd 1c 51 0e bc
       -0.06336409 0.02047005 -0.0339904 -0.00868633
000160 c4 78 90 3d 15 01 72 bd 09 f3 60 bd 34 be 70 bd
       0.07054284 -0.059083063 -0.054919276 -0.05877514
000170 09 95 71 3e 1b 7a 95 bc 5b 7b 2b 3d ec eb d7 bc
       0.23592009 -0.018246701 0.041865688 -0.026357614
000180 e7 66 86 3c fe 66 7d 3d 61 ee a0 bd db d4 c4 3a
       0.01640649 0.0618658 -0.07857967 0.0015017049
000190 2e e3 8a 3c 2b e4 91 3d f7 52 99 3c 34 07 d6 3d
       0.01695403 0.07123598 0.018716319 0.10450593
0001a0 ad 09 4a 3d b3 8b c2 3c 6e cb 7b bd 17 65 c2 bb
       0.049325634 0.023748254 -0.061473303 -0.005932461
0001b0 20 3b a5 3d a8 1f bf bb 10 c3 ad bc a3 5e 4a bd
       0.08067918 -0.005832631 -0.021211177 -0.04940666
0001c0 28 9a 65 bd a3 58 ea bd 89 cc f8 bc c8 f9 9d bd
       -0.056055218 -0.11442687 -0.030370967 -0.077136576
0001d0 e8 53 46 3d 3b c6 80 3d 56 6d 4c 3d 1a 5c d1 3d
       0.048419863 0.062878095 0.04990896 0.10222645
0001e0 8d 73 82 bd 8d fa 73 3c ce 96 8b bc 7b 77 44 bd
       -0.06369696 0.014891279 -0.017039683 -0.047965508
0001f0 70 d6 0d 3c b9 72 c7 3c 26 51 c1 3d 67 7b 42 3d
       0.008657083 0.024346696 0.09439306 0.047480967
000200 05 cd a1 bd f7 20 84 3d 9b e8 15 3d 92 20 bf bc
       -0.079004325 0.064516 0.036598783 -0.02333096
000210 4c 70 4c bd cf cd a0 3c 5c 23 23 3d 81 d1 66 bd
       -0.049911782 0.019629387 0.039828643 -0.056352142
000220 93 3c be 3b 5d 77 11 3d 1a 59 ba bc 2f 3e 18 3d
       0.005805561 0.035514224 -0.022747565 0.037168678
000230 05 5a f6 3d 9d 15 57 bd 64 5f 55 3d 7f 18 b4 bd
       0.120288886 -0.052510846 0.052092925 -0.08793735
000240 a0 e5 23 bd 39 94 39 bd 28 1e df 3c 5a 08 8e 3d
       -0.04001391 -0.04530737 0.02723606 0.06935187
000250 e0 8f df 3b bc f8 58 3d 48 25 13 3d b7 a2 84 bd
       0.006822571 0.052971587 0.035924226 -0.06476348
000260 90 99 40 3d 80 dc 6d bd 42 e9 c3 bd b9 18 95 3d
       0.04702145 -0.058071613 -0.09565975 0.07280106
000270 6f f7 88 3d 8b af fd 3d 59 59 28 3e 1d b4 49 3d
       0.06687819 0.12386998 0.16440333 0.049244035
000280 8a 65 96 3d 50 f6 f5 bc ce 69 b3 bc 71 c3 1a bd
       0.07343586 -0.030024678 -0.021901038 -0.037784044
000290 bd 24 5b ba dc 37 65 3d f3 1a 74 3c e4 83 b0 3c
       -0.00083596614 0.055961475 0.014899003 0.021547265
0002a0 e6 76 1d bd 5f 1c ce 3a 00 dd 15 bd 92 7c a1 bc
       -0.03844347 0.0015725008 -0.036587715 -0.01971272
0002b0 b1 06 bd bc d8 79 76 bc f7 64 96 3c e8 71 df 3b
       -0.02307448 -0.015043698 0.01835869 0.0068189986
0002c0 3f 25 d3 bd d3 4e 31 bd 7e e1 01 be 92 62 58 3d
       -0.103098385 -0.043288063 -0.12683675 0.05282838
0002d0 f4 21 40 3d 0c 11 16 bd ea 79 e0 bb ee c6 bd 3d
       0.04690738 -0.03663735 -0.006850471 0.092664585
0002e0 d9 75 c2 3b 7f 03 7d 3d 69 a4 63 3d 47 3e 20 bc
       0.0059344587 0.061770912 0.055576716 -0.009780473
0002f0 c7 a5 72 3d cf 88 6e bc 64 b4 b0 bd f5 19 c2 bd
       0.05924013 -0.014558985 -0.08628157 -0.09477607
000300 5f 25 4b bd 4a 51 e1 bd 60 ea 08 3c d0 9a 9d 3c
       -0.049596187 -0.11001833 0.008356661 0.01923886
000310 eb 07 2c 3d bd 55 b0 3d 88 7d 07 3e c8 45 6c bd
       0.04199974 0.08610103 0.1323148 -0.057683736
000320 03 39 86 bd 3e 2d 5a bd fc 04 c5 bc c6 5d df bd
       -0.06553843 -0.053265803 -0.024050228 -0.10906558
000330 9b 96 70 3d e0 6f 7c 3d c5 28 25 bd 74 6c 99 3d
       0.05873738 0.06163013 -0.040322084 0.07491389
000340 2f 6e 00 be 4b 65 4d 3e cd b9 13 be c1 4f ae bc
       -0.12542032 0.20058171 -0.14426346 -0.021278264
000350 5d c6 0d 3d 0d ca 0a 3d 19 4f a3 3d ec f5 98 3d
       0.034613002 0.033884097 0.07974071 0.07468781
000360 a5 b0 f4 bd 23 80 fc 3d 6e d3 a0 3d 2c 1d 66 bd
       -0.11947755 0.12329128 0.07852827 -0.056180164
000370 fc 74 3e bd a0 1c 82 3c 29 5d cb 3b 0a bc 91 bd
       -0.046498284 0.01588279 0.006206174 -0.07115944
000380 61 1a 8d 3d 5d 0c cf 3c 21 12 32 bc be b6 9d bd
       0.06889797 0.02527445 -0.01086858 -0.07700871
000390 70 e9 c7 3c 6a 25 eb 3b c2 f0 69 3b ff ac 9c 3d
       0.024403304 0.007176091 0.0035696481 0.07650184
0003a0 0c e1 cd 3c 6a e7 7f 3c 0b 20 64 3d 23 d0 c3 3b
       0.025131725 0.015619138 0.05569462 0.0059757396
0003b0 b0 86 8c bd 40 93 74 3c fe 8a 94 bd cb 1c e6 3d
       -0.06861627 0.014927685 -0.07253073 0.112359606
0003c0 fd 64 a8 3d d7 6e ad 3d 6a 1c 06 3d 31 7b 9b bc
       0.08222387 0.08468407 0.03274194 -0.01897964
0003d0 a2 1a b4 bd d8 96 c5 3d 4b 6b 4a bd 97 97 2d 3e
       -0.08794142 0.09647912 -0.04941873 0.16952358
0003e0 9b e7 b6 3d 69 d5 91 bd dc b1 c1 bc 3c 5a 5e 3d
       0.08930894 -0.07120783 -0.02364438 0.054285273
0003f0 7a 58 48 3c e9 e3 aa bb b6 8b 23 3d 35 22 32 bd
       0.012228126 -0.0052151573 0.03992816 -0.043489654

net.2.linear.bias f4 [256]
000000 ae ec 07 be 81 56 8d bd cd 92 79 3c a1 15 f0 bd
       -0.1327388 -0.06901265 0.015232754 -0.117228754
000010 a6 13 ee bc 37 b4 d1 bc 79 27 b2 bd 5a 7c af 3d
       -0.029062103 -0.025598628 -0.08698935 0.0856864
000020 1a 6d 91 bd 14 bd a8 bc fb ac 23 bd 8a 2d b9 bd
       -0.071008876 -0.020597972 -0.03995989 -0.09041889
000030 35 c6 b6 bd ff 38 6b bd 95 02 e3 bd 7a 8a a1 bd
       -0.08924524 -0.057427403 -0.11084477 -0.078877404
000040 e1 45 db bc 63 e8 68 bd 33 0d 81 3c 2e 55 03 be
       -0.02676672 -0.056862246 0.015753364 -0.12825462
000050 ea 86 bd bc c0 8d ad bd 4c df f1 bd 0e e9 6c bc
       -0.023135621 -0.08474302 -0.118101686 -0.014459861
000060 7e d2 b5 bd 6c 7f 94 bb 73 d1 87 bd a2 17 ab bc
       -0.08878039 -0.0045317914 -0.06631746 -0.020885292
000070 e2 b1 27 bd c7 e6 a1 bd 7a c8 26 bd 8f 23 87 bb
       -0.040941127 -0.079053454 -0.040718533 -0.004124112
000080 66 d0 42 bd fe 89 b6 bd f9 db df ba 0e e0 ad bd
       -0.047562025 -0.08913039 -0.0017079107 -0.08490001
000090 ae 98 dc bc d5 70 4e bd b7 06 7f 3b 16 73 7b bd
       -0.026928272 -0.050400574 0.0038913914 -0.06138905
0000a0 ec dd e0 bd a4 cd 56 bc 14 13 1e be 8e b9 f8 bd
       -0.10979828 -0.013110552 -0.15436965 -0.12144767
0000b0 e6 19 06 be 89 3a c6 bc 8d 23 45 bd 07 98 81 bd
       -0.13095817 -0.024197834 -0.048129607 -0.06327825
0000c0 c9 ec 89 3c b6 aa c7 bd 29 94 0f be 88 cb 2f bd
       0.01683654 -0.097493574 -0.14021362 -0.042918712
0000d0 7b 27 36 bd d1 98 b8 bd c6 34 40 bb 7f 83 c4 bc
       -0.044471245 -0.090135224 -0.002932833 -0.023988483
0000e0 a8 34 52 bd fc ed 8d bd 05 21 89 bc 5a 5b e0 bd
       -0.05131975 -0.069301575 -0.016739378 -0.10954924
0000f0 96 04 85 b8 6d 03 a3 bc 89 32 a2 bc 11 e2 c1 bc
       -6.3427884e-05 -0.019899094 -0.019799488 -0.023667367
000100 4b 86 78 bc d5 57 2f bd bc a0 b0 3a 0b 4b 96 3c
       -0.015168737 -0.042808373 0.0013475637 0.01834633
000110 55 3c cd bc c9 13 d8 bd 40 06 88 bc 18 1c d1 bd
       -0.025053183 -0.10550649 -0.016604543 -0.102104366
000120 38 33 a2 bd ae d6 5e bd 64 09 d3 bd d8 09 29 3c
       -0.079199255 -0.054403953 -0.103045255 0.010317288
000130 37 65 3f ba 0b 94 a2 bd 38 66 03 bc 5a 78 80 3c
       -0.0007301154 -0.07938393 -0.008019976 0.015682388
000140 61 16 8d bd 65 12 ad 3b 95 5b 46 bd a5 87 3a bd
       -0.06889034 0.005281734 -0.048427183 -0.045539517
000150 3f b7 12 be ff d8 8f ba f0 c3 1c bd 30 2f 80 bd
       -0.14327715 -0.0010974704 -0.038272798 -0.06259
000160 f8 cf 21 bd b4 65 e3 bc db 87 62 bd 09 68 67 bd
       -0.039504975 -0.027758457 -0.055305343 -0.0564957
000170 68 7f 0d bd 63 b0 46 bd d4 47 a4 bc 61 ed 89 bd
       -0.034545332 -0.04850806 -0.020053782 -0.067347296
000180 a5 aa 8e bd 85 ae b4 bd 45 4c 9b bd d6 f4 9f bd
       -0.069661416 -0.088223495 -0.07582907 -0.078103706
000190 21 4a 70 bd eb 44 13 3c a2 cf c5 bc 55 62 19 bd
       -0.058664445 0.008988599 -0.024146859 -0.037447292
0001a0 0e 86 b9 bc bf 51 49 bd ae c1 ee bd f2 49 b8 bd
       -0.02264693 -0.049150225 -0.11658035 -0.08998479
0001b0 28 30 ff ba f5 53 a2 bc 39 07 af 3c 40 e5 97 bd
       -0.0019469308 -0.019815424 0.021365749 -0.07416773
0001c0 d0 97 4e bd 91 ef 97 bd d4 67 81 3c 29 21 84 bd
       -0.05043775 -0.074187405 0.01579658 -0.06451637
0001d0 60 36 40 3d ad 6b 55 bd f2 53 b3 bb 6d 72 46 bd
       0.046926856 -0.05210464 -0.0054726535 -0.04844897
0001e0 f0 d8 f0 bc c8 a5 93 bc fe c3 b9 bb f2 bd 99 bd
       -0.029400319 -0.018023387 -0.005669116 -0.07506932
0001f0 31 58 9d 3c 66 0f e0 bd d6 6e 30 bd 03 4f f8 bc
       0.019207092 -0.10940437 -0.04307445 -0.030311113
000200 df fa 8e bd ea 48 93 bd 60 7c e8 3b 74 e0 14 bd
       -0.069814436 -0.07191642 0.007094905 -0.036346868
000210 79 f1 e4 bd 10 6f 87 bc c4 04 8b bd 36 d8 85 bd
       -0.1117887 -0.01653245 -0.06788018 -0.065353796
000220 9a d1 cb bd 44 da d6 bd cf af d4 bd ab 0b 9a bd
       -0.09952088 -0.104908496 -0.10385095 -0.07521757
000230 64 a6 0d bc 42 79 b5 bd c4 ff d8 bc 02 1f 4a bc
       -0.008645628 -0.08861019 -0.026489146 -0.012336494
000240 8f c1 b9 bc 32 b5 ad bd 7d 82 a8 bd 35 f4 65 3d
       -0.022675304 -0.08481826 -0.08228014 0.056141097
000250 41 d3 00 bc b0 d4 ff bb 9c 07 89 bd 72 62 9b bd
       -0.007862867 -0.0078073367 -0.066909045 -0.07587136
000260 5b 56 bd bd 34 a4 8f bd 49 c2 90 bc d3 79 b5 bb
       -0.092449866 -0.07013741 -0.017670767 -0.005538204
000270 45 04 10 3c 02 69 8f bd 49 75 8b bd a0 a0 65 bd
       0.00879008 -0.070024505 -0.0680948 -0.056061387
000280 39 e5 9a bd d9 11 8a bd 90 be 07 be ae 33 91 3c
       -0.07563252 -0.067416854 -0.13256288 0.017724838
000290 b1 2c 76 bd e1 46 9e bd 64 9c 9d bd ea 57 eb bd
       -0.060101215 -0.07728363 -0.07695845 -0.11491378
0002a0 ba fe 85 bd db 13 ef bc 4b 78 97 bd 5e 96 c5 bd
       -0.06542726 -0.029184273 -0.07395991 -0.09647821
0002b0 85 b1 b4 bc 55 86 9d bc 32 cd a4 bd 8a 42 47 bd
       -0.022057304 -0.019229094 -0.080469504 -0.04864744
0002c0 ee 02 85 bd 86 e8 57 3d 19 6b a0 bd 65 97 16 bd
       -0.064946994 0.052711986 -0.07832927 -0.036765475
0002d0 cc 2c a0 bc 9b 44 b2 3c fe a3 ae bb ac 94 45 bb
       -0.01955261 0.02176123 -0.005329608 -0.003014843
0002e0 30 07 20 bd 95 eb c5 bd b6 9d ac bd 29 8a dc bd
       -0.039069355 -0.09664074 -0.084285185 -0.107685395
0002f0 f1 ca 6a bd d9 d6 97 bd 1d f9 aa bc bd 7b 39 bd
       -0.057322446 -0.07414026 -0.02087074 -0.04528402
000300 29 c3 87 bc 01 b4 ba bd 5a ec 20 3c 72 ff 07 3d
       -0.016572552 -0.09116364 0.009821976 0.033202596
000310 31 c3 60 bd b1 9f 90 bd 0d 5f 9f bd 82 41 a5 bc
       -0.05487365 -0.07061709 -0.077818014 -0.020172838
000320 c9 ec f8 bc 65 5a d8 bd 24 a1 80 bd aa b7 8a bd
       -0.030386345 -0.105641164 -0.06280735 -0.067733124
000330 ce a1 c2 bd 48 2b 3b bd 6f 21 02 be ac 45 74 bd
       -0.09503518 -0.045695573 -0.12708066 -0.059636757
000340 3e 19 a9 bd dc 8e 98 bd bc b9 c0 bd e6 d2 5e 3c
       -0.08256768 -0.07449123 -0.09410426 0.013600087
000350 d2 e8 64 bb 38 35 c2 bd c4 d5 18 bd db 26 48 bd
       -0.003492881 -0.09482807 -0.037313238 -0.04886518
000360 a5 d3 56 bd 1f 0c 11 bc 11 9b 21 bd 42 0b be bd
       -0.052447934 -0.008852988 -0.039454523 -0.09279491
000370 9f 39 d1 bd 7f ae 9a bd e8 44 ac 3b 6f f2 70 3c
       -0.102160685 -0.07552814 0.0052572377 0.014706238
000380 09 1b b6 bc 4f ca 2d 3d 13 cc 6a bc 1f 6f e8 bd
       -0.022229688 0.042429265 -0.014330882 -0.1134932
000390 28 73 c0 bd 32 3c 67 bd 52 00 da 3a f4 ed 54 3b
       -0.09396964 -0.05645389 0.0016632176 0.0032490464
0003a0 2f 25 19 be 66 10 b1 bd 2d 0c b5 bd 60 88 0f bd
       -0.1495559 -0.08645706 -0.08840213 -0.035042167
0003b0 c8 9d ce bd 8b 9f 1f bd 69 04 8f bc f2 b5 61 bd
       -0.10088688 -0.03897051 -0.017458158 -0.055105157
0003c0 57 26 b4 bc 75 f8 8b bd ad 32 6a bd 26 9b 05 be
       -0.021990938 -0.06834499 -0.057177234 -0.13047466
0003d0 85 62 8e bd 66 ab f7 bd f5 34 0b bc 6b 32 44 bd
       -0.06952385 -0.120932385 -0.008496513 -0.047899645
0003e0 b8 b9 dc 3a aa a9 01 be 89 c6 b8 bc e1 bb 26 bd
       0.0016840016 -0.12662378 -0.022555606 -0.04070652
0003f0 d2 06 05 be ef 72 35 bd 5e 09 30 bd 41 ff 93 3c
       -0.12990883 -0.044299062 -0.042977683 0.01806605

net.3.linear.weight f4 [256, 256]
000000 3e b7 eb 3c 80 a6 9f 3d e6 e7 79 bd b6 2d 9b bc
       0.0287739 0.07795429 -0.06101217 -0.018942695
000010 28 78 99 3b 56 2c 34 3d 97 89 35 bc aa 9f cc 3d
       0.004683513 0.043987595 -0.011080167 0.09991391
000020 c3 bd 65 3c 69 34 84 3d 57 5c 36 3c dd 8c 81 3d
       0.0140222935 0.06455309 0.011130414 0.06325696
000030 da 4e 4c 3d 15 ee 62 bd 62 c0 62 bd ac 95 31 3d
       0.049879886 -0.055402834 -0.05535925 0.04335563
000040 f9 0d b6 bd 95 7a 81 bd ed 48 ea 3c 95 d2 c8 bc
       -0.08889384 -0.06322209 0.028599227 -0.024514476
000050 e0 21 0a 3d e4 a2 db bc 86 53 15 3d 35 d3 c6 3d
       0.033723712 -0.02681107 0.036456607 0.09708253
000060 b8 b6 e4 3d 9a 56 24 3b f0 82 21 3d 3e 5d 6c 3d
       0.11167663 0.0025076033 0.039431512 0.05770611
000070 0e 36 8c bd 1c 66 1a 3d 35 45 ae 3d 25 83 16 3d
       -0.068462476 0.037695035 0.08509294 0.036746163
000080 3b 67 0a 3c 91 e8 14 3e b9 ea f8 bc b8 85 56 3c
       0.008447464 0.14541842 -0.030385362 0.0130934045
000090 0a 1d 34 3d 51 f7 f7 3c 46 83 5b bd 0e 3c 53 3d
       0.043973006 0.030269297 -0.05359199 0.051570944
0000a0 59 1b 29 3d 9f 85 70 bc c2 0e 71 bd 24 20 96 3c
       0.041285846 -0.014680295 -0.058851965 0.018325873
0000b0 39 31 d9 bd b4 19 76 3a 2a 23 1c 3d da a5 00 3d
       -0.106050916 0.00093879853 0.038119473 0.03140817
0000c0 7d ad 8e 3c 7d 2a b3 bd 35 5b 10 bd 42 0a 8c 3d
       0.01741671 -0.08748338 -0.03524323 0.06837894
0000d0 64 6c 20 bc 18 20 6d 3d 0f bf c8 3c 41 07 04 3e
       -0.009791467 0.057891935 0.024505166 0.12893392
0000e0 b3 0a c2 3c 40 06 35 bb 1d 10 b6 3d 76 67 bf 3c
       0.023686742 -0.0027622133 0.08889792 0.023364764
0000f0 ce 9b a4 3d 74 d1 83 3c df ac 81 3d d3 aa 0c b9
       0.0803753 0.016091086 0.06331801 -0.00013415077
000100 00 c6 98 bc de 23 8a bd dd 1f 9b bd 40 8e a4 3c
       -0.018649101 -0.067451224 -0.07574437 0.020087361
000110 41 f5 96 3b 1f 66 77 bc 79 f7 5d 3d d5 d7 80 bc
       0.0046068733 -0.015100031 0.054191086 -0.015727917
000120 0a fb d7 3d 22 eb dc 3c ec 24 b5 bd 9f e7 ed 3b
       0.10545929 0.026967589 -0.08844933 0.0072602774
000130 a6 43 a8 3d b5 0d a4 bc c3 b0 d5 3c 00 34 b8 bd
       0.08216028 -0.020026067 0.026085263 -0.08994293
000140 99 aa 4b 3c 3b 7c 01 3e 1a 60 46 bd 1c a8 16 3c
       0.01243081 0.12645046 -0.048431493 0.009195354
000150 69 7b 0c bc c2 1e 23 bd 16 3d c7 3c fa 69 e9 3c
       -0.008574345 -0.039824255 0.02432112 0.028492916
000160 95 ff cb 3d a4 37 be bd 57 03 c6 ba c9 50 39 3c
       0.09960858 -0.09287956 -0.0015107197 0.011310765
000170 40 d6 5f 3d 9b c4 bc 3d 70 1f 84 3c d6 55 ca 3d
       0.054647684 0.09217187 0.016128272 0.09879653
000180 a9 a4 7d bc b5 1c 47 3d b5 c6 49 bd 14 07 7c bd
       -0.015481153 0.04861136 -0.049261767 -0.061530188
000190 12 86 40 3d 2b 36 0a bc 0c 92 44 bd 6c dc 66 3c
       0.04700286 -0.008435766 -0.047990844 0.014090639
0001a0 d8 5f 04 bd 95 f4 ed 3a f0 40 e6 3b ec ab cd bd
       -0.032317966 0.0018154556 0.007026784 -0.10042557
0001b0 c4 9e 2a bd ca 01 00 bd 0c cc 3f bd ed 91 4f bc
       -0.041655317 -0.031251706 -0.046825454 -0.012669069
0001c0 4b 8d 72 bd e1 71 23 3d 08 50 b9 3c 19 ac 36 3c
       -0.05921678 0.039903525 0.02262117 0.01114943
0001d0 14 a1 75 3d 19 e0 86 3d 4b 35 b0 ba 5f c2 4d 3d
       0.05996807 0.06585712 -0.0013443617 0.050234195
0001e0 38 d1 79 3d 5b 00 b8 3d c1 35 60 bb 96 ea 40 bd
       0.060990542 0.08984443 -0.0034211727 -0.04709872
0001f0 42 38 0c 3d 14 63 29 3b 8e 54 08 3c 29 72 c7 3d
       0.03423334 0.0025846409 0.008320941 0.09738571
000200 90 c9 82 bc c9 d9 32 3d 44 fe aa 3c 8c ea bc 3d
       -0.015965253 0.043664727 0.020873196 0.09224424
000210 bb f3 23 3d a7 32 35 bd 36 5e 80 3c 7b fa 81 bc
       0.04002736 -0.04423776 0.015669923 -0.015866509
000220 cf 5e 28 3d f3 d2 ad bc d0 ec 6e 3a d6 44 99 3d
       0.04110604 -0.021218752 0.00091142673 0.074838325
000230 4c 5c 9e 3d 52 77 d1 3d c8 13 2c 3d dd 0b 82 3d
       0.07732448 0.10227837 0.042011052 0.06349919
000240 d7 84 ea bc 11 54 b6 3c 7a 10 9f 3d 68 81 6a bc
       -0.028627796 0.022256883 0.077668145 -0.014313079
000250 b3 ff 28 3c fe 2c a3 3c bd 3e bf 3d 5e 10 8c bc
       0.01031487 0.019918915 0.09338138 -0.017097648
000260 db 1c 67 bd d6 a6 c8 bd 47 d3 2d 3d 76 81 95 3d
       -0.056424003 -0.097974464 0.042437818 0.07300083
000270 57 49 38 bd 6a bb 16 bd 6c c0 45 3d c0 d7 70 bd
       -0.044991817 -0.036799826 0.04827921 -0.058799505
000280 20 2d b3 bc 65 1a 09 bd e2 59 55 bc 5b 67 09 bc
       -0.021872103 -0.033472437 -0.013021918 -0.008386458
000290 4f d0 0c bd d9 83 21 bd ad 49 9f 3d ba 3c 96 3d
       -0.034378346 -0.03943238 0.077777244 0.073358014
0002a0 71 2c 93 3d d5 3e f5 bc 35 63 20 3d a2 84 23 bd
       0.07186211 -0.029937187 0.03915711 -0.03992141
0002b0 11 33 d2 bd 64 f8 e3 3d d6 86 9c bc 50 a8 9d 3c
       -0.102636464 0.11131361 -0.019107264 0.019245297
0002c0 c2 00 9e 3d 5d b4 1b 3d 69 6d b9 3d 02 a8 d3 3c
       0.07714988 0.038013805 0.090540715 0.025836948
0002d0 3f 1b 99 3c 53 f4 66 3d 2d e8 81 3c 48 cd 99 3d
       0.01868975 0.05638535 0.01585778 0.075098574
0002e0 a7 1f d0 3c 0e 52 e0 bc 2c 05 b1 3a d0 a1 84 3c
       0.025405718 -0.027382877 0.001350557 0.01619044
0002f0 93 b2 68 3d c3 2f b3 3b eb 8d a7 bd 16 f1 cf bc
       0.056810927 0.00546834 -0.081813656 -0.025383513
000300 f1 61 b8 3d bc 58 5e bd 9d 6b 8f bc 18 be b3 3c
       0.09003056 -0.054283842 -0.017507369 0.02194123
000310 ea 5f 6c bc 0d 3d 58 3d 8d f6 82 3d 28 03 86 bd
       -0.014427165 0.052792598 0.06394682 -0.06543571
000320 63 1f cf bc 9f 3f 12 bd db 08 f2 bc 7c f1 8f bd
       -0.025283521 -0.035705205 -0.029545238 -0.07028481
000330 c9 1c 9b 3d 33 e1 39 3d fb 33 45 3d 90 4f 81 3d
       0.0757385 0.045380782 0.048145276 0.063140035
000340 e9 9e 51 3d ac fa 5c 3d af fd c8 3a be 16 93 3d
       0.05117694 0.053949997 0.0015334393 0.07182072
000350 a8 a3 0e bd 22 38 b4 3d 46 71 dc 3c c5 50 59 bc
       -0.034824044 0.08799769 0.026909482 -0.013263886
000360 17 ed 54 3b 69 4f 27 bd f1 93 d0 bc d3 19 00 3e
       0.003248995 -0.040847216 -0.025461169 0.12509851
000370 69 2e dd 3b fd 8f 80 bd 46 7c a3 3c 8a 9f 9c 3d
       0.0067499173 -0.062774636 0.01995672 0.07647617
000380 cb e3 16 3c 3a 2d 21 bd ad a1 39 3c a8 91 e9 3d
       0.0092095835 -0.039349772 0.01133005 0.11404735
000390 8b ae 5a 3d a5 b2 7c bd 76 6d 45 3d a6 d8 69 bc
       0.053389113 -0.061693806 0.048200093 -0.014272844
0003a0 16 75 28 3d 24 56 b0 bd b3 c9 80 3c d2 65 26 bc
       0.041127287 -0.0861018 0.015721178 -0.010156112
0003b0 ad f9 e2 3d eb 75 b4 3c 05 4f 42 3d df bb a1 3d
       0.11082778 0.022028884 0.04743864 0.07897162
0003c0 93 e5 fd bc d3 01 94 3d 58 3e f5 bc 17 9e 3e bd
       -0.030993259 0.072269104 -0.029936954 -0.046537485
0003d0 91 45 1d 3d 40 71 50 3c e1 94 63 3d 31 2c f4 bc
       0.03839642 0.012722313 0.055561904 -0.029806228
0003e0 a0 e1 d5 bc 27 a1 a7 bd a7 8a 76 3c 42 8f 20 bd
       -0.026108563 -0.08185034 0.015047706 -0.03919912
0003f0 3b 87 1f 3c fe 70 7e bc 9b bc 80 3c 98 55 16 bd
       0.009736831 -0.015529869 0.015714934 -0.036702722

net.3.linear.bias f4 [256]
000000 f5 d4 b2 bc 66 1f 04 bd 23 41 01 3c 30 47 be bd
       -0.021830061 -0.032256506 0.007889065 -0.09290922
000010 61 c2 60 3c 00 08 0f bd 3d f4 c0 bc 1c 7a 35 bc
       0.013718219 -0.03491974 -0.023553962 -0.011076476
000020 3b 3a 72 bd 07 fc d2 bc 4f af 6a bd c9 7a 77 bc
       -0.059137564 -0.025754942 -0.057296094 -0.015104958
000030 77 bc 90 bc 5b ff 75 bd 6a 06 f1 bc d3 8f 30 bb
       -0.017667992 -0.06005798 -0.029422004 -0.0026941195
000040 38 b9 38 3c 79 91 81 bd 2f 7a 18 be 76 d2 9e bd
       0.011274628 -0.06326575 -0.1489036 -0.07754986
000050 fd 3b 0b bd f6 69 44 3b b4 b2 af bd 8d ff 5b bd
       -0.033992756 0.0029970384 -0.08579007 -0.05371051
000060 ba e0 73 bb fa 06 51 bc cb 2d a7 3c 5f ba 62 bd
       -0.0037212805 -0.012758011 0.020407578 -0.05535352
000070 2d d0 b7 bd 80 73 26 bc de ac f8 bc 64 13 f7 bb
       -0.08975253 -0.010159373 -0.030355867 -0.0075401533
000080 fc 61 47 3b ea 41 09 bd d4 01 b2 3c 8c 98 02 3c
       0.0030423393 -0.033510126 0.021729387 0.00797094
000090 6f 36 7b 3c 72 a7 87 bd a7 c9 8c bd a5 70 94 bd
       0.015332802 -0.066237345 -0.068744 -0.07248048
0000a0 58 7d 05 bd 0e 81 b4 bd dc 68 4f bd d7 0d 88 bd
       -0.03259024 -0.08813678 -0.05063711 -0.06643265
0000b0 0b d6 b2 3c c4 ef 1d 3a 63 ac 65 3b b1 0b 7e bd
       0.02183058 0.00060248026 0.0035045377 -0.06202287
0000c0 88 ca de 39 d9 50 5d 3c fc d5 a8 3c f5 cc 79 bd
       0.00042494037 0.013508045 0.020609848 -0.060986478
0000d0 75 5c ad bd 52 23 34 bd 80 60 e0 bd cc 68 52 bd
       -0.084649004 -0.043978997 -0.10955906 -0.051369473
0000e0 aa 40 fb ba 4a c5 48 bc cf c1 37 bd db be 49 bd
       -0.0019169052 -0.012254069 -0.044862565 -0.04925428
0000f0 9a f3 2f bd 19 67 c7 3c f5 c8 22 bd c9 a8 cc bc
       -0.042956926 0.024341153 -0.03974243 -0.024982827
000100 ec ab 66 3b 15 81 a4 3b 5d bf 9e 3c ab e1 9c 3d
       0.0035197688 0.0050202706 0.019378358 0.0766023
000110 9c 48 82 3d 44 48 84 bc 35 2e 88 bd d5 15 70 bd
       0.063615054 -0.01614774 -0.06649438 -0.05861457
000120 ea fa 9d 3c 71 57 99 bd 3f 32 18 3d d0 b1 b9 bd
       0.019284684 -0.07487381 0.037157293 -0.09067118
000130 5a 29 61 bd 4e ed 9d 3c 04 87 d4 3a 41 e5 6c bd
       -0.054971077 0.019278195 0.0016214554 -0.05783582
000140 c5 23 a6 bd 34 2a cf bd 5a 71 b4 bc c1 dc 2c bd
       -0.08112291 -0.101154715 -0.022026706 -0.042202715
000150 8c 17 ae 3d e6 06 a3 bd 67 01 2e 3c 16 33 20 bd
       0.08500585 -0.079603 0.0106204515 -0.03911122
000160 66 fa 36 bc 7e 2b d7 bd fb b1 be 3c 5f 7f 59 bd
       -0.011168098 -0.10506342 0.023278227 -0.053099986
000170 a1 4f cd bd 16 91 3e 3a 17 f6 10 bd 46 8c d9 bc
       -0.10024954 0.00072695443 -0.03539094 -0.026556145
000180 96 97 08 bc 15 cc b5 bd 12 77 19 3d f6 96 59 bd
       -0.008336922 -0.08876816 0.03746707 -0.053122483
000190 3f 78 84 bd 91 8e b3 3b 75 6d bd 3c 94 1a 61 bb
       -0.064682476 0.0054796417 0.023123482 -0.0034348117
0001a0 43 68 89 bd 1d 5d b7 3c d8 3f bd bc 0b de cd bd
       -0.067093395 0.022383267 -0.023101732 -0.10052117
0001b0 34 fe 97 bc 4f a3 81 bd f4 80 36 bd 5c 79 ca 3b
       -0.01855383 -0.06329977 -0.044556573 0.006179018
0001c0 8f 1c 3a bd 92 38 1e bc 33 08 fc bc 74 dc ae bd
       -0.04543739 -0.009657042 -0.030765628 -0.08538142
0001d0 10 11 93 bd e7 4c a4 3c 5c dd b0 bd 73 bb a7 bd
       -0.07180989 0.020056201 -0.08635971 -0.0819005
0001e0 4d 92 41 bd 72 8a 87 39 69 51 d5 bc 90 d7 a9 bd
       -0.047258664 0.00025852356 -0.026039796 -0.082930684
0001f0 10 91 96 bd 95 2e b0 bd f4 b3 93 bd be 30 ad bd
       -0.07351887 -0.08602635 -0.07212058 -0.084565625
000200 da 89 d9 bd 46 be 39 bd 99 9f 8e bd 70 de 5b bd
       -0.10621996 -0.045347475 -0.069640346 -0.05367893
000210 b1 f9 63 bd f4 31 59 bd 9b c3 16 bb 37 85 6d bd
       -0.055658046 -0.053026155 -0.0023004774 -0.05798837
000220 1b 2d 85 bd 5f 30 ed 3c 45 33 8a 3b e7 01 88 3c
       -0.06502744 0.02895373 0.0042175376 0.01660247
000230 5d 43 1c bc 0e 93 51 bc 1b 98 14 bd b7 86 7e 3d
       -0.009537545 -0.012791408 -0.03627787 0.062140193
000240 42 62 ab bd 39 e4 01 bd a1 aa 74 3d 10 46 94 bd
       -0.083683506 -0.03171179 0.059733037 -0.07239926
000250 69 b9 32 bd 3d 20 9d bc 04 3d 17 bd 57 08 0e bc
       -0.043633852 -0.019180411 -0.036923423 -0.008668981
000260 f0 fd 08 bd ac 71 a4 bd e2 d7 bc bc 13 38 86 3d
       -0.0334453 -0.08029494 -0.02305216 0.06553664
000270 71 a2 07 bd 19 b4 4c bd 6a 50 81 bd bd 1c 07 bd
       -0.0331139 -0.049976442 -0.06314166 -0.03298639
000280 b5 63 e0 bc b8 56 37 3c f5 65 9f bd 8b ac e6 bc
       -0.027391294 0.011190109 -0.07783119 -0.028158447
000290 0f c1 a2 bd b1 60 42 bd e3 a1 75 bd 3e 6b 91 bd
       -0.07946979 -0.047455493 -0.05996884 -0.07100533
0002a0 1b ca 67 3d 0e 96 6b bd d1 7d cb bd 61 80 25 bd
       0.056589227 -0.05751615 -0.09936107 -0.040405635
0002b0 cf f4 e4 ba a1 63 8b bd 70 40 cb bd 1d 1f 7f bd
       -0.0017467978 -0.06806112 -0.099244 -0.06228553
0002c0 15 ee 04 bd 8b 49 aa 3c 3f de 65 bd 23 99 6c 3c
       -0.032453615 0.020787021 -0.056120154 0.0144408075
0002d0 a0 00 78 bd 2b ff 01 3c b4 8b a9 bb c6 1f 06 bd
       -0.06054747 0.007934372 -0.0051741246 -0.032745145
0002e0 9c 7b 44 bd f5 f2 10 3c 83 7a 33 bd 58 9e 63 bd
       -0.047969446 0.008846988 -0.04381801 -0.05557093
0002f0 ce a6 ae bc 73 7d 4a bd b1 6a 86 bd 4e d8 72 bd
       -0.021319773 -0.049436044 -0.065633185 -0.059288315
000300 c3 b6 88 bd 02 b0 86 3c 5a 7c f8 bc 34 a1 8d bc
       -0.06675484 0.016441349 -0.030332733 -0.017288782
000310 f0 3d 3f 3d 21 ce 6c bc 3f f8 bb bd 7f 7e 04 3d
       0.046689928 -0.014453442 -0.091782086 0.0323472
000320 4c 71 9b bd 01 e5 9b 3b c5 e3 ae bd c2 d9 d5 3c
       -0.07589969 0.004757524 -0.08539537 0.026104812
000330 f3 1d b9 3c 3e c6 af bb 58 d9 20 bd 58 2b 22 bc
       0.022597289 -0.0053642085 -0.039269775 -0.009898029
000340 16 87 d6 bc c6 b1 1e bd 6a c5 e5 bc dc e4 7e bd
       -0.02618746 -0.038743757 -0.028048236 -0.062229976
000350 8a cd a8 bd 74 23 8a bd 81 36 29 bd 5f e8 b5 bd
       -0.082423285 -0.067450434 -0.041311745 -0.08882212
000360 49 b3 17 bd c1 52 3b bd 42 be c4 bd 35 0b 64 bd
       -0.037036214 -0.045733217 -0.09606601 -0.05567475
000370 97 ae bb bc 1f 9b e4 bc 1e 8b a2 bd cf 47 72 bd
       -0.0229104 -0.027905999 -0.07936691 -0.059150513
000380 b7 83 ab bd 45 f6 a9 3c 09 61 3e 3c c8 2d d2 bc
       -0.08374732 0.020747313 0.011619815 -0.025656596
000390 b2 52 d7 3c 86 85 80 3c 2e d5 ff 3b 14 4e f2 bb
       0.02628455 0.015688669 0.0078073954 -0.0073945615
0003a0 8e e9 57 3b fd dd a0 3b 59 57 b3 bc b1 1a e4 ba
       0.0032945606 0.0049092756 -0.021892237 -0.0017402974
0003b0 2c b9 86 bd 95 16 89 bc 84 99 31 3d 75 15 d5 bd
       -0.065782875 -0.0167344 0.043359295 -0.10404483
0003c0 47 7f 56 3b c7 19 3f 3c 38 8e e1 bc 79 9c ba bc
       0.0032729672 0.011663861 -0.027533635 -0.02277969
0003d0 ae 14 70 3c 5d 33 0d bd 6b 41 cb bc 2b f9 b3 bd
       0.014653368 -0.034472812 -0.024811467 -0.087877594
0003e0 ac 74 b8 bc 39 b6 18 bd 0f bb 02 bd 79 a2 80 3c
       -0.022516571 -0.037283156 -0.031916674 0.015702473
0003f0 7d 1c ad bd 4d 21 9c bd 60 b1 9f bd 73 5c 71 bd
       -0.08452699 -0.07623539 -0.077975035 -0.058926057

net.4.linear.weight f4 [256, 256]
000000 54 56 c0 3d 48 09 b0 3d 26 cb 83 3d dd 82 b5 bd
       0.09391466 0.0859552 0.06435232 -0.08862851
000010 8b 48 fe bc b1 c5 91 3d 21 88 eb bb 28 9b a3 bc
       -0.03104045 0.07117785 -0.0071878587 -0.019971445
000020 76 da 61 bd ab 60 b0 3d 85 b8 f4 3c 2c 08 28 bb
       -0.05513998 0.08612188 0.029873142 -0.0025639636
000030 ee 90 90 3c e5 59 a2 3d 13 83 aa bd d4 c7 05 3d
       0.017647233 0.07927302 -0.08325782 0.032661274
000040 aa a3 a8 bc dd d2 89 3d 40 08 95 bd c5 5d 90 3c
       -0.020585854 0.06729672 -0.07276964 0.017622838
000050 25 6a 85 bd ce 6c 3a 3b 1d 18 3b 3d 42 bb 6a 3c
       -0.06514386 0.00284462 0.045677293 0.014326872
000060 70 b9 7d 3d 91 4e b3 3c 47 8d 41 bb 10 f4 39 3d
       0.061944425 0.02188805 -0.002953367 0.04539877
000070 b8 c8 80 bd 08 4b e3 bc 76 07 7c bd 42 e9 97 bd
       -0.06288284 -0.027745739 -0.061530553 -0.07417537
000080 d9 da ac bd 0c 9a d7 bd c4 81 03 be 1e 96 5a bd
       -0.084401794 -0.10527429 -0.1284247 -0.05336582
000090 01 e5 31 3d 4a b3 6a bd 74 44 f0 3c 34 d0 87 3d
       0.043431286 -0.05729989 0.029329516 0.066315085
0000a0 2e 0f f5 bc ad 01 11 3c a6 cd 95 3d c9 6a 60 bc
       -0.029914465 0.008850497 0.07314615 -0.013697335
0000b0 0c 35 95 3d 73 4e 81 3b cd ce 83 bd d6 96 b1 3d
       0.072855085 0.0039461195 -0.064359285 0.08671348
0000c0 aa 83 5d 3d 8b e5 db 3d b7 a0 33 3d e3 27 c4 bc
       0.054080643 0.10737141 0.04385444 -0.0239448
0000d0 f2 90 15 3d ba 33 c9 bc 8a 19 0e 3d f7 d6 b4 3c
       0.036515184 -0.024560798 0.034692325 0.02207516
0000e0 ec 91 74 3d 5e 1d be 3c 40 78 fc 3c fe 85 f6 bc
       0.059709474 0.023207363 0.030819058 -0.03009319
0000f0 a0 de 0a 3d 4a ec a6 bd fa f4 14 3c fc 0c af bd
       0.033903718 -0.08150537 0.00909161 -0.085473984
000100 20 99 fa 3b fb c7 69 bc 00 54 1a 3d 62 35 15 3c
       0.0076476485 -0.01426887 0.037677765 0.009106966
000110 48 c7 6a 3c e7 22 15 3d fa ec 3a 3b 65 76 99 3d
       0.014329739 0.03641024 0.0028522597 0.07493285
000120 c5 3b b2 3c 96 d4 d5 bc ee f0 82 3d 28 e5 1b 3d
       0.021757016 -0.026102345 0.0639361 0.038060337
000130 03 71 83 bc e7 ad 38 3b db ab c0 3d 44 7e 07 3d
       -0.0160451 0.0028179826 0.09407779 0.0330794
000140 e6 7e 73 3d b2 71 bb bc 66 05 d0 3c 0d d8 19 3d
       0.05944719 -0.022881363 0.0253932 0.037559558
000150 03 ff de bd c2 03 af bd 38 8e 07 bd 78 0a 43 bd
       -0.108884834 -0.085456386 -0.033094615 -0.047617406
000160 e5 19 1d bd a5 d9 ff 3c 33 7e 75 bd 5e 19 59 bd
       -0.038354773 0.03123171 -0.059934806 -0.053002708
000170 79 17 24 bd f3 b5 5a bd f7 ee bf 3c 56 77 d5 3d
       -0.040061448 -0.053396177 0.023429377 0.10423152
000180 1c ef b8 3c 01 ff a5 bc e3 20 63 3d c5 6a 61 bc
       0.022574954 -0.020263197 0.055451285 -0.013758366
000190 6b 73 9c 3d b8 48 b4 bd ae 30 04 bd cd 68 e4 3c
       0.07639202 -0.088029325 -0.032272987 0.027882004
0001a0 ed f6 07 bd ad 7b 89 bd 11 3d 81 3d 92 e4 88 3d
       -0.03319447 -0.067130424 0.063104756 0.06684221
0001b0 11 d9 bd 3c ae ca b4 bd 92 21 20 3d b4 20 9e 3d
       0.023174794 -0.088277206 0.039094515 0.077210814
0001c0 6f 86 81 3d 4e b7 2e bd a4 0a 6d 3c 4e 2f 2e bd
       0.06324469 -0.04265528 0.014467869 -0.042525582
0001d0 1f 0d 99 3c a9 54 34 3d 52 4d 28 bd 6a 00 0f 3d
       0.018683014 0.04402605 -0.041089363 0.034912504
0001e0 1d f6 c1 bd 9a 23 3a 3d 77 09 32 bb b5 ef 16 3d
       -0.094707705 0.04544411 -0.0027166286 0.036849696
0001f0 9e 18 02 3d e0 03 8b 3d c5 cd 73 3d d9 b4 f2 3b
       0.031761758 0.067878485 0.05952241 0.0074068126
000200 82 c3 05 3c 6a 5a c1 3c c3 c3 07 3c a1 a3 5f 3d
       0.0081642885 0.023602683 0.008286419 0.054599408
000210 13 5e f0 bc d6 fe e6 bc 30 74 87 3d ca e2 17 3d
       -0.029341733 -0.028197687 0.06613958 0.037081517
000220 3b d5 3e 3b 64 36 c9 bc 81 1c 75 bc d3 78 86 bd
       0.0029118794 -0.024562068 -0.014960409 -0.06566014
000230 75 33 c7 3c 6d c7 95 3d bf f4 d7 bb 0c 5f 29 bd
       0.024316529 0.07313428 -0.0065904553 -0.04135041
000240 89 4a d8 3c ea bc 20 bd 05 97 6b bd ac c4 06 3d
       0.026402729 -0.039242662 -0.05751707 0.032902405
000250 7b 13 31 bd 96 5c 92 bd 59 24 c8 3d 52 34 81 3d
       -0.04323147 -0.071465656 0.09772558 0.063088074
000260 27 38 8b 3d 3b ad 7e 3d c7 19 31 bd 8b 5a a9 bb
       0.067978196 0.062176924 -0.043237474 -0.0051682643
000270 8a 7e b1 bc 8b d7 8c 3d b5 8e 52 bd eb 02 f5 bb
       -0.021666784 0.06877049 -0.051405627 -0.0074771545
000280 61 f0 62 bc 1d 6d 3f bd 68 e2 03 3d 2d 68 df 3b
       -0.013851256 -0.046734918 0.03219834 0.0068178386
000290 1d 93 74 3a 5d 11 f3 bc f3 f8 26 bd 9d e0 90 bc
       0.0009329783 -0.029671365 -0.04076476 -0.017685229
0002a0 86 28 f0 bd ce 7e 67 3d 2c a3 7c 3d 2c 8b 58 3d
       -0.11726479 0.056517415 0.06167905 0.0528671
0002b0 d9 89 6c bd ff ea a5 3b 1c 1e 91 3d a3 cb bc 3d
       -0.05774865 0.005063414 0.07085821 0.09218528
0002c0 f0 64 8e bc 2f 7f a8 3d 21 23 d7 3a 96 2f 3a 3d
       -0.017382115 0.08227383 0.0016413667 0.045455538
0002d0 5b d6 e3 3c 54 db 14 bd 55 61 03 3d d7 cf 9c 3b
       0.027812174 -0.03634198 0.032075245 0.0047855186
0002e0 34 78 b7 3b a3 0c 99 3c 48 50 fc 3c 9f 02 17 bd
       0.005599046 0.018682783 0.0308 -0.036867734
0002f0 62 37 c3 bc 7a 56 6b 3b b2 4a b9 bd 3c 78 a6 3d
       -0.02383012 0.0035909698 -0.0904745 0.08128402
000300 34 5b 25 bd cf a5 9b bd bf 1c 8b bd de 74 a0 3d
       -0.04037018 -0.07599985 -0.06792592 0.07834791
000310 30 57 7b 3c d3 39 89 3c f8 71 b4 bd 03 1e 18 3d
       0.015340611 0.016751206 -0.088108 0.037137996
000320 11 f5 d6 3c 01 02 d5 3c 3b 2d 26 bd bb c9 56 bd
       0.026239904 0.026001932 -0.04057048 -0.05243848
000330 29 fa a6 bd 9a f2 21 3d 20 16 a2 bc b1 66 7a bd
       -0.08153183 0.039538004 -0.01978594 -0.06113309
000340 44 09 a7 3d 97 b4 54 bc 3c 5e 9c 3c b7 96 5c 3c
       0.08156064 -0.012982509 0.019087903 0.013463668
000350 2e ee 9a bc 46 ca 65 bd d2 fd c7 bd 79 db 5e 3c
       -0.018912401 -0.056101106 -0.09765209 0.013602131
000360 20 95 56 3d ee 39 9f 3d 9a 75 3b 3d 61 0a 62 bd
       0.05238831 0.07774721 0.04576645 -0.05518568
000370 d9 43 b3 3d d4 e4 5f 3d d6 08 c8 bd 72 4e a5 3d
       0.08753175 0.054661587 -0.0976731 0.08071603
000380 68 75 cd 3d 2b 79 30 bd 53 07 08 3d 13 04 63 3d
       0.10032159 -0.043084305 0.03321011 0.055423807
000390 b4 36 3e 3d a4 ed a5 bd 2d db 00 3d ab 25 8a 3d
       0.046438888 -0.08101967 0.031459022 0.06745466
0003a0 b5 75 ab 3d ca b5 43 bd 9e c1 df 3c ed 5d 0f bb
       0.0837206 -0.04778079 0.027314004 -0.0021876052
0003b0 3f 3e b0 3d 73 41 18 3c 1d d1 82 bd 8e 58 38 bd
       0.086056225 0.009292948 -0.063875414 -0.045006327
0003c0 a7 ae 4e bd 74 7d 48 bd ce ff dd 3c d9 01 84 bd
       -0.05045953 -0.048947766 0.027099516 -0.06445665
0003d0 55 89 79 bc 46 38 5e 3d ea 21 6c bc 3f 0f c5 3d
       -0.015230496 0.054252885 -0.014412383 0.096220486
0003e0 a8 1a 74 bc d9 66 43 3d fb c7 90 3d 3c 7e 62 bd
       -0.0148989335 0.047705505 0.07069393 -0.055296168
0003f0 d9 b5 6c 3c 3c 90 9d 3d eb e5 c2 3d 4d b7 8f bd
       0.014447653 0.07693526 0.095165096 -0.07017384
