geoinr/model/mlp/pretrained/plane_relu_model.pth (torch, 797639 bytes, 9 tensors)

net.0.linear.weight f4 [256, 3]
00000000: 246b 433f 52d0 12bf 84d4 913f 9e1f 31bf
00000010: 1177 43bf 54a0 f73e efc0 7cbf 873c 89bf
00000020: 707c 8b3d e7c0 0c3f edf2 a93e 21d3 13bf
00000030: e699 603f 597b 30bf e372 743f 0db1 1d3e
00000040: 23ae 9e3d 26ec 4fbf b3e9 ce3d 7536 973f
00000050: e8cd 903f 7d36 c0be 698a 90be 93f1 213f
00000060: 1f50 4b3f 4e8b af3f 0679 3fbe cafa 08bf
00000070: 99ef 033f 7925 6fbf bbed 31bf 6e3a 843d
00000080: a25e 9d3f e028 69bf aa4c a5be 5f8e 1ebf
00000090: 33a6 5cbf 4161 6d3f 2bcc c1bd 35d2 cd3e
000000a0: 6294 49bf 8998 523f 4cb7 853f 3c40 f43d
000000b0: 29fd 3a3f 6fd8 633f bc1f 9dbf 216e 82bf
000000c0: 28b1 86bf 2079 26bf 32b4 48bf e6e0 65be
000000d0: 3eee 973f cc28 03bf 120c dcbe cddb 8dbf
000000e0: 8e0f f33e 4cd6 c23e 701b a13f c5e3 933f
000000f0: 7c34 063f 3805 7ebf 5ef9 8a3f 2ee3 43bf
00000100: a2e8 973f 3cd9 9ebe e6f8 a2bf 56f4 0cbd
00000110: bd17 26bf e7fc 873f 4f5f 613f 4372 7d3f
00000120: cb33 1a3f 3d21 76bf 66cf 09bf a025 953f
00000130: 2b98 a03b 643f a83f 02e7 013f a90a 09bf
00000140: a583 b93e 9028 8a3f f5d2 3cbd bbdf f3bd
00000150: 9e13 3fbe 2a27 8d3e af89 58be 5b57 5c3f
00000160: 4c3a 103f 9da9 563e f8a0 1e3f 2d8d 87bf
00000170: 5407 a1bd 2e2e e63d 3438 85bf 8876 89be
00000180: 82ce 6fbe 04fd 94bf 4aa9 59bf 3077 68bf
00000190: 7015 32be 90f0 9fbe 683e 063f 52d8 2fbe
000001a0: d119 97bf 17e8 1e3f 0dd1 59be ca0d d4be
000001b0: 198e 3e3f e88f 3e3e af4f 91be eb76 803f
000001c0: 497b 90bf 32e6 2abf 9cf1 61bf 35b2 7a3f
000001d0: 32b7 fa3e 5e58 6ebf ce1a 933f 001c e83e
000001e0: 93a9 8f3e b90c 4a3f 707e 433e fe64 10bf
000001f0: e8cc 7c3f 5c11 9e3f b17a 33bc 6998 5d3f
00000200: 93e1 b53e ecaf 133f 2bf6 c6be 302e 42bf
00000210: b8b3 9c3f 968d 8d3f 7d48 92bf 5325 9b3f
00000220: 3382 963f aa2e f53e 21ac c63e 092a 8f3f
00000230: 7cc5 0b3f f917 2cbf 0a5a a5bf f7ee a9be
00000240: 1496 3bbf 1e38 e7be ba41 3b3e 7bb5 363c
00000250: ca9e 803f 516d 85bf 504f 6fbf 911b c6be
00000260: 1d5b 90bf dd3d 9f3f 3104 81bf 417c 133f
00000270: 5b11 9e3f 784d 8abe 07e6 98bf 1124 8dbf
00000280: aba6 503f f7ed 97bf 4dcd 96be b510 763c
00000290: 113d 873e 495b a63f 745c 3c3f 95b3 823e
000002a0: 6606 923e 4eda b63e 05de 9bbf 5bd0 a8bd
000002b0: ec99 a03f 3b87 043f f44c dcbe 30f7 0f3f
000002c0: 5668 40bd 69e5 83bd ed2c 0a3e fbe5 083e
000002d0: 5313 99bf 8edb 87bf feaf 6abf 59f5 973f
000002e0: a26e 9abf 0572 3abe 4675 343f d252 363f
000002f0: bed1 063f 968a a33f bf0d 09be b2c9 1d3f
00000300: 9444 503e 06af b93e 93ba 3d3f 80e8 9c3f
00000310: 2633 fabe 419a 11bd 4478 b63e 8946 83bf
00000320: f3fe 203f d4ff 80bf 0ad9 5bbf eab4 0e3f
00000330: f18a 953f 6d55 45bd 09b1 bbbe abdb aabc
00000340: c4bd 8abf 6643 a93f fb6e 9e3f 3d8b 6d3f
00000350: a825 a03f 1b68 9f3f dc60 2ebf ced1 953e
00000360: 21e6 053f 7751 9cbe d3d7 9dbf f31c 44bf
00000370: 377f 9dbf 86e4 87bf 627f 583e 0091 9dbf
00000380: da09 903f 0191 193f 6e22 56bf 0cc3 783f
00000390: cc35 a6bf 859d be3e e1e0 383e b595 113e
000003a0: 2308 113d dd57 97bf e39c 63be e688 0ebf
000003b0: a7ed 233f 149e 073f d068 933e a059 5b3f
000003c0: 6a3b 1ebf 6b6b b0be 2a4a 6dbe 8009 92bf
000003d0: 3c2d 2e3f 22ad 0abf fbc5 d4be 160f a3be
000003e0: a701 6fbf f52a 173f b197 393f 447c 48be
000003f0: 74c6 923c 371b 10bf d10a 233e 9de4 81be
0.7633536 -0.5734912 1.139298 -0.6918887 -0.76353556 0.48364508 -0.98731893 -1.0721596
0.06810844 0.54981846 0.3319315 -0.5774403 0.8773483 -0.68938214 0.95487803 0.15399571
0.07748058 -0.8121971 0.10103168 1.1813494 1.1312838 -0.3754157 -0.282306 0.6325924
0.7941913 1.3714387 -0.1869851 -0.53507674 0.5153747 -0.93416554 -0.6950337 0.06456457
1.2294505 -0.91077995 -0.32285053 -0.6193599 -0.861911 0.9272652 -0.0946277 0.40199438
-0.7874204 0.82264 1.0446563 0.11926314 0.7304254 0.89002126 -1.227531 -1.0189859
-1.0522814 -0.6502857 -0.78399956 -0.22449073 1.1869581 -0.51234126 -0.4297796 -1.1082703
0.47472805 0.3805412 1.2586498 1.1553885 0.52423835 -0.99226713 1.0857351 -0.76518524
1.1867869 -0.31025112 -1.2732208 -0.034412704 -0.6487997 1.0624055 0.88036054 0.99002475
0.6023528 -0.9614447 -0.5383209 1.1652107 0.0049009523 1.3144345 0.50743115 -0.5353189
0.3623325 1.0793629 -0.04609962 -0.119079076 -0.18659827 0.27568942 -0.21146272 0.86070794
0.56338954 0.2096314 0.6196437 -1.0589958 -0.07862726 0.11239277 -1.0407777 -0.26848245
-0.2341862 -1.1639714 -0.8502394 -0.90806866 -0.1739099 -0.31238222 0.52438974 -0.17172363
-1.1804754 0.6207289 -0.21271153 -0.4141677 0.74435574 0.18609583 -0.28381106 1.0036291
-1.1287624 -0.667575 -0.8825929 0.9792817 0.48967892 -0.9310359 1.1492555 0.45333862
0.28059062 0.78925663 0.19091201 -0.564041 0.9875016 1.2349048 -0.010954545 0.86560684
0.35523662 0.5769031 -0.38859686 -0.75851727 1.2242346 1.1058834 -1.1428372 1.2120765
1.1758484 0.47887164 0.388032 1.1184703 0.5459821 -0.6722408 -1.2918103 -0.33190128
-0.73275876 -0.45160002 0.18286791 0.011151667 1.0048459 -1.0423986 -0.93480396 -0.38692906
-1.1277806 1.2440754 -1.0079404 0.5761147 1.2349046 -0.2701223 -1.1945199 -1.1026632
0.81504315 -1.1869496 -0.29453507 0.015018632 0.26413777 1.2996608 0.7357857 0.25527635
0.28520507 0.35713428 -1.217713 -0.08242866 1.2546973 0.51768845 -0.4302746 0.56236553
-0.046974503 -0.06440241 0.134937 0.1336898 -1.1959022 -1.0613878 -0.9167479 1.1871749
-1.2065012 -0.18207557 0.70491445 0.71220124 0.5266379 1.2776668 -0.1338415 0.6163589
0.2033866 0.36266345 0.74112815 1.2258453 -0.48867148 -0.0355475 0.3563863 -1.0255901
0.6288902 -1.0078073 -0.8587805 0.557448 1.1683027 -0.04817717 -0.36658505 -0.020856699
-1.0839162 1.3223693 1.2377619 0.92790586 1.2511492 1.2453645 -0.68116546 0.2926163
0.52304274 -0.30530903 -1.2331489 -0.76606673 -1.2304448 -1.0616615 0.21142343 -1.2309875
1.1253006 0.59986883 -0.83646286 0.9717262 -1.2985168 0.37229553 0.18054534 0.14217265
0.03540815 -1.1823689 -0.22227816 -0.5567764 0.64034504 0.52975583 0.28790903 0.8568363
-0.6180941 -0.34456953 -0.23172823 -1.1409149 0.6803777 -0.5417043 -0.41557297 -0.31847447
-0.93361896 0.5904992 0.7249709 -0.19578654 0.017916895 -0.56291527 0.15922095 -0.2536973

net.0.linear.bias f4 [256]
00000000: da69 25bd 2049 92bd 4007 8abd 5fbb a8bd
00000010: 1038 b23c 2e0a aebd 98e2 10bd 419d 10bd
00000020: 706a 09bc 1b08 21bd bb74 94bd c8a4 74bd
00000030: 377d acbb d7b9 9fbd eb8a b8bd 08c8 12be
00000040: 3cb0 e8bd 4427 ddbd f4a3 3dbe ede2 92bd
00000050: 774d 77bd 44dc efbd 59b7 11be 405e 14bd
00000060: ced5 93bd d2c3 f3bd 5e55 47be baaf f7bd
00000070: 11e8 50bd 17d4 36bd 93ea 2bbd 15f5 9dbd
00000080: 3634 8abd b023 bfbd ad06 55be 1210 e8bd
00000090: 0db7 e2bd 5d5a b0bd 06a8 24be afd2 f5bd
000000a0: 660a 5fbd bcea e1bd db89 1bbe 44a6 f7bc
000000b0: 7725 a4bd ccf8 cbbd db20 8abd 49ee cfbd
000000c0: 48ea a3bd b6c2 04be 3b3c 96bd 70c6 c3bd
000000d0: c6d9 603c 680b 14be 7c36 c5bb b8ad 1ebe
000000e0: f6ae d8bd c0db 24be 6da9 efbd 1e9d e2bd
000000f0: 1590 17be 3088 97bd 3fae bbbd a66a ba3c
00000100: 7514 edbd e10b 58bc 9d4b 2cbc fa44 d2bd
00000110: 04f9 aa3c ba1c 02bd 2df8 91bd 73ef b8bd
00000120: 5c24 eebd 023b b4bd 2f57 bebd b3fb e5bd
00000130: 2f15 13bd 0b80 0dbe 9c0b 95bd a3a0 37bd
00000140: d4af a53c 1999 babd 0067 b5bd e4d6 f0bd
00000150: c867 8fbd 9955 24bd b3af e3bd 906c 703c
00000160: 444e dd3b ae63 6bbd d060 4ebd 08a2 c5bd
00000170: 4ef1 a3bc 5c1c a7bd d8ec 8fbd 7f8f d9bd
00000180: fd28 b0bd f46d fdbd bcfa 81bd 0847 893c
00000190: c6a5 0dbe 8f00 1fbe 8311 b6bd 7ac3 45be
000001a0: 5182 3dbd e9be 6cbd df58 aebd 444b 7cbd
000001b0: 140f 25bd 6b05 f0bd 3588 3ebd d2cc f9bd
000001c0: e6cc 1d3b a9f2 a4bd e9bc dfbd 8cbb ecbd
000001d0: bc26 6bbd 25e1 67bd 417e 2dbd 6dfb 17be
000001e0: fd95 b2bd f4ef 19be 111e e3bd 76d7 ccbd
000001f0: 2a39 d5bd a335 22bd 1fa7 0abe 07f2 70bd
00000200: c224 eebd ea91 93bd 4f86 10be d4f9 12bd
00000210: e2e1 1abc a481 e7bd f989 0bbe b09c 4dbd
00000220: 03f4 bebd 43f2 06be 7935 61bd 2a10 67bd
00000230: 9e5b bbbd 2711 55bd 6a7e d3bd ec5a dabd
00000240: f131 bebc 50f3 85bd 8c60 9abd fe51 38bd
00000250: e7ad 46bd 527b 73bc c558 92bd e707 3bbe
00000260: 9f2b 9abd a7f5 b1bd 9581 c7bd bf16 b3bd
00000270: 0500 d2bd 8730 88bc f7c0 99bd 3177 a8bd
00000280: 179e 82bd 5688 a9bd f49c bcbd f1c0 18be
00000290: 2d52 42bd 08a4 89bd 1b17 50bd 768e 18be
000002a0: abfe 99bd 758c 03be 6d63 d9bd 9520 49bd
000002b0: 997a 4cbc 830f 99bd 83ec f1bd 7ce8 c3bd
000002c0: 6fdc fabd 6cfd 17be ff82 3ebd f67d 95bd
000002d0: 9ade c4bd 48e5 c8bc e593 06be ead6 0bbe
000002e0: d98b a4bd f156 2bbe 2131 87bd 8379 bfbc
000002f0: fd72 0cbe 7c1c 8ebd 5027 893c 42e7 9bbd
00000300: 30d9 50be 20bd efbd cb4b 9cbd 05f4 56bd
00000310: c0a9 b7bd 108a 73bd 1b8d 93bd 6da7 11be
00000320: 2032 ffbd ced5 39be 0533 ad3c 6be8 46bd
00000330: e7ac 33bd 3fd0 5abd c667 27be 3663 8cbd
00000340: 3e24 33bc df45 b33c 02bc 45be ea40 c1bd
00000350: 94b2 e0bd c185 08be 1fc4 ecbd 4789 71bd
00000360: 128e eb3b c6aa 77bd be99 51bd 9246 34bd
00000370: ced5 67bd 4f61 383c aa8b f83c 2044 8bbd
00000380: 3980 493c 72fd b8bc bef6 b8bd a806 babd
00000390: 2819 cbbd 4e45 4cbd e751 11bd 9858 ecbd
000003a0: c850 0ebe fb95 52bb f557 90bd 83aa 12bd
000003b0: a98b d4bc c92b debd cc58 2bbd af1c 8cbd
000003c0: c449 c6bd fb94 a0bd dfca 37bd 7a02 b2bd
000003d0: 5a53 1bbe 6a08 b9bd 1927 5bbd c353 503d
000003e0: 1ad5 a1bd b8f6 01be f2c0 d5bc 705e 9cbd
000003f0: 6668 a2bd ada6 3abe 4bcd fcbd 14b7 a1bc
-0.04038415 -0.07142854 -0.06739664 -0.08238863 0.021755248 -0.08498035 -0.035372347 -0.03530622
-0.008387193 -0.03931437 -0.07248827 -0.05972746 -0.00526395 -0.07799118 -0.090108715 -0.14334118
-0.11361739 -0.10798505 -0.18519574 -0.07172189 -0.06037661 -0.11711934 -0.14230098 -0.036222696
-0.072185144 -0.11902584 -0.19466159 -0.12094064 -0.051002566 -0.04463586 -0.041971754 -0.07712761
-0.0674824 -0.09332979 -0.20803328 -0.1133119 -0.110700704 -0.086109854 -0.16079721 -0.12003075
-0.054453276 -0.110311 -0.15189306 -0.030230649 -0.08014958 -0.099595636 -0.06744548 -0.10152871
-0.0800367 -0.12964901 -0.07335707 -0.09559333 0.013723796 -0.14457476 -0.006018458 -0.15495956
-0.10580246 -0.16099453 -0.11702237 -0.11065124 -0.14801057 -0.073990226 -0.09164094 0.022755932
-0.115761675 -0.013186426 -0.0105160745 -0.102670625 0.020870693 -0.031765677 -0.07127414 -0.09030046
-0.11628029 -0.08800317 -0.09293973 -0.112296484 -0.035908874 -0.13818376 -0.07277605 -0.04483093
0.020225443 -0.09111232 -0.08857536 -0.11759737 -0.070022166 -0.040120695 -0.11117496 0.014674321
0.0067537148 -0.05746811 -0.050385296 -0.09650046 -0.020012524 -0.08159706 -0.07027596 -0.10623073
-0.08601568 -0.123744875 -0.06346652 0.016757503 -0.13832769 -0.15527557 -0.08890059 -0.1931285
-0.046266858 -0.057799254 -0.085130446 -0.061595216 -0.040297583 -0.117197834 -0.046516616 -0.121972695
0.0024078428 -0.08054096 -0.10924704 -0.11559209 -0.057409987 -0.0566112 -0.042356733 -0.14842005
-0.08720014 -0.15032941 -0.11089719 -0.100020334 -0.10411294 -0.039601933 -0.13540314 -0.058824565
-0.11628105 -0.07205565 -0.14113735 -0.035882786 -0.009453269 -0.11304024 -0.13626851 -0.050198257
-0.09323885 -0.13178353 -0.054982636 -0.0564119 -0.09148334 -0.05201831 -0.10326846 -0.10661873
-0.023217173 -0.06540549 -0.07537946 -0.04500007 -0.04850569 -0.014860945 -0.07145838 -0.18264733
-0.07527851 -0.086894326 -0.09741513 -0.08744573 -0.1025391 -0.016624702 -0.07507508 -0.08225859
-0.063778095 -0.08277957 -0.09209624 -0.14917351 -0.04744165 -0.067207396 -0.050803285 -0.14898095
-0.07519277 -0.12846549 -0.10614667 -0.04910334 -0.012480401 -0.07473662 -0.11812689 -0.09565827
-0.122490756 -0.14842767 -0.046511646 -0.07299416 -0.096127704 -0.024523392 -0.13142355 -0.13656202
-0.08034486 -0.16732384 -0.066011675 -0.023373371 -0.1371574 -0.06939027 0.016742378 -0.07612468
-0.2039535 -0.117059946 -0.07631644 -0.05247881 -0.08967924 -0.05945784 -0.07204648 -0.14224024
-0.124607325 -0.18147966 0.021142492 -0.048561495 -0.043866064 -0.053421255 -0.1634818 -0.068548605
-0.010933934 0.021883903 -0.1931 -0.094362095 -0.10971561 -0.13332273 -0.11560845 -0.05896881
0.007188567 -0.060465597 -0.05117201 -0.044012614 -0.056600384 0.011253669 0.030340035 -0.06800103
0.012298637 -0.02258179 -0.09031437 -0.09083301 -0.099169075 -0.04987078 -0.0354785 -0.115403354
-0.13898003 -0.0032132852 -0.070480265 -0.035807144 -0.025945501 -0.10848195 -0.04183273 -0.068414085
-0.096820384 -0.07840916 -0.044871207 -0.086918786 -0.15168515 -0.09034808 -0.053504083 0.05086113
-0.07901974 -0.12691772 -0.02609298 -0.076352 -0.07930069 -0.18227644 -0.12343844 -0.019740619

net.1.linear.weight f4 [256, 256]
00000000: 59a8 5fbd 398a 003d 07e0 e2bd 501f 92bd
00000010: 9982 4d3d 27a0 24be 4564 d13d 5492 6abd
00000020: dc2b 26be b651 50be ba31 b53d 38c2 a03d
00000030: 8c48 bc3d 9423 fcbd 8f3c 2cbe a201 2c3d
00000040: d7ab e2bd 2a4d 21be 623e f03d 3f51 a0bd
00000050: f9d0 9cbd 5f4a 2abe f3b3 a93d 84fe 00be
00000060: f90b 7f3d 524d 1fbe b81e cebd ce17 5cbd
00000070: 4d3e 1dbd db88 5bbe 45d2 fcbd d893 fbbd
00000080: 6657 a1bd 45d3 6c3d bf58 20be d53f 0dbe
00000090: 5524 28be 007f 4bbe 7602 36bd c84c c03d
000000a0: eddc ccbd 8a29 28bc a5a3 d0bd a0dd 463d
000000b0: a782 d0bb 06ce 55be d32d dbbd 1ef9 973d
000000c0: cb5e 403e 1c51 87bc e55d 993d c4fb c8bb
000000d0: 456e 833d c65b bebb 794f c4bb 1ff9 b0bd
000000e0: aead a73d 18bd 8bbd e768 b13d 0ef0 6c3e
000000f0: 1fae 5f3d 74e2 20be e0b6 d8bb 563c d3bd
00000100: b054 e5bc 5772 23be 5a84 b7bc d90e 973d
00000110: 72d9 153d 5e2d e9bc 9bb0 eebd fd5f 7dbe
00000120: 0049 733d 1ed9 edbd 3b0d 2fbe c261 14be
00000130: c5eb 0e3e 48d8 473d 434f d53d 6ad6 d93d
00000140: 187f 843c 590f 063d 7f65 66bd bfb3 4ebe
00000150: 174a c4bb 2e25 59be 8206 b6bd 3871 dfbd
00000160: b5c0 59bd 55be 54bd 5ad9 5bbc d3d2 7abc
00000170: d8ad 6ebe 6ec8 99bd 580c bd3d 943f 253d
00000180: e185 2ebe 07d4 003e f371 43be 1521 eebd
00000190: cdf9 063e 805f 133e 53c3 05be 2ffc 453c
000001a0: 4862 f5bd 8388 883d 1bb7 33be 303a c4bd
000001b0: 9154 173e 3f27 923d a7e6 d63d 4b18 45be
000001c0: c636 b73c cfef d7bd 203c 1bbd 2b96 8a3d
000001d0: 5f97 94bd 854b 25be 9d6b 443d 87fd 24be
000001e0: 36b9 1ebd 5e58 983d c204 40be eb67 25bd
000001f0: de51 08be 7ab1 19bd 8163 fb3d 0483 28be
00000200: fb81 bb3d 04e6 21be 1ec5 14bc 9524 743c
00000210: 4b5e f13c 3824 2cbd 5e50 d73d d4b2 2bbd
00000220: 7f6a b63c f8c0 1dbd bdec 643c 0bd5 b23d
00000230: 2b7a a6bd a0e1 b6bd 342f 453d 985e 283e
00000240: 0b95 1e3d dfb4 943c b915 05be 92a3 d63c
00000250: 2403 4fbe 3630 babd 278a 3dbd 083e c4bd
00000260: ad04 4c3e 08e9 4dbd 6ad8 45be 8000 31be
00000270: 5890 3f3e b9ea b03d 9913 57be 5d96 8b3c
00000280: 1f6a 333e 3f50 18be 7882 a7bc eb9f e6bd
00000290: 6aec d5bd 9214 25bc f9a8 a33c 0066 86bd
000002a0: 18f0 5e3d 2ef8 b7bd 6909 653c 7067 ef3c
000002b0: 2dc5 b23d 56b3 03be 2002 5b3c 8249 03be
000002c0: 1267 0dbd c8be adbd 40fa fbbd 4645 02be
000002d0: 60f8 61bd 5da1 bbbd ecc2 993d 60d6 1cbc
000002e0: 0416 79bd aade 01bb f422 83bd 6e52 a6bd
000002f0: 6f6e eeb9 5641 42be 9915 8a3d 2675 84bc
00000300: f98d b0bd db46 46bd 43f2 613e cd5e 44be
00000310: b7e9 50be c99a 30be 2422 68bc b759 b73d
00000320: 15db ac3c 5bc3 eebd 3a3c 82bc 3cd6 a8bd
00000330: 9562 b23d 0daf c13d a304 ffbc c4aa c13d
00000340: 452c 59bd 9d55 43be 0586 1f3d 0799 6cbd
00000350: 21b5 2ebd 03bc 75bd 5166 013c 81db c6bc
00000360: cfa1 303d 5c25 e9bd bdb2 963d ce7e f2bc
00000370: 10a9 46be 7e52 65bd 37d4 a7bc 005e c0bd
00000380: f4a6 0fbe 4846 09be a370 4c3e da36 aebc
00000390: 7d27 303d d7f5 57be 9873 78be 4081 68be
000003a0: d210 abbd 298f 343d c642 b53d 62b4 0a3e
000003b0: bc52 153d a989 813c ed75 56bd 44f8 003c
000003c0: 8629 cf3d 4ab5 1b3d f0ba 9abd 3ae2 babd
000003d0: 0eff 11be 5cc5 8ebd 49f3 cbbd 0ff5 4f3d
000003e0: 9920 47bd a834 4bbe d471 fc3b 7753 a7bd
000003f0: 4949 d6bc 732a 1c3e 2fa5 afbc 1e76 4cbd
-0.05460391 0.03138182 -0.11077886 -0.07134879 0.050173376 -0.16076718 0.10224203 -0.057268456
-0.16227669 -0.2034367 0.08847375 0.07849544 0.09193525 -0.123114735 -0.16819976 0.041993745
-0.11067932 -0.15752092 0.117306486 -0.078279965 -0.07657046 -0.16629933 0.08286276 -0.1259709
0.062267277 -0.15556839 -0.10064453 -0.05373364 -0.038389493 -0.21438925 -0.12344793 -0.12284058
-0.07877998 0.05781867 -0.15658854 -0.13793881 -0.1642011 -0.19872665 -0.04443594 0.09389645
-0.10003076 -0.01026381 -0.10187463 0.0485512 -0.006363231 -0.20879373 -0.107021 0.07420562
0.1878616 -0.016518168 0.07488612 -0.0061335284 0.064175166 -0.00580928 -0.005990919 -0.08641266
0.08187424 -0.06823176 0.08662587 0.23138449 0.054609414 -0.15711385 -0.0066135973 -0.103142425
-0.027994484 -0.15961586 -0.022401977 0.07375879 0.036584325 -0.028464016 -0.116547786 -0.24743648
0.05939579 -0.116136774 -0.17094891 -0.14490417 0.13957126 0.048790246 0.104155086 0.10636599
0.016173884 0.03272948 -0.056249138 -0.20185755 -0.0059902775 -0.21205589 -0.0888796 -0.10910267
-0.053162295 -0.051939327 -0.01341852 -0.0153090535 -0.23308504 -0.07508932 0.0923087 0.040343836
-0.17043258 0.12580882 -0.19086437 -0.11627404 0.13181229 0.14391899 -0.13062792 0.012084051
-0.11981636 0.066666625 -0.17550318 -0.09581411 0.14778353 0.07136392 0.10493212 -0.19247548
0.022364985 -0.10543787 -0.037899137 0.067669235 -0.07255434 -0.1614209 0.04795419 -0.16112338
-0.03875085 0.0743873 -0.18751815 -0.040382307 -0.1331248 -0.03752277 0.12274838 -0.16456228
0.09155651 -0.158104 -0.0090801995 0.0149013 0.029463908 -0.04202673 0.10513376 -0.04191859
0.022267578 -0.038514107 0.013972458 0.08732041 -0.081287704 -0.08929753 0.04814072 0.16442335
0.038716357 0.018152652 -0.12996568 0.026201043 -0.20216042 -0.09091227 -0.04627433 -0.09582144
0.19923659 -0.050271064 -0.19320837 -0.17285347 0.18707407 0.0863852 -0.2100357 0.017039472
0.1752095 -0.14874361 -0.020447955 -0.11260971 -0.10445483 -0.010075705 0.019978033 -0.06562424
0.05442819 -0.089828834 0.013979294 0.029224128 0.087290145 -0.1286138 0.013367206 -0.1282101
-0.034522124 -0.08483654 -0.12303591 -0.12721738 -0.05516851 -0.09161637 0.075078815 -0.009572595
-0.06081201 -0.0019816556 -0.06403151 -0.08121191 -0.00045477177 -0.18970236 0.06742401 -0.016169142
-0.08620829 -0.048407417 0.22065072 -0.19176789 -0.20401655 -0.17246546 -0.014168296 0.089526586
0.02110056 -0.11658355 -0.015897859 -0.08243987 0.08710209 0.094572164 -0.03113014 0.09456399
-0.053020734 -0.19075628 0.03894617 -0.057763126 -0.042653207 -0.059993755 0.007897929 -0.02427459
0.043123063 -0.11384079 0.0735831 -0.02960148 -0.1940043 -0.055986874 -0.020486934 -0.09392929
-0.14028531 -0.13405716 0.19964842 -0.02126639 0.04300641 -0.21089874 -0.24262846 -0.22705555
-0.083528176 0.04408184 0.08850627 0.13545373 0.036455855 0.015812712 -0.052358557 0.007871691
0.10115342 0.038014688 -0.07555187 -0.091251805 -0.14257452 -0.06971237 -0.09958512 0.050770815
-0.048615072 -0.19844306 0.007703999 -0.081702165 -0.026157992 0.15250568 -0.02144107 -0.049917333

net.1.linear.bias f4 [256]
00000000: f8c4 afbd a857 aabd c4e2 76bd 2809 88bd
00000010: acb8 4dbd 3b25 53bd a51b c7bd afb9 5ebd
00000020: 43c7 6ebd 0cc2 62bd 364d 9abd 25a7 a6bd
00000030: 2936 aabd 69cb abbd 3472 49bd 0b61 153c
00000040: 1754 90bd 4849 55bd 7cf8 24bd 0414 f3bc
00000050: 40bb 81bd 5f8d d1bc 1416 2abd 5d12 b3bd
00000060: aad1 a1bd 53f3 a1bd 4795 e5bd dc08 5dbd
00000070: caf4 74bd 409e 8dbd 353b a33d 3ad7 763a
00000080: 51c8 1fbd bae2 74bd 186d 9ebd 94b8 363c
00000090: d5e2 74bd 7415 a6bd ad92 7bbd d3e2 74bd
000000a0: 04bb 42bc e6af 46bd 0346 b0bd bdba 86bd
000000b0: e4a5 d3bc c2e2 6abd 8b8c f0bd 0d51 f2bc
000000c0: a5b4 80bd 39bd b0bd 3291 c6bc edbe 42be
000000d0: 4875 a4bd 7481 7bbd 7f42 abbd b80c e2bd
000000e0: 755e 60bd a9ec 56bd ec1a e2bc 5e2b a7bc
000000f0: 0f6a 82bd ff18 82bd cfe2 74bd 2ca5 96bd
00000100: 108f bbbb b0e2 74bd 5987 fcbc cddf a0bd
00000110: d421 a3bd d726 2cbd aa03 4fbd 6485 25bd
00000120: 0000 0000 9c67 00bd 112c f33b 214e 93bd
00000130: 6499 8abd 97e9 81bd 66a9 88bd 8426 cdbd
00000140: cba0 d4bd 5936 e1bd d276 9fbd eb64 87bd
00000150: d62e 06be 636d 55bd 6a83 b0bd 91b6 37bd
00000160: ce4a 56bd 3f68 0d3d e938 00bd f9ba f4bc
00000170: bb44 d7bd 0c5d 003d a745 debd 37e6 9fbd
00000180: 11cc adbd 951f 89bd c8b9 4cbd 1ee0 74bd
00000190: c784 5cbd 45ea 75bd d61d b7bd 0000 0000
000001a0: 36e3 15bd 45e4 cdbd c1da 49bc bb9a a9bb
000001b0: 5e6d c239 34d5 2cbd 27b4 6cbd 5472 4fbd
000001c0: 05bc 9abd d7a4 7abd d1f2 303d a540 b4bd
000001d0: 84e2 74bd af51 88bd fef7 75bd 6435 a2bd
000001e0: fdef 86bd 7637 1abd ad1b aabd af85 5ebd
000001f0: e0c0 153d 8be0 74bd c8d9 74bd f17f 8cbd
00000200: 3bf5 c5bd e73f 8ebd 8a9a afbc d3f3 8bbc
00000210: 30a2 68bd c9e2 74bd dd0d b1bd 115f a7bd
00000220: dd79 e3bc 8862 a2bd 18ae 283d 9d13 f0bc
00000230: 5973 68bd dbe0 74bd c8e2 74bd f142 76bd
00000240: 05a6 11bd ec6a 9dbd 2450 8ebd 3a18 66bd
00000250: d1da 90bd f7a4 95bd 05df 8abd 2104 28bd
00000260: a1f7 dabc 5f10 a8bd 9a11 af3c 2da6 b5bd
00000270: 4fce a1bd 9a10 01be 6424 8ebd 6cdb 69bd
00000280: 8df2 8cbd 0000 0000 6061 80bd d4fe cdbc
00000290: 3667 75bd 223d 60bd 3410 4dbd 8a78 953c
000002a0: 24d7 aebc b7b7 bcbc 0b27 b6bd 9cc0 28bd
000002b0: a537 51bd ea28 1fbc dd0b 0bbd 1d67 67bd
000002c0: 2c65 a9bd 44e7 a3bd e53c 81bd 57b3 91bd
000002d0: b0bf 40bd 9256 52bd 1ea7 2dbd a515 96bd
000002e0: e8a8 2ebd d6e2 74bd 6aef 74bd 29e2 aabd
000002f0: 9a1d cbbd 0000 0000 64dd aebd 975f a1bd
00000300: 4c60 a0bd 958a 8fbc 1dbe 3ebd 92be 09bd
00000310: b0ae fcbd 8b69 a2bd 9f2a d83c a096 16bd
00000320: a9b7 a6bd 46bd a6bd d925 36bd d54c bbbd
00000330: 62b0 7ebd 8e96 b13c 51e2 74bd d960 dcbc
00000340: dce2 74bd 8938 c0bd 32fa 91bd c9e9 12bd
00000350: 8bac 3abd cd52 9dbd 3fc0 59bd 3960 1abd
00000360: 3842 c7bd 4744 86bd 22ef 8fbd 3dad bcbd
00000370: d831 ffbc cefa 5fbd 016d aabd cefa 1bbd
00000380: e763 25bb 3eae 97bd cde2 74bd 1d6f a2bd
00000390: 7a4a b9bd efbb abbd 789e 65bd f105 93bd
000003a0: 4739 70bd e5dc ebbc f3a3 b0bd 26e6 b0bc
000003b0: dc6a 6bbd fc65 e3bc 0fdd 8a3d 1b49 36bd
000003c0: bebc 8cbd b75e 20bd 139e 01bd 136f 58bd
000003d0: c4e0 2fbd 70bc 37bb 2cd4 9dbd 3f73 18bc
000003e0: b33a 9b3c ef6e 8abd 0ff1 c9bc 0eeb 7fbd
000003f0: 4aa2 d2bd 4682 ad3c 01e7 53bd c2e1 74bd
-0.08582491 -0.083175 -0.060274854 -0.066423714 -0.050224945 -0.051549178 -0.0972207 -0.0543763
-0.0582955 -0.05536084 -0.07534258 -0.08137349 -0.083111115 -0.08388407 -0.04918118 0.009117375
-0.07047289 -0.05207184 -0.040276036 -0.02967263 -0.06334543 -0.025580106 -0.04152496 -0.08743737
-0.07901318 -0.079077385 -0.11210113 -0.053963527 -0.05980376 -0.069149494 0.07970277 0.00094162265
-0.039009396 -0.059786536 -0.07735652 0.011152405 -0.059786636 -0.081095606 -0.061419178 -0.05978663
-0.011885408 -0.048507594 -0.08607104 -0.06578586 -0.025835939 -0.05734516 -0.117455564 -0.029579664
-0.06284455 -0.08629841 -0.024239156 -0.19018145 -0.08030182 -0.061402753 -0.083622925 -0.11037582
-0.05477758 -0.05247179 -0.027600728 -0.020406421 -0.06367885 -0.06352424 -0.059786614 -0.07355723
-0.0057238415 -0.0597865 -0.030826258 -0.078551866 -0.079654366 -0.042029228 -0.050540604 -0.040410414
0.0 -0.03134881 0.0074210246 -0.07192636 -0.06767538 -0.06343382 -0.06672935 -0.10017112
-0.10382231 -0.10996694 -0.07786335 -0.066110454 -0.13103804 -0.052106272 -0.08618815 -0.044851843
-0.052317433 0.034523245 -0.031304274 -0.029874312 -0.10511156 0.031338736 -0.10853129 -0.07807582
-0.08486188 -0.06695477 -0.049981862 -0.059784047 -0.053837564 -0.06003787 -0.08941238 0.0
-0.03659364 -0.100533046 -0.012320221 -0.005175916 0.00037084048 -0.042195514 -0.057788994 -0.05064614
-0.07555393 -0.06119236 0.043200318 -0.088013925 -0.059786335 -0.06656205 -0.060050957 -0.0792034
-0.06588743 -0.037650548 -0.0830606 -0.05432671 0.036560893 -0.059784453 -0.059778005 -0.068603404
-0.096659146 -0.06945782 -0.021435995 -0.017084038 -0.0567953 -0.05978659 -0.08645222 -0.08172429
-0.02776807 -0.079289496 0.041181654 -0.029306227 -0.05675063 -0.05978475 -0.059786588 -0.060122434
-0.03555872 -0.07686409 -0.06948879 -0.056175448 -0.07072986 -0.07306855 -0.06780819 -0.041019563
-0.026729407 -0.082062475 0.021370698 -0.08869586 -0.07900678 -0.12603989 -0.06940535 -0.057094023
-0.068822004 0.0 -0.06268573 -0.025145926 -0.059912883 -0.0547458 -0.05006428 0.018245954
-0.021342821 -0.02303682 -0.088941656 -0.04119931 -0.051078457 -0.0097143445 -0.03394686 -0.05649482
-0.0827125 -0.08003095 -0.06310443 -0.071142845 -0.047057807 -0.05135209 -0.042395703 -0.07328347
-0.04264155 -0.05978664 -0.059798636 -0.08343918 -0.099177554 0.0 -0.08538321 -0.078795604
-0.07830867 -0.017522136 -0.046568025 -0.033629008 -0.123380065 -0.07930287 0.02638751 -0.03676474
-0.08140499 -0.0814157 -0.044469688 -0.09145514 -0.06217993 0.021678235 -0.059786145 -0.02690165
-0.059786662 -0.09385783 -0.07127799 -0.035867486 -0.045574706 -0.076818086 -0.053161856 -0.03768942
-0.09729427 -0.065559916 -0.07028033 -0.0921273 -0.031151697 -0.054682545 -0.08321572 -0.038080983
-0.0025236548 -0.07406281 -0.059786607 -0.079313494 -0.090474084 -0.08385455 -0.05605933 -0.071788676
-0.058648374 -0.028791854 -0.08625021 -0.021594118 -0.057474956 -0.02775859 0.06780445 -0.044503313
-0.06871937 -0.039152827 -0.031644892 -0.052840304 -0.042938963 -0.0028035901 -0.07706484 -0.009304821
0.018948888 -0.0675944 -0.024651079 -0.062480025 -0.102848604 0.021180283 -0.051733974 -0.059785612

net.2.linear.weight f4 [256, 256]
00000000: 67a2 2bbe 1947 353d 965f b53d a262 d0bd
00000010: f172 27be 964d b4bd 8b15 56bc 748a 1c3d
00000020: ae02 01be c3bc a5bd f51a ce3a c2e8 44bd
00000030: 61aa ccbc b7ff 22be eb4f 2cbe 079f 863d
00000040: 70c3 9bbd f940 c6bd be35 00be 24a0 12be
00000050: 01a4 38be 0460 1fbe 24ea 17be 8a5c 923d
00000060: 4546 bcbd 9ce5 9ebd f73f 36bd 4ca3 b33b
00000070: e07f 42bc 38ad a4bc f9f9 51bd 07b9 0cbd
00000080: 1a35 ba3d f2a7 46bd 5057 c63c d5ef 03be
00000090: 8d35 abbc 8694 b63d 3d52 46be db78 f13d
000000a0: 03a8 953d 16b8 fbbd 5284 acbd c7c6 44be
000000b0: 49f3 91bd 362e 97bc 6d43 b4bc 3bda 6d3d
000000c0: 4cfe 42be 0ce1 29be d037 7cbc d152 0dbe
000000d0: 7b43 24be 8e9a a23d cc0d c63c 56a7 97bd
000000e0: 702c e2bd 2b2e 86bd 76eb c1bb 1eda 7cbd
000000f0: d1f1 0d3d 94d0 ae3d 5ef6 37be 2729 ffbd
00000100: 310a bbbd f944 a33d 2fae 42be d6a3 103d
00000110: 6da1 0bbe fe93 b7bc 080b 13be 923f 0bbe
00000120: 10e0 68bd 229c 3a3e 06cb 483d 320b e4bd
00000130: 02e7 7e3d b54e aa3d d884 c0bc 36e8 bf3c
00000140: 081a 1dbe 2209 383d 7f2b 9b3b 05cd 03bd
00000150: 6211 c3bb 849f dabd b980 0b3d d7e9 35be
00000160: 9e2d 85bc e083 6dbd 5554 313e 7c24 48bd
00000170: c346 98bc e3f3 20be 6e11 b7bc 803b 35be
00000180: da90 493c 5dce 10bd 6030 04be d2c0 053d
00000190: 1fb0 ffbd 3784 a9bd 98f5 44bd 59b8 103e
000001a0: 51df f3bd 5101 d7bd 73cc 1bbe 0395 113d
000001b0: 92e6 01be df01 05be b934 05be 8ec0 06be
000001c0: 2ea7 02be a087 a03c bb06 dabd fe45 073e
000001d0: 97bd 533c 842b 273b 39ee 25be 1331 aebd
000001e0: 6c14 f1bd b2b3 0e3d 6f35 1dbd dbaf 22bd
000001f0: 2817 b1bd fbc3 94bd b748 41be a679 42be
00000200: 9635 963d de2b 59be e734 653d ea4c 31be
00000210: 88a9 c63c cea3 b6bd d652 593d 420f 5abd
00000220: 430e 82bd bac9 8a3d a7f2 50be f973 ea3c
00000230: b203 89bd 4053 00be 7a0b b6bd edeb b23d
00000240: c597 9c3c eba3 36be da8d 44be 772f 41bd
00000250: 5f67 09be d1e6 923c 144c 41be 6b80 2ebe
00000260: 5c14 0bbe e1ad 813d 13dc 6cbd b39f b93d
00000270: 5ba1 2dbe f3b4 45be dbcc b23b f25b e7bd
00000280: b2b7 223d 3ba8 c3bd 01f4 cc3c 7c93 aebd
00000290: b6c7 4fbd 7d4f 35bd 5265 a93d daa2 523d
000002a0: 27c1 83bd f2a5 863d 168e 41be 9832 22bd
000002b0: 89b8 f93c 1dd0 64bd 379a 23be 48b0 4e3d
000002c0: 2f99 4bbe 76d4 f2bd d88c a6bd a4cf 70bd
000002d0: 6877 4ebe be54 d2bc 1741 e7bd ccf2 4ebe
000002e0: 4544 d3bd da1e 8ebc e023 efbd 71f2 18bd
000002f0: 2847 0fbe 1f62 0dbe 4237 ab3d 90d9 a3bb
00000300: edb6 593d 49c0 233c 3a16 c3bc 85a0 4dbd
00000310: b3f6 10be 193b 7ebd 0229 983c ef8d 503d
00000320: 8e08 b4bd d546 95bd 94a7 9b3d f987 01bd
00000330: a6d9 59be e1b1 bf3d 8f75 30bc df8a 113d
00000340: 502e 1abe fcc2 9cbd 68e0 d2bc 646e 4f3d
00000350: 485e c2bb 0a7f 8dbd 05a3 923b 7333 1abe
00000360: 9091 09be 6884 adbd 7021 a63c 85e4 07be
00000370: d75e d93c 4b1f dbbd 2d50 84bd 2157 103d
00000380: bf3d a3bd 320f 93bd 1e14 683d 0ec8 4abd
00000390: 4741 8ebd 91a1 13be 4292 15be f677 823c
000003a0: adb6 fabd c51b 1cbe a89b 8bbd 4bc9 dc3b
000003b0: c912 a33d 0167 dbbd b36b f8bb 288a 57bd
000003c0: 1986 9a39 9afa b53d 46b9 12bd 7665 56be
000003d0: c77f 63bd edf5 20be 723b 5f3c cef1 9b3d
000003e0: 7f3d 1fbe 41f4 e03c 33c2 dabd 2e74 00bd
000003f0: 4359 8d3c d481 a2bc 528b 67bd 7814 62bd
-0.1676117 0.044257257 0.08856122 -0.10175063 -0.1635244 -0.08803861 -0.01306666 0.038217977
-0.12598678 -0.08092644 0.0015724587 -0.048073538 -0.024983587 -0.1591786 -0.16827361 0.06573301
-0.07605636 -0.09680361 -0.12520501 -0.14318901 -0.18031313 -0.15563971 -0.14835411 0.07146557
-0.0919309 -0.07758638 -0.044494595 0.005482113 -0.011871308 -0.020102128 -0.051263783 -0.034356143
0.090921596 -0.04850001 0.024211556 -0.12884457 -0.020899558 0.08915047 -0.19367309 0.117906295
0.07307436 -0.12290971 -0.084236756 -0.19216453 -0.07126481 -0.018454652 -0.022004807 0.05806945
-0.19042319 -0.16589755 -0.015394166 -0.13801123 -0.16041367 0.07939635 0.0241765 -0.07404964
-0.11043632 -0.065517746 -0.0059179617 -0.06173145 0.034654442 0.08535877 -0.17965075 -0.12459021
-0.09132803 0.0797214 -0.19011758 0.035312496 -0.13635798 -0.022409435 -0.14359677 -0.13598469
-0.056854308 0.18223622 0.049021743 -0.11134948 0.062232025 0.083157934 -0.023500845 0.023426156
-0.15341961 0.044930585 0.0047354097 -0.032177944 -0.005953 -0.106749564 0.034058306 -0.17764984
-0.016257104 -0.057987094 0.17317326 -0.04886292 -0.01858843 -0.15718035 -0.022347178 -0.17698479
0.012302602 -0.035353053 -0.12909079 0.03265459 -0.12484764 -0.08277171 -0.04808578 0.14132823
-0.119078286 -0.10498298 -0.1521471 0.0355425 -0.12685612 -0.12988995 -0.13008393 -0.13159391
-0.12759086 0.019595921 -0.10645815 0.13210294 0.01292362 0.0025508115 -0.16204156 -0.08505454
-0.11771473 0.03483934 -0.038381036 -0.03971849 -0.08646995 -0.07263943 -0.18875395 -0.18991718
0.073344395 -0.2120814 0.055958655 -0.17314497 0.02425076 -0.08917962 0.053057514 -0.053237207
-0.063503765 0.067767575 -0.20405065 0.028619753 -0.06690158 -0.12531757 -0.08888908 0.087364055
0.019115338 -0.17835967 -0.19194737 -0.047164407 -0.13418339 0.017932327 -0.18876678 -0.17041175
-0.13581985 0.06331993 -0.057827067 0.09063663 -0.16956083 -0.19307308 0.0054565496 -0.11296834
0.039725967 -0.09553572 0.025018694 -0.08524224 -0.05072757 -0.04426526 0.082712784 0.05142484
-0.06433325 0.0657462 -0.18901858 -0.03959903 0.030483501 -0.055862535 -0.15976797 0.050461084
-0.19882654 -0.1185693 -0.081323326 -0.05879177 -0.20162737 -0.025675174 -0.11291712 -0.20209807
-0.10315756 -0.017348696 -0.116767645 -0.037340585 -0.13991988 -0.13806961 0.08360149 -0.0050003007
0.053152967 0.009994575 -0.02381431 -0.05020191 -0.14156608 -0.06206808 0.018574242 0.05091661
-0.08790694 -0.07288901 0.07600322 -0.031623814 -0.21274433 0.093600996 -0.010770216 0.03553283
-0.1505673 -0.07654378 -0.02574177 0.050642386 -0.0059316494 -0.069089964 0.004475 -0.15058689
-0.13434434 -0.0847252 0.020279616 -0.13270767 0.026534481 -0.10699328 -0.06460605 0.035239343
-0.079707615 -0.07180633 0.05665981 -0.049507193 -0.069460444 -0.14417101 -0.14606574 0.015926342
-0.12241874 -0.15244968 -0.068167984 0.006737863 0.07962567 -0.10713006 -0.007581198 -0.05262199
0.0002947308 0.08885689 -0.03582122 -0.20937142 -0.05554178 -0.15718813 0.013625013 0.0761448
-0.15550803 0.02746022 -0.10681572 -0.031360798 0.017254477 -0.019837297 -0.05652935 -0.0551953

net.2.linear.bias f4 [256]
00000000: d72a 77bd f09e 99bd 435e 96bd 751a cdbd
00000010: 55e8 1abd efac 3abd e8e2 74bd 2c2a b9bd
00000020: 0b55 ccbd e1f5 48bd 67ba 7abc 2c29 df3d
00000030: 3310 6a3d 476e 873d 6dd3 54bd 7e90 f3bc
00000040: ea74 623d 8a86 c1bd bad7 b3bc 99fe c0bd
00000050: 0438 983d d588 dd3c e760 02bd 410b c93d
00000060: 5929 7bbd a8d9 84bd 6a3d 9fbd c070 98bd
00000070: bfe2 74bd 3625 95bd 4b49 41bd b9ce cbbd
00000080: e39b 573d fdd7 93bd 3a4a 58bc 1796 4bbd
00000090: a935 85bd ace1 74bd f8a2 f1bd 65e1 adbd
000000a0: 814c abbd 17cf 663d 7c0b 82bd de9a bfba
000000b0: 63c2 07bd d008 68bd 3875 b9bd 62fa 15bd
000000c0: a74c 9a3d 1d3c 8bbd f4c7 8bbd b553 c1bd
000000d0: 64f3 abbd c379 aabd e881 c0bd 0226 77bd
000000e0: f7d2 6ebd 63df 74bd f718 7b3b 5e38 a8bc
000000f0: fcf9 74bd f230 d6bd 6ffa 293d 0113 8f3c
00000100: 91bd 67bd 8739 123d 8b7d 57bd b0ca a5bd
00000110: 7c27 ebbc 2c4a 91bd 8522 57bd 6acb 5dbd
00000120: 22c9 94bd 52ef aabd 803d 9bbc bee2 74bd
00000130: b7e2 74bd 4526 8abd c2a1 aabd 1d74 82bd
00000140: 9ef0 55bd 3503 a5bd e10f 9cbd 9b88 c1bd
00000150: 910f a9bd 2632 2e3c 3621 ecbc a8f8 b0bd
00000160: 580d 69bd 4009 71bd e201 81bd 48e2 74bd
00000170: e0ef 223d 6a94 84bd a878 2bbd 08f7 153c
00000180: a4e2 74bd 5048 c4bd 7ff2 c0bd 903d cdbc
00000190: 2049 d4bd 1a60 90bd c9f4 58bd e5b9 133c
000001a0: f296 26bd 8de2 74bd 319c d9bd 9776 0fbd
000001b0: bd33 d0bc a6be 59bd f089 9dbd b731 99bd
000001c0: a3e2 74bd 24f8 7abd dfcd 38bc 8f97 a5bd
000001d0: 59e5 50bd 3879 abbd d7e2 74bd e7b6 6a3d
000001e0: cc4e 83bc 6b54 03bd d400 b6bc d13c 8cbd
000001f0: 3598 a0bd ec61 15bd def7 90bd 111b d9bb
00000200: d41c cebc 72ec 31bd 185e a8bd e5fb cfbd
00000210: f2a2 98bd 0ac9 9fbd c07e c6bd 08c6 21bc
00000220: e1e2 74bd abe9 4ebd 8075 a4bd b2c3 12bd
00000230: b37b 92bc 2c67 a53c ea1e 94bd 051d 33bd
00000240: 9f6f f2bc b3da c9bb 91b8 073d 07e7 673c
00000250: 220b 89bd ac55 75bd 0000 0000 e00f efbd
00000260: 4407 573d d776 acbd bcc8 e1bc 59c0 91bd
00000270: 5aa5 18bd bfe2 74bd f6f7 4fbd 4a6e 24bd
00000280: c3da 92bd b347 a7bd 0000 0000 2d86 90bd
00000290: 3b2a afbd be30 cbbc 65fc cfbd d8e2 74bd
000002a0: d955 82bd c705 a3bd a109 41bd d45a 08bd
000002b0: 454f 91bd 8b66 08bd 9107 f73c 3cde 74bd
000002c0: 7189 d03b 6c82 22bd 6126 d1bd 4bb0 cb3d
000002d0: d75b a0bc 902a 90bd 01f8 40bd 3415 82bd
000002e0: 1d4d 80bd 98e0 0abd b85e 3d3c 5bf5 2abd
000002f0: 9134 86bc b184 913d fa90 113d b89d 74bd
00000300: 5af3 86bd 292b 2dbd b564 94bd 24cd 9ebd
00000310: f71e fcbb 69b3 cabb 3856 3bbd ec59 183c
00000320: 8cbd 7bbd 3e1c 37bd ca86 9abd 195f 5ebd
00000330: ece2 74bd 77fb 643d a7a1 9ebd 7a3d d9bc
00000340: 3704 65bd 2270 27bc 7a29 cebd af81 03bd
00000350: 94d6 8bbd 10a3 49bd b566 76bd 10f7 7bbc
00000360: 1253 043d cd77 0abc 8a2b eebc 5473 60bd
00000370: 9672 81bd 170f e2bc 119e 37bd 88f3 b3bd
00000380: d1e1 74bd ced9 b5bd 50fe 823d e3ca a7bd
00000390: 8de0 5e3d 00de 8dbd a71e b0bc 79f9 92bd
000003a0: 4ab4 0dbe e3e4 b63c 4d17 22bd 3e1d 80bd
000003b0: ef9f 29bd bec2 5abd 8448 cabd c9c3 bbbd
000003c0: b633 08bd 81da 82bd e2e2 74bd 2bf8 133d
000003d0: 1ace 90bd 7848 63bd 5c74 0dbd 4d1f 83bd
000003e0: e5e2 74bd 40ee 58bd 4322 abbd 2cbf a8bd
000003f0: 5f5b 41bd b582 afbc 26ff 87bd bcd6 8dbd
-0.06034359 -0.07501018 -0.07342198 -0.10014812 -0.037819225 -0.04557508 -0.059786707 -0.09041247
-0.09977158 -0.049062613 -0.015303231 0.10896525 0.057144355 0.066128306 -0.051959444 -0.029731985
0.05528728 -0.094494894 -0.021953452 -0.09423561 0.07432559 0.027042786 -0.031830695 0.098166
-0.06131873 -0.06486827 -0.07775386 -0.0744338 -0.059786554 -0.07282488 -0.04718904 -0.099515386
0.0526389 -0.07218931 -0.013201291 -0.049703684 -0.065043755 -0.05978553 -0.11798662 -0.08490256
-0.08364201 0.05634984 -0.06349847 -0.0014618298 -0.033144366 -0.05664903 -0.09055561 -0.036615737
0.075341515 -0.06798575 -0.068252474 -0.09439794 -0.083960325 -0.083240055 -0.09399778 -0.06033898
-0.05830666 -0.05978335 0.003831444 -0.02053469 -0.059808716 -0.10458554 0.041498598 0.017465116
-0.05657727 0.035699394 -0.05260996 -0.080953 -0.028705351 -0.07094225 -0.052523155 -0.05414907
-0.072649255 -0.08346428 -0.018950224 -0.05978655 -0.059786525 -0.067455806 -0.08331634 -0.06369803
-0.052231424 -0.08057252 -0.07620216 -0.094498836 -0.08254922 0.0106320735 -0.02882443 -0.086411774
-0.05689749 -0.058846712 -0.06299187 -0.05978611 0.039779544 -0.0647362 -0.041863114 0.009153135
-0.059786454 -0.09584105 -0.094212525 -0.02505377 -0.1036551 -0.0704958 -0.05296782 0.009016489
-0.040671296 -0.05978637 -0.10625494 -0.035025205 -0.025415296 -0.053160332 -0.07692325 -0.074801855
-0.05978645 -0.0612718 -0.011279552 -0.08085548 -0.050999973 -0.0837273 -0.059786644 0.057303336
-0.016028784 -0.03206293 -0.022217192 -0.06847537 -0.07841531 -0.03647034 -0.07078527 -0.006625541
-0.02516023 -0.043438382 -0.08221072 -0.10155467 -0.07452954 -0.07802017 -0.096921444 -0.0098738745
-0.05978668 -0.050515812 -0.08030224 -0.03583116 -0.01788125 0.020190798 -0.07232459 -0.043728847
-0.02959424 -0.006160104 0.033135 0.014154202 -0.066915765 -0.059896156 0.0 -0.1167295
0.052497163 -0.084211044 -0.027561538 -0.071167655 -0.037267067 -0.059786554 -0.050773583 -0.040144242
-0.07170632 -0.081679724 0.0 -0.07056842 -0.08552977 -0.024803516 -0.10155562 -0.059786648
-0.063640304 -0.07960086 -0.047128323 -0.033289745 -0.070951976 -0.033300918 0.030154975 -0.05978225
0.0063640405 -0.03967516 -0.10212398 0.099457346 -0.019575043 -0.07039368 -0.047111515 -0.063517004
-0.06264708 -0.033905596 0.011558227 -0.041737895 -0.016382487 0.07105387 0.03553865 -0.059720725
-0.065893844 -0.04227749 -0.07245771 -0.07753971 -0.007694121 -0.006185938 -0.04573652 0.009298783
-0.061460063 -0.04470467 -0.0754524 -0.05428991 -0.059786722 0.055903878 -0.077456765 -0.026518572
-0.055912223 -0.010219606 -0.10066505 -0.032106098 -0.06828037 -0.049227774 -0.060156543 -0.0153787285
0.032305785 -0.008451414 -0.029073495 -0.054797485 -0.06320684 -0.027595086 -0.04482848 -0.08786684
-0.059785668 -0.088794336 0.063961625 -0.081929944 0.054413367 -0.06927109 -0.021498991 -0.071764894
-0.13838306 0.022325939 -0.039573003 -0.062555775 -0.04141229 -0.053408377 -0.098771125 -0.091682024
-0.03325244 -0.063893326 -0.059786685 0.036125343 -0.07070561 -0.055489033 -0.034534797 -0.064024545
-0.059786696 -0.052961588 -0.08356144 -0.08239588 -0.04720628 -0.02142463 -0.066404626 -0.06925723

net.3.linear.weight f4 [256, 256]
00000000: c2da db3d c0cb 3c3c 1414 173d f54d 003d
00000010: babe 94bd e834 413d d6c7 493d 196c 05bd
00000020: 9e38 ea3d b509 803c 6dea 103c aa1d 28be
00000030: 428d 6d3d 500d 0ebe 5c62 a1bc 8d1d 19be
00000040: 3c6e a53c 1417 3839 6485 24be 6a76 bcbd
00000050: d581 8bbd f416 d5bd eac4 2c3e 21d5 8a3b
00000060: 1e5d 5f3d 17b7 b7bc 0106 32be 9206 7a3d
00000070: 517e cf3d 7334 2fbd a725 793d b784 26be
00000080: 8352 553d 2f86 803d 4f6b ab3d 2a4c 8bbd
00000090: 8b70 3abd 40cf b93c a06d d83c 4778 32bd
000000a0: d18c a43b ea42 3abe b774 53be 0a19 40be
000000b0: d95d 03be 0d68 a93c 39ef edbd 426a 3abe
000000c0: 1d2b 3abe 760e 03be d560 6d3c 2dd3 253d
000000d0: a177 6bbd 51a9 88bd 1ac3 973d f004 72bd
000000e0: 9e29 3a3e 2f9b 4abe 1ce8 053d 94ba 303e
000000f0: 0ffe 39bd 3c69 aa3d f4f0 dbbd f280 98bd
00000100: 1b57 2ebd 7216 18bc 4bf8 13be 6ccf d4bc
00000110: 0345 f7bd 92cd 85bd 069a 61bd 0d77 803d
00000120: 9e47 05bd 2529 0dbe 1c49 8c3d 96ed 40be
00000130: 9494 bf3c 6386 1cbd 9eb5 b5bd 956c 2abe
00000140: ecfe 19bd c065 15bc e81c 8e3d 2668 b23d
00000150: 55d4 14be 764d 00bc 91ed 353d da7d dabd
00000160: 8cc4 863d 1360 27bd 7f82 f13c fea4 9e3d
00000170: bae0 fcbd 6ab4 273d 956f 9e3c ac51 a03c
00000180: fa6b ee3c 2053 1fbe 5281 403d 6ede 98ba
00000190: 48fb 963d 2e7f e93b e645 15be 9a96 52be
000001a0: 22cf 00bd cdb1 7d3c 5e36 00be bf16 22be
000001b0: dce2 0b3d be44 6d3d cc46 c4bc 6967 563d
000001c0: c835 26be 351a 0abe d22d 74bc 57cd b9bc
000001d0: d0d1 b63c e81c 30be c011 043e 0d35 c9bd
000001e0: f870 20be b2b4 eebd a5de 84bd 2bb1 1b3e
000001f0: 020b b4bd 1ca0 75bc a4c2 3f3d 3cb8 013d
00000200: 4df7 abbc 43a7 fb3d 09dd a03d 6625 09be
00000210: 08e1 2fbe dd6a 52be dea6 bc3d 16e0 0e3d
00000220: eb10 b43d 3fd0 52be 823d 743c d189 5cbd
00000230: 0ac6 d3bc efca 77bd 72be 42be 1f60 ec3c
00000240: 45f1 c23d 4157 173d 4e9c 9f3c 05e9 0ebe
00000250: 5f4b 20be e98f 90bb b44a 323d 52ed edbd
00000260: c35e 643d ad86 58bd 2938 87bd 64c5 50bd
00000270: e96c 4b3e 580a d9bd 699d 71bd d640 2f3e
00000280: 7dea f53b c5e8 48be 5e03 68bd 722a 1abe
00000290: 76f1 55bd 7d17 f0bc 6a76 f3bd dc8a 76bd
000002a0: 2695 a93c 7c10 f8bd 5eb3 e2bd 94e5 1b3e
000002b0: 779a aabd bce1 29be 09db 3dbe 6f0d 04be
000002c0: 7332 9ebd d679 183d 5016 0ebe e764 3fbe
000002d0: 6589 2bbe 35d8 9ebd 358b cb3d d6b9 d33c
000002e0: 8b10 f4bd 661c 09bd 00ff 22be ac40 393d
000002f0: 4d81 23bd d038 e5bd fede e33d 446c 4d3c
00000300: 26de fb3c 86ea 473d 20c2 593d 34c3 d1bc
00000310: ade4 553e 1905 df3c 4277 9bbc 0e1e e4bd
00000320: 8f1b a7bc 96f5 883d 6d78 913d ab1c 07be
00000330: d08f 123e c753 56be 186b fdbd dc0d 6dbd
00000340: d9ab 183e 7e02 1cbe c4c5 8fbc 162b e0bd
00000350: cbb0 10be 5685 44bc fbe7 193d 34b3 6b3d
00000360: 4a1f 0cbe e95b 1ebe 76d3 27bd 8203 b53d
00000370: 4881 053d 6355 0abe 4f7b a3bd 6a5b 0c3e
00000380: ba58 16bd 3162 7b3b 9e39 863d a822 16be
00000390: f895 ec3c a2b1 d23d 0dc9 21be 4500 903b
000003a0: 523a 7c3d 0ccc f83b bfb9 e1bd 873b 473e
000003b0: e321 a7bd 3ce1 f8ba 6633 24be 4e0d 1fbe
000003c0: f23e f4bd bf67 c93d 36a9 c6bc 8a6c 92bd
000003d0: 9a1a 91bd 20ec 9dbd 8418 b73d f1eb a63d
000003e0: 565b 323e 2e82 3bbe e9b0 a73d 1fc1 1abd
000003f0: a71e 973d 53ea fdbd a502 93bc 5924 4ebe
0.10735084 0.011523187 0.036884382 0.031324346 -0.07262941 0.047169596 0.049262844 -0.032573793
0.1143658 0.015629629 0.008844954 -0.16417566 0.057996042 -0.13872266 -0.019700222 -0.14952679
0.020194165 0.00017556205 -0.1606651 -0.09202273 -0.06811873 -0.104047686 0.16871992 0.0042368327
0.054532163 -0.022426171 -0.17385103 0.061041422 0.10131515 -0.04277463 0.060826924 -0.16261564
0.052080642 0.062755935 0.08370077 -0.068016365 -0.045517486 0.022681832 0.02641946 -0.043571737
0.0050216694 -0.18189588 -0.20649992 -0.18759552 -0.12828769 0.020679498 -0.11617894 -0.18204597
-0.18180509 -0.12798485 0.014488419 0.040484596 -0.057487134 -0.066729195 0.074102595 -0.05908674
0.18179938 -0.1978576 0.03269206 0.17258674 -0.045408305 0.08320853 -0.107393175 -0.07446469
-0.04256354 -0.009282695 -0.14450185 -0.025977813 -0.1207371 -0.0653335 -0.05507853 0.06272707
-0.032539003 -0.13785227 0.06849882 -0.18840632 0.023386277 -0.0382141 -0.08872531 -0.16642983
-0.037596628 -0.009118497 0.06939107 0.08711271 -0.14534123 -0.007830968 0.044416014 -0.106685355
0.06580457 -0.040863108 0.02948117 0.077463135 -0.12347551 0.04094354 0.019340316 0.019570194
0.029104222 -0.15559053 0.04699833 -0.0011662969 0.07372147 0.0071257567 -0.14577445 -0.20565262
-0.031447537 0.015484286 -0.1252074 -0.1582899 0.034151897 0.057926886 -0.02395954 0.052344713
-0.16231453 -0.1348656 -0.014903503 -0.022680921 0.022316843 -0.17198527 0.12897396 -0.09824572
-0.15668094 -0.11655559 -0.064877786 0.15204303 -0.08791162 -0.014991786 0.046816483 0.03166984
-0.020991946 0.12287762 0.07854659 -0.13393173 -0.17175686 -0.20548578 0.09211515 0.034881674
0.08792289 -0.20587252 0.014907243 -0.05384237 -0.025851268 -0.060496267 -0.19017962 0.028854428
0.09518675 0.036948446 0.019483712 -0.13956077 -0.15653752 -0.0044116867 0.043528274 -0.11617531
0.055754434 -0.05286281 -0.066025086 -0.050969496 0.19865765 -0.10597676 -0.05898801 0.17114577
0.00750476 -0.19620045 -0.056643836 -0.15055254 -0.05223223 -0.029308075 -0.1188782 -0.06019102
0.020701002 -0.12112519 -0.11069368 0.15224296 -0.08330243 -0.16590017 -0.18540587 -0.1289575
-0.07724466 0.037225567 -0.13875699 -0.18690835 -0.1675163 -0.07756082 0.09938661 0.02584545
-0.11917218 -0.03347435 -0.15917587 0.04522769 -0.039918233 -0.11192477 0.11126517 0.01253802
0.030745577 0.048807643 0.053163648 -0.025605775 0.20888014 0.02722411 -0.018977765 -0.11138545
-0.020398883 0.06687467 0.071030475 -0.1319453 0.14312673 -0.20930396 -0.12373942 -0.057874545
0.14909305 -0.15235326 -0.017550357 -0.10945718 -0.14129941 -0.01199468 0.03757475 0.05754395
-0.13683811 -0.15464748 -0.04097315 0.0883856 0.032593995 -0.13509135 -0.079825036 0.13706747
-0.03670571 0.0038358087 0.06553958 -0.14661658 0.028880104 0.10287787 -0.15799351 0.0043945634
0.061579056 0.0075926837 -0.110217564 0.19456302 -0.0816076 -0.0018988024 -0.16035232 -0.15532419
-0.11926068 0.09834241 -0.024250608 -0.071496084 -0.07085152 -0.07711053 0.08940223 0.08150471
0.17417654 -0.18311378 0.0818804 -0.03778183 0.07378893 -0.123982094 -0.017945597 -0.20131053
