geoinr/model/mlp/pretrained/plane_selu_model.pth (torch, 797767 bytes, 9 tensors)

net.0.linear.weight f4 [256, 3]
0	0x3e8085e7	0.2510216
1	0xbd0663f2	-0.03281016
2	0x3efa1909	0.48847225
3	0x3ecbfaee	0.39839882
4	0x3d1fd567	0.039021876
5	0xbe95e05a	-0.2927273
6	0xbdd1989f	-0.10234188
7	0x3f050020	0.51953316
8	0x3e1aa461	0.15101768
9	0xbeccf09e	-0.40027326
10	0x3e9a7110	0.30164385
11	0x3ecbc571	0.39799073
12	0x3d1605aa	0.036626495
13	0x3f1b6231	0.60696703
14	0xbeffb8db	-0.4994572
15	0x3e3f8e11	0.18706538
16	0x3db1b831	0.0867771
17	0x3c92d3f5	0.017923335
18	0xbeb6b6d9	-0.35686377
19	0xbf03d139	-0.51491123
20	0xbc6e376b	-0.01453958
21	0xbda32010	-0.079651
22	0x3d854cd0	0.065087914
23	0xbdc8c2de	-0.09802793
24	0xbefc6368	-0.4929459
25	0xbf0d7b0b	-0.55265874
26	0x3d89e96a	0.06733973
27	0xbeb3f07e	-0.35144418
28	0x3ef1c2a8	0.47218823
29	0x3e0cb222	0.13739827
30	0x3e1f01f0	0.15528083
31	0x3f0944c8	0.53620577
32	0xbf02663d	-0.50937253
33	0x3e8b601d	0.27221766
34	0xbd9cd831	-0.07658423
35	0x3e7053b4	0.2346943
36	0x3eaf69c8	0.34260392
37	0x3db143e9	0.08655531
38	0x3e8a832c	0.270532
39	0xbe823ba3	-0.25436124
40	0xbdacbf4f	-0.08434927
41	0x3ecd0352	0.40041596
42	0xbef7a61a	-0.48368913
43	0xbebac7c7	-0.36480543
44	0xbec80cd2	-0.3907228
45	0xbe8f31a9	-0.27967575
46	0x3e41208f	0.18860076
47	0xbe80cafc	-0.25154865
48	0x3e3ba60f	0.18325065
49	0x3d4aea0f	0.049539622
50	0xbeba8729	-0.36431244
51	0x3edd23fa	0.4319151
52	0x3eeb6da5	0.4598209
53	0xbf0b7984	-0.54482293
54	0xbed8fb69	-0.4237931
55	0xbe06b6bd	-0.13155647
56	0xbe8e5864	-0.27801812
57	0x3e9e80fa	0.30957776
58	0x3e848e4f	0.25889823
59	0x3e5ca8bf	0.21548747
60	0x3ede1f04	0.43383038
61	0x3df02edf	0.1172769
62	0x3d1c8e66	0.03822174
63	0xbc91f19a	-0.0178154
64	0xbe376aff	-0.1791191
65	0x3eab8e16	0.3350684
66	0xbf00a05f	-0.50244707
67	0x3ea761b2	0.32691723
68	0x3d5f5e8e	0.054533534
69	0xbe5cc398	-0.21558988
70	0x3c04f934	0.008116055
71	0xbe329352	-0.1743901
72	0xbe47aa6c	-0.19498605
73	0xbdc49fe8	-0.09600812
74	0x3e6ae27a	0.22937956
75	0x3ed0c968	0.4077866
76	0xbeeb04c4	-0.45902073
77	0xbe898b3b	-0.26864037
78	0x3e998383	0.29983148
79	0xbedd3b58	-0.43209338
80	0xbca3869f	-0.019961653
81	0xbe15c2bf	-0.14625071
82	0x3f05bd74	0.5224221
83	0xbe3e66bf	-0.18593882
84	0x3d524898	0.051338762
85	0x3ee8722e	0.45399612
86	0x3bb3b0e6	0.0054837344
87	0xbe5ad1f1	-0.21369149
88	0x3ebf49c2	0.3736096
89	0xbe31da72	-0.17368487
90	0xbec8c3ac	-0.39211786
91	0xbe882547	-0.2659094
92	0xbf014735	-0.5049928
93	0xbd90016a	-0.0703152
94	0xbe238676	-0.15969262
95	0xbe796865	-0.2435623
96	0x3e5e1ba0	0.21690226
97	0xbed7e0b7	-0.4216363
98	0xbedcd2b6	-0.4312951
99	0x3e5b00a9	0.2138697
100	0xbe257c32	-0.16160658
101	0x3ddabccd	0.10680542
102	0xbf033ae7	-0.5126175
103	0xbe8c6a64	-0.2742492
104	0xbc16276a	-0.0091646705
105	0x3ed7ec73	0.42172584
106	0x3dcd6939	0.10029835
107	0x3bb72878	0.005589541
108	0x3edc1bd3	0.42989978
109	0x3e9e6b4b	0.30941233
110	0x3ea55afa	0.32295972
111	0xbdfce7b2	-0.1234888
112	0xbe4de473	-0.20106678
113	0x3d1301f3	0.03589053
114	0xbda1b76b	-0.07896312
115	0xbf03dc38	-0.515079
116	0x3decf598	0.11570281
117	0x3f0acfd8	0.54223394
118	0x3e651ea8	0.22374976
119	0xbf0303bc	-0.51177573
120	0x3dc37a0b	0.09544762
121	0xbebb4dca	-0.36582786
122	0xbeb6243e	-0.35574526
123	0xbcee184e	-0.029064324
124	0x3f082350	0.5317888
125	0x3ec731fc	0.38905323
126	0xbdcd1abf	-0.10014867
127	0x3e31b190	0.17352891
128	0x3f034c38	0.51288176
129	0x3eece097	0.46265098
130	0xbe9ad093	-0.30237255
131	0x3e9100a3	0.28320798
132	0xbed0702f	-0.4071059
133	0xbf0452a0	-0.51688576
134	0x3efcceda	0.49376565
135	0x3e86943c	0.2628497
136	0xbf20cbbd	-0.6281088
137	0x3ef1cc38	0.4722612
138	0x3e85880f	0.26080367
139	0xbe384240	-0.17994022
140	0x3e4c170b	0.19930665
141	0xbe74fce8	-0.23924601
142	0x3f09ae86	0.53781927
143	0x3e8d2419	0.27566603
144	0x3deddd28	0.11614448
145	0x3cb8ee43	0.02257455
146	0x3e4d8efd	0.20074077
147	0x3ee04696	0.43803853
148	0xbd708c4f	-0.05872756
149	0xbd87135f	-0.065954916
150	0xbe824442	-0.25442702
151	0x3e85d4a3	0.2613879
152	0x3eebaeb3	0.46031722
153	0x3edc4898	0.43024135
154	0x3eb53009	0.3538821
155	0x3e25830d	0.16163273
156	0xbd2e566e	-0.042562895
157	0xbf07fc33	-0.531192
158	0xbe558225	-0.20850427
159	0x3e98d6d6	0.29851407
160	0x3e84fed9	0.25975683
161	0x3b0d62ea	0.002157385
162	0x3dc02d25	0.09383611
163	0x3de2b3a1	0.11069418
164	0x3ed54818	0.41656566
165	0x3dd9ec7c	0.10640809
166	0x3e633673	0.2218874
167	0x3e963f74	0.29345286
168	0x3f04150a	0.51594603
169	0xbe5b1aae	-0.21396896
170	0xbdd2d60f	-0.10294735
171	0xbef2d91f	-0.47431275
172	0xbea79724	-0.327325
173	0xbee79ef4	-0.4523846
174	0x3e057a1c	0.13034862
175	0x3ea2c98c	0.31794393
176	0xbdb7dc08	-0.089775145
177	0x3eaa6633	0.33281097
178	0x3ee11793	0.43963298
179	0x3ef33fb0	0.47509527
180	0xbefac5f8	-0.48979163
181	0x3e1a626d	0.15076609
182	0x3ebcda9d	0.3688554
183	0x3ebe37ec	0.3715204
184	0xbee64f97	-0.44982597
185	0xbde83db9	-0.11339898
186	0x3e92673d	0.2859439
187	0x3ea30ead	0.31847134
188	0x3eac09d7	0.33601257
189	0x3eacebd7	0.33773682
190	0xbe0832d3	-0.13300638
191	0xbedc6093	-0.4304243
192	0x3e409f8a	0.1881086
193	0xbeae9ee5	-0.34105602
194	0x3dca685b	0.098831855
195	0xbf05e662	-0.5230466
196	0xbe83947f	-0.2569923
197	0x3dab9ab5	0.083791174
198	0xbf076bb3	-0.5289871
199	0xbe8368e0	-0.2566595
200	0xbef79bfe	-0.483612
201	0xbeab06ad	-0.3340353
202	0x3f18fa1d	0.5975664
203	0xbe7abf59	-0.24487056
204	0x3ed30c4e	0.41220325
205	0xbecc914a	-0.39954597
206	0xbef4c11e	-0.47803587
207	0x3ae7a6de	0.0017673632
208	0x3f08a54e	0.53377235
209	0x3db339a2	0.08751227
210	0xbe51da6b	-0.20493476
211	0xbf05199a	-0.5199219
212	0x3ea3deb5	0.3200585
213	0xbece1f6c	-0.40258348
214	0xbed762e1	-0.42067626
215	0xbd419d5c	-0.04726921
216	0x3ecfc081	0.40576556
217	0xbd90f59f	-0.070780985
218	0xbed4d487	-0.41568395
219	0xbf03d487	-0.51496166
220	0xbd6057ee	-0.054771356
221	0xbec9b880	-0.39398575
222	0xbd38c0c4	-0.04510571
223	0x3d3be06b	0.04586832
224	0x3d42312b	0.04741017
225	0xbf001721	-0.5003529
226	0x3e6c29ee	0.2306287
227	0xbed13fb2	-0.40868908
228	0xbe8c8238	-0.274431
229	0xbf1a0c5c	-0.6017511
230	0xbb95136c	-0.0045494344
231	0x3e3b3fd5	0.18286069
232	0xbee6a126	-0.45044822
233	0x3cdbb34f	0.0268189
234	0x3ea9a433	0.33133087
235	0x3e01a403	0.12660222
236	0xbe0636cd	-0.13106842
237	0xbe01a4aa	-0.1266047
238	0xbdb19564	-0.08671072
239	0xbeb49ad0	-0.35274363
240	0xbd2495de	-0.040181987
241	0x3c7f99bc	0.015600618
242	0x3d5da815	0.054115374
243	0x3e5b6c7e	0.21428105
244	0x3f0de8eb	0.5543353
245	0xbb68a670	-0.0035499595
246	0x3d9fd46c	0.07804188
247	0x3eae0ef6	0.3399579
248	0xbd38c49b	-0.045109373
249	0x3ea6c242	0.32570082
250	0xbf128ad1	-0.5724307
251	0x3e7f00e7	0.24902688
252	0x3edfca34	0.43708956
253	0xbef86e4c	-0.4852165
254	0x3eb7018b	0.35743365
255	0xbe855836	-0.26043862

net.0.linear.bias f4 [256]
0	0x3ef67623	0.48137006
1	0xbe0fd649	-0.14046587
2	0x3de3b383	0.111182235
3	0xbe216500	-0.15761185
4	0xbe2e3693	-0.17013006
5	0x3eae5864	0.34051812
6	0x3c850530	0.016237825
7	0xbeaa7804	-0.3329469
8	0x3e7fdbf2	0.24986246
9	0xbec03232	-0.37538296
10	0x3e612408	0.21986401
11	0x3e31dd41	0.17369558
12	0x3ece4752	0.40288788
13	0xbed6c183	-0.41944513
14	0x3ecfc678	0.40581107
15	0x3eb18290	0.34669924
16	0x3e4d334d	0.20039101
17	0xbe0f918b	-0.14020364
18	0xbc064d78	-0.008197181
19	0x3ed8dfcd	0.42358246
20	0x3eb8d465	0.36099544
21	0x3a4e608d	0.00078726636
22	0x3e485aac	0.19565839
23	0x3e9c9027	0.3057873
24	0x3c876bc4	0.016530879
25	0x3e9915de	0.29899496
26	0xbe8703bf	-0.26370046
27	0x3e632828	0.22183287
28	0xbc88354b	-0.016626975
29	0xbe57182e	-0.21005318
30	0x3ebc7533	0.36808166
31	0x3e4ddc20	0.20103502
32	0xbe8cd7cb	-0.27508387
33	0xbe161537	-0.1465653
34	0xbe6bbfa3	-0.23022322
35	0x3d0cb021	0.034347657
36	0xbdadad94	-0.08480373
37	0xbc9d2a99	-0.019185351
38	0xbec8ada1	-0.39194968
39	0xbbdc71e7	-0.0067274454
40	0x3e753657	0.2394651
41	0xbecd28a9	-0.40070084
42	0xbee04d40	-0.43808937
43	0x3e734713	0.23757581
44	0x3ea7aea1	0.3275042
45	0xbdfeb690	-0.12437165
46	0xbeba5da9	-0.36399582
47	0x3d1f93ca	0.038959302
48	0x3e337392	0.17524555
49	0xbdab5e7d	-0.083676316
50	0xbe6ff44b	-0.23433034
51	0xbedc5d21	-0.43039802
52	0x3ea7cf2d	0.3277525
53	0x3def8a1c	0.11696264
54	0xbed13b6c	-0.40865648
55	0x3ec7b325	0.39003864
56	0xbddb3476	-0.107033655
57	0x3ea7fbbe	0.32809252
58	0xbdb643d8	-0.08899659
59	0xbdd2bec7	-0.10290294
60	0x3d64b166	0.055833243
61	0x3da7e6ec	0.08198342
62	0xbec2c7f4	-0.38043177
63	0xbed019cf	-0.4064469
64	0xbe78ea54	-0.24308139
65	0x3e61b90e	0.22043249
66	0x3eb08582	0.34476858
67	0xbd892091	-0.06695665
68	0xbe81d6db	-0.25359234
69	0xbe81eff4	-0.25378382
70	0x3e9387f1	0.28814653
71	0x3e0636a0	0.13106775
72	0xbe664635	-0.2248772
73	0x3ece7f60	0.40331554
74	0xbe1ba5c1	-0.15199949
75	0x3dcfee0d	0.101528265
76	0xbe63e20e	-0.22254202
77	0xbe5e75b2	-0.21724585
78	0x3e789fe4	0.24279743
79	0xbe2d5564	-0.16927105
80	0x3e6d622a	0.23181978
81	0xbcd899b2	-0.026440475
82	0x3c9a5850	0.018840939
83	0x3eaf2b8e	0.34212917
84	0xbcdff7de	-0.027339872
85	0x3e9997a3	0.29998502
86	0x3ed34445	0.41263023
87	0x3e9e3ec7	0.3090727
88	0xbea7d985	-0.32783142
89	0xbc9aefe0	-0.01891321
90	0xbe6540f5	-0.2238806
91	0x3beffb38	0.007323649
92	0xbe99ea1e	-0.3006143
93	0xbe86b6f5	-0.2631146
94	0x3ecf617c	0.40504062
95	0xbeb3eb9f	-0.35140702
96	0x3e8e0ea8	0.27745557
97	0xbe30a61c	-0.17250866
98	0x3e012294	0.12610847
99	0xbe8f61ea	-0.2800439
100	0xbda50ed3	-0.08059468
101	0xbe933ae8	-0.2875588
102	0x3ead27ce	0.3381943
103	0xbc42535b	-0.011860694
104	0xbe7bbab6	-0.24582943
105	0x3eaf1144	0.3419286
106	0xbd323979	-0.04351184
107	0x3d005f00	0.0313406
108	0x3e2610a9	0.16217293
109	0xbe92aadb	-0.28645977
110	0xbecc5e80	-0.39915848
111	0xbec1170a	-0.3771289
112	0xbe40e3d3	-0.18836908
113	0x3e9188fd	0.28424826
114	0x3eb4edbf	0.35337636
115	0xbe80c91d	-0.25153437
116	0x3ce9d652	0.028544579
117	0xbe18e129	-0.14929642
118	0xbee4e3d8	-0.4470508
119	0xbe44082e	-0.19143745
120	0xbe88d881	-0.2672768
121	0xbe9dc39f	-0.3081331
122	0x3ee757e7	0.45184252
123	0xbdeb3ae5	-0.114858426
124	0x3deccb7e	0.115622506
125	0xbe862a64	-0.26204216
126	0xbc38474d	-0.011247468
127	0xbecd291f	-0.40070435
128	0x3e2ae363	0.16688304
129	0x3ebfcf68	0.37462926
130	0xbea8e24b	-0.32985148
131	0x3d9b2e84	0.075772315
132	0x3d7b62bf	0.06137347
133	0xbe504497	-0.20338665
134	0xbed8672e	-0.4226622
135	0x3dff6703	0.1247082
136	0xbd9006c8	-0.070325434
137	0xbe9052d4	-0.28188193
138	0xbe2958b6	-0.16537747
139	0x3eaa5744	0.33269703
140	0x3dacfb7b	0.084464036
141	0xbe65b6bd	-0.2243299
142	0xbeb6ca17	-0.35701057
143	0xbc1b637c	-0.009484168
144	0x3eb90d39	0.361429
145	0x3e86116b	0.26185164
146	0xbec20ef5	-0.37902036
147	0xbdbf28c2	-0.09333946
148	0xbeaf9270	-0.3429141
149	0x3d72e00f	0.05929571
150	0xbe85b32b	-0.26113257
151	0xbea26686	-0.31718844
152	0xbed4133d	-0.41420928
153	0xbea8750e	-0.32901806
154	0xbed6c947	-0.41950437
155	0xbe90777d	-0.28216162
156	0xbc6826f2	-0.014169442
157	0x3e4dd5e1	0.2010112
158	0x3d154b4c	0.03644876
159	0xbe04bb00	-0.1296196
160	0xbe9cd19b	-0.30628666
161	0x3dca7355	0.09885279
162	0x3e4f27e5	0.20230062
163	0x3c18983d	0.00931364
164	0xbe3ad595	-0.18245538
165	0x3d503e6c	0.05084078
166	0x3e430017	0.19043003
167	0x3ed042d1	0.40675977
168	0x3e44c065	0.19214018
169	0x3e3ab37b	0.18232529
170	0xbddd29e5	-0.107990064
171	0x3dad8e08	0.08474356
172	0x3e0eef27	0.13958417
173	0xbe1c0669	-0.1523682
174	0x3e3b09db	0.18265478
175	0xbdc4c328	-0.096075356
176	0xbea059f5	-0.31318632
177	0xbeaeb56a	-0.34122783
178	0x3b3add31	0.0028513188
179	0x3eace012	0.33764702
180	0x3d2ae8b9	0.041725848
181	0x3a0f8d8f	0.0005476111
182	0xbe208407	-0.15675364
183	0x3eac3e5d	0.3364133
184	0xbd902ec8	-0.07040173
185	0xbbdc8b4e	-0.0067304736
186	0x3eb05c32	0.3444534
187	0xbe732dfd	-0.23748012
188	0x3ec9ac9e	0.3938951
189	0xbe8c325d	-0.27382174
190	0xbda25798	-0.079268634
191	0xbdc4da84	-0.09611991
192	0x3e750356	0.23927054
193	0x3eda4c44	0.4263631
194	0xbebcdc50	-0.36886835
195	0x3e97fc8b	0.29684862
196	0x3dad4d52	0.08462013
197	0xbc927e0b	-0.017882368
198	0xbe2471cb	-0.16059034
199	0xbdfba379	-0.12287039
200	0x3cd72c07	0.026266111
201	0xbe626a58	-0.2211088
202	0x3e3b7e20	0.18309832
203	0x3c8ab5e1	0.01693243
204	0xbe5d006c	-0.21582192
205	0x3d3e305f	0.04643285
206	0x3dc2fc16	0.09520738
207	0xbe8e5d37	-0.27805492
208	0x3e5068c7	0.2035247
209	0xbeacdfbf	-0.33764455
210	0xbed39341	-0.41323283
211	0xbec2d44e	-0.380526
212	0x3eb62352	0.35573822
213	0x3e2e621d	0.17029615
214	0x3e4f2776	0.20229897
215	0x3ebfa3eb	0.37429747
216	0x3ece338a	0.40273696
217	0x3ea691d6	0.3253314
218	0xbe8a4e8c	-0.27013052
219	0xbebeed59	-0.37290457
220	0x3e9f657e	0.3113212
221	0x3e98ed11	0.29868367
222	0x3d817995	0.06322018
223	0xbd6a2e60	-0.057173133
224	0xbe0fac5a	-0.1403059
225	0x3ec840bc	0.39111888
226	0xbe53efae	-0.206969
227	0xbdcf8a0a	-0.10133751
228	0xbb36d730	-0.0027899258
229	0x3e695e6b	0.22789924
230	0x3cd6b6f8	0.026210293
231	0xbe8bbe5e	-0.27293676
232	0x3e103b58	0.14085138
233	0x3e447f7c	0.19189256
234	0x3e2a3cbc	0.16624731
235	0xbed93f02	-0.42430884
236	0x3e81c8bd	0.25348464
237	0xbebe2f7f	-0.37145612
238	0xbdd45337	-0.103674345
239	0x3e37a29b	0.17933123
240	0xbe9796fe	-0.29607385
241	0x3b8d3af4	0.0043100063
242	0xbed3a03d	-0.4133319
243	0x3dc85039	0.09780926
244	0xbe09c52e	-0.13454124
245	0x3eaffce2	0.34372622
246	0xbe8daf8d	-0.27672997
247	0x3e53d381	0.20686151
248	0xbed3ac19	-0.41342238
249	0xbeafeed2	-0.34361893
250	0xbebf387f	-0.3734779
251	0x3e4533ac	0.19257993
252	0x3edb1b1f	0.4279413
253	0xbd8ed55d	-0.069742896
254	0x3e3b772f	0.18307184
255	0x3a630198	0.00086596

net.1.linear.weight f4 [256, 256]
0	0xbc8ee806	-0.017444622
1	0x3cabf712	0.020991836
2	0x3d966bdd	0.07344792
3	0x3cee6cc3	0.029104596
4	0x3c49d0cb	0.0123178465
5	0x3d39100d	0.045181323
6	0x3cdf5c05	0.027265558
7	0x3d267097	0.040634718
8	0x3c7bc9b8	0.015367918
9	0x3bf5104a	0.0074787484
10	0x3db570ad	0.08859382
11	0xbcdb1063	-0.026741212
12	0xbd904216	-0.07043855
13	0xbd84f3ef	-0.06491839
14	0xbcb20629	-0.021731453
15	0xbcdfe5b6	-0.027331214
16	0xbc053d35	-0.008132269
17	0x3c2f8854	0.0107136555
18	0x3d71d1c2	0.05903793
19	0xbcc3a518	-0.023882434
20	0xbba0ce4c	-0.004907405
21	0xbd318ea7	-0.043348935
22	0x3d0eca5b	0.03486095
23	0x3c497ca9	0.012297788
24	0xbc6a3c25	-0.014296566
25	0x3b8ff439	0.0043931273
26	0xbd0d5e1a	-0.03451357
27	0x3d4c3e1b	0.049863916
28	0x3cf7e75f	0.030261694
29	0x3cc62933	0.024189567
30	0x3d540735	0.051764686
31	0x3d9c0604	0.07618335
32	0xbc558a99	-0.013033533
33	0x3beca9f9	0.0072224108
34	0x3d96a133	0.07354965
35	0xbd9ca794	-0.076491505
36	0xbb0a95e5	-0.0021146473
37	0x3d191568	0.03737393
38	0x3b2f454c	0.0026744185
39	0xbd1ba3e9	-0.037998114
40	0x3d39108f	0.045181807
41	0xbcea14b8	-0.028574333
42	0xbd9afd97	-0.075679
43	0x3d1252d8	0.035723537
44	0x3cc34780	0.023837805
45	0x3cc55c2b	0.0240918
46	0xbc20dfcf	-0.009818985
47	0x3cab440e	0.020906474
48	0x3cbf4cec	0.023352109
49	0xbd9987ee	-0.0749663
50	0xbd9709f4	-0.07374945
51	0xbd9581ba	-0.07300134
52	0xbce42dae	-0.027853813
53	0x3d00ddfc	0.0314617
54	0x3d13fbc8	0.03612879
55	0xbcdebc3a	-0.027189363
56	0x3d1d71e3	0.03843869
57	0x3d61e76b	0.055152338
58	0x3cc3ac5c	0.023885898
59	0xbc5deb4d	-0.01354487
60	0xbd4091e4	-0.047014132
61	0x3c60ca29	0.013720074
62	0xbcc9040f	-0.024538068
63	0xbd80e287	-0.06293207
64	0xbdc01373	-0.0937871
65	0x3cdc8dc4	0.026923068
66	0x3be34670	0.006935887
67	0x3c16a240	0.009193957
68	0xbd53fc55	-0.051754314
69	0xbcbc4d4b	-0.022986075
70	0xbc9d31f3	-0.019188857
71	0x3d9b17a1	0.07572866
72	0xbcea3887	-0.028591407
73	0x3d9c5f4f	0.07635366
74	0x3b91ad0f	0.004445679
75	0x3c541242	0.012943806
76	0x3d49cedc	0.049269542
77	0xbdb330cd	-0.087495424
78	0x3c76becf	0.015060141
79	0x3c70737f	0.014675974
80	0x3cafc94b	0.021458289
81	0x3c80e1e8	0.01573272
82	0x3d6c9d2e	0.057767086
83	0xbc4d73b0	-0.012539789
84	0xbc7fb48b	-0.01560701
85	0xbc750846	-0.014955586
86	0xbd0750e5	-0.03303613
87	0x3c90adc9	0.017660992
88	0x3ce6e72b	0.028186401
89	0x3d14df3d	0.03634571
90	0xbd853ede	-0.065061316
91	0x3d2e6e8b	0.04258589
92	0x3d9e6512	0.077341214
93	0xbce378b7	-0.027767522
94	0xbcf439ff	-0.029812811
95	0xbd66ac3f	-0.05631661
96	0x3da2caf7	0.07948869
97	0x3da019c9	0.07817418
98	0xbd0b2b71	-0.033976976
99	0xbcdecc6b	-0.027197083
100	0xbba3445f	-0.0049825157
101	0x3d5a754c	0.05333452
102	0xbc8834cb	-0.016626736
103	0xbc4a8a68	-0.0123621
104	0xbd3183d6	-0.04333862
105	0x3daf4db3	0.08559742
106	0x3d607ba1	0.0548054
107	0xbda289f2	-0.07936467
108	0xbd4b3ac5	-0.049616594
109	0xbd41b09c	-0.04728757
110	0xba7ebd61	-0.0009717551
111	0xbc94b519	-0.01815276
112	0xbcb8b618	-0.022547767
113	0x3d552203	0.05203439
114	0xbcb88f99	-0.02252941
115	0x3c324854	0.010881502
116	0xbd1ded76	-0.03855654
117	0x3d3b311b	0.045701127
118	0xbbdad3ed	-0.0066780956
119	0xbd013e8e	-0.031553797
120	0x3d106aea	0.03525821
121	0x3d783899	0.06060085
122	0x390f9b98	0.00013695506
123	0xbc8fa2f8	-0.017533764
124	0xba9f3b3f	-0.0012148394
125	0x3d000e66	0.03126373
126	0x3ce3b34b	0.027795454
127	0xbd926f1a	-0.07150097
128	0xbd631572	-0.055440374
129	0xbd2ea0ea	-0.04263393
130	0xbd50e54b	-0.05099992
131	0xbb2b4bbc	-0.002613767
132	0x3c8a8f74	0.016914107
133	0x3d01ae88	0.031660587
134	0x3d276e4f	0.040876683
135	0x3cb11466	0.021616172
136	0x3c3fe995	0.011713405
137	0x3ca45da9	0.020064192
138	0xbd4e5962	-0.05037821
139	0xbd8a074e	-0.067396745
140	0xbd3cc007	-0.04608157
141	0xbcfd15bb	-0.030894151
142	0xbd4da7ef	-0.050208982
143	0xbd188772	-0.037238546
144	0x3d73b3eb	0.059497755
145	0x3b15e86e	0.0022874135
146	0x3c7c5df1	0.015403257
147	0x3d9df96d	0.0771359
148	0xbd29ba4e	-0.04143744
149	0xbd2edfba	-0.04269383
150	0xbd1012bf	-0.035174128
151	0xbc42d170	-0.011890754
152	0xbda22535	-0.07917253
153	0x3cdf10ca	0.027229685
154	0xbd4e9b26	-0.05044093
155	0x3d04ee9c	0.032454118
156	0xbd41615d	-0.047211993
157	0x3d885be1	0.066581495
158	0x3dad79b4	0.08470479
159	0x3d112b38	0.035441607
160	0x3ca93dc7	0.02065934
161	0x3c413148	0.011791535
162	0x3d27540a	0.04085163
163	0x3d712928	0.05887714
164	0xbc32f392	-0.0109223295
165	0x3d9daf71	0.076994784
166	0xbd9c7423	-0.07639339
167	0x3d49b737	0.049246993
168	0x3d4acd61	0.04951227
169	0x3c27a2b1	0.01023166
170	0x3a7c1160	0.0009615626
171	0x3d8fc1a0	0.07019353
172	0x3b7c4ab6	0.003849668
173	0x3cb2ef22	0.021842543
174	0x3db63178	0.08896154
175	0xbce80ca9	-0.02832635
176	0xbd2ccc32	-0.042186923
177	0xbd328b32	-0.04358978
178	0xbd03f104	-0.032212272
179	0xbc6b6967	-0.014368392
180	0xbd1b97dd	-0.037986625
181	0x3d3adc65	0.04562034
182	0xbd002bf4	-0.031291917
183	0xbd1eb127	-0.038743164
184	0x3d47e87d	0.048805702
185	0xbc50183a	-0.012701089
186	0x3b509d03	0.0031831868
187	0x3d50c199	0.05096588
188	0xbd18078e	-0.03711658
189	0xbd284bbc	-0.04108785
190	0x3d44a6b0	0.048010528
191	0xbd0a9d2e	-0.033841304
192	0xbbab4ee8	-0.005227912
193	0x3cd63396	0.026147645
194	0x3d7b85bb	0.061406832
195	0xbcc54a1d	-0.024083192
196	0x3ca283a4	0.019838162
197	0xbcb7e881	-0.022449734
198	0x3d905fdd	0.070495345
199	0x3c70887d	0.014680979
200	0xbcc2c33d	-0.023774737
201	0x3ba9507f	0.0051670666
202	0xbd7a2c2f	-0.061077293
203	0xbcf4fcf4	-0.029905774
204	0xbb976817	-0.004620563
205	0x3d142aeb	0.036173742
206	0x3cea3535	0.028589824
207	0xbb82019a	-0.003967476
208	0xbd149543	-0.03627516
209	0x3cc7b2b2	0.0243772
210	0xbd897b25	-0.06712941
211	0xbd4e8968	-0.05042401
212	0xbceaafcc	-0.02864828
213	0x3d521a0d	0.051294375
214	0x3d5c51a5	0.0537888
215	0xbb8b2719	-0.004246604
216	0x3d3ac953	0.045602154
217	0xbcfba5db	-0.030718734
218	0xbd2cdfab	-0.042205494
219	0x3bc924c3	0.0061384155
220	0x3cb966a7	0.022631956
221	0xbcba7b3a	-0.022763837
222	0x3b33071b	0.0027317468
223	0x3d041a5b	0.032251697
224	0xbae1faa3	-0.0017240833
225	0xbbadc0ac	-0.0053025093
226	0xbd28a67e	-0.041174404
227	0x3c44047f	0.011963963
228	0xbd25dc4e	-0.040493302
229	0x3d60de1f	0.05489933
230	0xbd89c9b1	-0.06727923
231	0x3d0624f1	0.032750074
232	0x3b65c7e6	0.0035061776
233	0x3c956ec4	0.018241294
234	0x3d8ae612	0.06782164
235	0xbd845899	-0.06462211
236	0xbc3af4fa	-0.011410946
237	0xbd4e4e27	-0.0503675
238	0x3c151f9e	0.009101776
239	0x3d988dec	0.074489444
240	0x3d81e830	0.063431144
241	0x3d1dd06d	0.03852885
242	0xbd84dcc6	-0.06487422
243	0xbd2930a3	-0.04130615
244	0xbd88c07a	-0.06677337
245	0x3d8fca8b	0.07021054
246	0xbb895165	-0.004190611
247	0xbb38731a	-0.0028144778
248	0xbcd0e77b	-0.025501003
249	0x3c5b2b8c	0.013377082
250	0xbd866352	-0.065619126
251	0xbd467940	-0.048455477
252	0xbd98dfba	-0.074645475
253	0x3c2944a8	0.01033131
254	0x3d234ad6	0.03986629
255	0x3ce6907d	0.02814507

net.1.linear.bias f4 [256]
0	0x3d7c9f1f	0.061675187
1	0xbd663cb8	-0.05621025
2	0xbb96f351	-0.0046066423
3	0x3d4e0261	0.050295237
4	0xbd6480aa	-0.055786766
5	0xbd748d52	-0.059705086
6	0x3a4ca3d8	0.0007806397
7	0xbd8b72ce	-0.06809007
8	0xbd352777	-0.04422709
9	0xbbc7cb19	-0.006097209
10	0x3d30b3ea	0.04314033
11	0x3d560886	0.052254222
12	0xbd08f412	-0.03343589
13	0xbc400b10	-0.0117213875
14	0xbda94f03	-0.082670234
15	0x3d35715a	0.044297554
16	0xbd41135e	-0.04713761
17	0xbd242c87	-0.040081527
18	0xbd8fbfef	-0.0701903
19	0xbc99e964	-0.018788047
20	0xbba354f2	-0.0049844915
21	0xbd5793e2	-0.052631266
22	0xbc70477d	-0.014665482
23	0xbd76fe5a	-0.060301162
24	0x3c058ecd	0.008151722
25	0xbd38d3fe	-0.045124047
26	0xbd2f306f	-0.0427708
27	0xbd8caf75	-0.06869403
28	0xbd8731aa	-0.066012695
29	0xbc67c4f1	-0.014146076
30	0x3c00adad	0.0078539075
31	0xbae26fd5	-0.001727576
32	0xbd07b6ae	-0.0331332
33	0xbda33cf3	-0.079706095
34	0x3d17ef13	0.037093233
35	0x3cdd84ef	0.027040927
36	0xbd16adcb	-0.036786836
37	0xbd38e4e8	-0.045140177
38	0xbd49d75a	-0.04927764
39	0xbd234461	-0.039860133
40	0xba83bec1	-0.0010051356
41	0x3d3d75be	0.046254866
42	0xbd161e0b	-0.036649745
43	0xbd6efe17	-0.058347788
44	0xbc846f33	-0.016166305
45	0x3cc68330	0.024232477
46	0x3addc2e8	0.0016919049
47	0xbd9c17c7	-0.07621723
48	0xbcf0dd54	-0.029402412
49	0x3c1f5a68	0.009726144
50	0x3a9ddb07	0.0012043425
51	0xbaa3cdec	-0.0012497283
52	0x3ab2b822	0.0013635198
53	0xbcdbca35	-0.026829818
54	0xbd1cd230	-0.038286388
55	0xbcf12274	-0.029435374
56	0xbd42cb3a	-0.047557093
57	0xbbd2bf74	-0.0064315144
58	0xbcc86555	-0.024462381
59	0x3d5c793d	0.05382656
60	0x3afe8fcd	0.0019421518
61	0x3d323138	0.04350397
62	0x3b9b33a0	0.004736379
63	0xbdcbada7	-0.09945231
64	0xbcd64cd4	-0.026159681
65	0xbd18630f	-0.037203845
66	0xbc4e3f7a	-0.012588376
67	0x3d9ce3c7	0.076606326
68	0xbbac5e5d	-0.0052602724
69	0xbdccb4d5	-0.099954285
70	0xbceb64e3	-0.02873463
71	0x3baa9f54	0.0052069817
72	0xbc0cdb32	-0.008597182
73	0xbb94d77e	-0.0045422902
74	0x3b53bc3a	0.0032308237
75	0xbd8988c7	-0.06715541
76	0x3ab1bb14	0.0013559782
77	0x3c74d273	0.014942753
78	0x3ca9ff35	0.020751575
79	0xbdc090d3	-0.09402623
80	0xbcd830cc	-0.026390456
81	0xbd04d4eb	-0.032429617
82	0xbcb0e096	-0.021591466
83	0xbd2e4f57	-0.042556133
84	0xbd1ea56a	-0.03873197
85	0xbd0aef2b	-0.033919495
86	0xbda38b47	-0.079855494
87	0xbc215b99	-0.009848499
88	0xbcb96c6b	-0.022634706
89	0x3bbc5c15	0.0057482817
90	0xbc5ba13a	-0.013405139
91	0xbd289a74	-0.041162923
92	0xbda1aed8	-0.07894677
93	0x3b85c64f	0.004082478
94	0x3c336475	0.010949244
95	0xbd1510de	-0.03639304
96	0xbdd0f61f	-0.10203194
97	0xbc7e9ae2	-0.015539857
98	0xbbf03aad	-0.0073312134
99	0xbce040f3	-0.02737472
100	0xbc91957a	-0.017771471
101	0xbc7fdf63	-0.015617224
102	0xbcb0afc0	-0.02156818
103	0xbcada6c5	-0.021197686
104	0xbd7cd04a	-0.061722077
105	0xbd0d80cc	-0.03454666
106	0xbb44d15c	-0.0030032014
107	0x3cbc7477	0.023004754
108	0xbbdf2c3b	-0.0068106926
109	0x3d036e28	0.032087475
110	0xbc2a27b5	-0.010385443
111	0x3d26acc5	0.04069211
112	0xbd5f6ca0	-0.054546952
113	0x3cf310b3	0.029671049
114	0x3c1edd7e	0.009696363
115	0xbd2028db	-0.039101463
116	0xbc716456	-0.014733395
117	0x3af7b967	0.0018899859
118	0xbd5a7b0b	-0.05334
119	0xbd19d6a6	-0.03755822
120	0x3ceb33e3	0.028711265
121	0xbc9301d8	-0.017945215
122	0x3b63e8e8	0.0034776274
123	0xbcaeebdd	-0.021352703
124	0x3cf66574	0.030077673
125	0xbb4bf164	-0.0031119222
126	0x3d0ede0c	0.03487973
127	0xbd1fda17	-0.039026346
128	0x3c8dcee1	0.017310562
129	0x3ca251fa	0.01981448
130	0x3c9247e1	0.01785654
131	0xbd33a266	-0.043856047
132	0xbc6fb345	-0.0146301435
133	0xbd4e2182	-0.050324924
134	0xbd336756	-0.04379972
135	0xbd827993	-0.06370845
136	0xbbb2b067	-0.0054531577
137	0xbcac7b0d	-0.021054769
138	0xbcbc3b46	-0.022977483
139	0x3cb11a53	0.021618998
140	0x3d11d41f	0.035602685
141	0xbcba31dd	-0.022728855
142	0xbcbc166e	-0.022959914
143	0x3bcb1ff4	0.0061988775
144	0xbd5c5457	-0.05379137
145	0xbbee3103	-0.0072690262
146	0xbda9c4d1	-0.08289493
147	0x3c0ae6d2	0.008477883
148	0x3d85eeec	0.06539711
149	0xbcdd1625	-0.026988098
150	0x3c83642d	0.016038978
151	0xbce5b2ec	-0.028039418
152	0xbd152862	-0.036415465
153	0x3d2f6b35	0.04282685
154	0x3d16ea58	0.03684458
155	0xbabb29ec	-0.0014279461
156	0x3bfc0c07	0.0076918635
157	0x3c1a5722	0.009420188
158	0xbd4313b1	-0.0476262
159	0x3d4b1b65	0.049586672
160	0xbc55c1ce	-0.013046695
161	0xbcc98dae	-0.024603691
162	0xbd73600b	-0.059417766
163	0xbbbbcd2a	-0.0057312446
164	0xbd667ba7	-0.056270268
165	0xbd68cde3	-0.056836974
166	0x3b8e0f28	0.004335303
167	0x3ca793ff	0.020456312
168	0xbd897ac3	-0.06712868
169	0x3c418efa	0.011813873
170	0xbd95a7cf	-0.073073976
171	0xbd922cd1	-0.07137454
172	0x3c356cb1	0.011073277
173	0xbbef67ee	-0.0073060906
174	0xbcac6a47	-0.02104677
175	0xbc6304ef	-0.013856157
176	0xbbd63a32	-0.006537699
177	0x3c5c990f	0.013464226
178	0x3d8f9eee	0.07012735
179	0x38cd6f1d	9.795858e-05
180	0xbd14f9a6	-0.036370896
181	0xbcf20a3c	-0.029545896
182	0xbc0f9bbc	-0.008765157
183	0xbc9bcd33	-0.019018745
184	0xbd10abc9	-0.035320077
185	0xbcca8878	-0.024723276
186	0xbc690f77	-0.0142248785
187	0xbd06a7fc	-0.032875046
188	0xbd353a71	-0.044245187
189	0x3cc9055b	0.024538686
190	0xbd78dcc1	-0.060757402
191	0xbcbcdb6d	-0.02305385
192	0xbda005b3	-0.07813587
193	0x3c9a5db2	0.018843506
194	0x3c9f9618	0.01948075
195	0xbdc91ff9	-0.098205514
196	0xbd9f4981	-0.07777692
197	0xbcf3b1be	-0.02974784
198	0xbcfccaf4	-0.030858494
199	0xbd1dcaa0	-0.038523316
200	0xbc29c960	-0.010362953
201	0xbd295f3e	-0.041350596
202	0xbc2fffa8	-0.010742106
203	0xbdb7b2ac	-0.08969626
204	0xbcdbc770	-0.026828498
205	0xbd6dab19	-0.0580245
206	0x3cd4f0dd	0.025993759
207	0xbd59fa0c	-0.05321698
208	0xbdacc2a9	-0.08435566
209	0xbd3e20f6	-0.046418153
210	0x3c86a188	0.016434446
211	0xbc3b2f78	-0.011424892
212	0x3da10486	0.07862191
213	0xbd1d50db	-0.038407188
214	0xbceb30e7	-0.028709842
215	0xbd45cfa9	-0.048293743
216	0xbd3cbbdb	-0.04607759
217	0xbcc8619d	-0.024460608
218	0xbcd0587b	-0.025432816
219	0xbda1accc	-0.078942865
220	0xbd81d5b9	-0.063395925
221	0xbd28473e	-0.041083567
222	0xbd909dfa	-0.07061382
223	0x3c89a90a	0.016804237
224	0xbda23060	-0.07919383
225	0x3cb4c8c6	0.022068392
226	0xbd4b2ac0	-0.049601316
227	0xbd493708	-0.049124748
228	0xbc550433	-0.013001489
229	0x3b1cde79	0.0023936315
230	0xba142d52	-0.0005652505
231	0xbc69a0c2	-0.014259519
232	0x3cf33967	0.029690458
233	0xbd36d46b	-0.04463617
234	0xbd1ff933	-0.039056014
235	0xbbe87f49	-0.0070952517
236	0xbd4060a5	-0.046967167
237	0x3bd8629c	0.006603552
238	0x3c84b002	0.016197208
239	0x3d7ec51f	0.062199708
240	0xbc947c9e	-0.018125828
241	0xbb04a9d0	-0.0020242818
242	0x3bf2df5a	0.0074118795
243	0x3c0e9522	0.008702548
244	0xbc28cf47	-0.010303325
245	0x3c84ecd4	0.01622621
246	0xbd733b38	-0.059382647
247	0x3d17ff05	0.03710844
248	0xbcb94f56	-0.022620838
249	0x3c7e3c23	0.015517267
250	0xbd0fc921	-0.03510392
251	0xbd57690a	-0.052590407
252	0xbcbd4070	-0.023102015
253	0x3d849126	0.06472997
254	0xbd85d920	-0.06535554
255	0xbd558e7d	-0.05213784

net.2.linear.weight f4 [256, 256]
0	0xbc17096a	-0.009218553
1	0x3d10872e	0.035285167
2	0xbd39ab09	-0.045329127
3	0xbd1e3620	-0.038625836
4	0x3cb980b0	0.02264437
5	0x3cd1fa0a	0.025631923
6	0xbc0eff7e	-0.008727906
7	0xbb99b534	-0.0046907905
8	0xbd07ef58	-0.03318724
9	0xbd02998e	-0.031884722
10	0x3d06a0d6	0.03286823
11	0x3d04a243	0.032381307
12	0xbc84e34b	-0.016221663
13	0x3d0603ab	0.03271834
14	0xba7ed6d5	-0.00097213435
15	0x3d88fe18	0.066890895
16	0x3d6bdcd1	0.057583634
17	0x3b8e85b1	0.0043494334
18	0xbcca4332	-0.024690244
19	0x3ce6ad4e	0.02815881
20	0x3d7db4f9	0.061940167
21	0xbd3680be	-0.044556372
22	0xbc2a9935	-0.010412504
23	0x3d0a0fad	0.033706356
24	0xbd2f2c63	-0.04276694
25	0x3cca8b1c	0.024724536
26	0xbd9178eb	-0.071031414
27	0xbd1e9aa4	-0.038721696
28	0xbce5b5f8	-0.028040871
29	0xbc9c7026	-0.019096445
30	0x3d13f83b	0.036125403
31	0x3c7f8366	0.015595293
32	0xb91c9177	-0.00014931509
33	0x3d1e042e	0.038578205
34	0xbc7b4045	-0.015335147
35	0x3b9a0708	0.004700545
36	0xbd7a0cff	-0.06104755
37	0x3cba58c6	0.022747409
38	0x3c14441b	0.009049441
39	0xbd3b8729	-0.045783196
40	0xbd1d8b4d	-0.038462926
41	0xbd4cedb6	-0.050031386
42	0x3d6be052	0.057586975
43	0x3d922d11	0.07137502
44	0x3d0e36bd	0.03472017
45	0xbd01a731	-0.031653587
46	0x3bc2ce22	0.005944983
47	0xbd44e49c	-0.04806958
48	0xbc65781d	-0.014005688
49	0xbcd3aac5	-0.025838265
50	0x3b243fcd	0.0025062442
51	0x3b407e43	0.0029372133
52	0xbcf6f2d2	-0.030145083
53	0xbbb82e23	-0.0056207343
54	0xbd2e57eb	-0.042564314
55	0x3d466573	0.048436593
56	0xbb580263	-0.0032960407
57	0x3b6c1081	0.003602058
58	0x3d392d5c	0.045209274
59	0x3cd60e19	0.02612977
60	0x3d6eb743	0.05828024
61	0xbd472d53	-0.04862721
62	0x3ae41a84	0.0017402922
63	0xbcae7573	-0.021296239
64	0x3b4d61ba	0.0031338767
65	0xbd13f682	-0.03612376
66	0x3c4bdbd6	0.01244255
67	0xbca10c86	-0.019659292
68	0xbd860f2a	-0.06545861
69	0xbd0cca74	-0.03437276
70	0x3d28448b	0.041080993
71	0x3d7458aa	0.05965487
72	0x3acd5223	0.0015664737
73	0x3c29dc63	0.010367486
74	0xbd3c01e3	-0.045900237
75	0xbce7c358	-0.02829139
76	0x3cdf61aa	0.02726825
77	0xbc4cc84e	-0.012498928
78	0xbb6420bd	-0.0034809553
79	0xbcc71c1c	-0.024305396
80	0x3d271fa6	0.040801667
81	0xbc43f900	-0.011961222
82	0x3d47efaa	0.048812546
83	0x3cb66a56	0.022267502
84	0xbd4cf6ce	-0.05004006
85	0x3bfe92a6	0.0077689467
86	0x3cf65fd6	0.030074995
87	0xbc68fa7c	-0.014219876
88	0x3a997503	0.0011707846
89	0x3d1336d5	0.035940964
90	0x3d8804d0	0.06641543
91	0x3c719d53	0.014746982
92	0xbd07462f	-0.033025917
93	0xbd46a830	-0.04850024
94	0x3d706d39	0.058697913
95	0x3ced8cc8	0.028997794
96	0xbbed4b30	-0.007241629
97	0xbc59cba0	-0.013293177
98	0x3d8f87ab	0.070082985
99	0xbc4fd485	-0.012684946
100	0xbd4b3c11	-0.04961783
101	0xbc0f57d9	-0.008748972
102	0xbd693911	-0.05693919
103	0x3d04fb08	0.032465965
104	0xbd455970	-0.048180997
105	0x3cc68341	0.024232509
106	0xbccc05ae	-0.024905052
107	0xbc749da2	-0.014930161
108	0x3c05f49d	0.008175996
109	0x3b0dbc4b	0.0021627124
110	0xbd0f6199	-0.035005186
111	0xbd8926ae	-0.06696831
112	0xbd76b247	-0.060228612
113	0x3d6e718b	0.05821375
114	0xbbdc85e7	-0.0067298296
115	0x3c81c185	0.015839348
116	0xbc17f436	-0.009274533
117	0x3d07cf71	0.033156816
118	0xbd2fdc95	-0.042934973
119	0xbb8a974a	-0.004229461
120	0xbcfe54ea	-0.03104635
121	0x3d421150	0.04737979
122	0x3d65bcae	0.056088142
123	0x3b94ffbc	0.0045470875
124	0x3d6cdb4c	0.057826325
125	0xbd245c51	-0.040127102
126	0x3bed0b98	0.007234048
127	0x3d05aacd	0.03263359
128	0x3cfaf8f8	0.030636296
129	0x3c6b3f81	0.014358402
130	0x3abb3bc8	0.0014284784
131	0x3d0dc2d0	0.034609616
132	0xbcc0293c	-0.023457162
133	0x3c95a119	0.018265294
134	0x3d1feee3	0.03904618
135	0x3ca6b958	0.02035205
136	0xbd849271	-0.06473244
137	0x3d152e49	0.036421094
138	0x3c9c603c	0.019088857
139	0xbd450793	-0.048102926
140	0x3d3564a8	0.044285446
141	0xbda33530	-0.07969129
142	0xbd04dadf	-0.032435294
143	0x3c7a7558	0.015286766
144	0x3c825456	0.015909355
145	0xbd8cf4fb	-0.06882664
146	0xbc811c75	-0.01576064
147	0x3c9047c9	0.017612355
148	0xbd65375d	-0.055961
149	0xbb9dba1f	-0.004813447
150	0xbcd85c7e	-0.026411291
151	0xbcc19989	-0.023632782
152	0x3c709857	0.014684758
153	0xbc8ffee0	-0.017577589
154	0x3d74d51b	0.059773546
155	0xbd741f22	-0.059600003
156	0x3cfdce16	0.030982058
157	0x3d59c7ea	0.05316917
158	0x3d03f257	0.032213535
159	0xbd412d2c	-0.04716222
160	0xbb9b33d3	-0.0047364025
161	0x3d0595ac	0.03261344
162	0x3c4959ac	0.012289446
163	0xbd6e37d7	-0.05815872
164	0xbba6c6b8	-0.005089607
165	0xbcc4b186	-0.024010431
166	0x3c6184d9	0.0137645835
167	0xbcc1cf59	-0.023658441
168	0x3d61cc1e	0.055126302
169	0x3d3847ab	0.044990223
170	0x3ba6a8d8	0.0050860457
171	0xbd02dee5	-0.03195085
172	0x3d24dd7e	0.040250294
173	0x3d2cd7d1	0.042198006
174	0xbd0467c4	-0.03232552
175	0xbcedf2e3	-0.029046481
176	0xbba25f7b	-0.00495523
177	0xbd1b0f5f	-0.037856456
178	0xbd5f467b	-0.054510575
179	0x3d842c60	0.06453776
180	0x3c966bf5	0.018362025
181	0xbbd870ed	-0.0066052587
182	0x3d15613e	0.03646969
183	0x3c16425b	0.009171094
184	0x3c9fc072	0.019500945
185	0xbd1401e1	-0.036134604
186	0xbd6a5f35	-0.057219703
187	0xbd261851	-0.040550534
188	0x3da2c742	0.07948162
189	0x3c8e9f9a	0.017410088
190	0x3c3586ab	0.011079471
191	0xbcefcfb9	-0.029273855
192	0xbd2e681d	-0.04257976
193	0xbc8a2d14	-0.016867198
194	0x3c4a609f	0.012352138
195	0x3d3c7ca0	0.04601729
196	0x3d3a468b	0.04547743
197	0xbc8a2a36	-0.01686583
198	0xbd400f72	-0.04688973
199	0xbd20ebc2	-0.039287336
200	0x3bf1dead	0.0073812813
201	0xbbbc9cc9	-0.005755995
202	0x3cbabd4f	0.022795347
203	0x3daf5435	0.08560983
204	0xbd780727	-0.060553696
205	0xbd05178e	-0.032493167
206	0x3d7290ef	0.05922025
207	0xbc2e556a	-0.0106404815
208	0x3d33acf8	0.043866128
209	0xbb81cfca	-0.003961538
210	0x3c0cc9d0	0.008593038
211	0xbd5c317b	-0.053758126
212	0x3d4402db	0.047854286
213	0x3ca9679b	0.020679286
214	0x3d624dbe	0.055249922
215	0xbca8fb33	-0.020627594
216	0x3d30b3ab	0.043140095
217	0xbc0cca4a	-0.008593151
218	0x3d78afd5	0.06071456
219	0x3d951e92	0.072812214
220	0xbd43d5de	-0.04781138
221	0xbcabeab1	-0.020985933
222	0xbd26337f	-0.040576454
223	0x3d2b7616	0.041860662
224	0x3d5a5099	0.05329952
225	0x3cdf1509	0.02723171
226	0x3bd68fc0	0.006547898
227	0xbc949f21	-0.018142285
228	0x3bdde02c	0.006771108
229	0x3d1652bc	0.036699995
230	0x3d530d78	0.051526517
231	0xbd5b499f	-0.053537007
232	0x3d18817d	0.037232865
233	0x3d44bf8b	0.048034232
234	0xbd353c6a	-0.04424707
235	0xbd3e5a76	-0.04647299
236	0x3c8d45a0	0.017245114
237	0xbd8d84ec	-0.069101185
238	0xbd51ab47	-0.051188733
239	0xbd39547c	-0.045246586
240	0x3da57aec	0.08080086
241	0x3d632ac3	0.055460703
242	0x3d287198	0.041123956
243	0xbd25f443	-0.04051615
244	0x3c0b021c	0.00848439
245	0x3d00e963	0.031472575
246	0x3cd95c7d	0.02653336
247	0xbd5eab08	-0.054362327
248	0x3d54bc38	0.051937312
249	0x3d5e55b5	0.054280955
250	0x3c91016c	0.017700873
251	0xbca11e49	-0.019667761
252	0x3b0956b0	0.002095621
253	0xbd2ad7ca	-0.0417097
254	0x3d1b26c2	0.03787876
255	0x3cf7ae2f	0.030234424

net.2.linear.bias f4 [256]
0	0xbd2febea	-0.042949595
1	0xbd95a1b0	-0.0730623
2	0x3b27b417	0.002558952
3	0xbd2640c3	-0.040589105
4	0x3cdf3967	0.027249051
5	0xbd67d41f	-0.05659878
6	0xbd0715de	-0.03297984
7	0xbd47c1a0	-0.04876864
8	0xbd53e6dc	-0.051733837
9	0x3bcf68e9	0.006329645
10	0xbd849289	-0.06473262
11	0xbb47215c	-0.0030384874
12	0xbc21e5fd	-0.009881494
13	0xbb8d56a4	-0.004313307
14	0xbcc5350f	-0.024073152
15	0xbc86b256	-0.01644246
16	0xbd8873ba	-0.06662698
17	0x3b59ddd2	0.0033243787
18	0x3c9cf580	0.019160032
19	0xbd83c6f0	-0.06434429
20	0xbdbce7af	-0.09223878
21	0x3bdf9a92	0.006823846
22	0xbb598a14	-0.0033193873
23	0x3cd62084	0.026138552
24	0xbc69a78e	-0.01426114
25	0x3b6abff3	0.0035819977
26	0xbd0f099a	-0.034921266
27	0xbd28b762	-0.041190512
28	0xbd79ff27	-0.061034348
29	0xbb7c53b2	-0.0038502035
30	0x3d0ffbe7	0.035152342
31	0xbd643b33	-0.05572052
32	0xba0ed303	-0.00054483133
33	0xbd2155f2	-0.039388604
34	0xbdbcbbc9	-0.09215505
35	0xbd75c90b	-0.060006183
36	0x3ba75d4c	0.0051075574
37	0xbce619b5	-0.02808843
38	0xbd559024	-0.052139416
39	0x3c447b1e	0.011992244
40	0x3ba62de7	0.00507139
41	0x3c5f28ef	0.013620599
42	0xbd590ff9	-0.05299375
43	0xbd9d1767	-0.07670479
44	0x3c2490fc	0.010044333
45	0x3c0a83dc	0.008454289
46	0xbd6273b0	-0.05528611
47	0x3cfcf7e7	0.030879928
48	0xbdabf72f	-0.08396756
49	0xbc8d275b	-0.01723068
50	0xbc1bb401	-0.0095033655
51	0xbd116bbf	-0.035503145
52	0xbb3e8b72	-0.0029074815
53	0xbd218cbe	-0.039440863
54	0x3d6dddf5	0.058073003
55	0xbda2d1fe	-0.07950209
56	0x3d011c5e	0.031521194
57	0xbdafd30b	-0.08585175
58	0x3c9f0959	0.019413637
59	0x3bcc2334	0.0062297825
60	0xbd0e73f7	-0.03477856
61	0xbd5e094a	-0.054208077
62	0xbcdb5c77	-0.02677749
63	0xbc6d1d5f	-0.014472335
64	0xbc48d654	-0.012258131
65	0xbbc0cae8	-0.0058835633
66	0xbbceebc8	-0.0063147284
67	0xbc8aeb43	-0.016957885
68	0xbd79cf58	-0.060988754
69	0xbc6786cd	-0.01413126
70	0xbc25934e	-0.010105921
71	0xbd3a2a4f	-0.045450505
72	0xbd0a5646	-0.033773683
73	0xbd4bcf0d	-0.049758006
74	0xbc326262	-0.010887714
75	0xbd645978	-0.055749387
76	0xbd9e495d	-0.07728837
77	0x3d209c2e	0.039211445
78	0x3d37d397	0.044879522
79	0x3c6d31a7	0.01447717
80	0xbdbcd0e0	-0.09219527
81	0xbc66ae7a	-0.014079684
82	0xbce01244	-0.02735246
83	0xbdbea79b	-0.09309312
84	0x3b2d6f21	0.0026463943
85	0x3bbd99b5	0.0057861456
86	0xbb7e26aa	-0.003878037
87	0xbd86bc92	-0.06578936
88	0x3cfc01ea	0.030762631
89	0xbc5262ce	-0.01284094
90	0xbd4ffa66	-0.050775908
91	0xbdbc4236	-0.09192316
92	0x3b4feeb7	0.0031727978
93	0xbcf5f88e	-0.030025747
94	0xbcd664bb	-0.026171079
95	0xbd9ead9c	-0.07747957
96	0xbd257d63	-0.04040278
97	0xbd53a032	-0.051666446
98	0xbb774ecd	-0.0037736178
99	0x3cb2f778	0.021846518
100	0x3d2dc745	0.042426366
101	0xbc5ddce6	-0.013541436
102	0xbd0792ec	-0.0330991
103	0xbd116a4c	-0.035501763
104	0xbd53d0de	-0.051712863
105	0xbd29f8ae	-0.041496925
106	0xbdb1affa	-0.08676143
107	0xbc35b9ba	-0.011091644
108	0x3ae9c8a1	0.0017836281
109	0xbd326833	-0.043556403
110	0xbcdac6c1	-0.026706101
111	0x3a6cf4c1	0.0009039157
112	0xbc2bd794	-0.01048841
113	0x3ca5c2c3	0.020234471
114	0xbd17477a	-0.0369334
115	0xbcc877d4	-0.024471201
116	0xbdbe7d5d	-0.09301255
117	0xbd91da80	-0.07121754
118	0xbd9f5696	-0.07780187
119	0x3c430f2a	0.011905471
120	0xbc05d795	-0.008169075
121	0x3c1843a7	0.009293473
122	0xbb2ade51	-0.0026072452
123	0xbd5592be	-0.052141897
124	0xbd876d3c	-0.06612632
125	0xbd9ff204	-0.07809833
126	0xbd1eac2b	-0.03873841
127	0x3c01471b	0.007890488
128	0xbc2a625c	-0.010399427
129	0x3d16b104	0.03678991
130	0xbd3369b7	-0.04380199
131	0xbd12b9ab	-0.035821598
132	0xbdb1a441	-0.08673907
133	0xbd7a5469	-0.061115656
134	0xbbdc5da5	-0.0067250305
135	0xbbbc74e8	-0.005751241
136	0xbd923169	-0.071383305
137	0xbb8973e7	-0.004194725
138	0xbd89d80f	-0.06730663
139	0xbd24fb34	-0.04027863
140	0xbd6861ad	-0.056733776
141	0xbd5c5ac8	-0.053797513
142	0xbd78318e	-0.060594134
143	0xbd4fc40a	-0.050724067
144	0xbc2a47f0	-0.010393128
145	0xbd07633a	-0.033053614
146	0xbd180881	-0.037117485
147	0x3bd3be98	0.0064619295
148	0xbd938304	-0.072027236
149	0xbd58e0d4	-0.052948788
150	0xbd02856d	-0.031865526
151	0xbcf73e84	-0.030181177
152	0xbd8fa84d	-0.07014523
153	0xbda8148c	-0.08207044
154	0xbd69b025	-0.05705275
155	0xbc84dfe4	-0.01622004
156	0xbd11a32f	-0.035556015
157	0x3cc52341	0.024064662
158	0x3bec1e5b	0.007205767
159	0xbd2fb4c4	-0.042897
160	0xbb323f03	-0.0027198202
161	0xbcb13ec5	-0.021636376
162	0xbc6724be	-0.014107881
163	0xbd658a76	-0.05604025
164	0xbd82d5a9	-0.06388409
165	0xbd258b2d	-0.04041593
166	0xbc162c57	-0.009165845
167	0xbd6d1d18	-0.057889074
168	0xbda44e2f	-0.08022725
169	0xbcd4220c	-0.025895141
170	0x3c99f418	0.01879315
171	0xbda7a8d1	-0.08186496
172	0xbc22110b	-0.009891759
173	0x3d4680a1	0.048462514
174	0xbd82c25e	-0.06384729
175	0xbd65ab78	-0.05607173
176	0xbcd01768	-0.025401786
177	0x3d85bc6b	0.065300785
178	0xbd53b16d	-0.05168288
179	0x3c84438d	0.016145492
180	0xbce3b637	-0.027796848
181	0xbc48ad8b	-0.012248407
182	0xbd971ec2	-0.073789135
183	0xbc83038e	-0.015992906
184	0xbc3f5097	-0.011676929
185	0xbd9c33a1	-0.07627035
186	0x3b679720	0.003533788
187	0xbd852aff	-0.065023415
188	0xbd06ddfd	-0.03292655
189	0x3c1c44ca	0.009537885
190	0xbce3f66c	-0.027827464
191	0xbd52cb25	-0.051463265
192	0xbd756f31	-0.059920494
193	0xbc4186a9	-0.011811891
194	0x3d9e6f5b	0.07736083
195	0xbd1c3962	-0.038140662
196	0xbca59575	-0.020212868
197	0xbc2cbab7	-0.010542563
198	0xbd304d25	-0.04304232
199	0xbd17c77e	-0.037055485
200	0xbd3ee2d5	-0.046603043
201	0xbcf8d67a	-0.030375708
202	0xbc5593fb	-0.01303577
203	0x3b7d24b8	0.0038626622
204	0xbcec3281	-0.028832676
205	0x3d23c499	0.039982412
206	0xbd8eea42	-0.06978275
207	0xbd489e9a	-0.04897938
208	0xbce1658f	-0.027514247
209	0x3ade74e6	0.0016972094
210	0x3c23a319	0.009987616
211	0xbb817afe	-0.0039514294
212	0xbba4639c	-0.005016757
213	0xba8a771f	-0.0010564065
214	0xbd685611	-0.056722704
215	0xbb061694	-0.0020460235
216	0xbd75d9d5	-0.060022194
217	0x3c8ad533	0.016947364
218	0xbca418e1	-0.020031394
219	0xbd01db78	-0.031703442
220	0xbb5af671	-0.003341105
221	0x3cf42975	0.029804925
222	0xbd099f12	-0.033598967
223	0xbda11d78	-0.07866949
224	0xbd8674b0	-0.06565225
225	0xbd28b86b	-0.0411915
226	0xbd851f18	-0.06500071
227	0xbd2dd176	-0.042436086
228	0xbdb14e3e	-0.08657502
229	0x3c847f38	0.016173944
230	0x3a2078f8	0.00061215414
231	0xbc992bd3	-0.018697655
232	0xbcffa78d	-0.031207824
233	0x3bc5448a	0.0060201334
234	0xbd8b87c3	-0.06813004
235	0xbd3299db	-0.04360376
236	0xbd4d336d	-0.05009787
237	0xbd600f94	-0.054702356
238	0x3b6c5ca8	0.003606597
239	0xbaa9ded5	-0.0012960086
240	0xbc971b71	-0.018445702
241	0xbd5cdf12	-0.053923674
242	0xbd49c597	-0.049260702
243	0x3ca1b22b	0.019738277
244	0x3c1ab03e	0.0094414335
245	0xbd09df9c	-0.033660516
246	0xbd74a319	-0.059725855
247	0xbd66c9a8	-0.056344658
248	0xbc288a7d	-0.010286924
249	0x3bf272d1	0.007398941
250	0xbd070325	-0.032961983
251	0xbb9dd2d9	-0.0048163948
252	0xbd3a51e9	-0.04548827
253	0xbcbcde25	-0.023055146
254	0xbd2bff50	-0.04199153
255	0xbd202359	-0.03909621

net.3.linear.weight f4 [256, 256]
0	0xbd12e5bf	-0.035863634
1	0x3d2e666f	0.042578157
2	0x3d165995	0.036706526
3	0xbcb093bf	-0.021554826
4	0xbcdf7fd2	-0.02728263
5	0x3cc68350	0.024232537
6	0xbd05d088	-0.032669574
7	0x3d95eade	0.07320188
8	0x3da6bc75	0.08141414
9	0x3d5180b6	0.05114814
10	0x3c745cf5	0.014914741
11	0xbcf40cfb	-0.029791346
12	0xbcd61077	-0.026130898
13	0xbbe8e060	-0.0071068257
14	0xbd26c5dc	-0.040716037
15	0x3d5b1f46	0.05349662
16	0x3d576660	0.052587867
17	0x3cdefe1d	0.02722078
18	0x3d9b84ab	0.07593664
19	0x3cf3c982	0.029759172
20	0x3c18ab3c	0.009318169
21	0x3d456c50	0.048198998
22	0x3d239627	0.03993812
23	0xbd248b1a	-0.04017172
24	0xbcc9bec3	-0.024627095
25	0x3c887071	0.016655179
26	0xbcbf6b6c	-0.023366652
27	0x3daad33d	0.08341072
28	0x3bc5a355	0.0060314336
29	0x3cf85ec7	0.03031863
30	0xbd2f87e3	-0.0428542
31	0xbd311417	-0.04323205
32	0x3cce9bb4	0.02522073
33	0x3d45e19f	0.048310872
34	0xbc015d11	-0.007895724
35	0x3d555fec	0.05209343
36	0xbd17772d	-0.03697889
37	0xbd83ae26	-0.064297006
38	0x3d386d17	0.04502591
39	0xbc286386	-0.0102776345
40	0xbd194f75	-0.03742929
41	0xbcfc3a75	-0.030789593
42	0xbcc21688	-0.023692384
43	0xbd769b5c	-0.060206756
44	0x3d3d6396	0.04623755
45	0x3c8896b8	0.01667343
46	0x3ca4441d	0.02005201
47	0x3d000bf9	0.031261418
48	0xbd905a7b	-0.07048508
49	0xbd1cb56d	-0.03825896
50	0xbccf879b	-0.025333216
51	0xbcac100e	-0.02100375
52	0x3c837e46	0.016051423
53	0x3d25a7f6	0.040443383
54	0x3d74ef6f	0.059798654
55	0xbd8b38fc	-0.06797978
56	0x3d15f707	0.036612537
57	0xbd2bf186	-0.04197838
58	0x3c971a96	0.018445294
59	0xbd746b52	-0.05967266
60	0x3d9fa01f	0.077942125
61	0x3d476b91	0.048686568
62	0xbd1a3116	-0.03764447
63	0xbd6e77c3	-0.058219682
64	0xbd81b3e1	-0.06333137
65	0xbd442454	-0.047886208
66	0x3bf62f1b	0.0075129396
67	0xbd475730	-0.048667133
68	0xbaf2ebd7	-0.001853342
69	0xbc382237	-0.011238626
70	0x3d1ef16e	0.038804464
71	0xbcbd9487	-0.023142112
72	0xbca7a16f	-0.02046272
73	0xbb16e393	-0.0023023828
74	0x3d925629	0.0714534
75	0xbd445a11	-0.047937457
76	0xbcfe191f	-0.031017838
77	0xbcf62003	-0.030044561
78	0xbd711eb1	-0.05886716
79	0xbd377baa	-0.04479567
80	0xbd5d5874	-0.054039434
81	0x3d94a9ae	0.07258926
82	0x3d9bfd91	0.07616723
83	0x3d50dcda	0.05099187
84	0xbd3ba5d0	-0.045812428
85	0x3d219da0	0.039456964
86	0x3d4cb52b	0.049977463
87	0xbc92d232	-0.017922495
88	0x3d099262	0.033586867
89	0xbd63490c	-0.055489585
90	0x3d81dbaa	0.06340726
91	0xbbdcf4a4	-0.0067430306
92	0xbc22c22d	-0.00993399
93	0x3da7a903	0.08186533
94	0x3c4ce0de	0.012504784
95	0x3d5b8bee	0.053600244
96	0x3d6b2fb4	0.05741854
97	0xbd06115f	-0.03273141
98	0xbd769093	-0.06019647
99	0x3d62e919	0.05539808
100	0x3b3fe502	0.0029280786
101	0x3c2154ef	0.00984691
102	0x3d261797	0.04054984
103	0xbc0712dd	-0.008244243
104	0x3d479786	0.04872849
105	0xbcd329dd	-0.025776798
106	0xbbbcd037	-0.005762126
107	0x3cf5c76f	0.030002324
108	0xbc6c75f5	-0.01443242
109	0x3d122ae3	0.03568543
110	0x3c7c30c1	0.015392483
111	0xbcc5ec84	-0.024160631
112	0x3c66dbc6	0.014090484
113	0x3d444a05	0.047922153
114	0x3d4e82da	0.05041776
115	0xbcee38d7	-0.029079838
116	0x3cbdf3a2	0.023187462
117	0x3d44cb63	0.048045527
118	0x3cd28dfb	0.025702467
119	0xbc62e291	-0.013847963
120	0x3bd74077	0.006568964
121	0xbd434530	-0.047673404
122	0x3dab0fc4	0.083526164
123	0x3c883c29	0.01663025
124	0x3cb72ce2	0.022360269
125	0x3baf70be	0.005354016
126	0x3d91299e	0.07088016
127	0xbc07f057	-0.008297048
128	0x3d46ea4e	0.048563294
129	0xbc1b888f	-0.009493007
130	0xbc1d9d47	-0.009620017
131	0xbca1dcea	-0.01975866
132	0x3cb04fc4	0.02152241
133	0x3ccf7f99	0.025329398
134	0xbda6ab42	-0.081381336
135	0xbd351d19	-0.044217203
136	0x3c8d2b87	0.01723267
137	0x3cc83e91	0.024443896
138	0xbbfae1dd	-0.0076563195
139	0x3c958f07	0.018256677
140	0xbc2619a0	-0.010137945
141	0x3d5484f8	0.05188462
142	0x3d215112	0.039383955
143	0xbca7fdf8	-0.020506844
144	0x3d709059	0.05873141
145	0xbd323e6f	-0.043516573
146	0x3bf07c4d	0.0073390366
147	0xbbafa8f8	-0.005360719
148	0x3d27b19c	0.040940866
149	0x3d43f765	0.047843356
150	0xbc482b92	-0.012217419
151	0x3d2456dd	0.0401219
152	0x3d816964	0.0631893
153	0xbd43d852	-0.04781372
154	0x3c74b91c	0.014936712
155	0x3c68496f	0.014177664
156	0x3d6821d5	0.05667289
157	0x3cda7a92	0.026669774
158	0x3c232e6e	0.0099598
159	0xbd2b451c	-0.041813955
160	0xbd0e5405	-0.034748096
161	0x3ce81477	0.02833007
162	0x3ca86da2	0.02056009
163	0xbd4528f1	-0.048134748
164	0xbd59caeb	-0.053172033
165	0xbb512297	-0.0031911486
166	0xbb52aac6	-0.0032145246
167	0x3c0651dd	0.008198229
168	0x3d07591e	0.033043973
169	0x3d813df0	0.06310642
170	0xbcbefc65	-0.02331371
171	0xbd23c5b6	-0.039983474
172	0xbd0e4d0e	-0.034741454
173	0xbd9bbf20	-0.076048136
174	0x3d974bef	0.0738753
175	0xbcfda06b	-0.030960282
176	0x3bdf3a05	0.0068123364
177	0xbc1a4b60	-0.009417385
178	0xbd9325e5	-0.07184962
179	0x3d835bf2	0.064140216
180	0x3d4896e0	0.04897201
181	0x3d194cb6	0.037426673
182	0x3c983521	0.018580021
183	0xbd031265	-0.031999964
184	0xbc14e221	-0.009087116
185	0xbc1f92f3	-0.009739625
186	0x3cf33c1c	0.029691748
187	0xbd2ce7db	-0.042213302
188	0x3d972f21	0.07382036
189	0x3cddeea0	0.027091324
190	0xbb9f8af5	-0.00486886
191	0x3d41555b	0.047200542
192	0xbc8a2944	-0.01686538
193	0x3d2ca6fa	0.04215143
194	0x3d88aca0	0.066735506
195	0xbca6c739	-0.020358669
196	0x3d28e5cb	0.041234773
197	0xbb6e44d0	-0.0036356933
198	0x3b71f345	0.0036918682
199	0xbd7b5e86	-0.06136944
200	0xbcc4bd5d	-0.024016077
201	0x3d8bea21	0.06831766
202	0xbccb0970	-0.024784774
203	0x3d1237c2	0.035697706
204	0xbc44f319	-0.01202085
205	0x3d356364	0.04428424
206	0xbcf99029	-0.030464249
207	0x3d0fcad9	0.03510556
208	0xbd5adf97	-0.05343589
209	0x3d17ab3a	0.03702853
210	0x3d2afb34	0.041743472
211	0xbd172ba9	-0.036906872
212	0x3c5e119b	0.013554002
213	0x3db73184	0.08944991
214	0xbc9f6ece	-0.019462015
215	0xbcd1fede	-0.025634225
216	0x3d8f126e	0.06985937
217	0x3d92812a	0.07153542
218	0x3c2fce66	0.010730362
219	0x3d7155b6	0.05891963
220	0xbce1ed35	-0.02757893
221	0x3d1f1694	0.03883989
222	0xbd5fd35d	-0.05464493
223	0x3b8f021b	0.0043642647
224	0x3d315587	0.043294456
225	0x3c70604a	0.014671395
226	0xbd9bcb13	-0.07607093
227	0x3d4db4d6	0.050221287
228	0x3d3aa150	0.045563996
229	0xbd85e85a	-0.06538458
230	0xbcc623ec	-0.02418705
231	0xbcbad157	-0.0228049
232	0x3d1d217a	0.038362004
233	0xbd41535b	-0.047198635
234	0x3d14db2d	0.036341835
235	0xbcca911a	-0.024727393
236	0xbcf567ee	-0.029956784
237	0xbd60ea64	-0.054911032
238	0x3d8f61ae	0.07001053
239	0x3d7401fa	0.059572197
240	0xbcc7ad5f	-0.024374662
241	0xbafa0002	-0.0019073489
242	0xbc070883	-0.008241775
243	0x3c62cf54	0.013843376
244	0xbc74ae28	-0.0149341
245	0x3d07162b	0.032980125
246	0xbc4b0d77	-0.012393347
247	0x3accd1e0	0.0015626512
248	0xbd809e38	-0.06280178
249	0x3da39209	0.07986838
250	0xbbd662ab	-0.006542524
251	0x3d290bb4	0.041270927
252	0x3ce635ae	0.028101768
253	0x3c9a31d3	0.018822586
254	0xbb7278f6	-0.0036998368
255	0xbb0644b1	-0.002048772
