geoinr/model/mlp/pretrained/plane_selu_pmodel.pth (torch, 816263 bytes, 9 tensors)

net.1.linear.weight f4 [256, 21]
-0.29442817 -0.26522842 -0.389884 -0.1387505 -0.036801454 0.18949656 -0.19766611 -0.1503159
0.31732553 -0.06555443 -0.080294505 0.07358003 0.08790658 -0.0010478066 0.040414788 -0.10860429
-0.038983077 0.09001313 0.05162811 0.06042611 -0.0339185 -0.3363039 -0.0022934915 -0.24206497
-0.24565949 -0.16873841 -0.11311187 -0.108258896 -0.35070765 0.25889882 -0.0010458381 0.022956626
0.123973265 -0.23982379 -0.017734505 -0.18678908 0.14986248 -0.26152244 0.03972872 0.079405166
0.068500824 0.08680208 0.1768949 -0.10726444 0.30536443 0.16781534 0.021575024 -0.19448021
0.18817984 0.23235698 0.32841122 0.17207281 -0.03716134 0.19372794 -0.1584586 -0.17550789
0.039785266 -0.05904016 0.061281238 0.01776276 -0.1931116 -0.00351542 0.16604048 -0.033313468
-0.13262872 -0.291688 -0.10237789 0.0005968264 -0.18659805 -0.21863788 -0.0032629597 0.011470337
0.21744356 -0.0073210713 -0.3090563 -0.07270777 0.058603957 -0.2687529 -0.08080483 -0.040404756
0.06458352 -0.11861162 -0.1887087 0.077576295 -0.28572094 0.032539826 -0.07843375 -0.20224902
-0.021057267 -0.024999343 0.1276514 0.14270663 -0.3061553 -0.24588022 0.13408232 0.14442192
-0.18671063 0.20617746 0.026964463 -0.07264779 -0.07716828 -0.00998577 -0.048125114 -0.049209684
0.033937264 -0.22522002 -0.33591017 -0.24798481 -0.37411797 -0.25617877 -0.0292791 0.039304238
0.04579066 0.13641077 0.22750753 -0.18149723 -0.09576783 -0.1556091 0.0702851 0.42284927
0.07113778 -0.14027373 0.17301178 -0.16891986 0.013471651 -0.15616119 0.055076495 -0.16579925
-0.0072475136 -0.10342374 -0.01494772 -0.2817386 -0.14860728 -0.16516249 -0.080635846 0.044504825
-0.16446035 -0.2887214 -0.16146417 -0.07725632 0.1495078 -0.0011809084 0.07971701 -0.046002377
-0.23256443 -0.11960074 0.17268087 -0.21689767 0.0692352 0.024529753 -0.19605613 0.29586938
-0.17488803 -0.25895724 -0.11503686 -0.1735163 -0.0248908 0.057748172 0.08956358 -0.09995182
-0.12966205 -0.21640423 0.13512424 -0.0589532 0.07882556 -0.11737585 -0.009054632 -0.2879548
-0.22255908 -0.33664364 -0.37196016 -0.07425421 -0.23200436 -0.23755734 -0.31111604 0.08446741
0.10995331 0.059796814 0.10432624 0.19794251 -0.12340607 0.11067977 0.22758195 0.17436372
-0.12623574 0.018500157 0.13739587 -0.048041776 0.026281442 -0.059874553 -0.3047274 -0.27562693
0.028454592 0.05669746 -0.07523769 -0.1559157 -0.1497001 -0.0012411225 -0.014779023 -0.08213786
0.07100742 -0.09355286 0.23316534 0.15470074 0.016067404 0.08976064 -0.08636825 0.092554055
-0.12194772 0.07848976 0.22307697 -0.03717718 0.16656433 0.2631724 0.018177377 0.24296665
0.120074034 -0.13601276 0.08010509 -0.16065626 0.2114494 -0.13743024 -0.07935898 0.18688479
0.10396264 0.10782769 0.111917436 -0.032033123 0.22193635 0.15004395 0.17559993 -0.21744151
0.07999257 0.17814405 -0.034130786 0.44311783 0.04451223 -0.076942995 -0.3849269 -0.251472
0.1725936 0.38149577 -0.03293792 -0.06730294 -0.101460926 -0.053266596 0.20677882 -0.09749706
0.014997143 0.044348422 0.14219916 -0.12129862 -0.17959929 0.15721308 -0.24552637 -0.10334995
00000000: 4abf 96be 05cc 87be e09e c7be 9c14 0ebe
00000010: 1fbd 16bd 630b 423e fc68 4abe 69ec 19be
00000020: 7e78 a23e 6741 86bd 7271 a4bd 20b1 963d
00000030: 5d08 b43d 8e56 89ba fa89 253d ed6b debd
00000040: b8ac 1fbd ce58 b83d ff77 533d 5e81 773d
00000050: 20ee 0abd 0630 acbe 674e 16bb e1df 77be
00000060: 298e 7bbe c3c9 2cbe 32a7 e7bd d7b6 ddbd
00000070: f48f b3be 638e 843e 8114 89ba 890f bc3c
00000080: b2e5 fd3d 5e94 75be f447 91bc a345 3fbe
00000090: 8d75 193e 45e6 85be 95ba 223d 2d9f a23d
000000a0: 294a 8c3d 4ac5 b13d f023 353e 75ad dbbd
000000b0: ba58 9c3e c9d7 2b3e 1bbe b03c d225 47be
000000c0: 37b2 403e fdee 6d3e 8425 a83e db33 303e
000000d0: 7d36 18bd 9e60 463e f942 22be 57b8 33be
000000e0: e0f5 223d 18d4 71bd 0902 7b3d 3583 913c
000000f0: 0cbf 45be f662 66bb 8406 2a3e b473 08bd
00000100: d3cf 07be 2158 95be 80ab d1bd 5774 1c3a
00000110: 8f13 3fbe 9ce2 5fbe 61d7 55bb 15ee 3b3c
00000120: 86a9 5e3e 99e5 efbb a13c 9ebe d0e7 94bd
00000130: b40a 703d fb99 89be 017d a5bd 757f 25bd
00000140: 5d44 843d a6ea f2bd da3c 41be 52e0 9e3d
00000150: 044a 92be 7b48 053d e0a1 a0bd 5e1a 4fbe
00000160: 4a80 acbc 6ccb ccbc 0cb7 023e b021 123e
00000170: 63c0 9cbe 06c8 7bbe e04c 093e 57e3 133e
00000180: 1231 3fbe 2f20 533e 94e4 dc3c 5dc8 94bd
00000190: 670a 9ebd 5b9b 23bc d71e 45bd 1890 49bd
000001a0: cd01 0b3d 14a0 66be 6bfc abbe bbef 7dbe
000001b0: 648c bfbe dd29 83be b9da efbc 7bfd 203d
000001c0: fd8e 3b3d 44af 0b3e bcf7 683e 69da 39be
000001d0: ed21 c4bd fe57 1fbe a2f1 8f3d b37f d83e
000001e0: afb0 913d eba3 0fbe 002a 313e 54f9 2cbe
000001f0: 33b8 5c3c b8e8 1fbe e497 613d 47c7 29be
00000200: 8d7c edbb d3cf d3bd 48e7 74bc 0b40 90be
00000210: 822c 18be 5b20 29be 6824 a5bd b14a 363d
00000220: 4b68 28be 4bd3 93be dd56 25be 9038 9ebd
00000230: 9318 193e b6c8 9aba ac42 a33d fd6c 3cbd
00000240: 5f25 6ebe 3cf1 f4bd 41d3 303e 6c1a 5ebe
00000250: 2fcb 8d3d 9ff2 c83c f0c2 48be 317c 973e
00000260: d915 33be 0b96 84be 7298 ebbd 42ae 31be
00000270: cae7 cbbc 5989 6c3d 1c6d b73d 8ab3 ccbd
00000280: 21c6 04be 1299 5dbe 025e 0a3e e978 71bd
00000290: 4c6f a13d c062 f0bd e159 14bc d06e 93be
000002a0: 87e6 63be 8e5c acbe 9071 bebe 9712 98bd
000002b0: 8d92 6dbe 3b42 73be 9a4a 9fbe 40fd ac3d
000002c0: 332f e13d 81ed 743d ffa8 d53d 71b1 4a3e
000002d0: 52bc fcbd 13ac e23d 3e0b 693e 678c 323e
000002e0: f143 01be a48d 973c 81b1 0c3e 74c7 44bd
000002f0: 2e4c d73c 053f 75bd 3b05 9cbe f91e 8dbe
00000300: 9b19 e93c 993b 683d 3816 9abd 5ea8 1fbe
00000310: fc4a 19be 29ad a2ba b723 72bc e537 a8bd
00000320: 576c 913d a498 bfbd e5c2 6e3e df69 1e3e
00000330: ca9f 833c 6dd4 b73d d6e1 b0bd fb8c bd3d
00000340: babf f9bd 3dbf a03d 4a6e 643e 1947 18bd
00000350: d78f 2a3e 88be 863e b9e8 943c 40cc 783e
00000360: 60e9 f53d ee46 0bbe 230e a43d 1383 24be
00000370: 3186 583e 83ba 0cbe f686 a2bd ba5e 3f3e
00000380: 5dea d43d c4d4 dc3d f834 e53d 2a35 03bd
00000390: 4843 633e 1fa5 193e 78d0 333e fda8 5ebe
000003a0: 25d3 a33d 656b 363e b9cc 0bbd 57e0 e23e
000003b0: 7552 363d 4a94 9dbd 2315 c5be f0c0 80be
000003c0: 60bc 303e 6a53 c33e eae9 06bd 20d6 89bd
000003d0: bfca cfbd 132e 5abd d4bd 533e 8aac c7bd
000003e0: 94b6 753c b1a6 353d a89c 113e 696b f8bd
000003f0: e0e8 37be 77fc 203e 446b 7bbe 23a9 d3bd

net.1.linear.bias f4 [256]
-0.2356994 0.01733441 0.23721924 -0.17468117 0.03415945 -0.039625075 0.034072522 0.0143092675
-0.011843243 -0.29664764 0.14136468 0.1274171 -0.25394794 0.0376757 -0.13754235 -0.04016428
-0.2395876 0.037853617 0.09026972 0.119834 0.23773775 0.16298321 -0.15052511 -0.17134959
0.018401047 -0.2071832 -0.11486573 -0.19066928 -0.20752074 -0.21082267 -0.25200155 0.060195714
-0.20962323 0.08834958 -0.2541269 -0.2218072 -0.018973004 -0.10333526 0.049273044 -0.083642505
-0.29542318 0.06370498 -0.18166468 0.14472067 -0.06357146 -0.31613612 -0.20139693 0.0069560185
-0.33792964 -0.31813323 -0.26128128 -0.31341502 0.053798936 -0.07063607 -0.059121884 -0.061877586
-0.2065561 -0.17606749 0.136016 -0.10099868 -0.32686275 -0.09504719 0.011520116 -0.4686467
0.08963193 -0.016246896 0.06908678 -0.122885995 -0.023541115 -0.069477476 -0.032035686 -0.12478365
-0.19715162 -0.14763354 -0.1518621 -0.13639545 -0.031397935 -0.21156172 -0.19103564 0.2489796
-0.20744708 0.050014883 -0.10648776 -0.20886764 -0.2059614 0.04629329 0.16922113 -0.00044933357
0.20127773 -0.11733508 0.04698437 -0.18806702 0.09524349 -0.11506836 0.041035566 -0.20235202
-0.04983226 -0.15990783 -0.11420988 -0.07293167 -0.34730834 -0.046850882 -0.23513255 -0.063719735
-0.051438767 -0.14985144 -0.16114283 0.16629915 -0.27651876 0.082194336 0.027443588 0.21280845
-0.13762227 0.077539705 0.014647503 -0.0049394993 0.0030168614 -0.2628932 -0.27847308 -0.13418204
-0.03131936 0.19289604 0.02139594 -0.25800613 -0.2050632 0.07212305 -0.26392803 -0.31410915
-0.30584928 -0.24262616 -0.19606942 -0.1997451 0.063136846 -0.23785193 -0.13744119 -0.022820598
-0.2832334 -0.26854822 -0.047960177 -0.17314237 -0.3771637 -0.10996252 0.08910531 -0.24005783
-0.08853906 0.07948294 -0.16815652 -0.08534903 -0.08429094 -0.15608719 -0.15859133 -0.24948594
0.23023258 -0.06323373 0.09811207 -0.26945272 -0.24377215 -0.12522127 0.18775612 -0.20556994
-0.015939873 0.24953106 -0.25001055 -0.20400332 0.13302384 -0.13098085 -0.21776241 0.011093581
-0.26707542 -0.17787732 -0.19919808 0.0021259524 -0.12105882 -0.10933121 -0.2280209 0.03673394
-0.47679144 -0.028100543 -0.102854654 -0.032995738 -0.09403168 -0.21507733 0.09692817 -0.15079582
-0.14497255 0.047724515 0.13537388 -0.056864373 -0.115393855 0.16994283 -0.2670337 -0.26523182
-0.3314209 0.04648175 -0.39875045 -0.09000209 0.017323045 -0.1710355 0.043135025 0.10707328
-0.18529688 0.14193057 0.08032015 -0.05719605 -0.18524136 -0.021327998 -0.26016143 -0.13488734
-0.303759 0.0858892 -0.050213847 -0.014537896 -0.054766674 -0.3187249 0.19588996 -0.031861816
-0.1410987 0.09779764 -0.28393564 -0.18812428 -0.24393344 0.098461986 -0.32103357 -0.14994776
0.10941398 -0.066672 -0.23366112 -0.2257424 -0.025982259 -0.17108189 0.020130988 -0.25959077
-0.1971892 -0.2578413 -0.05099721 -0.13201453 -0.20620444 -0.2633018 -0.04765582 0.1120427
-0.12705714 -0.18115348 -0.18574826 0.024670508 -0.30320093 0.052448243 -0.25160456 -0.11668519
-0.17843994 -0.32981694 -0.19594608 -0.324224 0.13681504 0.115802094 0.06808572 -0.14593253
00000000: 2f5b 71be e500 8e3c 9ae9 723e 9fdf 32be
00000010: c8ea 0b3d e74d 22bd a18f 0b3d 6b71 6a3c
00000020: 290a 42bc 33e2 97be e7c1 103e a179 023e
00000030: 7705 82be d651 1a3d e7d7 0cbe 4d83 24bd
00000040: 7456 75be 650c 1b3d 55df b83d 876b f53d
00000050: 8671 733e 12e5 263e 4123 1abe 4476 2fbe
00000060: cbbd 963c d527 54be b93e ebbd cf3e 43be
00000070: 5180 54be e6e1 57be 5906 81be c88f 763d
00000080: 79a7 56be a0f0 b43d ec1c 82be 6d21 63be
00000090: 466d 9bbc 70a1 d3bd 88d2 493d c34c abbd
000000a0: b541 97be c277 823d 4e06 3abe a831 143e
000000b0: c131 82bd 98dc a1be ff3a 4ebe 50ef e33b
000000c0: 1d05 adbe 5ce2 a2be a9c6 85be ef77 a0be
000000d0: 465c 5c3d a5a9 90bd ca29 72bd 5a73 7dbd
000000e0: 7183 53be 094b 34be c747 0b3e 65d8 cebd
000000f0: 8e5a a7be 1aa8 c2bd debe 3c3c 76f2 efbe
00000100: f290 b73d 3618 85bc 5f7d 8d3d a7ab fbbd
00000110: 4cd9 c0bc 354a 8ebd da37 03bd 928e ffbd
00000120: 1de2 49be 3f2d 17be bd81 1bbe 40ab 0bbe
00000130: 1f9b 00bd a3a3 58be d99e 43be 82f4 7e3e
00000140: 026d 54be 68dc 4c3d 4116 dabd 66e1 55be
00000150: 8ce7 52be 089e 3d3d 4e48 2d3e 8894 ebb9
00000160: c01b 4e3e 604d f0bd af72 403d a494 40be
00000170: 050f c33d f6a8 ebbd e914 283d 5e35 4fbe
00000180: e91c 4cbd e1be 23be dfe6 e9bd 335d 95bd
00000190: 66d2 b1be b6e6 3fbd 96c6 70be 7e7f 82bd
000001a0: 75b1 52bd a872 19be a002 25be 534a 2a3e
000001b0: de93 8dbe 8155 a83d 60d1 e03c 75ea 593e
000001c0: daec 0cbe 23cd 9e3d 15fc 6f3c 86db a1bb
000001d0: 89b6 453b f099 86be 0694 8ebe 0467 09be
000001e0: bb48 00bd 8a86 453e 8a46 af3c 6119 84be
000001f0: 16fc 51be 40b5 933d 9321 87be ead2 a0be
00000200: 4798 9cbe fe72 78be 6cc6 48be fb89 4cbe
00000210: e44d 813d 758f 73be 62bd 0cbe 43f2 babc
00000220: f803 91be 277f 89be e471 44bd 3c4c 31be
00000230: 9a1b c1be 0834 e1bd d87c b63d b8d1 75be
00000240: f753 b5bd f4c7 a23d 3931 2cbe 79cb aebd
00000250: baa0 acbd 52d5 1fbe c465 22be 3e79 7fbe
00000260: 17c2 6b3e b080 81bd fbee c83d b5f5 89be
00000270: 689f 79be 013a 00be 2443 403e ed80 52be
00000280: 5694 82bc 1285 7f3e 6201 80be 3fe6 50be
00000290: 6737 083e d81f 06be 1cfd 5ebe dac1 353c
000002a0: 1cbe 88be 7925 36be 95fa 4bbe 9053 0b3b
000002b0: b0ed f7bd 0be9 dfbd 507e 69be 5476 163d
000002c0: 021e f4be 1c33 e6bc 76a5 d2bd 8a26 07bd
000002d0: ae93 c0bd 3b3d 5cbe 4782 c63d 386a 1abe
000002e0: af73 14be c87a 433d 739f 0a3e 9eea 68bd
000002f0: 9d53 ecbd 7e05 2e3e a4b8 88be 77cc 87be
00000300: 00b0 a9be a663 3e3d 0529 ccbe 0453 b8bd
00000310: 0fe9 8d3c ee23 2fbe 5aae 303d 3c49 db3d
00000320: 77be 3dbe 3f56 113e e47e a43d 6846 6abd
00000330: e9af 3dbe 0eb8 aebc e133 85be e81f 0abe
00000340: 4d86 9bbe ade6 af3d 09ad 4dbd 5b30 6ebc
00000350: 0553 60bd e92f a3be 6197 483e 8981 02bd
00000360: 2d7c 10be 214a c83d 0360 91be a7a3 40be
00000370: b0c9 79be 70a6 c93d 835e a4be e88b 19be
00000380: 7014 e03d 548b 88bd dc44 6fbe 0429 67be
00000390: bfd8 d4bc 1730 2fbe bee9 a43c 15e9 84be
000003a0: f7eb 49be c603 84be 73e2 50bd d12e 07be
000003b0: 4227 53be 7ecf 86be c032 43bd a576 e53d
000003c0: 441b 02be 4c80 39be cb34 3ebe ce19 ca3c
000003d0: 273d 9bbe f8d3 563d 50d2 80be a5f8 eebd
000003e0: f6b8 36be c4dd a8be 17a6 48be b000 a6be
000003f0: 3e19 0c3e a629 ed3d 8770 8b3d 566f 15be

net.2.linear.weight f4 [256, 256]
0.086937435 -0.0058323382 -0.100205764 0.0011371893 0.0034920613 -0.034178108 0.030037258 0.04438114
0.025879074 -0.046383347 -0.10682265 -0.07852605 0.084177 0.012469812 0.054976404 -0.056001168
0.08881398 0.04334631 -0.0018719425 -0.05206766 -0.08225815 -0.07213742 -0.024113031 -0.0050525637
0.021011 0.016093107 0.044033 -0.06767973 -0.049986992 0.13707578 0.07771183 -0.03164312
0.05172233 -0.07264486 0.07532127 -0.022602232 0.012781301 0.0085340515 0.08232204 0.06892959
-0.003496229 0.0004302278 0.07916454 0.03171295 -0.018438634 0.049261607 -0.061894875 -0.052324817
0.09087305 -0.023114797 0.091600195 -0.023395354 -0.04596591 0.044957194 -0.019953573 -0.08192701
-0.03484903 0.050192405 -0.09440804 0.082409926 -0.04782359 0.057298604 -0.03312915 0.04279169
0.004553194 -0.017844193 -0.045416445 -0.08034313 0.012138722 -0.006442978 0.06456025 0.0091798
-0.025353177 0.021948747 0.0660256 -0.04059937 -0.06651338 0.038261805 -0.0349654 0.054964732
0.043273367 -0.027824497 -0.056340702 0.07339423 -0.03962492 -0.017562743 0.06990777 0.008771186
-0.08488055 0.011338773 0.032721393 -0.013709677 0.008827331 0.013185539 -0.041894868 -0.052982677
-0.09119651 0.077649556 -0.06342208 0.00014539926 0.08822389 -0.06713396 -0.06974387 -0.030130647
-0.019517785 0.07545131 -0.0658706 0.038965866 -0.07441123 -0.012383062 0.021990668 -0.059238214
0.08617269 0.07126696 0.011419056 0.02624513 -0.037942514 0.04869356 0.008830072 0.011280087
0.06438767 -0.0953215 -0.056133762 0.05954864 0.055755176 0.033873443 -0.060065124 -0.05146416
0.06570616 -8.8161454e-05 0.0562773 -0.061425112 0.03184123 0.028524805 0.021180697 0.02691882
-0.04256165 -0.06919084 0.07294438 0.021694245 0.044972535 -0.024033815 0.01459682 0.0924649
-0.013565827 -0.011647158 -0.0074898084 0.050653957 -0.02330215 0.023788873 0.061214246 0.08216067
-0.06378636 -0.08951733 -0.012313144 -0.023899492 0.041539814 -0.081846684 -0.08327424 -0.02943812
-0.024086704 -0.11656942 0.013998777 0.008530763 -0.017640173 -0.039270505 -0.07544895 0.030362856
0.09462719 0.09337134 -0.00913173 -0.035969935 0.010583222 0.015640346 0.06387751 -0.038005434
0.039471265 -0.04618199 -0.028762305 0.023461422 -0.030938292 0.093426116 0.02684064 -0.028616332
0.012906222 -0.003068045 -0.08681555 0.056904685 0.08152308 0.07414648 0.12917858 0.033016585
-0.05236382 0.009465131 -0.0021529458 -0.04182868 0.024580894 -0.005623685 0.009804013 0.021107718
0.071459204 -0.065191776 -0.025031209 -0.029293079 0.09899578 -0.047849227 -0.04231243 -0.042169385
0.042528898 -0.039537106 0.032919046 -0.09655701 0.078540415 0.08509497 -0.028639777 0.005792684
-0.0067235813 0.019800916 -0.014542053 0.09570484 0.057603452 0.05702202 -0.097111166 -0.006966403
-0.041011795 0.06174233 -0.08488311 0.01108451 0.05908713 0.008595619 -0.078006 -0.0028000148
0.066516005 0.11725315 0.07455469 0.0017356273 0.11112902 0.010246756 -0.020509198 0.0045366166
-0.039655983 0.0006229475 0.023963425 -0.11758708 -0.026090495 -0.0072328304 0.032322593 -0.008840684
0.035525937 -0.026584644 -0.024136495 0.10556515 0.10379531 0.005105832 0.048818998 0.07005751
00000000: 410c b23d 331d bfbb ae38 cdbd be0d 953a
00000010: 11db 643b 58fe 0bbd b210 f63c 00c9 353d
00000020: 5a00 d43c 77fc 3dbd d5c5 dabd 44d2 a0bd
00000030: fe64 ac3d 2f4e 4c3c f02e 613d 7b61 65bd
00000040: 1be4 b53d e68b 313d f85b f5ba e644 55bd
00000050: f676 a8bd c9bc 93bd b188 c5bc fa8f a5bb
00000060: 431f ac3c b1d5 833c f25b 343d ac9b 8abd
00000070: 29bf 4cbd 985d 0c3e 6127 9f3d 379c 01bd
00000080: cbda 533d d4c6 94bd 0a42 9a3d 5128 b9bc
00000090: a968 513c 68d2 0b3c 7598 a83d f52a 8d3d
000000a0: fd20 65bb 3390 e139 0521 a23d 70e5 013d
000000b0: 9e0c 97bc 8ac6 493d 7b85 7dbd 8c52 56bd
000000c0: a61b ba3d 3e5b bdbc e298 bb3d 9da7 bfbc
000000d0: c046 3cbd 0925 383d ad75 a3bc 59c9 a7bd
000000e0: dbbd 0ebd 8d96 4d3d 0159 c1bd 89c6 a83d
000000f0: abe2 43bd f1b1 6a3d 6eb2 07bd 5746 2f3d
00000100: f632 953b fc2d 92bc 9806 3abd f08a a4bd
00000110: 7ee1 463c 9e1f d3bb 2a38 843d df66 163c
00000120: 77b1 cfbc dccd b33c 6e38 873d 864b 26bd
00000130: 2b38 88bd 69b8 1c3d e137 0fbd b322 613d
00000140: 6a3f 313d 33f0 e3bc 82c5 66bd b74f 963d
00000150: bd4d 22bd bedf 8fbc ce2b 8f3d 05b5 0f3c
00000160: dbd5 adbd 43c6 393c de06 063d 8e9e 60bc
00000170: 82a0 103c 2908 583c f499 2bbd 5d04 59bd
00000180: 3cc5 babd bb06 9f3d 6fe3 81bd 5176 1839
00000190: baae b43d 887d 89bd e0d5 8ebd 8cd4 f6bc
000001a0: c3e3 9fbc 3786 9a3d 2ae7 86bd ac9a 1f3d
000001b0: ea64 98bd 54e2 4abc c625 b43c c5a3 72bd
000001c0: 4f7b b03d 69f4 913d fe16 3b3c 0700 d73c
000001d0: 9c69 1bbd e672 473d 02ac 103c 1dd0 383c
000001e0: afdd 833d eb37 c3bd 84ec 65bd 46e9 733d
000001f0: 8a5f 643d e1be 0a3d d906 76bd 15cc 52bd
00000200: f490 863d 52e3 b8b8 0783 663d e698 7bbd
00000210: f36b 023d daac e93c 2483 ad3c db84 dc3c
00000220: 2055 2ebd edb3 8dbd dd63 953d 21b8 b13c
00000230: 1f35 383d 90e2 c4bc 8027 6f3c 3d5e bd3d
00000240: 3443 5ebc b9d3 3ebc 116d f5bb 867a 4f3d
00000250: 27e4 bebc e2e0 c23c cabb 7a3d da43 a83d
00000260: 6ca2 82bd dd54 b7bd 12bd 49bc dec8 c3bc
00000270: a725 2a3d 3c9f a7bd af8b aabd 3628 f1bc
00000280: 7b51 c5bc f3bb eebd 205b 653c 9dc4 0b3c
00000290: 2082 90bc 1cda 20bd fb84 9abd 86bb f83c
000002a0: e6cb c13d 7939 bf3d 409d 15bc 3655 13bd
000002b0: 4065 2d3c 2f20 803c 36d2 823d 96ab 1bbd
000002c0: 9fac 213d 5429 3dbd ed9e ebbc 2b32 c03c
000002d0: 4d72 fdbc 3156 bf3d e7e0 db3c cc6c eabc
000002e0: 9e74 533c 4111 49bb 5acc b1bd e314 693d
000002f0: 93f5 a63d 1cda 973d 6447 043e 663c 073d
00000300: 727b 56bd a313 1b3c 7018 0dbb 8d54 2bbd
00000310: df5d c93c e446 b8bb 03a1 203c 18ea ac3c
00000320: 3459 923d 4483 85bd 400e cdbc 0af8 efbc
00000330: 4dbe ca3d 8dfd 43bd cc4f 2dbd ceb9 2cbd
00000340: c832 2e3d a9f1 21bd 1fd6 063d afbf c5bd
00000350: ccd9 a03d 4646 ae3d f79d eabc 8ed0 bd3b
00000360: 7d51 dcbb 8835 a23c cb41 6ebc e600 c43d
00000370: 99f1 6b3d ec8f 693d 38e2 c6bd 6d46 e4bb
00000380: fcfb 27bd 87e5 7c3d 32d7 adbd ce9b 353c
00000390: 5905 723d a4d4 0c3c 9cc1 9fbd 7480 37bb
000003a0: 8b39 883d 6b22 f03d 21b0 983d fd7d e33a
000003b0: 9d97 e33d 02e2 273c e802 a8bc e6a7 943b
000003c0: 506e 22bd 4d4d 233a f24e c43c 7fd1 f0bd
000003d0: bcbb d5bc 6101 edbb b264 043d 84d8 10bc
000003e0: a583 113d 0ac8 d9bc e6b9 c5bc 8b32 d83d
000003f0: a392 d43d d34e a73b 6ef6 473d 507a 8f3d

net.2.linear.bias f4 [256]
-0.0771012 0.027046585 -0.110772826 -0.07672525 -0.06508418 -0.07967215 -0.10078486 -0.06863903
-0.1009941 -0.004915873 -0.041108813 0.0037001318 -0.11175949 -0.038230523 -0.06906084 -0.09693328
-0.07359299 0.010553921 -0.04224323 0.0070186844 -0.060889307 -0.12269138 -0.048650023 -0.05812601
-0.061235644 -0.0016953691 0.008000579 -0.022625562 -0.021263277 -0.036604274 -0.061385814 0.0032443625
-0.12119568 -0.08316195 -0.060025185 0.020015722 -0.030720871 -0.03842817 -0.071127914 -0.05698915
-0.05542519 -0.025597919 -0.075723946 -0.05774801 -0.06019421 -0.07034952 -0.07587702 -0.0871996
-0.03160225 0.0298574 -0.024720887 -0.003199964 -0.0267282 -0.056126397 -0.10726293 -0.07236877
-0.003662804 -0.080326796 -0.023168236 -0.059306912 -0.008619869 -0.014311888 -0.06201713 -0.047471102
-0.030149387 -0.077184066 0.019430004 -0.046627153 -0.008554004 -0.034570068 0.02984915 0.033737544
-0.014660983 0.007789038 -0.08946155 -0.070154175 -0.107111715 -0.017906478 0.010907473 -0.032636177
-0.06579408 -0.06106856 0.012364116 -0.049919527 -0.08388682 -0.054646492 -0.11092298 0.00627461
-0.051164646 0.0026035712 0.0015856698 -0.06904792 -0.07166757 -0.014544792 -0.08754236 -0.1014385
-0.023834713 -0.058799997 -0.038664207 -0.11207673 0.0060085854 -0.08504797 -0.093647175 0.016178833
-0.0664452 -0.011151703 -0.07606286 -0.120467566 -0.05336066 -0.13546737 -0.049515896 -0.030116653
-0.051067036 -0.047435135 -0.06294354 -0.06712732 -0.13344648 -0.023382353 -0.0041329917 -0.027179254
0.030395526 -0.09360047 -0.021161932 -0.060890436 0.000520092 -0.08564445 -0.045303445 -0.06401883
-0.005307928 -0.060234953 -0.021837909 -0.035177898 0.017000658 -0.07885681 -0.048351035 -0.052911934
-0.123482466 -0.039323907 6.169155e-05 -0.03270561 -0.06119624 -0.0313907 0.033986077 -0.009450329
-0.032869954 -0.052230533 -0.03343925 -0.0036211126 -0.07147919 -0.000223325 -0.039044295 -0.09434929
0.023239054 -0.023693131 -0.093175314 0.000119968485 0.0014719244 -0.04220928 -0.04184823 0.04190368
-0.00044905563 0.044605244 -0.10562009 -0.02641343 -0.087129526 0.10180718 -0.0728113 -0.0096027395
-0.04655819 -0.12608035 -0.0041805524 -0.073239714 -0.1160849 -0.113244526 -0.05807205 -0.072755806
-0.09302978 -0.10465805 -0.083078586 -0.050648943 -0.024132334 -0.058301374 -0.09017554 -0.0034436616
-0.01812 -0.01164353 -0.07366139 0.0010140935 -0.020972656 -0.10664545 -0.04411262 -0.10226166
-0.044783596 0.030576427 -0.1073732 -0.08973441 -0.02908266 -0.04881999 -0.01199967 -0.07920872
-0.06642753 0.005227437 -0.0042598126 0.085229725 -0.089035235 -0.033237398 -0.059441835 -0.03276164
-0.08983718 -0.026825452 -0.01693163 -0.019332929 -0.040935494 -0.056917142 0.0038050525 -0.07750517
-0.06323622 -0.10721473 0.017991286 0.0066644293 -0.06640362 -0.028422855 -0.05333772 0.009980329
-0.024770547 -0.11391172 -0.061998196 -0.06532579 -0.102214314 -0.0901837 -0.037864044 -0.075078085
0.004032554 -0.041797843 -0.065631546 0.005106783 -0.08386606 0.030875232 -0.07059419 -0.09358937
-0.022689834 -0.032927144 -0.10080859 -0.058095835 -0.109895475 -0.050158236 -0.047343552 -0.061162066
0.0151320705 -0.0015344862 0.035014655 -0.107750356 -0.001571149 -0.04761584 0.020532092 -0.041818235
00000000: 3ce7 9dbd cd90 dd3c dddc e2bd 2122 9dbd
00000010: db4a 85bd 272b a3bd 4b68 cebd 9f92 8cbd
00000020: ffd5 cebd 5515 a1bb b761 28bd e97d 723b
00000030: 29e2 e4bd 9c97 1cbd c56f 8dbd f584 c6bd
00000040: ecb7 96bd 5aea 2c3c 3d07 2dbd fefc e53b
00000050: 1167 79bd 9e45 fbbd 3f45 47bd 8a15 6ebd
00000060: 3ad2 7abd 2637 deba dc14 033c 3e59 b9bc
00000070: 5330 aebc 5dee 15bd b16f 7bbd 5f9f 543b
00000080: 7135 f8bd d050 aabd f8dc 75bd 03f8 a33c
00000090: 56aa fbbc db66 1dbd 83ab 91bd 746d 69bd
000000a0: 8605 63bd bab2 d1bc 2815 9bbd 2d89 6cbd
000000b0: 348e 76bd 6913 90bd 6965 9bbd b495 b2bd
000000c0: 5c71 01bd 8297 f43c 7583 cabc 7db6 51bb
000000d0: 19f5 dabc cbe4 65bd abac dbbd 1436 94bd
000000e0: a70b 70bb 6082 a4bd 50cb bdbc ceeb 72bd
000000f0: 5a3a 0dbc 697c 6abc ad05 7ebd 0f71 42bd
00000100: d9fb f6bc ae12 9ebd ac2b 9f3c 1dfc 3ebd
00000110: 1826 0cbc 5899 0dbd 3486 f43c 6130 0a3d
00000120: 9f34 70bc 303b ff3b 9e37 b7bd feac 8fbd
00000130: 635d dbbd 9bb0 92bc 42b5 323c 83ad 05bd
00000140: 0cbf 86bd 0723 7abd dc92 4a3c 6b78 4cbd
00000150: dacc abbd 00d5 5fbd 962b e3bd 3e9b cd3b
00000160: 0592 51bd ada0 2a3b 40d6 cf3a ff68 8dbd
00000170: 72c6 92bd 474d 6ebc 6949 b3bd fdbe cfbd
00000180: 0441 c3bc 44d8 70bd 5c5e 1ebd 7c88 e5bd
00000190: abe3 c43b a12d aebd 17ca bfbd 7989 843c
000001a0: 6c14 88bd a2b5 36bc d8c6 9bbd b3b7 f6bd
000001b0: b590 5abd f5b7 0abe 2ed1 4abd 33b7 f6bc
000001c0: ab2b 51bd 584b 42bd 8be8 80bd 0c7a 89bd
000001d0: 32a6 08be 598c bfbc 0c6e 87bb 07a7 debc
000001e0: 0a00 f93c 9ab1 bfbd ca5b adbc 4068 79bd
000001f0: c956 083a 5b66 afbd 1b90 39bd 4e1c 83bd
00000200: 21ee adbb edb8 76bd 6ae5 b2bc b316 10bd
00000210: f744 8b3c ae7f a1bd bc0b 46bd 2fba 58bd
00000220: 60e4 fcbd 1b12 21bd 6660 8138 51f6 05bd
00000230: e9a8 7abd 8993 00bd fc34 0b3d 8dd5 1abc
00000240: a5a2 06bd afef 55bd 98f7 08bd 3050 6dbb
00000250: ae63 92bd 592c 6ab9 e9ec 1fbd 333a c1bd
00000260: d45f be3c 1918 c2bc b3d2 bebd 9797 fb38
00000270: 96ed c03a a3e3 2cbd 0d69 2bbd 31a3 2b3d
00000280: 3a6f ebb9 fdb3 363d 594f d8bd fa60 d8bc
00000290: f770 b2bd 4880 d03d 171e 95bd cf54 1dbc
000002a0: cdb3 3ebd 351b 01be 04fd 88bb b4fe 95bd
000002b0: ecbd edbd bfec e7bd f5dc 6dbd ff00 95bd
000002c0: 6686 bebd f656 d6bd 1b25 aabd 4475 4fbd
000002d0: 2cb1 c5bc 6ccd 6ebd f4ad b8bd 0eaf 61bb
000002e0: 6570 94bc 81c4 3ebc c8db 96bd 55eb 843a
000002f0: d9ce abbc ee68 dabd 6faf 34bd 906e d1bd
00000300: 016f 37bd 6a7b fa3c 7be6 dbbd adc6 b7bd
00000310: c23e eebc 78f7 47bd 449a 44bc 2e38 a2bd
00000320: 280b 88bd eb4a ab3b e695 8bbb ec8c ae3d
00000330: 1b58 b6bd f023 08bd 4879 73bd 1231 06bd
00000340: 8efc b7bd 0dc1 dbbc 34b4 8abc 1760 9ebc
00000350: faab 27bd f321 69bd 305e 793b 08bb 9ebd
00000360: fe81 81bd 6593 dbbd 7662 933c 4961 da3b
00000370: 9ffe 87bd 0cd7 e8bc a778 5abd 8984 233c
00000380: 9aeb cabc 8c4a e9bd d2f1 7dbd 87c9 85bd
00000390: bd55 d1bd 3bb2 b8bd 5417 1bbd 8ac2 99bd
000003a0: 8423 843b 3734 2bbd d569 86bd cd56 a73b
000003b0: f8c1 abbd 0eee fc3c b093 90bd c9ab bfbd
000003c0: 08e0 b9bc 9dde 06bd bc74 cebd e6f5 6dbd
000003d0: e110 e1bd b972 4dbd 50eb 41bd 1385 7abd
000003e0: 81ec 773c d020 c9ba 876b 0f3d 38ac dcbd
000003f0: 03ef cdba d408 43bd eb32 a83c 9949 2bbd

net.3.linear.weight f4 [256, 256]
0.01938366 -0.08797537 0.008303313 -0.059043657 -0.034059253 -0.085013874 -0.03014491 0.025155881
0.08657905 0.027659036 0.06116652 0.08054491 0.019175 0.0712293 -0.054294392 0.09115853
0.05301844 0.10802887 0.05803736 -0.056107167 0.014016684 0.076315686 0.13097796 -0.06667449
-0.058047667 0.065729715 -0.031066671 -0.060557917 -0.05185757 0.07556879 0.05935297 -0.0006810669
0.11493294 -0.03995824 -0.0029857454 -0.008782292 -0.0030888862 0.05885729 0.09427156 0.044030294
-0.09512202 -0.012091023 -0.042075545 0.024758875 -0.017046237 -0.024836404 0.064346075 -0.053733204
-0.047766794 -0.05093318 0.022402978 0.09626699 0.01289506 -0.023338987 0.010806066 0.06442035
-0.08234861 -0.015702887 -0.052397586 -0.036273867 -0.055947 -0.061480623 0.001138231 -0.0366912
-0.06656936 0.01220986 -0.02026803 0.07099106 0.02895359 0.08371372 -0.018404117 0.055100553
-0.09040655 0.028847417 0.013988087 -0.0763789 0.067804135 -0.035411634 0.019002173 0.037584215
0.0026469075 0.04883624 0.05428313 -0.12691796 -0.04315319 -0.114820406 0.10665405 -0.0054592337
0.075902246 -0.08972527 0.009988235 0.07989326 0.06222492 0.074538015 -0.038689677 -0.0034512116
0.013727452 0.11225588 0.08098325 -0.025047889 -0.11082994 0.07081399 -0.015946385 0.08122671
0.09833944 0.02267016 0.09185707 -0.008014251 0.048655614 0.08036388 0.01476519 0.028354181
-0.06126717 -0.067446515 0.0068289847 -0.0072370186 -0.03647187 0.034823038 0.03048784 0.0394715
-0.07156227 0.06277564 -0.02940853 -0.025472734 0.03716969 0.028041316 0.06597954 0.039519306
-0.053766303 -0.03356798 0.03697398 -0.03220782 0.012043171 0.03417762 0.0061110575 -0.052293155
-0.03836551 0.025157178 -0.005261901 0.095241815 0.116455 -0.038200524 -0.008747521 -0.06255207
-0.062019072 0.084481806 -0.093186244 0.046176776 0.020155491 0.0938505 -0.07869921 -0.013122338
0.07187292 0.007695743 0.0136368405 0.0024331906 0.008534248 0.06049779 0.04482543 -0.06168729
-0.088099204 -0.04474553 0.10411609 0.04591796 0.066676274 0.07704662 -0.023539327 -0.05126267
0.03771093 -0.029131321 0.07043076 -0.017146254 -0.029508349 0.011285049 0.051830433 -0.021090692
-0.006304202 0.0030307353 -0.029932104 0.0060213692 0.029448127 0.099991925 -0.010618438 -0.054735802
0.06363449 0.01386479 0.03869276 0.04845538 -0.026736224 0.043046203 -0.04212968 0.02585854
-0.02604466 0.013483124 0.06737034 0.047515757 0.06967754 0.035616137 0.024874998 0.041350856
-0.008929109 -0.03870931 -0.027618337 -0.04685397 -0.033732314 -0.041853894 -0.03291697 0.028367274
0.09840197 -0.01339744 -0.02978174 -0.07677948 0.080382496 -0.021369787 0.07797257 0.025988523
0.018023353 0.033860445 0.042401955 -0.0043850057 -0.057445258 0.06668459 0.061549217 0.0013009426
-0.05637847 -0.05222882 -0.03371533 0.038047645 0.05196258 0.024014616 -0.05910362 -0.07714185
-0.10183618 0.05116961 -0.06010457 0.021337042 0.0074825156 -0.09913475 0.0339701 -0.022515561
-0.026772352 0.033085912 -0.0053824144 0.05518363 -0.03436361 0.040060118 0.009880473 0.042545184
-0.034332704 -0.040310655 -0.025167024 -0.0051587443 0.0799265 0.0250412 -0.064948834 0.021791928
00000000: 7bca 9e3c 6e2c b4bd 9e0a 083c c3d7 71bd
00000010: b781 0bbd c11b aebd 75f2 f6bc b513 ce3c
00000020: 5b50 b13d 3495 e23c bf89 7a3d bbf4 a43d
00000030: e414 9d3c abe0 913d cc63 5ebd 53b1 ba3d
00000040: dd29 593d 3d3e dd3d 95b8 6d3d a1d0 65bd
00000050: 3ca6 653c 664b 9c3d 161f 063e a38c 88bd
00000060: 64c3 6dbd 4d9d 863d 887f febc 940b 78bd
00000070: 9a68 54bd cfc3 9a3d 1a1c 733d a089 32ba
00000080: f661 eb3d 40ab 23bd 7fac 43bb 9ae3 0fbc
00000090: e96e 4abb 5714 713d 7311 c13d 1c59 343d
000000a0: 55cf c2bd 6d19 46bc 6857 2cbd 20d3 ca3c
000000b0: 8da4 8bbc b775 cbbc e0c7 833d 5917 5cbd
000000c0: 1da7 43bd 4f9f 50bd 7386 b73c a127 c53d
000000d0: cd45 533c 6731 bfbc ed0b 313c d1ee 833d
000000e0: 63a6 a8bd 57a3 80bc da9e 56bd e893 14bd
000000f0: ae28 65bd 1bd3 7bbd b230 953a 8349 16bd
00000100: 8455 88bd dd0b 483c 2409 a6bc c363 913d
00000110: 1430 ed3c 1972 ab3d 3bc4 96bc 1eb1 613d
00000120: 1227 b9bd 6b51 ec3c 4a2e 653c 8a6c 9cbd
00000130: e5dc 8a3d ca0b 11bd 72aa 9b3c e8f1 193d
00000140: bd77 2d3b 8208 483d fd57 5e3d c8f6 01be
00000150: 66c1 30bd f626 ebbd 706d da3d 5fe3 b2bb
00000160: a372 9b3d e2c1 b7bd b2a5 233c 149f a33d
00000170: 8fdf 7e3d 63a7 983d 1179 1ebd b92d 62bb
00000180: 1be9 603c 69e6 e53d 8cda a53d 3b31 cdbc
00000190: cffa e2bd ed06 913d fea1 82bc 305a a63d
000001a0: 3066 c93d c5b6 b93c 8f1f bc3d 344e 03bc
000001b0: 1c4b 473d d195 a43d b2e9 713c 0747 e83c
000001c0: 49f3 7abd 6621 8abd adc5 df3b 8324 edbb
000001d0: 8763 15bd 9aa2 0e3d a2c1 f93c deac 213d
000001e0: 3d8f 92bd 8490 803d 28ea f0bc 32ac d0bc
000001f0: 3f3f 183d e7b6 e53c 4820 873d ffde 213d
00000200: 0e3a 5cbd 947e 09bd 0772 173d 59ec 03bd
00000210: b850 453c d5fd 0b3d 443f c83b 5931 56bd
00000220: 2725 1dbd 6d16 ce3c 066c acbb 240e c33d
00000230: f67f ee3d 2778 1cbd c351 0fbc 4d1b 80bd
00000240: b607 7ebd cc04 ad3d 6ed8 bebd dc23 3d3d
00000250: 211d a53c b134 c03d 0d2d a1bd 13ff 56bc
00000260: 1c32 933d 922c fc3b 0e6d 5f3c 2a76 1f3b
00000270: 3bd3 0b3c 88cc 773d df9a 373d d0ab 7cbd
00000280: 5b6d b4bd 1747 37bd d13a d53d 7914 3c3d
00000290: 928d 883d 9eca 9d3d 8cd5 c0bc cef8 51bd
000002a0: c776 1a3d cfa4 eebc 013e 903d 4d76 8cbc
000002b0: 7ebb f1bc ede4 383c 264c 543d 63c6 acbc
000002c0: 7b93 cebb 4d9f 463b 2c34 f5bc e84e c53b
000002d0: 333d f13c 91c8 cc3d f5f8 2dbc a632 60bd
000002e0: cd52 823d 2529 633c 4d7c 1e3d 2679 463d
000002f0: ed05 dbbc 3751 303d 2c90 2cbd 4ad5 d33c
00000300: 9c5b d5bc 52e8 5c3c 76f9 893d e29f 423d
00000310: 19b3 8e3d 3ae2 113d a7c6 cb3c 845f 293d
00000320: 664b 12bc a78d 1ebd da3f e2bc f3e9 3fbd
00000330: e52a 0abd fd6e 2bbd f2d3 06bd 7c62 e83c
00000340: f986 c93d f080 5bbc d6f8 f3bc 8f3e 9dbd
00000350: 949f a43d b10f afbc 15b0 9f3d e2e5 d43c
00000360: b6a5 933c 40b1 0a3d acad 2d3d 18b0 8fbb
00000370: b84b 6bbd ee91 883d 081b 7c3d 6484 aa3a
00000380: 1ced 66bd e3ed 55bd 1619 0abd d9d7 1b3d
00000390: b7d6 543d 4dba c43c a316 72bd 8cfc 9dbd
000003a0: 7d8f d0bd 3a97 513d 3630 76bd 05cb ae3c
000003b0: e42f f53b 2907 cbbd 3b24 0b3d 8e72 b8bc
000003c0: b151 dbbc 1885 073d f75e b0bb 3b08 623d
000003d0: dbc0 0cbd 1416 243d b5e1 213c dc43 2e3d
000003e0: 73a0 0cbd c91c 25bd 132b cebc af0a a9bb
000003f0: 81b0 a33d 3423 cd3c e503 85bd fc84 b23c

net.3.linear.bias f4 [256]
-0.026400266 -0.045412775 0.0024311745 -0.0750377 0.050087493 -0.0010498107 -0.11112761 0.012765886
-0.014308236 -0.06520798 -0.0604133 -0.029451663 -0.04505466 -0.09464623 -0.06567551 -0.0550859
0.029907113 -0.09369939 -0.05665283 -0.011838169 -0.007149377 0.02313626 -0.083521865 -0.10914333
-0.094173245 -0.10725258 -0.009084376 -0.03432761 -0.041869555 -0.0884159 -0.04648043 -0.059936844
0.06049411 -0.03949096 -0.05297946 -0.05844139 -0.09855441 -0.009639364 -0.02247877 -0.017544748
-0.04025276 -0.122110374 0.0090799425 0.0023735436 -0.039255366 -0.0333288 0.060810953 0.009859376
0.020603754 -0.005367359 -0.024922295 -0.028411599 -0.009532407 -0.073563576 -0.1214076 -0.01050002
-0.07015643 -0.04089815 -0.11497119 -0.08329244 0.0017506838 -0.02904362 0.041920744 0.039074846
-0.10394179 -0.11276444 0.01693259 -0.06512758 0.00806641 -0.048370715 0.081111066 -0.011664561
-0.100779355 0.009110132 -0.11828097 -0.11200163 -0.08712093 -0.04431907 -0.050888296 -0.023501161
0.02722716 -0.04451018 -0.015784593 0.0014795519 -0.09242575 0.0011859924 -0.008622582 -0.06621467
-0.04571923 -0.10042388 -0.049976677 0.020110423 -0.076906756 0.00047331088 0.013079297 -0.032143973
-0.06905082 0.050896555 0.05312694 -0.0035093774 -0.106978916 -0.10365232 -0.007814595 0.03064401
-0.116982356 -0.0357795 -0.061633646 0.02513731 -0.05828899 -0.050853316 -0.022769101 -0.065111354
-0.033274923 -0.036240865 -0.063546725 -0.07705354 -0.073792845 0.04313508 -2.2214932e-05 -0.09309424
-0.07382229 -0.061955728 0.028760884 0.012673484 -0.07561035 -0.060964584 -0.01617069 -0.0600993
-0.044222184 -0.020635953 0.003425523 -0.007826308 -0.051052775 -0.05728353 -0.09500665 -0.055348817
-0.009544193 -0.07279566 -0.009591383 -0.04220909 -0.042981304 -0.070944756 -0.03781314 -0.031221336
0.06986227 0.037054945 -0.081757806 0.03661521 -0.061923496 -0.014389542 -0.090340056 -0.029178534
0.008165032 -0.024969649 -0.015149801 -0.055659734 -0.010625055 -0.03318796 -0.095294036 0.040498096
0.025273701 0.00864286 -0.02288416 -0.06105717 -0.09892199 0.045678444 0.024791874 0.0039057997
-0.07406135 0.03732571 0.02753754 -0.010518955 -0.12126819 -0.055060524 -0.078498885 0.02000639
-0.06606869 -0.023523742 0.008646291 -0.08235368 -0.042530295 -0.09801102 -0.105533704 -0.058732767
-0.09516222 -0.09982496 0.0039061718 -0.11624085 0.0069235703 -0.06062984 -0.00058162375 -0.073369175
-0.08089423 -0.02465419 0.004846818 -0.030622069 -0.064813 -0.018408392 0.016404927 0.022027852
0.044920713 -0.108864725 -0.06741362 -0.088486075 -0.01035946 0.060655557 -0.06325497 -0.050082672
0.04198562 -0.028069837 -0.07168954 -0.06857363 -0.052311648 0.020007165 0.0042100884 -0.058456752
0.03103269 -0.098811395 -0.038246866 -0.009698276 -0.021950468 0.0050642635 -0.022245564 -0.008708884
-0.0045684753 -0.096443094 -0.03485429 -0.031488035 -0.08823853 -0.056626383 0.051753037 -0.0299482
-0.11848642 0.02868071 0.013469422 -0.07691861 -0.061417717 0.014216377 -0.03639749 -0.104043566
-0.09046221 -0.10589255 0.011003458 -0.07886771 -0.07636788 -0.060018245 0.025548518 -0.006703011
-0.003529272 -0.009539135 0.03230909 -0.06600314 -0.024825681 -0.03324915 -0.059548195 -0.0077146515
00000000: 5f45 d8bc bf02 3abd 5754 1f3b 5ead 99bd
00000010: 8b28 4d3d cd99 89ba df96 e3bd 0228 513c
00000020: 176d 6abc c38b 85bd f073 77bd 9d44 f1bc
00000030: 3c8b 38bd e2d5 c1bd e280 86bd c1a1 61bd
00000040: c3ff f43c 77e5 bfbd cc0c 68bd e1f4 41bc
00000050: 5245 eabb 4188 bd3c 830d abbd 8a86 dfbd
00000060: e7dd c0bd 3ea7 dbbd a2d6 14bc 1c9b 0cbd
00000070: 697f 2bbd 6513 b5bd 4362 3ebd 5680 75bd
00000080: acc8 773d 46c1 21bd fe00 59bd 3d60 6fbd
00000090: e5d6 c9bd 6cee 1dbc 6625 b8bc 01ba 8fbc
000000a0: 14e0 24bd 0115 fabd 0ac4 143c 748d 1b3b
000000b0: 3cca 20bd c883 08bd e814 793d 3889 213c
000000c0: 34c9 a83c ace0 afbb d729 ccbc 71bf e8bc
000000d0: d02d 1cbc 80a8 96bd 8ca4 f8bd 4708 2cbc
000000e0: 2dae 8fbd d284 27bd 0476 ebbd 3a95 aabd
000000f0: 3377 e53a e3ec edbc 16b5 2b3d f20c 203d
00000100: 6fdf d4bd 0bf1 e6bd 37b6 8a3c 9c61 85bd
00000110: fa28 043c 5f20 46bd 8f1d a63d b71c 3fbc
00000120: 6865 cebd aa42 153c 4b3d f2bd 1c61 e5bd
00000130: 756c b2bd ea87 35bd 3f70 50bd 8285 c0bc
00000140: 7e0b df3c 4e50 36bd b14e 81bc 86ed c13a
00000150: b649 bdbd 4d73 9b3a bb45 0dbc 8f9b 87bd
00000160: 1644 3bbd 09ab cdbd 58b4 4cbd 9dbe a43c
00000170: 4a81 9dbd b626 f839 8c4a 563c 66a9 03bd
00000180: 846a 8dbd e878 503d a29b 593d 95fd 65bb
00000190: c317 dbbd ab47 d4bd c908 00bc 2609 fb3c
000001a0: 7294 efbd 868d 12bd 9073 7cbd c3ec cd3c
000001b0: 70c0 6ebd 914b 50bd 4486 babc 1a59 85bd
000001c0: 494b 08bd 4d71 14bd c924 82bd 3fce 9dbd
000001d0: b420 97bd 69ae 303d 345a bab7 31a8 bebd
000001e0: 2430 97bd 4ac5 7dbd f29b eb3c 72a4 4f3c
000001f0: 99d9 9abd 00b6 79bd 6578 84bc af2a 76bd
00000200: 5222 35bd bb0c a9bc bd7e 603b ea39 00bc
00000210: b71c 51bd 22a2 6abd d992 c2bd 71b5 62bd
00000220: 3f5f 1cbc e415 95bd 2d25 1dbc 70e3 2cbd
00000230: 2a0d 30bd 7c4b 91bd f3e1 1abd e3c3 ffbc
00000240: f313 8f3d edc6 173d a370 a7bd d5f9 153d
00000250: 7ea3 7dbd 1dc2 6bbc 3504 b9bd d207 efbc
00000260: a0c6 053c 268d ccbc df36 78bc 76fb 63bd
00000270: b614 2ebc 19f0 07bd 8529 c3bd 55e1 253d
00000280: cb0a cf3c c89a 0d3c 9077 bbbc 1517 7abd
00000290: 9d97 cabd 5219 3b3d 5418 cb3c 72f8 7f3b
000002a0: 7aad 97bd d8e2 183d 6896 e13c b257 2cbc
000002b0: 755b f8bd 2587 61bd 06c4 a0bd 71e4 a33c
000002c0: 054f 87bd ddb4 c0bc 2ca9 0d3c 0ca9 a8bd
000002d0: 3f34 2ebd 00ba c8bd 0e22 d8bd c591 70bd
000002e0: 69e4 c2bd 0771 ccbd b0fe 7f3b af0f eebd
000002f0: 1edf e23b ff56 78bd 1c78 18ba 9442 96bd
00000300: e0ab a5bd 95f7 c9bc 0ed2 9e3b 22db fabc
00000310: aebc 84bd 32cd 96bc a063 863c c173 b43c
00000320: c8fe 373d 78f4 debd 2710 8abd 3038 b5bd
00000330: b9ba 29bc f671 783d d28b 81bd 7d23 4dbd
00000340: 1df9 2b3d b7f2 e5bc f7d1 92bd 5570 8cbd
00000350: bd44 56bd 11e6 a33c c8f4 893b 5970 6fbd
00000360: 4538 fe3c a15d cabd bfa8 1cbd 85e5 1ebc
00000370: 78d1 b3bc 1ff2 a53b 543c b6bc b5af 0ebc
00000380: 26b3 95bb f583 c5bd 5fc3 0ebd 99f9 00bd
00000390: 67b6 b4bd 11f1 67bd fefa 533d ed55 f5bc
000003a0: 02a9 f2bd cff3 ea3c daae 5c3c 8187 9dbd
000003b0: 2591 7bbd cfeb 683c 8915 15bd cb14 d5bd
000003c0: 4044 b9bd 31de d8bd d947 343c 6585 a1bd
000003d0: c366 9cbd b1d5 75bd 204b d13c efa4 dbbb
000003e0: 5c4b 67bb 084a 1cbc 8956 043d a72c 87bd
000003f0: 3a5f cbbc 4330 08bd cfe8 73bd 30cb fcbb

net.4.linear.weight f4 [256, 256]
0.049666636 0.009447578 -0.00027711364 -0.02830366 0.04381704 -0.029693188 -0.00091979397 -0.10577813
0.018779933 0.041728605 0.10581606 0.028680256 -0.032832723 0.10941612 0.044944886 -0.05422701
-0.0045133624 -0.040687688 0.052558646 -0.045701005 0.002553302 -0.10480294 -0.0023565022 -0.010368898
0.022067169 -0.08218489 0.013378829 -0.027555859 0.015935443 -0.012701068 0.11605214 0.09775001
-0.020160485 0.05355282 0.07161822 -0.002415287 -0.025430642 -0.05086513 -0.10750523 -0.006354517
-0.06009635 0.08812487 0.003091436 -0.021905284 0.07123051 0.0378984 -0.008397334 0.03656582
-0.04146554 0.033217747 0.026513182 0.06756912 0.06299326 -0.052324675 0.09587646 -0.026472155
-0.06351823 0.007829282 -0.031011363 0.0137320245 0.08357149 -0.068304576 -0.048937593 -0.05738112
-0.062207256 -0.09186403 -0.022225179 0.007805884 -0.09883709 0.015833562 0.085333996 0.02496945
0.0631985 -0.058281556 -0.014122645 0.11052581 0.017033288 0.00949743 0.0120236175 0.055488616
0.06247453 -0.079310626 0.009287928 -0.013982621 0.024271369 0.08011898 0.008610565 0.04838488
-0.05536664 0.020481786 -0.12906563 0.024966305 -0.06897727 -0.034494545 0.07755672 -0.030658238
-0.028655235 -0.029686322 0.05924039 -0.07001834 -0.0025194448 -0.114737116 -0.02240403 0.093082264
-0.0186662 -0.0103935925 -0.070457645 -0.027597247 -0.0050943685 -0.0133646615 0.06405586 -0.01693171
-0.0043285424 0.0990866 0.06072984 0.114121296 -0.07813947 0.030067192 -0.008892768 0.05329397
0.116985284 -0.07059061 -0.06989831 -2.275501e-05 0.055644244 -0.026852872 0.0074826498 -0.00892865
0.0567159 -0.028247926 -0.039002 -0.029044252 0.01666971 0.0515814 0.067207225 -0.010289021
-0.024250606 -0.036639612 0.049853172 -0.0037260004 0.02900472 0.15052886 -0.043958064 0.0076669534
-0.044955608 -0.078684226 0.0209479 0.0052619916 0.040046018 0.021003034 -0.03354901 -0.07260568
-0.052646864 0.031553037 0.0322684 0.046204597 0.057874855 -0.0136987595 -0.064311065 0.027948584
-0.049229484 -0.04818009 0.04679525 0.018537225 0.058050204 0.07886158 -0.047146745 0.08476922
0.074330725 -0.05960859 0.00307734 0.02078535 0.019373355 0.10953056 -0.0036355718 -0.011766789
0.034227706 -0.09550701 -0.025357023 -0.012883568 -0.011259343 0.070784055 0.038372956 0.08701655
-0.0027905386 0.073644616 -0.0792699 -0.006669268 0.06368302 -0.0048742504 -0.009920499 0.055691924
0.026050463 0.023715634 0.02697185 -0.039176308 0.0074666017 0.025551427 -0.08987377 -0.022759832
-0.07270123 0.0021020768 0.03809452 0.0681125 0.0615809 -0.14711994 0.080719836 0.08698229
-0.011909951 0.09199156 0.06368024 0.03707456 -0.022932114 -0.0894924 0.035175297 -0.0021956828
-0.048159055 0.097019546 -0.116271466 -0.0068533714 -0.022682663 0.010025034 -0.08440472 0.041377578
-0.07863408 -0.039937217 0.046464607 0.03690412 0.053603854 -0.039496258 -0.11980155 0.028476544
0.005590419 -0.044588 0.042345524 0.07938546 0.06360506 0.081579044 -0.028643552 -0.020361204
0.048898693 0.010972698 0.06246371 0.043485835 -0.04403326 -0.041446123 -0.037420765 -0.008562827
-0.037581723 -0.016135296 0.023231588 0.016302811 0.09962493 0.057356376 -0.006937739 0.033441972
00000000: 3e6f 4b3d 04ca 1a3c 9049 91b9 14dd e7bc
00000010: 7f79 333d 213f f3bc 541e 71ba 34a2 d8bd
00000020: 60d8 993c 9deb 2a3d 17b6 d83d dbf2 ea3c
00000030: 9b7b 06bd 8f15 e03d 2118 383d 241d 5ebd
00000040: d4e4 93bb 22a8 26bd bc47 573d fa30 3bbd
00000050: 4d55 273b eca2 d6bd 8c6f 1abb 4fe2 29bc
00000060: 35c6 b43c 8d50 a8bd e032 5b3c d3bc e1bc
00000070: 0c8b 823c 2418 50bc bfac ed3d 2831 c83d
00000080: 9a27 a5bc 345a 5b3d 93ac 923d cb49 1ebb
00000090: ec53 d0bc f457 50bd b42b dcbd 8d39 d0bb
000000a0: 9727 76bd d07a b43d b199 4a3b b672 b3bc
000000b0: 4de1 913d 5a3b 1b3d f994 09bc 0bc6 153d
000000c0: c5d7 29bd 550f 083d 2c32 d93c ae61 8a3d
000000d0: 9c02 813d 6652 56bd e15a c43d 22dc d8bc
000000e0: d915 82bd 6446 003c 8b0b febc 49fc 603c
000000f0: 8827 ab3d 45e3 8bbd c972 48bd 7708 6bbd
00000100: 09cd 7ebd 3523 bcbd 9411 b6bc 80c8 ff3b
00000110: 1a6b cabd 63b5 813c 97c3 ae3d bb8c cc3c
00000120: 376e 813d a4b8 6ebd ab62 67bc 5b5b e23d
00000130: 6589 8b3c 1c9b 1b3c b5fe 443c 0848 633d
00000140: 4be5 7f3d 9c6d a2bd 652c 183c 5d17 65bc
00000150: c0d4 c63c 6b15 a43d 5413 0d3c 392f 463d
00000160: 21c8 62bd 6bc9 a73c c829 04be 2386 cc3c
00000170: f443 8dbd 274a 0dbd 0fd6 9e3d fc26 fbbc
00000180: 62be eabc bb30 f3bc 0da6 723d c765 8fbd
00000190: 451d 25bb 4bfb eabd a888 b7bc eaa1 be3d
000001a0: dce9 98bc e349 2abc 194c 90bd 9f13 e2bc
000001b0: a9ee a6bb 74f7 5abc b82f 833d 5fb4 8abc
000001c0: 72d6 8dbb eaed ca3d dabf 783d 6db8 e93d
000001d0: 9607 a0bd 794f f63c f9b2 11bc c74a 5a3d
000001e0: fb95 ef3d cf91 90bd d826 8fbd 03e2 beb7
000001f0: 38eb 633d 8efa dbbc 0431 f53b 7949 12bc
00000200: ee4e 683d 3268 e7bc 90c0 1fbd 36ee edbc
00000210: ea8e 883c 0547 533d f1a3 893d 4893 28bc
00000220: 35a9 c6bc 6b13 16bd d732 4c3d ea2f 74bb
00000230: 4e9b ed3c 3d24 1a3e 5f0d 34bd 113b fb3b
00000240: 5f23 38bd 3225 a1bd ee9a ab3c c96c ac3b
00000250: 4b07 243d 8e0e ac3c b06a 09bd 49b2 94bd
00000260: 3da4 57bd c23d 013d df2b 043d 0841 3d3d
00000270: 2f0e 6d3d c370 60bc 85b5 83bd 6ef4 e43c
00000280: dba4 49bd 7c58 45bd 60ac 3f3d 61db 973c
00000290: 0dc6 6d3d 2e82 a13d f21c 41bd 7c9b ad3d
000002a0: b53a 983d 2328 74bd 33ad 493b 0a46 aa3c
000002b0: dfb4 9e3c 8f51 e03d c642 6ebb 7dc9 40bc
000002c0: 5a32 0c3d 2e99 c3bd 88b9 cfbc 9a15 53bc
000002d0: 1b79 38bc 3bf7 903d f62c 1d3d bc35 b23d
000002e0: 78e1 36bb fdd2 963d 4258 a2bd e089 dabb
000002f0: 3e6c 823d 2db8 9fbb 9789 22bc 371d 643d
00000300: c867 d53c 4a47 c23c 12f4 dc3c 5677 20bd
00000310: 65aa f43b 3a51 d13c bd0f b8bd d472 babc
00000320: 62e4 94bd ffc2 093b 0009 1c3d 917e 8b3d
00000330: 413c 7c3d 9ca6 16be 7150 a53d c523 b23d
00000340: f521 43bc 1266 bc3d c96a 823d 7edb 173d
00000350: 21dc bbbc cb47 b7bd f913 103d 72e5 0fbb
00000360: 6e42 45bd 2fb2 c63d bc1f eebd 3f92 e0bb
00000370: fed0 b9bc 0a40 243c 62dc acbd 897b 293d
00000380: e80a a1bd 3595 23bd ac51 3e3d c628 173d
00000390: b78f 5b3d d4c6 21bd 845a f5bd a447 e93c
000003a0: d52f b73b e8a1 36bd 8072 2d3d d894 a23d
000003b0: 5f43 823d ea12 a73d e2a5 eabc 8acc a6bc
000003c0: ff49 483d d5c6 333c f2d9 7f3d 341e 323d
000003d0: 385c 34bd 69c3 29bd 8446 19bd 194b 0cbc
000003e0: 4bef 19bd 2b2e 84bc 2c50 be3c 798d 853c
000003f0: 2808 cc3d 85ee 6a3d f955 e3bb 73fa 083d
