geoinr/model/mlp/pretrained/plane_relu_model1L.pth (torch, 270359 bytes, 5 tensors)

net.0.linear.weight f4 [256, 3]
00000000: 2132 0abf 96dd 63bf 8db1 37bf 39c2 8ebe
00000010: b7f6 6fbe 2ed6 af3f ec76 9dbf ae31 b5be
00000020: 0c2e 403f 8bb8 513f bff3 8cbf 8143 1c3f
00000030: 722d 823f 87b8 f43e 60e2 683e 4c2b 5a3f
00000040: 380a ac3f c923 f03e 04da 453e dc42 0c3f
00000050: 8273 89bf f2bd 4cbf 0d78 c3be afa6 b7bd
00000060: 453b 60bd 632e 8ebf 4ae1 64bf 5785 3bbf
00000070: 8884 03bf fceb a7be 6430 1ebf 0f89 b8be
00000080: a3fb 78be c1b8 df3e 5dc9 1a3f 6e32 0abf
00000090: 970b 41bf aa59 89bc ee4a 8c3e d7f1 253f
000000a0: e40e 7c3f e8d1 0c3f c6b3 6abf 7e9b 8d3f
000000b0: ae60 5dbf 64dc 23bf 66f0 a43f 9d83 22bd
000000c0: a5ac bdbe ec5e a7bd 1012 273f b28d 6dbf
000000d0: 1cb5 9fbd da39 e9be e434 cf3d 54e5 a6be
000000e0: 0e42 bebe 3d6a a73f eb30 74bf 042b 57be
000000f0: 7c7a 80bd 0896 303f 6f9c 423f ffc4 e1bd
00000100: adf8 4c3f ad5d f8be b323 103f b78c fc3d
00000110: 38f0 9a3f 373d 2dbf 4c4a 4c3f 794c 3c3f
00000120: ba45 dfbe 11ef 873e 667f 5abe e0c7 aebe
00000130: a582 adbb a5ee 9d3e dff9 b53e 4084 273e
00000140: 3376 733f 9abf 00bf 27cd 963f b354 8e3f
00000150: 529f a2bf a67f aabf 316b 80bf 5770 edbd
00000160: 1b22 7fbf 09a1 243f 1070 19bf e3ac 0abe
00000170: 79d8 763f 8f9d 873e 08b6 6abf b6e7 873f
00000180: e276 c4be fea2 5d3e 3e21 d7be b1ef a2bf
00000190: dfbf 303f 9765 11bf d01e 583f 0139 933f
000001a0: bb46 783f b3ed fabd 51c5 923f c014 9b3f
000001b0: 1999 57bf 8d9e 383f 3e0e 09bf 6009 21bf
000001c0: 5d11 83bf 7833 483e 8902 423f 9698 3b3f
000001d0: 800e 183f 0137 f53e 4c94 5fbe bfe0 873f
000001e0: b086 233f 011d 1f3e 75e8 cc3e 22c6 7dbf
000001f0: ba0c 8d3f d02c 9cbf 5460 063f 3447 7abf
00000200: ff36 e9be 2149 2d3f 86db a83e c5c5 8c3f
00000210: 5135 10bd 6c8d be3e d3db 9fbf 45ee 7b3f
00000220: 36cd 31bf 4901 9ebf 4dd4 2dbf aa09 343f
00000230: 274a 96bd 1aa1 d33c 9632 3f3f bd13 90be
00000240: 9bc7 c33e 471e bfbe 0bd5 0abf 0bbf 6f3f
00000250: 81cc 863f 743c 3cbf 69c8 58bd 17cd 56bf
00000260: ea76 b9bd 64ca e3be 9495 3b3f cb56 823f
00000270: f52f 1cbf d55e 86bf f053 ab3e 3731 153e
00000280: 9352 493f f88f 84bf db7d 8cbf 84c1 f93e
00000290: f0ce a83e 0c09 343f a9a2 70bf 11b9 67bf
000002a0: 91d8 abbf b6cf 763f eb22 8a3f f6b1 e4bd
000002b0: 5031 64bf d0ec 0f3f 8b1f 923f 2343 ab3c
000002c0: c3c8 d93e 995b 25bf 3f08 253f cdab 7bbf
000002d0: bf98 8fbf 4f2a 67bf 4c77 913e 81c6 a33f
000002e0: 5dc7 463f 4148 eabd 8b74 143f 0011 7cbf
000002f0: 08ba 89bf 465d 55be 2797 e33e 8989 963f
00000300: 0447 f1be 8a94 97bf 2de3 99bf de2f 763f
00000310: ebba 8dbf 6471 993f f02b 343e 0daa 593f
00000320: 635d 8ebf fdb2 213e 85be 9f3d 7d3e 27bf
00000330: 0ad1 a4bf 03a9 313e 6c59 773f 5e0e 8bbf
00000340: 3a4e 94bf acd2 973e 63df be3e dfe4 783e
00000350: c58e 983e 1b16 a83f f963 bebd 2e09 dcbe
00000360: dcf5 81bf a112 a43f 8d83 adbd 8b4d f73e
00000370: 3785 54bf cb11 873e 282f e83e f21e 93bf
00000380: 4324 a23f 0e24 913c 860f dabe f55c 8dbf
00000390: 90d8 79bf ef2b 8dbf 4071 783f efc5 43bf
000003a0: fc0c 623f 4888 9a3f 2a9b 1abf 1382 5d3f
000003b0: 6b22 2f3f f5ab f53e 3943 0abf b326 e7bd
000003c0: cfa5 503f 43c4 01bf 8b35 e6be dc70 833f
000003d0: cea4 b73e 23d8 32bf 5970 25bf 8b18 92be
000003e0: 2785 203f 30ec 763f ae59 6c3f e626 7abf
000003f0: 29eb 973f 1115 67be 3456 9dbf fafb 18bf
-0.5398274 -0.8900999 -0.71755296 -0.27882555 -0.23433958 1.3737237 -1.2301917 -0.35389465
0.7507026 0.81922215 -1.1011885 0.610405 1.0170119 0.47797033 0.22742605 0.85222316
1.3440619 0.46902302 0.19321448 0.5478952 -1.0738375 -0.79977334 -0.3817753 -0.08967339
-0.054744024 -1.1107906 -0.89406264 -0.73250335 -0.513741 -0.3279723 -0.6179259 -0.36042067
-0.24314742 0.43695644 0.60463506 -0.539832 -0.7540831 -0.016766388 0.27400917 0.64822143
0.9846022 0.5500779 -0.9168056 1.1063077 -0.86475646 -0.64008164 1.2885864 -0.039676297
-0.3704578 -0.08172402 0.65261936 -0.92794335 -0.07798216 -0.4555195 0.1011751 -0.32596838
-0.3715977 1.3079296 -0.9538714 -0.21012503 -0.06273362 0.6897893 0.7601995 -0.11023902
0.8006695 -0.4850897 0.5630447 0.12331527 1.2104559 -0.6767153 0.7980087 0.7355419
-0.43607885 0.2654958 -0.21337661 -0.34136868 -0.005295115 0.30846134 0.355422 0.16359043
0.9510223 -0.5029236 1.1781358 1.1119598 -1.2704871 -1.3320205 -1.0032712 -0.11593693
-0.99661416 0.6430822 -0.5993662 -0.13542514 0.9642406 0.26487395 -0.9168401 1.0617588
-0.3837195 0.21644208 -0.4201755 -1.2729398 0.6904277 -0.5679564 0.84422016 1.1501771
0.96982926 -0.12252369 1.1466466 1.2115707 -0.84217983 0.7211693 -0.53537357 -0.6290493
-1.0239674 0.19550884 0.7578512 0.732797 0.59397125 0.47893527 -0.21833915 1.0615462
0.6387739 0.15538408 0.400211 -0.9913045 1.1019509 -1.2201176 0.52490735 -0.977649
-0.4554977 0.6768971 0.32979983 1.0997854 -0.035207096 0.3721727 -1.248896 0.98410445
-0.6945375 -1.2344142 -0.6790207 0.70327246 -0.07338362 0.025833655 0.74686563 -0.2814006
0.38238224 -0.37327787 -0.5423133 0.93650883 1.053116 -0.73529744 -0.0529255 -0.8390669
-0.09055884 -0.4449035 0.73275113 1.0182737 -0.61010677 -1.049769 0.33462477 0.14569555
0.78641623 -1.0356436 -1.0975908 0.48780453 0.3297038 0.70326304 -0.939982 -0.90516764
-1.3425466 0.9641069 1.0791906 -0.11166756 -0.89137745 0.5622072 1.1415876 0.020906037
0.42535982 -0.6459289 0.6446571 -0.9830902 -1.121849 -0.9029893 0.2841133 1.2794954
0.77647954 -0.114395626 0.5799033 -0.9846344 -1.0759897 -0.20836362 0.44451258 1.1760722
-0.47124493 -1.1842206 -1.2022454 0.9616679 -1.1072668 1.1987729 0.17594886 0.850251
-1.1122249 0.15790935 0.078000106 -0.65329725 -1.2876294 0.17349629 0.9662082 -1.086376
-1.1586373 0.29652917 0.37279806 0.24306057 0.29796425 1.3131746 -0.09296412 -0.42975754
-1.0153155 1.2818185 -0.08472357 0.48301348 -0.8301577 0.26380762 0.45348477 -1.1493819
1.2667316 0.017717388 -0.42589968 -1.1043993 -0.97596073 -1.1029032 0.97047806 -0.764739
0.8830106 1.207284 -0.6039301 0.865266 0.6841189 0.47982755 -0.54008824 -0.11286678
0.81503004 -0.50690097 -0.44962725 1.0268817 0.35867923 -0.6986105 -0.64624554 -0.2853435
0.62703174 0.96454144 0.9232434 -0.97715604 1.186864 -0.2256663 -1.2291932 -0.59759486

net.0.linear.bias f4 [256]
00000000: f4af 11be 5dbe 8b3d ee1b 8bbe 41c0 2d3e
00000010: 0760 a5be bc55 ed3e a4ae ebbd 5fd0 cebe
00000020: 3f0d 903d 9542 33be 07a9 823e c565 81be
00000030: 65be b33d 0049 69be 4d17 823e e696 ffbe
00000040: 3975 1b3e eea0 bb3e aa1d 013f e707 82ba
00000050: 7a12 02be 5c9a f9be bd63 213e 597e a93d
00000060: aa66 293e bbb9 b2bc baad fdbd 846b 6a3e
00000070: 43f7 aabe a7b4 f8be da8a 983d 6e01 10bf
00000080: f49b 93bd 0bf2 90be 8a4d 59be 5b84 a0be
00000090: 60c2 793d 64b1 f23d cc4a 0fbf 87f8 0f3f
000000a0: 4f87 88be a11f 033f b259 8f3e cd60 f5be
000000b0: 0c2b a43e 00fe ea3e 8e14 c8bc c5be 3fbd
000000c0: 3b9a 64be a2a7 a53e 703f 07bf 52ea 9b3c
000000d0: 4aac 8abe 179e e9be 4c7c afbe 618e d23d
000000e0: 451a 88be 5ba9 1fbe 30ed 553e 240b 8c3e
000000f0: b8b1 883e 2f1d a93e 0051 fabe 7fd1 2e3e
00000100: de7e ae3b 1444 823e 2f69 e9be 2629 ecbe
00000110: a94c 2bbf d93c dfbe 265f b43e 42c7 e43e
00000120: 3459 fabe f56c 983e 3582 f5bc c79b 233e
00000130: 1b8d a3bd f240 9a3e df88 0abf 313c 853e
00000140: 15e1 0fbe aff1 34be 37bf 0a3f b0e5 993e
00000150: 420d 2bbe eedd 103f 0343 493e 82a8 a73e
00000160: f6d6 173d 985c 46be 3943 bdbd 9e72 d83e
00000170: 65dc fabe 87f9 93be 3577 c1be 6a58 dd3e
00000180: d11a d23e 4ab8 02bf 23be 1bbe 0518 50be
00000190: cac6 ea3d 229d 03bf 5f71 b9be e603 ab3e
000001a0: de5c 53be 1b91 953e d7ea 42bd 516a 6a3e
000001b0: 9854 94bc 6115 81bd 90ad d43e c984 613e
000001c0: 3fc0 59be 42e9 afbd f11b 06bf 27ee b5be
000001d0: b861 89be dd72 22be d984 0cbf 3863 83bd
000001e0: dcdf 19bf 6958 583e fd61 233e fe4d 8b3e
000001f0: 5d6d bcbd a691 c7be 706a 083f 4725 61be
00000200: 973d 973e e34d 6b3e 220e df3e 8fee 85be
00000210: c4fe b43d 61cb c03e 2ea3 edbe c53a 663e
00000220: 1adc 78be 212b f23d 7444 ecbd ec1c 57be
00000230: 51d9 e7be 04f0 f1be b9ea b93d e343 b8bd
00000240: cdc6 d63d a7f0 8d3e 19cc 9ebe 0911 9bbd
00000250: c83a 54be 35eb 76be 9a2f a73e 544e c13d
00000260: bf8f 4bbe 4b33 f33d 9793 c9be eb17 c9bd
00000270: 26c4 d7ba b8f0 9e3e 3f56 aa3e 668f d4be
00000280: 47fd 09bf eba5 083e 7deb 0dbf d1ce f53e
00000290: f759 e4be 1f6d a2bd 4cc9 f5be 863c 13bf
000002a0: 9eec 07bf 9236 a93e 35f8 f43e 2165 8b3e
000002b0: d253 adbe 1a2c ebbe 3e77 21bf f9f2 16bf
000002c0: 8cf6 7cbd 8b5b 05bf 5c99 61be 4f10 9d3e
000002d0: bed8 0bbe 8553 133e c6c0 91bb ad91 113d
000002e0: 1096 993d 0d25 04bf af5a fd3e 05f1 eb3e
000002f0: 2df2 463e acfb 51bd 0bc6 d1be 5c68 89be
00000300: 94b4 1d3d 2a7f f53e 5c08 e53e ef22 913e
00000310: 3516 9abe 6b19 3bbe c078 7e3e 5d81 c63e
00000320: ea43 d93d 651a 23be e18a 86be 955b e4be
00000330: b9a6 3d3d 7901 babe d5db bb3c e9eb 0ebd
00000340: ea93 34bd ebc7 c1bd c4c0 c33e b1a5 e93e
00000350: c82f a43e 700a 2fbe ea09 a13e 580a 653e
00000360: 238c 903d 1c71 a93c d8f7 d73e ac5a d5be
00000370: 292e bdbe 6eb7 e5be 80e5 8cbe 3aa3 78be
00000380: 6abd 07bf 61d1 8ebe 5f94 07bf 9a40 233e
00000390: 0c92 8c3e 0e36 043e 4867 923b e79f 3bbe
000003a0: 91ff a5be f65f 64be 71d1 c73e a611 95be
000003b0: 5923 7cbe 4c90 543e bf85 8d3e 83e4 32be
000003c0: e1c0 ac3c 9d2f 88be 4353 15be 59d3 61be
000003d0: 78ac 07bf 54f8 023f a603 a8be 7c47 0bbe
000003e0: 6e2a 4dbe 424c 4e3d 1e90 a83e 60a6 14bf
000003f0: eac9 dbbe 1f52 113d ad96 133f cb89 ce3e
-0.14227277 0.06823418 -0.27169746 0.1696787 -0.32299826 0.46354473 -0.115079194 -0.4039335
0.070337765 -0.17505868 0.25519583 -0.25272956 0.08776549 -0.22781754 0.25408402 -0.49919814
0.15181436 0.36646217 0.5043589 -0.0009920568 -0.12702361 -0.4875058 0.15760703 0.08276052
0.1654307 -0.021817079 -0.12386651 0.22892576 -0.3339177 -0.48575327 0.07448359 -0.5625218
-0.0720748 -0.28309664 -0.21220985 -0.3135098 0.060976386 0.11850241 -0.55973506 0.562386
-0.26665732 0.51220137 0.2799812 -0.47925416 0.32064092 0.45896912 -0.024423864 -0.04681279
-0.22324459 0.32354456 -0.5283117 0.019032631 -0.2708457 -0.45628425 -0.34274518 0.10281063
-0.26582542 -0.15591948 0.20891261 0.2735225 0.2669809 0.33030078 -0.48889923 0.17072104
0.0053251823 0.25442564 -0.4558806 -0.46125144 -0.6691385 -0.4360111 0.35228842 0.44683272
-0.48896182 0.29770628 -0.029969314 0.15977393 -0.07985898 0.30127674 -0.541151 0.26022485
-0.14050706 -0.1767032 0.5419802 0.3005805 -0.16704276 0.5658864 0.19654469 0.3274575
0.037070237 -0.19371259 -0.09241337 0.42274946 -0.48996273 -0.28901312 -0.3778626 0.43231517
0.41036084 -0.5106245 -0.1520925 -0.20321663 0.11463697 -0.5141164 -0.36219308 0.33401412
-0.20640895 0.2921227 -0.047587242 0.22892119 -0.018106744 -0.06302906 0.41538668 0.2202331
-0.21264742 -0.08589412 -0.52386385 -0.35533258 -0.26832366 -0.1586413 -0.5489021 -0.06415409
-0.6010721 0.21127476 0.15955348 0.2720794 -0.09200547 -0.38978308 0.5328741 -0.21986876
0.29539177 0.2297893 0.4356547 -0.26158568 0.08837655 0.37655166 -0.4641356 0.22483356
-0.24302712 0.118246324 -0.11536494 -0.21007127 -0.45282987 -0.4725343 0.09077973 -0.08997323
0.10487137 0.27722666 -0.3101509 -0.075716086 -0.20725548 -0.24113162 0.32653505 0.09438768
-0.19879054 0.11875018 -0.39370415 -0.09819015 -0.0016461655 0.3104303 0.33268926 -0.41515654
-0.53902096 0.13344543 -0.5543745 0.4800935 -0.44599888 -0.079309694 -0.4800514 -0.57514226
-0.53095424 0.33049446 0.47845617 0.27225593 -0.33853012 -0.45932084 -0.63072574 -0.58964497
-0.061758563 -0.5209281 -0.22031158 0.30676505 -0.136569 0.14387329 -0.004448029 0.035539318
0.07499325 -0.51619035 0.4948325 0.4608232 0.1942832 -0.051265404 -0.40971407 -0.26837432
0.03850229 0.4794858 0.4473294 0.28346965 -0.30095068 -0.18271415 0.2485075 0.3877057
0.10608657 -0.15928037 -0.2627783 -0.44601122 0.046301577 -0.3632925 0.022931973 -0.03489295
-0.044086374 -0.094619595 0.38233006 0.45634225 0.32067704 -0.17093825 0.31452876 0.22367227
0.07057979 0.020683818 0.42181277 -0.4167074 -0.3694928 -0.44866508 -0.27518845 -0.24281016
-0.530234 -0.27894118 -0.5296077 0.15942612 0.27455175 0.12911245 0.0044678785 -0.18322717
-0.32421544 -0.22302231 0.3902698 -0.29115027 -0.24622859 0.2075817 0.27641103 -0.17469983
0.021088066 -0.26598826 -0.14582543 -0.22053279 -0.5299754 0.5116017 -0.32815284 -0.13601488
-0.20035717 0.050365694 0.32922453 -0.5806637 -0.42927486 0.035478707 0.5765179 0.40339503

net.1.linear.weight f4 [256, 256]
00000000: 64d4 843d 1b78 e43d e888 3bbc 6e90 933d
00000010: 2cc5 e23d 9483 693d f107 27bd f478 233d
00000020: 67ac 3cbd 73e1 7fbd a962 f5bd 5f3a 073e
00000030: 69f1 1fbc 24d4 b23d 02c8 3ebd 9408 d7bd
00000040: 91c2 083e d2fe 163d 08e4 fcbd 76d4 3bbd
00000050: 4984 eebd b97f 80bb c9ba 77bd 4eea 0bbe
00000060: ae46 39bd 5ab6 8a3d 7d1b 513c 2823 81bd
00000070: b813 d7bd bf55 d9bc ed50 7fbd 812d ac3d
00000080: b229 3ebd b0af 04be 148a f9bd 5b6e 153e
00000090: e6b3 dfbd 437b a23d aae9 0ebd 8065 18be
000000a0: 60d7 e4bd 0547 8cbc 0af4 0fbc 920f 41bd
000000b0: b517 523d 80b1 45ba d99b 92bc a627 08be
000000c0: 8803 6a3d 1803 ebbd 16cf ed3d 90a7 eebd
000000d0: 3429 d1bd 1c1d 68bb c605 8b3d 8303 89bd
000000e0: e034 f3bc 38e9 fb3d 12f4 093e 8dc6 753d
000000f0: cab3 64bd 718f f3bd b11e 583d c17e 0dbe
00000100: 96ae bb3c 9545 43bc 71ea 07be 7ccb 5f3d
00000110: c47c 433d c12f d7bd 347a 9c3d 6ec5 613c
00000120: 705a aebd 8178 12bc 2804 bcbd 10fb 99bd
00000130: d363 07bd f25e d9bd cc3c 5c3c d6da 323d
00000140: db29 0dbd 500f ad3d 789f 05bd 4dbc 373d
00000150: 41c6 0dbd 25d7 683d 5b30 683d 3541 89bd
00000160: 824d 6e3d 45a7 99bc af80 483d 2303 edbd
00000170: fef2 0fbd 717a 6bbd 7fae 673d 46ef efbd
00000180: fa67 a1bc cd51 cfbc d49f 033d 692a 0c3e
00000190: 31e1 bd3d ccb6 c9bc 3f54 fe3d 7f1b 123e
000001a0: f07e 2ebd 864c d63b c860 fb3c 7b43 963d
000001b0: 57c2 80bd 22c7 9abd 5392 dcbd 1622 143e
000001c0: 31ad dd3c bdd0 13bc 2cd3 b63d ffda da3d
000001d0: 61ab 21bd 04c9 733d e9a7 02bd 5f84 983c
000001e0: 466f 783d 550a e93d b402 abbc e773 10be
000001f0: 04cf 583d 8edc 9b3d 7aa7 a2bd e268 5b3d
00000200: f7e6 59bd 6c86 6e3d 6a04 febd 024a d53d
00000210: 2458 f43d 5077 1cbd 6e59 493d eb11 f53d
00000220: e8de 2abd 44e0 303d 8e5b c9bd aaf3 62bb
00000230: ac59 e33d acb4 81bd 4d53 4237 0fed c2bd
00000240: 58f5 b2bd 68ce 65bc d7dd cf3d 4d1b b73d
00000250: 3f42 593d de27 11be c0f9 4bbd b69b ecbd
00000260: d363 c43d c258 043e c234 a3bd cb50 c1bb
00000270: d52f e6bd 14ee bbbd 95dd 05be c1b6 ec3c
00000280: 0726 dbbd bcb1 9fbd ae44 66bd a13d 05be
00000290: 88b8 ffbd 647b 093e 4455 933d 5e61 d33b
000002a0: 6eb2 023e 07c8 3dbd d4e5 523d f79a e3bd
000002b0: 7e27 af3d e930 963d a573 cebd 895f 48bd
000002c0: 99fc ca3c 8be9 b8bc 6d09 8f3c 4bad 09be
000002d0: 13ab 933d e986 9dbd 8223 9dbd fd42 afbc
000002e0: b328 dcbd 1c64 183e 24e1 7dbc ce4a ccbd
000002f0: 64a5 cf3c 3477 62bc 670f 153e c9b3 713c
00000300: ee26 a3bd d905 d23d c8b7 60bc ba68 b53d
00000310: 247d f13d d57a 653d db33 ccbc bec4 0bbe
00000320: 4164 9e3d f627 303c db7b bf3d dc2a abbc
00000330: 3aea 07bd aad4 6fbc dd5e 82bc 57ff aabd
00000340: 0ac4 2fbd cdb3 99bd a09a cc3c 4f3f 753d
00000350: 8c51 babd 82e6 cbbd 0da6 1f3d fd9e 093d
00000360: 671f 4fbd 5572 c53b 5ed2 263c 692b 5c3d
00000370: be5b 08bd bee9 83bd fcd2 e7bd 4991 17be
00000380: 0fa3 c6bd 9d36 04be ca87 99bd de12 c2bd
00000390: 56da 10be a3d5 a63c 5a07 1c3d 4275 ac3d
000003a0: c21f 0bbd aeab adbd 563c 02be 53d4 92bd
000003b0: 7f50 71bd f089 043e 0cff ec3d dac1 d4bd
000003c0: 553a f9bc ca4c d23d 7fe8 b8bd 3641 28bd
000003d0: 6b42 033e 5d8b 79bc e3fe bc3d fbda 913d
000003e0: 66f9 273d 8ac2 173d 9ee4 63bd ce11 41bd
000003f0: 0199 963d aa29 693d 4972 e53d a164 0e3e
0.06485823 0.11155721 -0.011446215 0.07205282 0.11072764 0.05701025 -0.040779058 0.03991027
-0.046062853 -0.062470865 -0.119817086 0.1320586 -0.0097621465 0.08731869 -0.04657746 -0.10499683
0.13355471 0.03686411 -0.12348181 -0.045856915 -0.11646325 -0.0039214757 -0.060480867 -0.13663599
-0.04523342 0.06773062 0.012762901 -0.06305534 -0.10501808 -0.026530145 -0.062333036 0.08407117
-0.046426482 -0.12957644 -0.121845394 0.14592879 -0.10922985 0.079336666 -0.03489081 -0.14882469
-0.11173892 -0.017123709 -0.008786211 -0.04713399 0.05129214 -0.0007541403 -0.01789658 -0.13296375
0.057132274 -0.114751995 0.11611764 -0.11653054 -0.10212937 -0.0035417741 0.067882106 -0.06690123
-0.029688299 0.12300342 0.13472012 0.060003806 -0.055835523 -0.11892594 0.052763645 -0.13817884
0.022910397 -0.011918445 -0.13273026 0.054637417 0.047726408 -0.10507155 0.07640496 0.013779981
-0.08513343 -0.008939863 -0.0918048 -0.075185895 -0.033054184 -0.106138125 0.0134422295 0.04366573
-0.034463745 0.08450186 -0.032622784 0.044857312 -0.034612898 0.056845803 0.05668674 -0.067018904
0.058179386 -0.018756518 0.048950847 -0.11572864 -0.035143845 -0.057489816 0.056562897 -0.1171556
-0.0197029 -0.02530756 0.032134846 0.13688053 0.092714675 -0.024623297 0.124184124 0.14268301
-0.042601526 0.006539884 0.030685797 0.0733709 -0.062870674 -0.07557513 -0.10770097 0.14466128
0.027060123 -0.009021935 0.089269966 0.106863014 -0.03947008 0.059517875 -0.031898413 0.018617807
0.060652994 0.11378924 -0.020875312 -0.14106713 0.0529318 0.07610427 -0.079421 0.05356682
-0.05319878 0.058233663 -0.12403186 0.104145065 0.11930874 -0.038199723 0.049157552 0.11966308
-0.041716486 0.043182626 -0.09831916 -0.0034630098 0.11101088 -0.063332886 1.1582696e-05 -0.095178716
-0.08738202 -0.014026262 0.101497345 0.08940754 0.053041693 -0.14175364 -0.049798727 -0.11553137
0.095893525 0.12924483 -0.07969047 -0.005899524 -0.11239592 -0.09176269 -0.13072808 0.028895738
-0.107006125 -0.07797572 -0.05621784 -0.13011791 -0.124863684 0.13425976 0.071939975 0.006450816
0.12763378 -0.04633334 0.051488712 -0.111135416 0.085524544 0.073335476 -0.10080651 -0.048919234
0.024778651 -0.0225723 0.01746055 -0.13445012 0.07210364 -0.07691748 -0.07672788 -0.021394247
-0.1074995 0.14881939 -0.015495572 -0.09975205 0.02534742 -0.013822366 0.14556657 0.014752337
-0.079664096 0.102550216 -0.013715692 0.08857866 0.11791447 0.056025345 -0.02492707 -0.1364927
0.07733966 0.010751715 0.093497954 -0.02089446 -0.03318236 -0.014638105 -0.015914375 -0.083494835
-0.042911567 -0.075049974 0.024976075 0.05987483 -0.09097585 -0.09956075 0.038976718 0.03359889
-0.050567057 0.0060255923 0.010181991 0.053752337 -0.033290617 -0.06441067 -0.11319539 -0.14801516
-0.0969907 -0.12911458 -0.07496603 -0.09476255 -0.14145789 0.020365542 0.03809295 0.08420803
-0.033965833 -0.08480011 -0.12718329 -0.07169404 -0.058914658 0.12943244 0.11572084 -0.10388537
-0.030423323 0.102685526 -0.0902872 -0.041077815 0.12818305 -0.015230981 0.09228303 0.07121845
0.04100933 0.03705076 -0.05563795 -0.04713612 0.07353402 0.0569245 0.11203439 0.13905574

net.1.linear.bias f4 [256]
00000000: 5651 4bbd 6503 fbbd e3b7 c23b 076a d1bc
00000010: 02d8 9c3c 93d8 b9bd 7a8b 2abd 28cc 94bd
00000020: 7619 ab3c 8282 2bbd 9c18 9bbc 4602 f83c
00000030: 4905 a3ba 31a1 28bd fa4b 93bd 4d0b 1b3d
00000040: 6c59 b4bd ac16 c13a 4032 fa3b 3e28 a3bc
00000050: 6223 9ebd 57cc 6ebd 1deb 5bbd aa52 a7bc
00000060: ee05 e9bc 9c2b 7bbd efe1 033d 9a60 d0bc
00000070: ed83 f9bc 4d3c eebb 1912 43bd 9c4f adbd
00000080: daa9 ef3c 85fe 1abd 5690 63bc ddfd 09bc
00000090: 6d95 a3bd da88 7cbd 7a40 713c e5c8 85bd
000000a0: 9028 e5bd 4159 033d ff2a cebc 591d f73c
000000b0: 6106 81bd e0a8 473c 6ad6 93bd b826 1dbd
000000c0: eba4 ca3c 792a 1a3c 918c c03c 27e7 9bbd
000000d0: c84c 4dbd f923 dc3b 3aa6 c13b 1649 b33b
000000e0: bff5 d33c df9c f5bc 6a70 f1bc 399d c1bd
000000f0: aa7e 44bd f524 1dbd e881 dc3a 95cd da3c
00000100: c357 73bd 9e75 5ebd 980a bcbc 46bb 9ebd
00000110: d18f c8bd 2e40 84bd eb8b 82bd d292 84bd
00000120: b7c9 a4bc f307 5dbd 54f2 b2bd d036 7ebd
00000130: 038e d3bc 99f8 e83b c8fd aebd 4f12 66bd
00000140: e9d1 72bd 792d c9bc eed5 1fbd a15c 2fbd
00000150: f412 8c3c f6fc 88bd 71f4 74ba 1ff5 44bd
00000160: e123 e5bd 4103 69bd 4c08 afbd 0ef6 6bbd
00000170: 339e 333d f70d b2bb 5fda 8abd 0b6c b2b8
00000180: ada0 43bd 1c34 9abc a2d6 6fbd d7ec 55bd
00000190: 094c b8bd 036b 4abd 26b5 69bc a703 603d
000001a0: 820e 79bc 2d7d 8e3c 5c6b b8bc 6897 84bd
000001b0: aeba 50bd 8911 3c3d 96d9 a3bc 1897 7bbd
000001c0: 9fe0 70bd cfa8 ac3c 956b a03c 2cb3 81bd
000001d0: 5289 83bd 89d3 acbd aa20 0aba c68e f0bc
000001e0: 6781 a9bd 12b0 193c ef40 59ba 1457 b5bc
000001f0: 572d 883a 9e8e aabd 7bd5 efba 3d56 13bd
00000200: 4b2c 0f3d 0ad6 1b39 eae1 7fbd c032 a1bd
00000210: 8b96 953c cb6a b8bd d4ff cb3c 1e55 143d
00000220: 8d33 9cbd d5e3 0b3d 8734 553c 58ce 2fbd
00000230: 7843 8bbd 4faa 86bd 5053 96bc 8314 54bd
00000240: f7b5 3ebd 9f60 a9bc 0073 9dbc 899a c23c
00000250: 8368 72bd 9ce2 10bd e3c9 67bd b94a a1bd
00000260: 79d9 413d fe88 d9bc f514 41bd 54ad e4bc
00000270: 4326 803c 6714 37bd d55d ad38 3b23 f13c
00000280: 9f30 44bc e2d3 82bd 1770 82bc 48bc 39ba
00000290: e601 34bc b69b d0bd 2924 55bd 7353 a2bd
000002a0: 18b8 8e3c b0e8 83bd 90e6 9bbd 9a34 d7ba
000002b0: ff0c babb 2b51 213d de72 d3bc b93d 593c
000002c0: 27e2 a4bd f0d6 89bd 35ea 2cbd 711b c83b
000002d0: beda b8bc 0ba9 36bd b059 f53c 261f d8bd
000002e0: 6272 b9bc 6519 73bc 0ee6 103d 6315 2fbd
000002f0: 5105 1d3d 16fd 63bd 9a3f 6abd 564c 23bd
00000300: 1187 57bd 254f 21bc 3cff b2b9 10c5 0e3d
00000310: 577d 9dbd 6f44 70bb 887a 2ebc 3abe f6bd
00000320: d668 dd3c 3b34 9ebc 41f9 b9bd be12 10bd
00000330: aa30 3fbd 5a50 68bd 996f e5bc 95b4 c2bc
00000340: 491f 4ebd c65e 84bd c51c 99bd f45d 05bd
00000350: fddb 1bbd b382 7d3c 1db3 ebbd 29a7 b0bd
00000360: 8e09 8fbc cbe9 62bd 5825 12bd bd67 8fbc
00000370: 18e3 843a d6cf 7c3b 6d73 6d3d d084 99bd
00000380: 23e2 94bc 6862 5ebc 506b 22bc 7ea1 74bd
00000390: 61b2 adbd a8ad ef3c 83bb 42bd 6c74 143d
000003a0: 56f0 86bd 2aae 65bd 5596 b4bd 31ed 5bbd
000003b0: cf57 67bd 3644 24bd 92f7 67bd 2998 16bd
000003c0: 2f08 1e3d 62b0 90bb 753c b7bd 3714 c43c
000003d0: e533 dbbc 52c2 b3bd bbe0 683d 9239 40bd
000003e0: a8ca 76bd ab1d 88bd 32e5 873c 5aad aabb
000003f0: c7a6 96bc bbf9 20bd 44e0 97bc 7515 4fbc
-0.049638115 -0.12256507 0.005942331 -0.025563253 0.01914597 -0.090745114 -0.04163692 -0.07265502
0.020886164 -0.04187251 -0.018932633 0.030274522 -0.0012437488 -0.04116935 -0.07192226 0.037852574
-0.08806118 0.0014731488 0.007635385 -0.01991665 -0.077215925 -0.058300342 -0.05369102 -0.02042516
-0.02844521 -0.061320886 0.03219789 -0.025436688 -0.030458415 -0.007270372 -0.04762468 -0.0846245
0.029255796 -0.037840385 -0.013889393 -0.008422342 -0.07987485 -0.06165395 0.014724845 -0.06532458
-0.11189377 0.03206754 -0.025166987 0.030165361 -0.06300045 0.012186259 -0.072186306 -0.038367003
0.024736842 0.00940954 0.023504527 -0.07612448 -0.050122052 0.0067181555 0.0059097083 0.005471359
0.025874017 -0.029982029 -0.029472549 -0.09453816 -0.04797236 -0.038365323 0.0016823383 0.026709357
-0.059409868 -0.054311387 -0.02295427 -0.07750563 -0.09793056 -0.06457554 -0.063743435 -0.06473316
-0.020115716 -0.05396266 -0.08737627 -0.062063992 -0.025824552 0.0071097133 -0.08544499 -0.056169804
-0.059282217 -0.024557816 -0.03902238 -0.042812947 0.017098881 -0.066888735 -0.0009344286 -0.04808533
-0.11188484 -0.05688787 -0.085465044 -0.057607703 0.043852042 -0.0054337936 -0.06779932 -8.507826e-05
-0.047760654 -0.018823676 -0.0585543 -0.05222782 -0.089988776 -0.04941846 -0.014264381 0.054690983
-0.015201213 0.017393673 -0.02251213 -0.06474191 -0.05095928 0.04591516 -0.020001214 -0.06142339
-0.058807965 0.021076588 0.01958255 -0.063330024 -0.06422676 -0.08438785 -0.00052691496 -0.029364955
-0.08276635 0.009380357 -0.0008287569 -0.022136249 0.0010389489 -0.08327983 -0.0018297875 -0.035970915
0.03495435 0.00014861688 -0.062471308 -0.07871008 0.018260261 -0.09004744 0.024902262 0.036213987
-0.0762702 0.034152824 0.013013012 -0.042921394 -0.06799978 -0.065754525 -0.018350273 -0.051777374
-0.046560254 -0.020675955 -0.019219875 0.023755329 -0.0591817 -0.03537236 -0.05658902 -0.0787558
0.04732654 -0.02655458 -0.047139127 -0.02791468 0.015643245 -0.04469719 8.2667604e-05 0.029435745
-0.011974483 -0.0638807 -0.01592259 -0.0007085246 -0.010986781 -0.101859495 -0.052036438 -0.07926073
0.017421767 -0.06440866 -0.07612336 -0.0016418875 -0.005677819 0.03938405 -0.025811609 0.013259345
-0.08050948 -0.06730449 -0.042215545 0.006106787 -0.022565242 -0.044594806 0.029949993 -0.10552816
-0.02263755 -0.0148375975 0.035375647 -0.042745005 0.03833515 -0.055661283 -0.05718956 -0.03986772
-0.052619044 -0.00984553 -0.0003414097 0.034855902 -0.07689922 -0.0036661883 -0.010649331 -0.120480016
0.027027529 -0.019312015 -0.090807445 -0.035174124 -0.04667727 -0.056717254 -0.028007315 -0.023767749
-0.050322805 -0.06463389 -0.074761905 -0.032560304 -0.038051594 0.015473056 -0.115087725 -0.08625633
-0.01746061 -0.055398744 -0.035680145 -0.017505521 0.001013848 0.0038576028 0.057971407 -0.07496035
-0.018174237 -0.013573267 -0.009913281 -0.059724323 -0.08481289 0.02925761 -0.047542106 0.03624384
-0.06588809 -0.0560743 -0.08817736 -0.053693 -0.056480225 -0.040104114 -0.056632586 -0.036766205
0.038582023 -0.0044155577 -0.08947078 0.02393542 -0.026758144 -0.08777298 0.056854945 -0.046929903
-0.06025186 -0.06646284 0.016588781 -0.0052086534 -0.018390073 -0.03930066 -0.018539555 -0.012639393

net.2.linear.weight f4 [1, 256]
00000000: 4891 4f3d 81cb 13bc 2c7c cb3d c3a6 7d3d
00000010: 3bfd 38bb 22e3 b4bd 67fe 71bb c212 b0bc
00000020: 615a 8fbd 01c6 14bc ad78 303b 6c40 cb3b
00000030: 69c5 b83c 2e82 0b3c b878 193d 5d1e 5a3c
00000040: e5c3 023d 588a 1bbc bfe5 0d3b d3f8 82bd
00000050: 2d0b aabb f51b a2bd caf0 2b3d 78f9 753c
00000060: 96d0 42bc e1f0 aa3b cef2 c23d 2a6b a4bd
00000070: ba3f 38bd 5f6e f6b9 650c bfbc 35c8 75bc
00000080: 00ae e3bc f33b bbbc 293c 8a3b dc41 6dbd
00000090: 9bdb 593d a183 a1ba d6e8 f7bc 0f9a 873c
000000a0: e147 84bc c85b 983d 7bae ec3d 5855 17bc
000000b0: 0ced 6e3b 6651 8dbc 3d63 d13d 9667 8dbc
000000c0: 9a3a 723c 68c1 78bd 0aab 173a 0f71 0b3b
000000d0: 424a 82bb 097e d7bc 92fb a7bc a6e8 0a3d
000000e0: 02b0 a9bc 4d33 8036 2b07 fbbb 2f73 4b3d
000000f0: c5dd da3c d260 1abc b244 f7b9 667d d33d
00000100: 700e 893c 66f8 de3c bd53 f03b bf8e 2d3d
00000110: 6c8c 1b3d 7e6d fa3b 93fa 823c 3ff0 64bd
00000120: 3395 973d 68f6 4c3d 8f39 8cbc 93f7 65bd
00000130: 498d b83b 2d8c 96bd 0f5c ab3b b135 873b
00000140: b65d 913c a6db 1ebc 5178 84bc af74 15bd
00000150: eda4 f33d 0c94 e0bd 3aec 673c c32a 39bd
00000160: 49f5 41bd b6b1 a7bc 94c0 ffbb fdc4 87bb
00000170: 389f 203c 9c27 383c 2e99 2abd 98f8 bcbc
00000180: b3a7 d0bd f184 cdbb 6e21 72bd e241 473c
00000190: 5309 55bb 7b24 b8bd 18c9 88bc 9b3e c7bc
000001a0: faa8 95bc 4adb c8bd a2fe 533c 347f 293b
000001b0: 2b72 f33d 9ecb 0d3d d35e 29bc 916e a23c
000001c0: 6baf 23bc 298d d3bb 78da d73c f17e d93d
000001d0: da1b 073d bad7 663c 8977 70bd 81c8 a1bc
000001e0: 7a2e a43c 9286 ab3d 9000 8dbd 46f4 88bd
000001f0: 7001 053c ba09 823c 9797 f1bc 5e4a a23d
00000200: ea18 4fbc 8d33 1ebc d035 a9bd df13 cf3c
00000210: e8b1 0dbd eacf 353d 67a5 ad3c 84ad 95bd
00000220: 50e5 ccb9 25d5 cfbc ddf6 a1bd f5ec f3bc
00000230: d522 bebd 6b6f ca3d d5cd e03c 0a4d a23d
00000240: 14aa abbc a5fe ec3b 4427 22bd b974 8d3d
00000250: 85dd 2a3c ae1c 483d 1e5d d6bd 2856 cebd
00000260: 6840 8c3c efa5 9bbc 3647 ed3b 4b94 ecbd
00000270: 41c1 053d 5c4d 63bd eb5b 60bd 93dc 503c
00000280: dd0d 8bbc ff84 bd3c c6dc 993b 8d1d e5bc
00000290: 874d 37bd e701 913d fb09 743c c6fc d4bc
000002a0: c305 6d3c 4e07 cbbd baa0 daba 5f48 b3bb
000002b0: 40d3 a73b ecf1 00bd e2fd 28bc 659b adbb
000002c0: 753c 543d 1ca5 493c 02ed b93d bc7a 36bd
000002d0: c7bf 56bd 4bca 83bc 4841 8e3c 97f8 873d
000002e0: 15f4 d5bb ae2a 65ba 0fd4 0a3d 9d0f 953c
000002f0: 9bb0 0b3d 69ae 333d 7255 463c 5592 313c
00000300: 855e b339 69cc 53bd 562f ca3b 79fa 37bd
00000310: ba76 c2bd dc43 4e3d ac43 27bd a427 c13c
00000320: e6eb f93a af72 febb f39c 9fbd e8a0 233d
00000330: 3e1c 033c 6848 a0bb d990 9abd d714 b3bd
00000340: 839d 36bd 6c0d a0bd 3d4d b1ba bd1d b4bd
00000350: da89 f7ba 3103 673c bf03 5e3d 538d 96bc
00000360: 3024 ba3b 35cb 973d a6c7 333c 3971 a5bd
00000370: d8ef 77bd 3390 66bd 33c8 8d3c 2228 adba
00000380: 3ef7 eb3d 7b98 743c e35d 96bc ac51 063d
00000390: 312d 563b 2456 a6bc 769a e5bd 8b4c f8bc
000003a0: 575a 3e3d 2024 ed3a c7e7 b03d 9b94 923b
000003b0: a424 c6bd 1b2e 28bc 3f80 a03c da48 a33d
000003c0: 75a0 2f3c afc8 9bbc fa36 473b c408 edbc
000003d0: c834 3b3c 6709 86bd 2db1 09bd 1b16 c3bc
000003e0: 55b3 06bd ac31 9abc 1b6f 3c3d cc0d c9bc
000003f0: 34dc 42bd 0457 cbbb 48e6 da3c 1681 12bd
0.05067566 -0.009020687 0.09935793 0.061926614 -0.002822711 -0.08832385 -0.0036925317 -0.02149332
-0.0699966 -0.009080411 0.0026927397 0.006202748 0.02255507 0.008514924 0.037468642 0.013312903
0.0319251 -0.009493433 0.0021651832 -0.06395116 -0.0051893205 -0.07915489 0.04197768 0.015013091
-0.011890551 0.0052167033 0.095189676 -0.080282524 -0.04498265 -0.0004700301 -0.02332134 -0.015001346
-0.02779293 -0.022855734 0.0042185974 -0.057924137 0.053187948 -0.0012322554 -0.030262392 0.016552953
-0.016147556 0.07439381 0.11556717 -0.009236656 0.003645721 -0.017250728 0.10224006 -0.017261308
0.0147844795 -0.06073132 0.00057856797 0.0021277105 -0.0039761374 -0.026305215 -0.0205057 0.033913277
-0.02071381 3.8206695e-06 -0.0076607666 0.049670395 0.026717076 -0.009422498 -0.00047162693 0.10326652
0.016730517 0.027218055 0.007334201 0.04237246 0.037975714 0.007642447 0.015988624 -0.05589318
0.07401504 0.05003968 -0.01711729 -0.05614431 0.005632077 -0.07350955 0.00522948 0.0041262736
0.01774488 -0.009695923 -0.016170653 -0.03648823 0.118966915 -0.10965738 0.014155442 -0.045206796
-0.047353063 -0.020470481 -0.0078049395 -0.004143356 0.009803586 0.011239912 -0.04164999 -0.023067757
-0.10188236 -0.0062719514 -0.059113912 0.012161704 -0.0032506778 -0.08991333 -0.016697451 -0.024321845
-0.01826905 -0.09807451 0.012939127 0.0025863172 0.1188701 0.034618013 -0.010337549 0.019828113
-0.009990553 -0.0064560366 0.026349291 0.10619915 0.032985546 0.014089519 -0.058707748 -0.019748928
0.020041693 0.083752766 -0.06884873 -0.066872165 0.0081180185 0.015873779 -0.029491229 0.07924341
-0.012640217 -0.009655845 -0.08262217 0.02527803 -0.034593493 0.044387735 0.021197034 -0.07308486
-0.00039080763 -0.02537019 -0.079084136 -0.029776076 -0.092839874 0.098845325 0.027441898 0.0792485
-0.020955123 0.0072325044 -0.039588228 0.06907029 0.010428791 0.048855476 -0.104669794 -0.10075027
0.017120555 -0.019000022 0.007241155 -0.11551722 0.032655004 -0.055493698 -0.05477516 0.0127479015
-0.016974384 0.023134707 0.0046955077 -0.027968192 -0.04475167 0.07080441 0.014894958 -0.025999438
0.014466706 -0.09913503 -0.001667998 -0.005471274 0.0051216185 -0.031480715 -0.010314437 -0.0052980655
0.05181547 0.012307432 0.09078409 -0.044550642 -0.052428987 -0.016087672 0.017365113 0.066392116
-0.006529341 -0.00087420165 0.03389364 0.018195922 0.03410397 0.043867502 0.012105333 0.010838111
0.00034211963 -0.051708613 0.0061701937 -0.044916604 -0.094953015 0.050357684 -0.04083602 0.023578472
0.0019067496 -0.007765136 -0.077936076 0.039948374 0.008002339 -0.004891444 -0.07547159 -0.08744209
-0.04458381 -0.0781506 -0.0013527047 -0.087947346 -0.0018885687 0.014099882 0.05420279 -0.018377936
0.0056805834 0.074118055 0.010972893 -0.08078236 -0.060531467 -0.056289863 0.017307376 -0.0013210813
0.11521767 0.014928932 -0.018355316 0.032792732 0.0032680745 -0.020304747 -0.11211102 -0.030309936
0.046472874 0.0018092431 0.08637958 0.0044732816 -0.096749574 -0.010264899 0.019592403 0.0797288
0.010719408 -0.019016592 0.0030397759 -0.028934844 0.011426158 -0.06544762 -0.033616234 -0.023814252
-0.032885868 -0.018822514 0.046004396 -0.024542712 -0.047573283 -0.0062054414 0.026721135 -0.035767637
