geoinr/model/mlp/pretrained/plane_selu_pmodel8.pth (torch, 803975 bytes, 9 tensors)

net.1.linear.weight f4 [256, 9]
000000 c8 90 e0 be 7a 62 8b 3e 85 b1 ca be 27 43 3b 3e
       -0.4386046 0.2722357 -0.39588562 0.18287335
000010 6e 4d 20 be db 24 01 be 86 39 56 ba 81 d6 74 3e
       -0.15654537 -0.12611715 -0.0008172024 0.23909952
000020 ec 71 fd 3e b1 a4 df be 7e bb 01 bc 81 ac 9c 3d
       0.49500978 -0.43680337 -0.007918237 0.0765009
000030 57 e5 f4 3e 4b e1 51 bd 8c 65 83 bd fd 01 e3 bd
       0.47831222 -0.051240247 -0.06415853 -0.110843636
000040 30 40 9c 3e fb 46 e3 bd 78 09 86 3e a9 1c 8c be
       0.3051772 -0.11097523 0.261791 -0.27365616
000050 d8 43 97 3e 20 70 af be cf d4 8a be 32 fa 3f bd
       0.29543948 -0.34265232 -0.27115485 -0.046869464
000060 d5 32 51 3e 8d 82 f2 3d f3 a4 ed bd 1c 5e 3a 3d
       0.20429547 0.11841307 -0.11603727 0.045499906
000070 db f6 1f be a5 fa 1e bf b3 4c a9 3d 0a 6d f6 3d
       -0.15621512 -0.62101203 0.08266582 0.12032516
000080 14 85 2e be dc b4 3d bd 1c 14 35 bd d2 7a 56 3d
       -0.17042953 -0.04631506 -0.04420863 0.052363224
000090 27 87 06 3e 93 29 d5 be bc c5 c2 be 81 d9 36 3d
       0.13137494 -0.4163328 -0.38041484 0.04464102
0000a0 c9 ea d1 be 51 51 9d 3e a1 3a 71 be 01 fe 25 3e
       -0.4099944 0.30726102 -0.23557521 0.16210176
0000b0 c6 0c 1b be 0a 7f 6d 3e 41 e8 8e 3e 46 27 de bc
       -0.15141591 0.23192993 0.2791157 -0.027118336
0000c0 49 d4 51 3e 0a bc a5 be be 4d fd bd 80 4b 70 bc
       0.20491137 -0.32370025 -0.12368344 -0.014666438
0000d0 94 ce c3 bd 88 9e b7 3e 44 9c e9 be ea 99 d6 be
       -0.09560886 0.35863137 -0.45627034 -0.41914302
0000e0 11 6f 89 be e6 b8 82 bd 1c ff 6e 3d 47 7f f4 bd
       -0.2684255 -0.06382923 0.05834876 -0.11938339
0000f0 67 0e 50 3d f0 e2 e5 bd 1b e4 9a 3e de 24 8d 3e
       0.050794985 -0.112249255 0.30252156 0.2756719
000100 46 96 2d 3e ec 09 d7 be 9e e4 69 3e ec 99 9f 3e
       0.16951856 -0.41999757 0.22841117 0.3117212
000110 7e 8b 48 bd 3b 1d f4 bd 5e ad 91 bd d6 5c a1 be
       -0.048961155 -0.11919638 -0.07113145 -0.3151614
000120 bf bd bc 3d 04 38 9d bd f9 8d bd bb 8d db b2 3e
       0.09215879 -0.076767 -0.0057847467 0.3493313
000130 e6 6c b0 be 43 11 b2 be c9 df c5 bd fe af a1 be
       -0.34458083 -0.34778795 -0.09661824 -0.31579584
000140 1f b1 25 3d 3e 1e 97 be b1 c0 fa bd be ab a7 bd
       0.04045212 -0.2951526 -0.12243784 -0.08187054
000150 76 8c a7 bd ba dd c0 3d 78 b7 a0 be 1b 1b e2 3d
       -0.08181088 0.09417291 -0.31389976 0.11040326
000160 8d ad de 3d d6 55 b6 3e 26 99 1c 3e a1 6f e1 be
       0.10872946 0.35612363 0.15292796 -0.4403048
000170 27 72 86 3e 41 75 1f be b1 cc f9 bd 66 5d a6 be
       0.26258966 -0.15572073 -0.12197245 -0.32493132
000180 02 31 e2 3c 90 56 87 be 74 74 59 3c d8 6e 37 be
       0.02761126 -0.2643323 0.0132723935 -0.17913377
000190 ca 00 96 bd f8 35 05 bf e1 42 5c be 4b 82 a7 3c
       -0.07324369 -0.52035475 -0.21509887 0.02044787
0001a0 d4 a5 df 3c 0a 34 19 be 2d e4 91 bb 4a 25 cc bd
       0.027300753 -0.14961258 -0.0044522495 -0.0996805
0001b0 f2 4c 0a bf 92 18 ee be 5e 6d a9 3e b4 a3 67 3b
       -0.5402366 -0.4650312 0.33091253 0.0035345377
0001c0 be ea 29 be 74 fc 8c 3e b5 2c a3 3e 57 19 44 be
       -0.16593453 0.27536356 0.31870046 -0.19150291
0001d0 71 49 fc 3d 1e 2c 8d 3e 77 8d b9 3e 66 da ae bd
       0.12318695 0.2757272 0.36240742 -0.0853775
0001e0 fc 05 8e 3e e7 c4 58 3c 56 fe c2 be a1 cc 6d bd
       0.2773894 0.013230539 -0.38084668 -0.058056477
0001f0 c1 70 3e be f8 d7 63 3e b8 da d5 be e6 1d c9 3d
       -0.185977 0.22250354 -0.41768432 0.09820156
000200 bb 5f 42 3e 8d 87 e3 3e aa 67 51 3e 1a 64 97 be
       0.18981831 0.44439355 0.20449701 -0.2956856
000210 94 c5 01 3e 47 51 59 3d 86 1f d7 bd db ec f7 bd
       0.12673026 0.053056028 -0.105040595 -0.121057235
000220 44 8c b2 be 23 a4 07 3d 09 92 8c be 83 40 e4 3e
       -0.3487264 0.033115517 -0.27455166 0.4458047
000230 52 52 c6 be b0 97 9f be 8b 72 88 3e d9 81 6e 3e
       -0.3873468 -0.31170416 0.2664989 0.2329172
000240 68 45 88 be 91 11 12 be 7e e8 ca bd be 55 53 bc
       -0.26615453 -0.14264514 -0.099076256 -0.0128988605
000250 99 e1 96 3d 12 4b 10 be d2 8b 3e 3e 2d 26 c0 bd
       0.07367248 -0.14091137 0.18608025 -0.093822815
000260 64 08 4a 3e 91 7d d5 3e 17 44 81 3e 40 0a ad be
       0.19729763 0.41697362 0.2524726 -0.33796883
000270 1f 8a 28 be 57 89 48 3e 13 a7 95 be 84 58 f3 bd
       -0.16458939 0.19583641 -0.2922903 -0.118821174
000280 e1 ee 73 be 23 b8 74 bc 56 38 85 3e c9 49 ac be
       -0.23821594 -0.01493648 0.26019543 -0.33650044
000290 9c cd ba 3e 55 6c a4 3d 53 9e 45 be fa 95 3f 3e
       0.36484993 0.08028475 -0.19298677 0.18709555
0002a0 e1 4e 34 3e fd 66 a7 bc c3 1e c8 bd ec 3b d4 be
       0.17608215 -0.02043485 -0.09771492 -0.41451967
0002b0 7c 71 ac 3e e1 d4 67 3c 23 91 55 be 57 ba c1 bd
       0.33680332 0.014149875 -0.20856147 -0.0945937
0002c0 c6 42 4e be 2b 76 fa bd 7b 03 0f bd 41 7f 47 3e
       -0.2014266 -0.1222957 -0.03491543 0.19482137
0002d0 87 c8 6a bd 51 09 ce be 9b 06 83 3e 35 7d 4a be
       -0.057320144 -0.40241483 0.25590977 -0.19774325
0002e0 a6 a7 19 be f3 84 7b 3e f5 1d a7 bd b6 c3 51 bd
       -0.15005359 0.24562435 -0.08160011 -0.051212035
0002f0 b3 0e a6 3d 00 c8 11 3e e0 f5 d0 be 55 22 b8 be
       0.081082724 0.1423645 -0.40812588 -0.35963693
000300 6b bd 4d be 85 25 41 bd dc 92 04 3d ca bd d9 be
       -0.20091788 -0.047154922 0.03236662 -0.4252761
000310 f4 7e 5e 3e da a1 8d 3e e2 6a e8 be 54 62 ee be
       0.21728116 0.27662545 -0.45394045 -0.46559393
000320 89 98 64 be 3e 9f 03 3d ca c1 58 be 62 bb 6d 3e
       -0.22323813 0.032134287 -0.21167675 0.23216012
000330 ef 00 02 be 05 99 6a 3e 7f 5e c9 bd cc b3 9f be
       -0.12695669 0.22909935 -0.09832477 -0.31191862
000340 3e b7 8c be 25 bb f4 be 64 d8 5d 3e 53 98 4c be
       -0.27483553 -0.4779903 0.21664578 -0.19979982
000350 23 3d bf bd f5 33 ae bd 5e 84 18 be f0 14 2f bd
       -0.09337833 -0.08506004 -0.14894244 -0.042744577
000360 7e 89 b0 be a9 56 e7 be 79 12 0c be ea e5 96 3e
       -0.34479898 -0.45183304 -0.13678922 0.29472286
000370 70 c4 b2 be e6 2c d0 3d fe 01 79 be 05 cc be bd
       -0.34915495 0.10164814 -0.24317166 -0.093162574
000380 2b 79 ab 3e 95 db b7 be 1c 70 52 3e cd 3b 72 3e
       0.3349088 -0.35909715 0.20550579 0.23655625
000390 da fa 87 3e f8 09 a8 bd cb 52 58 3d 3b fe da 3e
       0.26558572 -0.082050264 0.052813333 0.42772087
0003a0 f5 cb 7e be 27 c1 e2 3d 19 26 e3 3d d4 34 e3 3d
       -0.24882491 0.11071997 0.11091251 0.110940605
0003b0 07 a9 6b 3e c4 4f 92 be 53 01 54 be 04 9a 11 3e
       0.23013698 -0.2857648 -0.2070363 0.14218909
0003c0 74 b7 39 3d af 05 9c be 88 bb c5 be fa 79 e7 bd
       0.04534097 -0.30473086 -0.38619637 -0.11302562
0003d0 ea ef 94 3e 78 6a 16 bd 35 be b8 be fd c0 b5 be
       0.2908929 -0.03672263 -0.36082616 -0.354988
0003e0 68 0a 8b be e5 3b 62 bd 4a 7e e6 3d 23 19 39 3e
       -0.27156377 -0.0552329 0.112545565 0.18075995
0003f0 1d f2 d8 bc 85 c6 e6 be 94 b6 06 be 58 c7 7e bd
       -0.026482636 -0.45073333 -0.13155586 -0.062201828

net.1.linear.bias f4 [256]
000000 71 8a 7c 3e 04 e2 c8 bc 19 90 ac bd c9 aa 82 bd
       0.24662186 -0.024521835 -0.08425922 -0.06380231
000010 11 92 18 3e 2c 8c b7 3b 92 55 50 3e c3 cf 2a 3e
       0.1489947 0.0056014266 0.20345142 0.16680817
000020 1d e1 59 be d3 f6 e3 3d 7a e6 79 be b3 d8 cd bd
       -0.2127728 0.11131062 -0.24404326 -0.10051098
000030 fb d3 32 be 4f ca 71 3e 76 32 89 be 1d ca 23 bd
       -0.17463677 0.23612331 -0.2679631 -0.039987672
000040 5f ac 2f 3e 7e 60 ad 3d bd bb d5 be a0 f9 49 3e
       0.17155598 0.0846567 -0.41744795 0.1972413
000050 6d 0d 83 be 87 be 13 be 67 45 2e be 3f 04 db 3d
       -0.2559618 -0.14428149 -0.17018662 0.10694169
000060 08 5c 8c be 9c f2 9d bd 7c bd b3 be 06 b2 60 3e
       -0.27413964 -0.0771229 -0.35105503 0.2194291
000070 71 61 bd be e9 7d 10 3b 4f 7b ae bc 6b 3e 08 3e
       -0.36988404 0.0022047705 -0.021299032 0.1330506
000080 6f 87 94 be bd 04 d5 bc ea 4d c0 3c c4 37 c8 3e
       -0.29009578 -0.026003236 0.023474652 0.39105046
000090 79 75 b9 be 25 d7 bb 3e 8b 60 0f be a5 f8 a0 be
       -0.36222437 0.3668758 -0.14001672 -0.314397
0000a0 bf f6 67 be 46 11 94 be 5b e9 18 be fa 21 c1 be
       -0.2265272 -0.2891943 -0.14932768 -0.37721235
0000b0 62 4c 38 be 42 5f 9f be 63 12 a4 be df cc 62 be
       -0.17997888 -0.31127363 -0.32045278 -0.22148465
0000c0 a0 69 8f be 08 54 f8 3c b9 f3 a0 3e 47 3c 8b be
       -0.28010273 0.030313507 0.31435946 -0.27194425
0000d0 3f 70 88 bd 13 61 8a bd 9f d1 59 3e 99 86 20 3e
       -0.06662034 -0.06756797 0.2127137 0.15676345
0000e0 df 3e 70 be f6 d4 36 bc b7 b7 ab 3d f8 d8 07 be
       -0.23461483 -0.011159172 0.0838465 -0.13266361
0000f0 80 6b d5 bc e2 c2 81 3e b2 da ab bd e6 fc 49 be
       -0.026052237 0.25343996 -0.08391322 -0.1972538
000100 57 c8 3b bd 6b 4c 9e be ea 6d 5d 3e d4 19 9f be
       -0.045845356 -0.30917677 0.2162396 -0.31074393
000110 05 f6 9d be 3b 3b fc 3b 3e b4 ea bd e3 8b 28 3d
       -0.3085176 0.0076974905 -0.1146016 0.04114903
000120 c6 96 e1 3d 8c 9f 87 bd 66 b3 ce bd 10 1b d2 be
       0.11015086 -0.06622228 -0.10092811 -0.41036272
000130 47 9c f3 3c 06 8b 07 3e 42 0a 40 3e ba ef fb 3d
       0.029737605 0.13236627 0.18753913 0.123015836
000140 d9 08 80 be fa 9f 95 bc b9 9b 7d 3e 1b 3b 5c be
       -0.2500675 -0.01826476 0.24766435 -0.21506922
000150 99 25 ff bc 0c c7 68 be e6 73 20 3e f3 12 e6 bc
       -0.031145858 -0.2273218 0.15669212 -0.028085208
000160 c6 c8 61 be 04 9f b4 be 6a 09 5a bd 4c 5d b6 be
       -0.22049245 -0.3527757 -0.053231634 -0.35618055
000170 2d d7 10 be cb 97 06 be 3f 56 3b 3e 0c 24 ae bd
       -0.14144583 -0.13143842 0.18294619 -0.08502969
000180 27 52 8a 3e 90 28 55 be 91 77 4a 3e e0 9f 8e bd
       0.27015802 -0.20816255 0.19772173 -0.069640875
000190 11 43 5f be 82 46 97 bd 8a 2c 20 be 17 ba 20 be
       -0.21802928 -0.07386495 -0.1564199 -0.15695988
0001a0 e4 d2 5a 3e 60 f7 98 3e 6d 90 ee bd e5 4f 3b 3d
       0.21369511 0.29876232 -0.11648641 0.04573049
0001b0 43 f9 67 3e 2a 1e 9c be 37 8c dd bd 97 94 33 bc
       0.2265368 -0.30491763 -0.108177595 -0.01096072
0001c0 e4 10 7e be ed e0 52 bc bc 1a 75 be 08 31 8f bd
       -0.24811131 -0.012871009 -0.2393598 -0.06991774
0001d0 cd 4e db 3d 27 82 2e be b2 41 e4 be 88 0c 50 3e
       0.107083894 -0.17041837 -0.44581372 0.2031728
0001e0 b8 41 64 be 08 39 66 be f7 44 76 bd d8 dd 7f bd
       -0.22290695 -0.22482693 -0.060124364 -0.062467426
0001f0 d4 04 e9 bd e0 7a bc 3e 78 58 bb 3d 84 51 58 3e
       -0.11377874 0.36812496 0.091477334 0.21124846
000200 9d 38 9d be 90 29 9d 3d df 4d e5 3d 92 b6 3a be
       -0.30707255 0.07673943 0.11196493 -0.18233708
000210 63 21 9a bd fe 46 cf be 6b 21 6c be f8 d7 9e bd
       -0.07525899 -0.4048385 -0.23059623 -0.077560365
000220 25 6f a3 3e 6d a8 a5 3e bc cf 56 be bf 8e 40 3d
       0.31920734 0.3235506 -0.20977682 0.047011133
000230 ff b3 b6 3e 50 6a 9c 3d ff c9 bc be a2 86 a7 3e
       0.356842 0.07637465 -0.3687286 0.32719904
000240 f6 83 06 3e df 04 95 be 22 af 87 bd e8 a9 57 be
       0.13136277 -0.2910528 -0.06625201 -0.21060908
000250 b8 07 47 be 28 26 26 be 21 ef c6 be 70 24 0f 3e
       -0.19436538 -0.16225493 -0.38854316 0.13978744
000260 9b 7c ad be 20 a3 3c 3d 82 dc 5d be 14 bc a4 be
       -0.3388413 0.046054006 -0.21666148 -0.32174742
000270 f9 6e bc be a9 5e 58 bd 60 77 7d ba b6 3a b7 3e
       -0.36803415 -0.05282465 -0.00096689723 0.3578698
000280 a4 77 b7 3d 27 42 92 3d fc 9f 9d be 44 2f ab be
       0.089583665 0.07141524 -0.3078612 -0.33434498
000290 53 ff 8e be a6 3c ad be 6f c6 20 be 20 ce e7 3d
       -0.27929172 -0.33835334 -0.15700696 0.11318612
0002a0 22 a9 ae 3e 95 41 55 bd fe f2 17 3e 1e f3 19 bc
       0.34113413 -0.052064497 0.14838788 -0.009396343
0002b0 6c bc c0 be d9 0c 15 be ac 7b 65 be 49 4f 94 be
       -0.37643754 -0.14555682 -0.22410458 -0.2896674
0002c0 63 42 24 3d 53 ab 79 3d 47 12 b0 3d 9c 76 a1 be
       0.040102374 0.060954403 0.08597236 -0.31535804
0002d0 c3 77 8a be 01 04 96 3d 74 5e 5d be ec 66 ba be
       -0.27044496 0.073249824 -0.21618062 -0.36406648
0002e0 76 9a 5b be 7e 63 af bc 75 0b 83 bd e0 46 a8 be
       -0.21445641 -0.021409746 -0.0639867 -0.32866573
0002f0 15 89 34 be ed d2 6a be d2 1b 9b 3c 29 45 37 be
       -0.17630418 -0.22932024 0.018934164 -0.17897476
000300 e9 ce 94 3e 7b 9b ee be 41 a4 21 3e e2 bb 4f bd
       0.2906411 -0.46602997 0.15785314 -0.05071629
000310 c3 8a de 3c dd b7 63 be e9 a5 d3 bd 5a 3b 9f 3d
       0.027165776 -0.22238107 -0.10334379 0.07774992
000320 7c e9 1f be b1 68 de 3d 28 1e 81 be b0 f1 86 be
       -0.15616411 0.10859812 -0.2521832 -0.26356268
000330 18 c4 3a 3e 98 df 3a be 9f e8 70 3e 92 28 c4 be
       0.18238866 -0.18249357 0.23526238 -0.38312203
000340 3b 6b b0 be 58 c7 10 be 02 6b 3c bd ac e4 79 3e
       -0.3445681 -0.14138544 -0.046000488 0.24403638
000350 d7 18 b7 3d d0 f2 81 be a0 05 af be 63 c7 9c be
       0.08940285 -0.25380564 -0.3418398 -0.3062087
000360 84 5c c9 be 19 a9 26 3e 1a ab c1 bd 0c c4 b6 b8
       -0.39328396 0.16275443 -0.09456463 -8.714953e-05
000370 ad c3 20 3e 37 83 d4 3b eb 30 b0 be 94 bd 19 3e
       0.15699644 0.0064853686 -0.3441232 0.15013725
000380 73 ea 9b be c0 ba 94 3e 5f 32 71 be 60 9a f9 bd
       -0.30452308 0.2904873 -0.23554371 -0.12187648
000390 40 43 25 3d 96 ad 77 be 8c 20 a8 3d 77 2a 40 bd
       0.040347338 -0.24187312 0.08209333 -0.046915498
0003a0 ad 7e c1 be 40 8c 99 be c9 28 d9 be 97 40 da bd
       -0.37791958 -0.29989815 -0.4241393 -0.10656851
0003b0 21 34 6e 3d c7 6b 62 be 0f 9a a9 3e 0a 23 73 3e
       0.058155183 -0.22111426 0.3312535 0.23743835
0003c0 96 a0 8a be dc 97 00 3e 89 90 77 be 5e 5f 61 bd
       -0.27075642 0.1255793 -0.2417623 -0.05502259
0003d0 b0 26 90 3e 70 3b c4 be d8 e5 cd be 42 fd af be
       0.28154516 -0.38326597 -0.4021442 -0.34372908
0003e0 74 02 b5 be b4 ce 32 be 1e 84 8b be 77 e7 ae be
       -0.35353434 -0.17461663 -0.27249235 -0.3416097
0003f0 62 91 c5 bd 9a 77 84 3c 53 45 4b 3d d9 bb 73 3e
       -0.0964687 0.016170312 0.04962666 0.23802127

net.2.linear.weight f4 [256, 256]
000000 c7 87 32 bc 39 a4 0c 3d 73 98 80 3c a0 25 2d bd
       -0.01089663 0.034336302 0.015697693 -0.04227221
000010 58 70 8f bb b1 1c be 3b cb 9d 89 bc f2 d1 60 3d
       -0.004377406 0.00580176 -0.016798874 0.05488772
000020 8e 3f 28 3d f7 12 94 bc 21 81 4a bd e8 63 e6 3d
       0.041076235 -0.01807545 -0.049439553 0.11249524
000030 e1 aa cb 3c e0 69 42 3c 49 65 c9 bc e7 be 93 3d
       0.024861755 0.011866063 -0.02458443 0.07214146
000040 a1 e9 58 bd c4 9f 36 bc 5e 67 82 bc 24 7a 8b 3d
       -0.05295718 -0.0111464895 -0.01591843 0.06810406
000050 f4 b3 72 bd 94 4b c2 bc 1c 2d 8b 3b 79 b5 8f 39
       -0.059253648 -0.02371768 0.004247321 0.00027410293
000060 3d 93 ce 3c 00 35 bb bc 9a 7d 1d bc 4f c6 8b bd
       0.025216693 -0.02285242 -0.009612465 -0.06824934
000070 b6 45 6c 3d 22 c1 b7 3c a0 01 af bb 6a ad 62 bd
       0.05768367 0.02243096 -0.00534077 -0.05534116
000080 64 ef 21 3d 35 b6 02 bd 67 45 eb 3d 24 ba 7d bd
       0.03953494 -0.031912047 0.11487847 -0.061945096
000090 57 99 a4 3d c9 aa e0 3c 53 eb 17 3c 74 28 de bc
       0.0803706 0.027425187 0.009272414 -0.027118899
0000a0 bc 75 8c 3c 2d 89 1a bd 50 c4 ad 3d 56 6e bf ba
       0.017145984 -0.037728477 0.08484709 -0.0014605026
0000b0 30 4b 95 bd 00 dd e2 3c 2c 4c 9c bc bc fa 90 3b
       -0.072897315 0.027693272 -0.01907929 0.004424421
0000c0 e4 54 21 3c 45 e9 ad bc 0f 77 45 3c 45 fc 87 3d
       0.0098469 -0.021229396 0.012052312 0.066399135
0000d0 93 a3 71 bd a5 c3 32 3d f6 8d da bc 97 c3 9a bd
       -0.058993887 0.043643612 -0.02667902 -0.07556837
0000e0 6a df ad 3a cb 6c 0b 3d 8c 84 9e bc ae 4b 4c bd
       0.0013265435 0.0340393 -0.019350313 -0.04987686
0000f0 00 55 b8 3b 6f 25 97 bd 25 e1 48 bc 9e 74 a6 3d
       0.005625367 -0.07380187 -0.01226071 0.08127712
000100 21 86 9d bd c2 e3 0b bb e3 a7 4c 3c cd 5c 0b 3d
       -0.07691599 -0.002134547 0.012491199 0.03402405
000110 27 96 54 bd 00 02 d3 3c 55 e9 6b bd 78 8a 18 3d
       -0.05190101 0.02575779 -0.05759557 0.03724143
000120 57 44 05 3d 93 2d 58 3d 28 4b 99 3d c6 d7 2f 3d
       0.032535877 0.052777838 0.07485038 0.042930387
000130 dd dc 4c bc 6c 7e 7f 3d 28 e1 12 bd d2 8d b7 bc
       -0.01250383 0.062376425 -0.035859257 -0.022406492
000140 b0 02 75 bd 67 57 38 3c 57 ea 52 3d 83 15 a4 3d
       -0.059817016 0.011251307 0.051493015 0.080119155
000150 ee c8 f8 3c 6a 03 d7 bc e6 db 9f 3d 03 4c 21 b7
       0.030369248 -0.026246745 0.07805614 -9.614046e-06
000160 b1 0f 55 3d ad 22 85 bd 05 d5 58 3c 28 1e 30 bd
       0.052016918 -0.065007545 0.013234382 -0.04299751
000170 31 f9 d9 bc 64 db 6d 3d 83 4d 81 bd d1 5a 9f 3c
       -0.026608082 0.058070555 -0.06313612 0.019452484
000180 6c 3d e8 3b 30 3a 14 bd fb a8 2d bc e3 e1 c8 3a
       0.0070874 -0.036188304 -0.01059937 0.0015326109
000190 07 06 44 bd 0e 3b 93 3d 48 c9 bc 3d 93 3e 2f bc
       -0.04785731 0.07188998 0.09218079 -0.010696071
0001a0 60 dc 5a bd 6a 7f 3d 3d aa bb 2e b8 f3 95 49 bd
       -0.053432822 0.04626409 -4.165961e-05 -0.04921527
0001b0 9e c3 cc 3c 05 67 64 3d 51 b6 2a bd 0d ba 03 bc
       0.024995621 0.05576231 -0.041677777 -0.008039963
0001c0 a2 dc 8a 3d 50 1f 00 bd c0 52 59 bd c0 64 09 bc
       0.067803636 -0.031279862 -0.053057432 -0.008385837
0001d0 3b 98 2f 3d 25 ef 0a bd 9b 49 c5 3d cc 54 b0 3c
       0.042869788 -0.033919472 0.0963318 0.02152481
0001e0 9d 94 5f 3d 51 55 f7 bc ce 1c 73 3d d9 95 7f bc
       0.054585088 -0.03019205 0.059353642 -0.015599691
0001f0 7a 38 9b bd 1d e8 c0 bc f2 21 bf 3c 53 3f 03 bd
       -0.075791314 -0.02354818 0.023331616 -0.032042813
000200 30 90 36 3b 78 30 d0 3a bf 8c 6c 3d 6b 4d e0 3d
       0.0027856939 0.0015883585 0.057751413 0.10952266
000210 e1 e8 9f 3d b1 91 a3 3a 16 24 26 bd 48 b3 8f ba
       0.0780809 0.0012479333 -0.040561758 -0.0010963464
000220 0c 02 0e bd 42 30 33 bd 59 1c 5c bd 8e b3 a7 3c
       -0.03466992 -0.043747194 -0.053737972 0.02047136
000230 b7 70 86 bd 17 a3 e0 3c 68 16 1f bd 82 fb 03 bd
       -0.065644674 0.027421517 -0.038839728 -0.03222228
000240 34 f7 5d bd 13 49 6c bd 4e 16 f6 bc cc 43 00 bd
       -0.05419083 -0.057686877 -0.030039933 -0.031314656
000250 0b 91 a8 3d 96 c5 fe 3a 48 1e 16 3a c8 3d 9b 3d
       0.0823079 0.0019437547 0.0005726558 0.07580143
000260 4c ad 1c 3d ed ec 77 3d e9 fa 63 bd ab 26 d4 3c
       0.038251206 0.060528684 -0.05565921 0.025897345
000270 0d 7a 53 bc 5c 88 2b bb 7b 41 66 3d 44 df b9 3c
       -0.012907517 -0.0026173806 0.05621479 0.02268947
000280 32 03 ce bc ed 66 b6 bd 49 19 b2 3d b9 1d bd 3d
       -0.025148008 -0.0890635 0.08696229 0.09234185
000290 9c 0b 70 3c d5 e3 2d 3d fa 14 8c 3b 46 e4 f1 3c
       0.014651205 0.042453606 0.0042749615 0.029527795
0002a0 ad b3 51 3d c8 78 f9 3c 76 b7 2b 3d b6 cc f0 3c
       0.051196743 0.0304531 0.04192301 0.029394489
0002b0 b5 9b b3 3c d6 92 ae bc 1e 37 50 3d c0 13 93 3d
       0.021924833 -0.021310251 0.050833814 0.071815014
0002c0 f8 d2 bc 3d 5a 71 4b 3d 3f 4b 6f 3d 72 ad 1c 3d
       0.092199266 0.049668647 0.05842137 0.038251348
0002d0 59 d9 7b bc 83 f5 99 3d 94 12 01 bc fa c2 5b 3d
       -0.015371644 0.07517531 -0.0078779645 0.05365274
0002e0 aa c5 8d 3d ea d2 80 bd 6b 4d d5 3b 33 11 f7 bb
       0.06922467 -0.06290229 0.006509473 -0.007539892
0002f0 6f 84 67 bd 94 81 7e bd a3 38 23 3d a4 9b 96 3d
       -0.056522783 -0.062135294 0.039848935 0.07353905
000300 bf 8c 8c bd 6d ef 8c 3d 47 7b ff bc fd d7 65 3d
       -0.06862783 0.06881604 -0.031186713 0.056114186
000310 42 e2 a2 bc c4 a2 b2 bc 12 4f 92 3d 26 bc ab bd
       -0.019883279 -0.021806128 0.07143988 -0.08385496
000320 ea 04 46 3c 42 28 17 bd bf 77 fe bc 22 7d 98 bd
       0.012086133 -0.036903627 -0.031062959 -0.07445742
000330 42 e9 75 3d 39 c5 28 bd 89 a5 13 bd 29 e3 ef bc
       0.060036905 -0.04120371 -0.03604654 -0.029283123
000340 b6 5a de bc 3e be 46 3d 93 99 15 3d 04 2f c2 3c
       -0.027142864 0.048521273 0.036523413 0.02370406
000350 89 3d 3a bd b6 98 0d bb 66 3b b9 bc 78 8e 87 bd
       -0.04546884 -0.0021605915 -0.022611331 -0.06618971
000360 7e 05 b7 bc 3d 2f 06 bd b5 a1 6a 3d 28 33 21 3d
       -0.022341486 -0.032759894 0.057283122 0.039355427
000370 c4 55 a6 bd c0 37 ab bd 71 3d dd ba 3a 36 8d bc
       -0.08121827 -0.08360243 -0.0016879273 -0.017237771
000380 3f 7e a1 3d 58 2e d2 bc 3c d5 6f bd 82 2b e4 bc
       0.07885408 -0.025656864 -0.058552966 -0.027852777
000390 ae 0c 94 bd 36 64 83 3d d6 80 5c 3c 2e d9 a5 bd
       -0.07228981 0.06415598 0.013458451 -0.08098064
0003a0 95 bc cb 3d f6 1a 5e bd af c3 8e 3d a3 4a 5b 3b
       0.099480785 -0.05422493 0.069709174 0.0033461235
0003b0 6e f9 a2 3d 28 a6 d6 3b 18 45 c4 bc 31 fa 81 bc
       0.07957731 0.006550569 -0.023958728 -0.01586637
0003c0 fc 2c 2e bb 99 11 fc bb 04 6d 04 3b 3a 38 8b 3d
       -0.0026577106 -0.0076925275 0.002020658 0.06797834
0003d0 66 39 3b 3d 49 c3 76 bd 41 12 9e bc 12 9c 0e bd
       0.045709036 -0.060244832 -0.019295814 -0.03481681
0003e0 69 26 90 3d 5f 49 38 bd b8 07 3a bd a9 2f 67 3d
       0.07038576 -0.044991847 -0.045417517 0.056441937
0003f0 f2 ab 17 bd d3 24 b3 bc ce d2 46 bd 54 b6 2b 3d
       -0.037029214 -0.021868145 -0.048540883 0.04192193

net.2.linear.bias f4 [256]
000000 73 f9 80 bd 2d 4b 6c bd 16 9f 17 bd c3 5d a1 bc
       -0.06297579 -0.05768888 -0.03701695 -0.01969803
000010 0a f5 d8 bd a3 18 83 bd 7a 10 2b bc 49 d2 65 bc
       -0.105936125 -0.064011835 -0.01044094 -0.014027187
000020 e4 7f bc bd 2d 16 ef bc 08 5d 90 bc a7 18 43 3c
       -0.09204081 -0.029185379 -0.017622486 0.011907733
000030 64 79 c2 bd 99 89 8d bc b8 d4 93 bc 39 53 8b bd
       -0.0949581 -0.017277526 -0.018045768 -0.06802983
000040 89 0f 77 3c f9 9e ac bd 6f 75 5b 3d 57 d5 12 bd
       0.015079387 -0.08428759 0.05357879 -0.035847988
000050 dc a9 2a bd cd 0c 83 bc 67 bd 9e bd dd d2 ac bd
       -0.041665897 -0.015997315 -0.077509694 -0.084386565
000060 63 ef a0 bc 05 4d 14 bd 53 7c 19 bd 07 12 dd 3b
       -0.019645398 -0.036206264 -0.03747208 0.006746534
000070 08 b7 cd bc f7 27 b6 bc 38 ea cc bb 7d af a6 bd
       -0.02511169 -0.022235854 -0.006253507 -0.081389405
000080 63 f3 1c bd 46 e0 e2 3c 98 03 3b 3d 6e 4e 8d bc
       -0.03831805 0.027694833 0.045657724 -0.017249312
000090 26 4b 04 bd 19 bd a0 bd 6f 64 8c bc 71 be b4 3b
       -0.03229823 -0.078485675 -0.017137734 0.0055158664
0000a0 ac 8a 14 bc 19 c0 33 bd ce d4 7a bd 7d c6 b7 bd
       -0.009066265 -0.04388437 -0.061238103 -0.089734055
0000b0 38 ed d3 bd 51 eb c5 bd 64 ee c0 bd dc b7 2c bd
       -0.1034798 -0.09664024 -0.094204694 -0.04216753
0000c0 9a 40 b5 bd b7 32 d7 bc cc 60 1e 3d d6 c2 26 3c
       -0.088502124 -0.0262693 0.03866653 0.010178288
0000d0 0b 52 bb bd 03 2e f8 3c 7d 5c da bd 2e 61 bb bc
       -0.09146508 0.030295378 -0.10662172 -0.022873487
0000e0 44 6c 95 bd 0d 3b 9b bd 0e 4f 0a bd ac 47 09 bd
       -0.07296041 -0.075796224 -0.0337668 -0.033515617
0000f0 b1 2d cc bd e1 97 1f 3d 72 52 bb bd 07 ff a8 ba
       -0.099696524 0.038963202 -0.091465846 -0.0012893387
000100 28 ce ff 3c f5 b0 c3 bd 1f 51 74 bd f1 bb 70 bd
       0.031226233 -0.09555236 -0.059647676 -0.058772985
000110 08 92 11 bd 8e a3 7c bd da c1 86 bd 5d f1 85 bc
       -0.035539657 -0.061679415 -0.06579943 -0.016350443
000120 d2 bf 8b bc 82 8e 48 bd c7 11 65 3d 09 69 da 3d
       -0.01705924 -0.04896403 0.055925157 0.10664565
000130 6e 12 fc 3c b2 0c 8c bc 9f f8 92 bd 99 26 8d bd
       0.030770507 -0.017095897 -0.07176327 -0.068921275
000140 a1 7a 50 bd a5 f8 fd bd 0d 19 a9 3c 6f 01 92 bd
       -0.050898198 -0.12400941 0.020641828 -0.0712918
000150 3a e6 39 bd 1b 8d fc 3b 16 7d 0b bd 64 d8 60 bd
       -0.045385577 0.007707251 -0.034054838 -0.054893866
000160 a4 ac 37 bc 6a 26 10 bc cc 28 0e 3d 52 e3 b9 bd
       -0.011210594 -0.008798221 0.034706876 -0.09076561
000170 af ff ac bd fb a0 bc bd d9 a0 05 3c 98 1e 7e 3d
       -0.08447205 -0.09210392 0.008156025 0.062040895
000180 c1 2e c3 bd d0 04 b5 bc 6f 9b a3 bd d9 2e 41 3c
       -0.09530402 -0.022097021 -0.07988631 0.0117909545
000190 ca 25 8a bd c6 91 1d bd fd 25 ef bd 68 bc a9 ba
       -0.06745489 -0.0384691 -0.116771676 -0.0012949826
0001a0 20 7e 8b bd 61 f6 f7 bd 62 ee aa bd 60 67 87 bd
       -0.06811166 -0.1210754 -0.08346249 -0.06611514
0001b0 58 e1 2c bd 69 3d 20 3d fe 01 bd bd be e2 84 3d
       -0.042207092 0.039121065 -0.092288956 0.0648856
0001c0 ef f1 89 3b cd d4 06 3d ab ec f4 bd 7c 78 1c bb
       0.004209749 0.032917786 -0.11959203 -0.0023875525
0001d0 13 de a5 bc 1e 8b 31 3c d6 ec 4d bd 37 bf 3a 3b
       -0.020247495 0.010836391 -0.050274692 0.002849532
0001e0 b4 b0 8c bc a1 0e 2f 3d c2 8b 49 bc 94 97 9c 3d
       -0.017174102 0.04273856 -0.012301387 0.07646099
0001f0 62 66 16 bd cc fa 32 3c cc b8 24 3d 12 0e c7 bb
       -0.036718734 0.010924052 0.0402153 -0.0060746754
000200 57 11 c5 bc c4 d7 28 bc 48 14 f4 3b 8a 8c d0 3d
       -0.02405612 -0.010305349 0.007448707 0.10183056
000210 04 f7 9e 3c 54 1c b8 bd 42 ec ab bd af a7 78 3c
       0.019404896 -0.08989778 -0.08394672 0.015176698
000220 26 57 76 3c 21 e8 93 bc 89 39 78 3d e9 4c 0d 3d
       0.015035426 -0.018055024 0.060601745 0.034497175
000230 32 16 4f bd b2 ed f9 bc fa eb 9e 3d 34 f5 c7 3b
       -0.050558276 -0.03050885 0.07759853 0.0061022285
000240 b4 f7 6c bd 12 4d 4e bd b9 d5 86 3c 78 98 96 bd
       -0.057853416 -0.05036647 0.016459333 -0.073533
000250 bb d2 a7 bd 20 99 cd bd 80 a0 e4 3d 1e 08 a2 bd
       -0.081944905 -0.10038972 0.111634254 -0.079117045
000260 ea 7f b3 bd 12 48 52 bb 14 ab e5 bd fc 20 d5 3c
       -0.08764632 -0.0032086414 -0.11214271 0.026016705
000270 22 2c 2f 3d 09 07 23 bd 71 4c b2 bb 32 ea da bc
       0.042766698 -0.03980163 -0.0054412414 -0.026723001
000280 c4 24 89 bd fd 89 a3 bd d4 a6 80 bd 80 1b 9c bd
       -0.066964656 -0.079853036 -0.0628182 -0.07622433
000290 6c 86 4c ba 0d f8 93 bc ba 9e de bc 42 ab 5d 3c
       -0.0007802013 -0.018062616 -0.027175296 0.013529601
0002a0 60 60 70 bc 60 89 8f bb 2e 59 be bb 96 c1 f1 bc
       -0.014671415 -0.00438039 -0.005808971 -0.029511254
0002b0 79 14 76 bd 19 ab da 3d 0c 24 c6 bc c3 09 b7 bc
       -0.060078118 0.106771655 -0.02418711 -0.022343522
0002c0 46 7a 20 3c a8 69 25 3d c5 e5 1d bd 22 c6 9f bd
       0.009794777 0.040383965 -0.038549203 -0.07801463
0002d0 ff 06 13 3d 1f 9f b9 bd a0 7f d8 3d 55 c5 9a bc
       0.035895344 -0.09063553 0.105712175 -0.018892923
0002e0 ab 83 7f bd b4 16 9d bc 73 b0 e5 bb 22 9b 45 bd
       -0.062381428 -0.019175865 -0.00700956 -0.04824365
0002f0 de 82 29 bd 0c 84 41 bd af 66 90 bb eb db 2f 3d
       -0.04138457 -0.04724507 -0.004406772 0.04293434
000300 5b 8a 44 bd ac 8f fb bc 06 40 ac 3d 62 79 8b bd
       -0.04798351 -0.030708157 0.08410649 -0.06810261
000310 e7 c5 8d bd 55 e7 9a bc 7a 00 3a 3d 5f e2 9a bd
       -0.069225125 -0.018909136 0.04541061 -0.07562708
000320 67 5b 54 bd 26 63 67 bd bf 5a 98 bd 98 6a 1b bd
       -0.05184498 -0.05649104 -0.074391834 -0.037943453
000330 e2 8a b7 bb bd 04 bd bc 8e df c1 bc 6e 62 95 3d
       -0.005601273 -0.023073548 -0.02366617 0.072941646
000340 e7 c4 6d bd ee 80 6c 3c 50 da 7b bd 0e 3d 4e bd
       -0.05804911 0.014435036 -0.061487496 -0.050351195
000350 14 1e e4 3b 83 61 46 bd a2 8b b9 bc 9d 4b 3c 3d
       0.0069615934 -0.04843284 -0.02264959 0.045970548
000360 40 1a 8e bb 56 01 6a bd be e7 46 3d f9 6c 67 bd
       -0.0043366253 -0.05713018 0.04856085 -0.05650041
000370 fd 92 1e 3b c9 fd 27 bc a3 25 71 bd f0 76 e8 bc
       0.0024196499 -0.010253378 -0.058873784 -0.028377026
000380 54 ce ca 3b 15 87 ef bb 4a 42 f0 bd ce b8 a5 3d
       0.006189147 -0.007309804 -0.11731394 0.08091889
000390 55 48 2e ba 0e 09 66 3c 43 4b 59 bd f0 97 3a bd
       -0.00066483516 0.014040245 -0.05305029 -0.045555055
0003a0 bb 2d 44 bd 6a bc 8c bd 6a ff 0c bd 3f 6b d5 bd
       -0.047895174 -0.06871875 -0.03442327 -0.10420846
0003b0 b8 bc e4 3c 67 d4 66 3b 06 d6 89 bd 0c eb c3 bc
       0.02792202 0.0035221817 -0.06730275 -0.02391579
0003c0 6f 67 44 bd b7 04 3c 3c 42 46 2d bd e7 9e 14 bd
       -0.047950204 0.0114757335 -0.04230333 -0.036284354
0003d0 eb 66 48 3d f3 22 46 bd 30 7a 4d 3d c1 39 92 ba
       0.048926275 -0.048373174 0.050165355 -0.0011156128
0003e0 5c 5a d4 bd 97 bb 76 bb 17 94 b4 bd 3c dd d8 bc
       -0.10368797 -0.0037648433 -0.088173084 -0.02647268
0003f0 ee ac 2c 3d 32 5b 49 bd db 91 4f bd 1e 1e a6 bd
       0.042157106 -0.049159236 -0.050676208 -0.08111213

net.3.linear.weight f4 [256, 256]
000000 a0 34 8f bd 86 26 a3 3d 0d ed ab 3d 14 c0 27 bd
       -0.06992459 0.07966332 0.08394823 -0.040954664
000010 f0 e6 53 3d ee c2 4a 3d 49 5b e8 3c ff 77 72 bd
       0.05173391 0.049502306 0.02836384 -0.05919647
000020 1f 24 11 3d 28 3e 1a bd 0e ca 67 3d b1 a9 a5 3d
       0.03543484 -0.037656933 0.05658918 0.08089007
000030 fc 05 9c 3d 14 d4 03 bd ef 52 18 3d 34 79 8c bd
       0.07618329 -0.032184675 0.037188467 -0.06859055
000040 98 54 82 bd d8 5a d7 3d 3c 47 b8 bd f9 98 12 3c
       -0.06363791 0.10515374 -0.08997962 0.008947604
000050 d4 71 80 ba 3e 8c cd bc bc 7e a2 3d af 26 ee 3b
       -0.0009799548 -0.025091287 0.07934329 0.007267795
000060 1c 0e ab 3c a2 10 56 3d 8c 2c 80 3d 1c 2a 3c 3c
       0.020880751 0.052261956 0.06258497 0.011484649
000070 0e cf 86 bd 7e 02 cb 3d 5d 75 6e 3c d1 fd a0 3c
       -0.06582461 0.09912585 0.014554349 0.01965228
000080 9d 1b 04 bd a9 23 c3 3c da 64 fa 3c 62 53 b0 bc
       -0.032252897 0.023820715 0.030565668 -0.021524135
000090 45 2c 88 bc c0 a2 9b 3d 29 08 07 bd 78 9b 4c 3c
       -0.016622672 0.075994015 -0.032966767 0.0124882385
0000a0 bd d0 6d 3d dc a9 17 3d 3e be c2 3d e5 98 3b 3c
       0.058060396 0.037027225 0.09508942 0.011450027
0000b0 d7 1a a8 3c 1b 76 6a 3d 20 ce 0f bd 7d f6 15 3b
       0.02052061 0.05724154 -0.035108685 0.0022882514
0000c0 55 2b 7a 3c 5e 09 80 3c 18 85 b2 3b ef f9 08 3c
       0.01526912 0.015629467 0.005447995 0.00836037
0000d0 0e 6c 75 bb 92 df 96 bd e7 b2 c7 3d 27 b7 c0 3d
       -0.0037448439 -0.073668614 0.0975092 0.094099335
0000e0 5a b7 83 bd 3e 7a 2c bd 49 19 01 3c 67 54 74 bd
       -0.06431456 -0.042108767 0.007879564 -0.059650805
0000f0 66 92 49 bd f0 82 3e 3d cf b9 73 3b 28 a2 b3 3d
       -0.049211882 0.04651159 0.0037189608 0.08771163
000100 f9 ed d1 3c 51 ec 1f bd 18 bb aa bc f8 af 9a bd
       0.02562617 -0.03904373 -0.020841166 -0.075530946
000110 09 19 5e bd 1a d8 16 3d 5b 30 07 3d 7a af 37 3d
       -0.054223094 0.036827184 0.0330051 0.044845082
000120 5f bd 1a 3d f5 33 1d 3d a6 f8 82 bd 9e b5 8d bd
       0.037778255 0.03837963 -0.06395082 -0.06919406
000130 b8 1f 95 3c 46 1b 1f bd c0 06 c7 3c f5 9f 0f 3d
       0.018203601 -0.03884437 0.02429521 0.035064656
000140 7a 50 e7 3b 2e 2b 6c 3c 06 b4 82 3d 56 aa 2a 3c
       0.007059154 0.014414592 0.06381993 0.010416588
000150 e0 b2 c5 bd 74 23 0a 3d d3 ac 4a 3d 04 5c 5e bd
       -0.09653258 0.033725217 0.049481224 -0.05428697
000160 02 7e 5d bd 18 a0 40 3d 50 00 3d bd 49 ac 1f 3d
       -0.05407525 0.047027677 -0.046142876 0.038982663
000170 ff a7 c0 3a 2b 1c ce bb bd 47 5c bd e5 b3 2a bd
       0.0014698504 -0.006289979 -0.053779352 -0.041675467
000180 28 4b 8f 3d 1a 42 40 3c 3e c5 10 bd 6c 75 54 bd
       0.06996757 0.01173451 -0.035344355 -0.051869795
000190 35 2a 21 bd ca 6a 9a bc d3 1d 02 3d bb 9b 89 bb
       -0.039346892 -0.01884975 0.031766724 -0.0041994727
0001a0 b7 74 b4 3b 9c 61 9f 3d 69 87 e7 3d 20 13 b4 bd
       0.0055070776 0.077822894 0.11305124 -0.0879271
0001b0 4f 13 da 3d 84 4f 90 3d 04 4c de 3c 97 26 22 3d
       0.10648214 0.070464164 0.027135856 0.039587583
0001c0 b7 f8 8b bc 9d 59 90 bd cb 34 f6 3c 37 cb 15 bd
       -0.01708637 -0.070483424 0.03005447 -0.036570754
0001d0 09 01 01 3c cf 86 4e 3d cc 19 38 bb a2 61 42 3d
       0.007873782 0.050421532 -0.0028091548 0.04745639
0001e0 0b d7 27 3d 98 ed 59 3c 8c 01 09 3d 46 06 04 3d
       0.040976565 0.013301276 0.03344874 0.032232545
0001f0 74 01 2e bd 0d b2 6a bd 53 1f 9a bd 2e 3b 8d bd
       -0.042481855 -0.05729871 -0.07525506 -0.06896053
000200 6f c7 93 bd 32 0f d2 bc ff 51 a1 bc f0 87 e3 bc
       -0.07215773 -0.025642011 -0.01969242 -0.027774781
000210 c1 7a c7 3c 02 87 13 3c b6 98 3d 3d 83 a8 d9 ba
       0.024350526 0.009004356 0.046288215 -0.0016606007
000220 4d bc ae bd 79 e8 1b 3d 21 91 0f 3d d7 35 97 3d
       -0.08532009 0.0380635 0.035050515 0.07383316
000230 c1 d5 75 bd 57 1f 60 3d 0f f6 f3 3b 95 f4 a4 3d
       -0.060018305 0.054717388 0.007445104 0.08054463
000240 97 62 97 3d 34 8b 89 3d d6 ca e1 3c cc aa d2 3d
       0.073918514 0.06716004 0.02756254 0.10286483
000250 fd 11 bf 3c d8 19 81 3c 36 09 ad bd 49 05 a6 3d
       0.023324007 0.015759394 -0.084490225 0.08106477
000260 aa e2 e7 bc 69 e2 c8 3d f6 94 40 bd 9a 12 5f 3a
       -0.028306324 0.09808809 -0.04701706 0.0008509547
000270 b9 3d 6e bc 8a 94 bb 3d 78 e8 21 3b 6d 5a b7 3c
       -0.014541083 0.09159191 0.0024705213 0.022381986
000280 f3 48 69 bd e3 ae 74 3d a7 c6 47 3d 6a 91 88 3d
       -0.056954335 0.059737097 0.048773434 0.066683605
000290 6f fc d6 3c 2c 85 c9 3d ee 29 88 3d 18 b2 c2 bd
       0.026243417 0.09839854 0.066486225 -0.09506625
0002a0 5d 2b ed 3c 50 88 3d bc 18 d6 98 3d 6a 88 06 3d
       0.028951341 -0.011568144 0.0746271 0.03284494
0002b0 8f 25 91 3b fa b6 ac bc e9 a3 47 bd 96 e5 dd bc
       0.004429526 -0.021083344 -0.0487403 -0.027087014
0002c0 08 44 8a 3d c9 a2 be 3b 8d 3a 43 bd c2 5f 3c bd
       0.06751257 0.0058177453 -0.04766326 -0.04598976
0002d0 df f3 92 bc 56 aa f1 3d a4 0f 84 bd e5 87 8f 3c
       -0.017938552 0.11800067 -0.06448296 0.017520854
0002e0 b3 8f c4 3c d5 4e 04 bd 0f 66 f3 3d c4 5c 7d bd
       0.023994302 -0.032301743 0.118847005 -0.061856046
0002f0 22 c8 56 3c 80 11 8c bd 7f 0d 50 3d 38 ad a6 bc
       0.013109239 -0.06839275 0.05079412 -0.020346269
000300 21 58 e5 bc 32 67 ac 3d 90 df 23 bd 87 a3 28 3d
       -0.027996125 0.084181204 -0.040008128 0.041171577
000310 42 07 4a 3d ce 42 70 3d 05 0c fc bd 82 d9 3b 3d
       0.049323328 0.05865746 -0.1230698 0.04586173
000320 38 16 be 3d 8a 11 43 bd 81 10 32 bd 0f 6a a9 bc
       0.09281582 -0.04762415 -0.04347277 -0.020680455
000330 3d ed 3b 3d 4a 45 1c bc 4a 17 94 3a 7d e0 88 3c
       0.045880545 -0.009538004 0.0011298445 0.016708607
000340 15 a7 64 bb 0e 28 5f 3d cd fc 02 3c 88 f9 5a 3d
       -0.0034889628 0.05448156 0.007994843 0.053460628
000350 21 cd 56 3d 87 58 b6 3c b8 ae 70 bc cc ee 2c 3d
       0.05244172 0.02225901 -0.014690094 0.042219922
000360 98 ac 0c 3d 6d 97 ef bc 56 00 6b bd 34 b7 51 bc
       0.034344286 -0.02924701 -0.057373367 -0.012800027
000370 c9 c8 a8 3d 1f 76 42 bd 92 06 0e 3d dc b5 a1 bc
       0.08241422 -0.04747593 0.034674235 -0.019740038
000380 82 de 6b bd 41 c6 07 3d 28 a4 ff bc 07 8d 9d bd
       -0.057585247 0.033148054 -0.031206205 -0.076929145
000390 0b a2 bb 3c 4e 29 fd bb c4 d5 50 3c 94 f7 d1 3b
       0.022904417 -0.007725871 0.012746278 0.0064076874
0003a0 d0 4b 77 3d 4f 1f a4 3d 6c 1f 19 3d fd 4e 9f 3c
       0.060375035 0.08013784 0.03738348 0.019446844
0003b0 c8 84 d0 bb 78 8a 82 bb c8 78 0a bd db a0 6a bd
       -0.006363485 -0.003983792 -0.033806592 -0.05728231
0003c0 24 d6 90 3d c5 a0 71 3d ac 9e b0 bb a9 7a e5 3c
       0.07072094 0.058991212 -0.005390009 0.02801259
0003d0 67 bc 28 bd 4b 81 57 bc a1 5b 50 3d fa 0f 6e bd
       -0.0411953 -0.013153384 0.050868634 -0.058120705
0003e0 a0 e7 1d bd 0a ad 2b 3d b8 73 0a bc c3 0f ba 3d
       -0.038550973 0.04191307 -0.008450441 0.090850376
0003f0 a2 c2 5c bd 50 b4 fc 3c 6e 86 73 3c fd e9 7b bd
       -0.053896554 0.030847698 0.0148635935 -0.061502445

net.3.linear.bias f4 [256]
000000 30 e8 51 bd 4f db 2d bd 96 6f f0 bc 74 3a 7f bc
       -0.051246822 -0.042445477 -0.029350083 -0.015577901
000010 9d 50 1f 3c 13 b0 06 bc 99 72 c6 bd cd f9 9b bd
       0.00972381 -0.00822069 -0.096898265 -0.07616005
000020 af be 7a 3d 25 1f d5 bd 6d ea 28 3d f6 e5 cd bc
       0.061217006 -0.10406331 0.04123919 -0.025134068
000030 d4 23 07 bd 7a 45 22 3b 00 16 ae bd f0 b0 51 bd
       -0.032993153 0.002476065 -0.0850029 -0.05119413
000040 43 43 8d bd 36 9d 9d bd d2 04 d4 3d 75 18 09 bd
       -0.06897595 -0.07696001 0.10352482 -0.03347059
000050 83 93 54 3b 8c 3d e8 3c 95 14 e8 3c b5 bb 06 bd
       0.0032436557 0.02834966 0.028330127 -0.032893855
000060 d9 50 8f bd c1 e0 2d 3d b6 75 8f 3d 1f c0 d2 bc
       -0.06997842 0.04245067 0.070048735 -0.025726376
000070 b7 fa 4a bd db c1 6d bd 7a 1a 84 bd 52 8d e6 bc
       -0.049555507 -0.058046203 -0.064503625 -0.028143559
000080 ed 07 b1 bd c0 67 a9 bc a7 31 43 bd fe 7c 08 3d
       -0.0864409 -0.020679355 -0.047654774 0.033322327
000090 26 db 9d bd c3 c5 44 bd 64 0b c9 bb fa db 7d bc
       -0.07707815 -0.048040163 -0.006135391 -0.015494341
0000a0 0c 7a ec bd 40 b0 d3 3d b0 3d f6 bb 3b 23 b2 3b
       -0.11546716 0.103363514 -0.007514678 0.0054363287
0000b0 94 ca de 3c 7f 25 9c 3d 32 64 cb bd d8 c8 ac bc
       0.027196206 0.07624339 -0.0993122 -0.021091864
0000c0 f7 74 ae bd f9 51 a5 bd db 13 87 bc c5 4d 91 bd
       -0.08518403 -0.08072276 -0.01648896 -0.070949115
0000d0 77 02 6e bb 6c 99 8f bd d0 7f 93 3c f2 f3 bc bd
       -0.0036317387 -0.07011685 0.018005282 -0.092262164
0000e0 cc f9 cf bd 0a ab 30 bd 8d 44 a6 bd 2a fe 01 3d
       -0.10155067 -0.043131866 -0.08118544 0.03173653
0000f0 7f a7 3e bd 05 92 50 3d 80 ca b7 bb 83 91 01 3c
       -0.046546455 0.050920505 -0.0056088567 0.007908228
000100 4a d9 29 bd ca 25 2c 3d a1 e1 9e 3d f6 27 a1 3c
       -0.04146699 0.042028226 0.07757879 0.019672375
000110 c8 ba 88 3c 10 68 8c bc d1 8b 8d bd bd 43 44 ba
       0.016690627 -0.017139465 -0.069114335 -0.00074869004
000120 b4 f0 70 bc 1f 4e d1 bc 72 7a 35 bd 90 73 81 3c
       -0.014705826 -0.025549946 -0.044306226 0.015802175
000130 65 c5 85 3d 22 5f af bb 37 4e ed 38 0c af 81 bc
       0.06531791 -0.005351917 0.00011315609 -0.01583054
000140 73 30 13 3d c3 33 a0 3c ca 36 36 bd b1 d5 b4 bc
       0.035934877 0.019555932 -0.044485845 -0.022074552
000150 33 a1 43 bd 8d 0d 94 bc 5e 20 1e bc 88 18 05 bd
       -0.047761153 -0.018072868 -0.009651272 -0.032494098
000160 5c c8 3a bd 29 da 90 3d cf 47 a0 bc 5a ea 83 3d
       -0.045601234 0.07072861 -0.019565491 0.064411834
000170 30 ae 88 3c 8b 0b b6 bd 5b 03 53 3d 55 ac 32 3d
       0.016684622 -0.088889204 0.051516872 0.04362138
000180 13 d5 59 3d ad da 66 bd 25 45 75 37 84 a8 52 bc
       0.05318172 -0.05636089 1.4619237e-05 -0.01285756
000190 e4 32 33 3d 60 2e c2 bb cc f8 2b bd 17 bc 42 bd
       0.043749705 -0.0059259385 -0.041985318 -0.047542658
0001a0 4d 9b a3 bd ef 0b 2e 3c 6c 0e 9e bc 38 2a d9 bd
       -0.07988606 0.010622962 -0.019293986 -0.10603756
0001b0 dc 56 bb 3c 7d 0c 36 bd 03 53 15 3d 5d 34 f4 bd
       0.022868566 -0.044445504 0.03645612 -0.1192405
0001c0 65 76 8f bd 40 70 b3 3b 8a 84 95 3d c8 09 47 3c
       -0.07005004 0.0054760277 0.073006704 0.012148328
0001d0 3c 70 8e bc 5f 59 99 bb 59 4f 8c b9 7d 0c 9c bd
       -0.017387502 -0.0046798433 -0.00026762 -0.076195695
0001e0 92 6f ce bc f2 0c 9c bd 2f 7e 94 bd c4 b6 b1 bd
       -0.025199685 -0.076196566 -0.0725063 -0.08677438
0001f0 35 96 70 bd 5a 50 85 3d cc 6a db 3b d3 b9 7d bd
       -0.058737 0.065094665 0.006696081 -0.061944794
000200 09 29 86 bd 4a 0d 5d bd 1d d6 53 bd 85 96 24 bd
       -0.065507956 -0.05396775 -0.051717866 -0.04018261
000210 9f 29 12 bc 15 8f 3b 3d 8b f4 d2 bd 88 a3 69 bd
       -0.008921056 0.04579075 -0.10300549 -0.05704072
000220 45 2a 7d bd 20 b1 66 3d c6 0c af bc e9 f6 ed bc
       -0.06180789 0.056321263 -0.021368396 -0.0290484
000230 2d c1 3a bd d4 a9 d1 3c 96 ab 59 bd 4f 65 8d 3b
       -0.045594383 0.025593676 -0.053142153 0.0043150554
000240 70 53 b6 bd 4c 22 ad bd 07 f6 c1 bd 0d 01 fe 3c
       -0.08902633 -0.08453807 -0.09470754 0.03100636
000250 86 28 0f bd 0b 7b ec bd 3a 45 f3 3a 10 77 47 bd
       -0.034950756 -0.11546906 0.001856006 -0.04869753
000260 d8 3f 81 3d b0 ea 1f bc c9 6c 80 bc ee 86 02 3d
       0.06311005 -0.009760544 -0.015676873 0.03186696
000270 cd 24 a3 bc 18 68 80 bc 04 c9 61 bd 89 d3 95 3c
       -0.019915009 -0.015674636 -0.055123344 0.018289344
000280 a4 4a a9 bd 14 03 0f bc 82 31 24 bc d7 10 1a bd
       -0.0826619 -0.008728761 -0.010021569 -0.037613716
000290 83 c4 59 bd 21 91 45 3d a5 3f b2 bd 41 5a 2d bb
       -0.053165924 0.04823411 -0.087035455 -0.00264515
0002a0 1e c8 73 3c 3e a2 96 bd 4e e1 81 bd fc 8a 2b bd
       0.014879255 -0.07355164 -0.063418016 -0.041880593
0002b0 27 fe 90 bc d5 a3 f4 bc 63 b2 96 3c 0f 87 83 bc
       -0.017699314 -0.029863277 0.018395608 -0.016055612
0002c0 1e f6 c0 bd ea 35 21 bd 33 29 49 bd d7 47 ec bc
       -0.09421943 -0.039358057 -0.049111556 -0.02884285
0002d0 4d f9 b5 bb 2a 88 12 bd 56 b4 0f bd 59 31 4b bd
       -0.0055534006 -0.035774387 -0.03508409 -0.04960761
0002e0 1b d5 cc bd 20 ce 6a bd 10 22 d3 bd 44 07 0b 3a
       -0.10001584 -0.057325482 -0.10309231 0.0005303512
0002f0 e4 77 fe bb 92 9c ca 3b fe 34 cf 3b 9b 91 b7 bd
       -0.007765757 0.0061832154 0.006323456 -0.08963319
000300 f6 8b aa bd c8 c6 35 bd c4 fe 5e bd 20 8b a6 bb
       -0.08327477 -0.044379026 -0.054442182 -0.005082503
000310 63 98 a0 bd 82 7c 29 3d 04 03 15 3d a9 3a 8d bd
       -0.078415655 0.041378506 0.03637983 -0.06895954
000320 52 49 08 3d 5d bf 11 bd 1d 3d 4d bd 65 2f 5d bd
       0.03327305 -0.03558289 -0.05010711 -0.054000277
000330 ef 92 86 3d af 84 8c bd b1 1d ff bc 38 af a2 3d
       0.06570994 -0.06861245 -0.031142088 0.079435766
000340 29 14 ec 3a 6e 8a 01 bc 5f da 38 bd f7 6b 08 bd
       0.0018011379 -0.007906539 -0.04513013 -0.03330609
000350 1d bc 40 bd 90 ce c9 3c b4 78 11 3d 54 5e 4b bd
       -0.0470544 0.02463463 0.035515502 -0.049650505
000360 c6 0d 90 bd 8a de b6 bc 09 77 f4 3c 40 7c 84 bc
       -0.07033877 -0.022322912 0.029841917 -0.016172528
000370 ac e6 97 bc 2b fd 42 bd 2c 3c 76 bd 9e fa 9b 3c
       -0.01854261 -0.04760472 -0.060115978 0.019040402
000380 d3 55 e9 bd 0d d3 97 bd c4 36 84 bd 65 f2 d3 3a
       -0.11393323 -0.074133016 -0.06455758 0.0016170262
000390 5b ca 6e 3d dc 83 96 bd fd a5 56 bc 32 41 07 bb
       0.05829845 -0.07349369 -0.013101098 -0.0020638225
0003a0 6f 09 89 bd 14 29 e2 3d 11 12 90 bd 92 1c a0 bb
       -0.066912524 0.11042991 -0.07034696 -0.0048862183
0003b0 63 99 af bb a2 d8 9e bd ac c3 17 3d de 88 de bc
       -0.0053588613 -0.07756163 0.03705184 -0.027164873
0003c0 13 b4 7d bd de 0d 71 bc be f9 ab bd 08 5d 34 bd
       -0.06193931 -0.014712779 -0.08397244 -0.044034034
0003d0 0a 90 5d bb 33 8f eb bd fc 49 49 bd 58 e6 04 bd
       -0.0033807778 -0.115019225 -0.049142823 -0.032446235
0003e0 f2 2c a4 bd 8b 7f 9b 3c 5b 14 e6 3d af 16 e5 bc
       -0.08016385 0.018981716 0.11234351 -0.027964918
0003f0 ae 64 d4 3c cb be ae bc 91 a6 22 bd 78 06 1f 3d
       0.025926914 -0.021331212 -0.03970963 0.03882453

net.4.linear.weight f4 [256, 256]
000000 67 b9 37 bd 85 2c 87 bd 12 4a 07 bc 4e fa 43 bd
       -0.044854548 -0.06600288 -0.008257406 -0.04784613
000010 68 e8 2d 3d 6e 3b 97 3d 80 8d 6a bb 39 06 92 bd
       0.042457968 0.07384382 -0.0035789907 -0.07130093
000020 28 e8 8a bd 2b bf 40 3b 9a e5 57 bd 91 76 45 bd
       -0.067825615 0.002941082 -0.0527092 -0.048208777
000030 0b 95 a5 3c e3 8b 74 bd 7c 7c 17 bd 86 5e cd bc
       0.02021267 -0.05970372 -0.036983952 -0.025069486
000040 dd 1f 33 bd ac 6a 96 bb 92 7d 9e 3d 7f 38 f2 3c
       -0.04373156 -0.004590353 0.077387944 0.029567955
000050 41 7e 52 3d bb 24 76 3c 20 e4 62 bc 18 77 67 bd
       0.051389936 0.015023406 -0.013848335 -0.05651006
000060 4b 47 38 3d 8f 7a 8d 3d 08 7a fb 3c 7b d0 2c 3d
       0.044989865 0.06908142 0.030697837 0.04219101
000070 61 c8 3b bc e2 ee e5 bb a2 7a 1c bd ac fa 1e 3d
       -0.011461348 -0.0070170024 -0.03820289 0.038813278
000080 9d 0e 4c 3c df ce f0 bc a9 56 8d bd d8 79 33 bd
       0.012454656 -0.029395519 -0.06901295 -0.04381737
000090 97 af 3c 3d 4d 61 34 bc cd 13 d0 bc ef a2 1d 3d
       0.046065893 -0.011009526 -0.025400067 0.038485464
0000a0 99 0e 40 3d ec 20 96 3d 70 e9 ab 3d 6d f3 2a bd
       0.04688892 0.07330498 0.08394134 -0.041736055
0000b0 78 63 06 bd f1 b1 22 bd 7e 8e a2 bd 72 d7 b1 3d
       -0.032809705 -0.03972048 -0.079373345 0.08683671
0000c0 30 c8 af 3c 51 1b a8 bd 77 b9 46 bd 75 fa 3f bd
       0.021457762 -0.08208335 -0.048516717 -0.046869714
0000d0 a5 14 51 3c f8 58 8b 3c 7e 09 15 bd e6 fe 13 bd
       0.01276127 0.017010197 -0.036386006 -0.036131762
0000e0 a2 d6 80 bc bf b5 1b 3d d4 f3 19 ba c0 02 15 bd
       -0.015727345 0.038015123 -0.000587282 -0.036379576
0000f0 bd 36 b0 bb f9 dd 18 3d 05 4e 1c 3a 67 18 be 3b
       -0.005377619 0.037321065 0.00059625536 0.005801249
000100 e5 3f 90 bc 18 8d 98 bc c1 e2 bf 3d 8c 71 aa bb
       -0.017608592 -0.018621966 0.09369422 -0.005201524
000110 c5 11 77 bd 30 c8 29 3d 80 47 93 3d 64 a6 aa 3d
       -0.06031968 0.04145068 0.07191372 0.08332518
000120 c9 86 f3 3a 16 1d 3a bd 80 d4 c8 bc 8c c5 62 3d
       0.0018579598 -0.045437895 -0.02451539 0.055364177
000130 f8 95 0b bd 4e 57 85 bd 1b 79 80 3c f6 c4 e1 bc
       -0.03407857 -0.06510793 0.015682748 -0.027559739
000140 a5 40 22 3d b8 70 a5 bc bc 3d ec 3c 46 6b 08 3d
       0.03961243 -0.02019535 0.028838031 0.03330543
000150 8c fa 8c 3c 80 9c 0f 3c 91 16 23 bd 18 33 8b bd
       0.017209314 0.00876534 -0.039816443 -0.06796855
000160 36 a7 ac bd 47 df 60 bb c2 db 66 3c 76 16 2c 3c
       -0.084303305 -0.0034312771 0.01409048 0.010503402
000170 75 cd 26 bc f1 99 9a 3c 20 25 a8 bd 24 d4 ef 3c
       -0.010180821 0.018872233 -0.08210206 0.029275961
000180 a2 77 6c bd 41 c8 18 bd 0d 18 d7 3c 84 b2 be 3c
       -0.05773128 -0.037300352 0.026256585 0.023278482
000190 49 8e 75 bd ee cf d0 bb 67 9d 87 3b 09 d3 2d 3d
       -0.059950147 -0.0063724434 0.004138637 0.042437587
0001a0 bb 72 f0 3c 41 93 f4 3c f3 a2 f8 bc e4 40 28 bd
       0.029351583 0.029855372 -0.030351138 -0.04107751
0001b0 de f9 80 3d 41 3b a0 3d 2e 26 31 bc 4a 57 5d bc
       0.062976584 0.07823802 -0.010812325 -0.013509581
0001c0 41 47 89 bd df 80 7f 3d a1 2d 55 3c e9 68 41 3d
       -0.06703044 0.06237876 0.013011367 0.04721919
0001d0 b4 af 1f bd 65 60 9e bd db e7 81 3d 25 b9 44 bd
       -0.038985923 -0.077332295 0.06343051 -0.04802813
0001e0 25 29 58 bd ce b6 6c bb 56 5f a5 bd e4 a4 15 bd
       -0.052773613 -0.0036119702 -0.080748245 -0.036534205
0001f0 72 02 77 3b 92 e3 32 bd e6 2b 3b bd db 7a 84 3d
       0.0037690667 -0.04367406 -0.04569616 0.06468745
000200 c5 02 22 3d 74 0d 8e 3d 66 0b a3 bd ef 0a d6 3c
       0.039553422 0.0693616 -0.079611585 0.02612826
000210 e5 21 76 bc c0 90 71 bd ef 07 4f bd 91 90 e9 bc
       -0.0150227295 -0.058975935 -0.050544675 -0.028511317
000220 80 d7 43 3d 74 49 58 3d dc ae 8f bc dd f1 59 bc
       0.04781294 0.052804425 -0.017539434 -0.013302294
000230 eb 3b 42 3c 95 27 b8 3a a7 6d b8 3b 70 26 02 3c
       0.011855106 0.0014049882 0.005628306 0.0079437345
000240 4e 80 24 3d 9c 72 a5 3c d6 54 35 3d 2a 64 bf 3c
       0.040161423 0.020196252 0.04427036 0.023363192
000250 64 03 b1 bc a6 d1 46 bd c5 55 e6 bc 4a 1d 45 3d
       -0.021608062 -0.04853978 -0.02811707 0.048123635
000260 44 c5 70 bd 0c 8c 17 3d b7 ef 66 3d 75 38 33 bd
       -0.058781877 0.036998793 0.056380954 -0.043755013
000270 63 82 56 bd f6 a2 4f bc bd b4 1f 3b d8 ca d1 bd
       -0.05237044 -0.01267313 0.0024369203 -0.102437675
000280 2e 5e 2e bd a9 26 97 bc 35 ae 7e 3d a0 e1 37 3c
       -0.042570285 -0.018451052 0.062177856 0.011223227
000290 ba f4 8b 3d c1 d6 a2 bb 5d f1 38 3d 5f 58 6e bd
       0.06833787 -0.0049694483 0.045152057 -0.058189746
0002a0 0b a0 50 3d 31 04 ca bc bf 46 82 bd b2 23 8d 3d
       0.05093388 -0.024660202 -0.0636115 0.06891574
0002b0 60 a0 98 3c cc 0a 9d bd 10 bf 8e bb 01 d6 97 3b
       0.01863116 -0.07668075 -0.0043562725 0.0046336656
0002c0 a5 29 3a 3d 8a 64 a0 bd 3d 5e 4f bd b9 ab 2b bc
       0.04544987 -0.07831676 -0.050626982 -0.010477954
0002d0 2d a7 78 bd b8 d1 84 3d c3 2d d8 bc 8f 3d 4f bd
       -0.060706306 0.06485313 -0.026389008 -0.050595816
0002e0 cb 6a 19 bc 8e 74 20 bd a5 4e 0c bd e6 79 55 bd
       -0.00936384 -0.039173655 -0.03425469 -0.052118205
0002f0 68 35 21 bc 94 b3 12 bd 25 d4 a9 3c 6a d3 20 bd
       -0.009839393 -0.03581579 0.020731041 -0.03926412
000300 f9 b4 d0 bc f5 ce 14 3d 1b db 1e bd 43 b5 0e 3c
       -0.02547692 0.036330182 -0.038783174 0.008710208
000310 7d 6c e3 3a 15 52 eb 3c ae 15 ef bc 29 b5 75 bd
       0.0017351058 0.028725663 -0.029185142 -0.05998722
000320 a6 89 90 3d 95 67 b0 3d 91 be 37 bd b7 0a 56 bd
       0.07057504 0.08613507 -0.044859473 -0.052256312
000330 51 2a 47 3d 3c b3 5d bd ea 3b d2 3c c4 73 8c 3d
       0.04862434 -0.05412601 0.025663335 0.06858018
000340 35 86 36 3d 83 68 1f bd 66 ae 5d bd ca 6a 25 bc
       0.044561584 -0.03891803 -0.054121397 -0.010096261
000350 6d 4c de 3c 99 19 ab bc 22 be 9d bd a0 de 42 3d
       0.027136052 -0.02088623 -0.077022806 0.047575593
000360 75 a5 ac 3c ea b9 39 3d 7f dc 57 bd f4 52 5a bc
       0.02107499 0.045343317 -0.052700516 -0.013325442
000370 18 e9 46 3d 00 e7 81 bc a9 69 9d bd fe 15 b3 bd
       0.04856214 -0.01585722 -0.07686169 -0.08744429
000380 68 7b 71 3d e4 0c d2 3c bd 7b 30 bd 22 61 f2 3c
       0.05895558 0.025640912 -0.043086756 0.029587332
000390 04 f5 7d 3d 76 d1 8e bc 84 ec 91 3d 6d 20 8a 3d
       0.062001243 -0.017433863 0.0712519 0.06744466
0003a0 e0 8b 44 bd 23 b8 14 3b 9c 7f 70 bc b9 0a 8a 3c
       -0.047984958 0.0022692762 -0.014678862 0.016850816
0003b0 26 5f 86 bd 7f 65 92 3d f9 ea 50 3d 17 88 bd bc
       -0.06561117 0.07148265 0.051005337 -0.023136182
0003c0 70 b1 06 3d 16 19 9c bd d7 5a e5 bb 39 fe a6 bc
       0.03288406 -0.07621972 -0.0069993543 -0.020384895
0003d0 b2 cb cd 3d 56 67 15 3d 4f 99 80 bd a7 2b 9f 3d
       0.100486174 0.036475502 -0.06279241 0.07771998
0003e0 e9 22 6f 3d 10 60 56 bc de f0 d7 3b f3 11 71 bd
       0.058382902 -0.0130844265 0.006589993 -0.05885501
0003f0 eb 52 96 bd 38 7c 50 bd db 6a 3e bc fd 83 1a bd
       -0.07340034 -0.050899714 -0.011622156 -0.03772353
