geoinr/model/mlp/pretrained/plane_splus_model1L_128_20b.pth (torch, 70743 bytes, 5 tensors)

net.0.linear.weight f4 [128, 3]
1.3127313 -1.2421 -0.36337495 -0.49342835 -1.1537323 -0.8324085 0.8770033 1.352184
-0.6427849 0.7982976 0.9944901 1.3484203 -0.57383245 0.08057299 0.25974882 -0.17880924
0.53681415 -0.3570316 0.31253198 -1.125265 1.1020534 1.319154 0.6280866 1.0905144
0.0324871 -0.5594582 -0.6817858 -0.5530487 -1.3501811 0.38416597 -0.17985643 -0.29323328
0.62422746 0.30125454 -1.112732 -1.3284395 -1.0487654 -1.0321454 -0.11734642 -0.8458617
-0.79139715 -0.24892269 -0.81485075 -0.39350414 0.35295764 -0.803343 1.1458708 -0.18711175
0.020436956 -0.502018 -0.75357175 0.89785624 0.8414349 0.29124254 -1.1574239 -1.1754473
0.075840615 -1.215384 1.0316089 -0.06678981 -0.2834359 -0.56213665 0.87871397 -0.03917227
-1.2633519 0.028590042 0.9823451 0.6306973 -0.065327555 -0.69865304 0.9508781 0.23710151
1.2642732 0.5618713 -0.23013265 0.2174772 -0.64889526 0.9401777 -0.13928396 -0.87335116
1.1645042 0.59031487 -0.71456605 0.28008425 0.5808626 0.7969938 1.3691989 -0.313661
0.7460704 -0.62451506 1.245717 -0.5345248 -0.7720188 -1.3613238 -1.0583618 0.75939375
0.25682458 -0.44967002 0.1336745 0.40876207 0.9105829 0.8651495 0.43014783 0.4330465
-0.32563564 -1.0852008 -0.9063875 1.1191404 0.9268176 -0.784837 0.896961 1.0346386
0.9670869 1.3795649 -0.21526496 -0.49739596 -0.76652807 0.50278175 -0.9298563 -1.0391439
-1.1849247 0.7691461 1.2457407 0.7909398 -1.2070029 1.1368786 0.7681302 1.0056937
0.83804655 1.1474963 -0.5751956 -1.166144 -0.21704002 0.8969669 0.7272195 0.3911274
1.0963758 1.0381868 0.61433184 0.1134982 -0.40111753 0.5460427 0.17106326 -0.43922502
-0.1196247 -0.20894262 0.93737596 0.2318115 -0.8360523 -0.48976415 -1.2970517 -0.89409024
0.8111467 -1.0604081 -0.5679444 -1.2170889 -0.57745105 -0.61902297 0.70319307 -0.7134791
-0.7508788 -0.05339774 0.11095763 -0.8949489 -0.7701516 -0.7957233 1.24871 -1.2376971
-0.29380828 0.29844797 -0.13994476 0.34179345 0.6901814 0.9383043 1.0020828 -0.29538572
0.15133771 1.262164 -1.2367841 0.07097347 0.44852862 0.75218004 0.15196258 0.9643717
-0.1659417 0.009876784 -0.86884105 -1.0317118 0.5220322 0.30220348 -0.9841947 -0.5771805
0.46534485 0.95788586 0.74629617 -1.100632 -0.24720483 1.3330604 -0.24295366 -1.4076148
0.13557748 0.63765496 0.03633867 0.2110958 -0.70909464 1.2335869 1.1141086 -0.4108176
0.7908175 0.45645395 -0.05789939 -0.23462117 1.29947 -0.914826 -0.478832 -0.23121725
-0.39056963 -1.3127466 -1.1957036 0.734833 -0.89300376 -0.2341629 0.4976215 -0.44324788
1.3838502 0.1647189 -0.22002026 -0.45687678 0.33247042 1.342618 -0.6485686 0.77718157
0.63364995 0.9878594 -0.2594986 -0.5631626 1.3951324 1.4020154 -0.76154387 0.04509733
-0.7550785 -0.11797516 -0.6801525 0.2898023 1.2164129 -0.26810423 -0.522676 -1.3931764
0.7009502 -1.0957651 1.2241591 -0.8461013 -0.6572922 -0.5884819 -0.4443959 0.8452984
00000000: 9407 a83f 22fd 9ebf 480c babe a4a2 fcbe
00000010: 80ad 93bf b918 55bf 4a83 603f 5e14 ad3f
00000020: 8d8d 24bf 3b5d 4c3f e796 7e3f 0999 ac3f
00000030: afe6 12bf 7403 a53d ccfd 843e c519 37be
00000040: a76c 093f d9cc b6be 3104 a03e af08 90bf
00000050: 1610 8d3f 0ada a83f 49ca 203f fa95 8b3f
00000060: 3211 053d a738 0fbf 8489 2ebf 9994 0dbf
00000070: bcd2 acbf 67b1 c43e 492c 38be ac22 96be
00000080: 5fcd 1f3f 093e 9a3e 016e 8ebf 4e0a aabf
00000090: f23d 86bf 571d 84bf 5253 f0bd 648a 58bf
000000a0: 0199 4abf 97e5 7ebe 0f9a 50bf 6079 c9be
000000b0: ddb6 b43e e3a7 4dbf e5ab 923f 399a 3fbe
000000c0: 676b a73c 4084 00bf 14ea 40bf e8d9 653f
000000d0: 4768 573f be1d 953e 7726 94bf 0f75 96bf
000000e0: 5352 9b3d b491 9bbf c30b 843f 19c9 88bd
000000f0: 831e 91be 30e8 0fbf 66f3 603f 1a73 20bd
00000100: 84b5 a1bf aa35 ea3c f87a 7b3f 6175 213f
00000110: 74ca 85bd edda 32bf bf6c 733f bdca 723e
00000120: b4d3 a13f ccd6 0f3f e5a7 6bbe 58b2 5e3e
00000130: 001e 26bf 7caf 703f 74a0 0ebe f193 5fbf
00000140: 790e 953f e01e 173f cded 36bf 3467 8f3e
00000150: 69b3 143f c907 4c3f e941 af3f 2d98 a0be
00000160: 78fe 3e3f 38e0 1fbf a873 9f3f 9ed6 08bf
00000170: 06a3 45bf dc3f aebf 6678 87bf a167 423f
00000180: 837e 833e 263b e6be f8e1 083e 4349 d13e
00000190: f61b 693f 707a 5d3f 563c dc3e 45b8 dd3e
000001a0: b7b9 a6be dce7 8abf 0309 68bf fe3f 8f3f
000001b0: eb43 6d3f 14eb 48bf 3c9f 653f 0a6f 843f
000001c0: 0293 773f 9595 b03f 6b6e 5cbe afaa febe
000001d0: 2f3b 44bf 4eb6 003f 100b 6ebf ab02 85bf
000001e0: 9dab 97bf c2e6 443f 6e74 9f3f 087b 4a3f
000001f0: 127f 9abf 3d85 913f 2ea4 443f 92ba 803f
00000200: 388a 563f 29e1 923f 0540 13bf 3544 95bf
00000210: bd3f 5ebe 9f9f 653f 0f2b 3a3f da41 c83e
00000220: 0b56 8c3f 4ee3 843f da44 1d3f bf71 e83d
00000230: 475f cdbe 74c9 0b3f 352b 2f3e 1ae2 e0be
00000240: cbfd f4bd 0ef5 55be dff7 6f3f fe5f 6d3e
00000250: 8607 56bf 5ec2 fabe ca05 a6bf 19e3 64bf
00000260: 4fa7 4f3f 74bb 87bf ce64 11bf 92c9 9bbf
00000270: d5d3 13bf 4a78 1ebf 7604 343f 91a6 36bf
00000280: 9839 40bf 97b7 5abd c13d e33d 5f1b 65bf
00000290: a828 45bf 86b4 4bbf bbd5 9f3f dc6c 9ebf
000002a0: 0a6e 96be 2cce 983e ae4d 0fbe 8dff ae3e
000002b0: baaf 303f b634 703f 4044 803f cc3c 97be
000002c0: 46f8 1a3e 978e a13f f14e 9ebf 8a5a 913d
000002d0: 8ba5 e53e df8e 403f 149c 1b3e 10e1 763f
000002e0: 9fec 29be 3cd2 213c 5e6c 5ebf 220f 84bf
000002f0: e7a3 053f 6aba 9a3e 2ff4 7bbf 1ac2 13bf
00000300: ae41 ee3e 0238 753f 440d 3f3f 82e1 8cbf
00000310: 4323 7dbe b9a1 aa3f d8c8 78be b92c b4bf
00000320: d3d4 0a3e 5b3d 233f dbd7 143d 7f29 583e
00000330: 3a87 35bf 2de6 9d3f 1c9b 8e3f af56 d2be
00000340: 0473 4a3f 55b4 e93e e927 6dbd 8840 70be
00000350: 0855 a63f 0932 6abf 7829 f5be 37c4 6cbe
00000360: bef8 c7be 1508 a8bf d10c 99bf 041e 3c3f
00000370: e59b 64bf 66c8 6fbe 3fc8 fe3e 63f1 e2be
00000380: 0122 b13f 12ac 283e fe4c 61be c1eb e9be
00000390: 9039 aa3e e8da ab3f 9708 26bf 5ff5 463f
000003a0: e236 223f 5be4 7c3f 00dd 84be 6d2b 10bf
000003b0: b393 b23f 3e75 b33f 8af4 42bf fab7 383d
000003c0: d34c 41bf f69c f1bd 791e 2ebf f860 943e
000003d0: 6bb3 9b3f f544 89be 18ce 05bf 9b53 b2bf
000003e0: 7971 333f 0842 8cbf 3fb1 9c3f 189a 58bf
000003f0: 4d44 28bf c0a6 16bf dc87 e3be 7a65 583f

net.0.linear.bias f4 [128]
0.460146 0.45526093 0.0030601106 0.3649198 -0.4507932 -0.1159829 -0.29742765 -0.09670466
0.32844463 0.34499937 0.46309885 -0.024437927 -0.06952656 0.005370953 0.09702021 -0.025327994
0.24550337 -0.40576845 -0.35260513 0.046499908 0.12426341 -0.047998246 -0.33362994 -0.32945824
0.08304689 -0.06255827 -0.52968234 0.46911412 -0.23895088 0.49839765 0.37889215 0.2757511
0.39046448 -0.37276962 -0.46543756 0.010257072 -0.35389847 -0.2582984 -0.49123663 -0.5310275
0.3999318 0.35408074 0.51337206 0.34835765 -0.0028798087 -0.3662696 -0.49364084 0.29969072
-0.20059639 -0.19000685 0.23269436 0.0609258 -0.10124001 -0.21656358 0.3400402 0.30108553
-0.07641614 0.042585388 0.15114996 -0.43904346 -0.3807763 -0.1310362 -0.31519452 -0.32797974
0.0126889935 0.18800126 -0.051198576 -0.07002964 0.029981025 0.11081687 -0.09141686 0.33679014
-0.40787786 -0.3541469 -0.15271772 0.5030465 0.05071247 -0.38719058 -0.26555115 -0.27504086
-0.024853189 0.23285532 0.07486985 -0.11254549 -0.13121642 -0.06515517 -0.06708185 0.096519105
-0.08063612 -0.35848284 -0.36688033 -0.23067373 0.54476506 0.5557906 -0.34409317 -0.16740495
-0.049431995 -0.14893177 -0.24016024 -0.393069 0.28683007 0.18649726 0.3855161 0.3069565
-0.3573488 -0.44117564 -0.51672995 -0.2838679 -0.2716821 0.40661243 0.45083022 -0.41736394
-0.15492593 -0.23998384 0.33468056 0.28222737 -0.14372776 0.31126794 0.22571896 -0.13137843
-0.08791075 0.36444423 -0.016096914 0.38718557 -0.56089246 -0.05821696 -0.57072884 -0.17739446
00000000: 4298 eb3e f617 e93e 238c 483b c5d6 ba3e
00000010: 5ece e6be 7188 edbd 7048 98be 180d c6bd
00000020: e529 a83e c2a3 b03e 4b1b ed3e 0c32 c8bc
00000030: f163 8ebd d2fe af3b 88b2 c63d a77c cfbc
00000040: 3c65 7b3e e2c0 cfbe a988 b4be b076 3e3d
00000050: d17d fe3d cf99 44bd 8bd1 aabe c0ae a8be
00000060: 7d14 aa3d 8d1e 80bd 4399 07bf ba2f f03e
00000070: 8aaf 74be fa2d ff3e 27fe c13e 402f 8d3e
00000080: f6ea c73e a9db bebe d54d eebe 470d 283c
00000090: 2e32 b5be b03f 84be 5e83 fbbe 6bf1 07bf
000000a0: dcc3 cc3e 124a b53e 5a6c 033f ef5b b23e
000000b0: 2cbb 3cbb b087 bbbe 7ebe fcbe 1071 993e
000000c0: 2469 4dbe 2891 42be 6e47 6e3e 558d 793d
000000d0: ec56 cfbd d8c2 5dbe c019 ae3e e227 9a3e
000000e0: 1180 9cbd 046e 2e3d 0ec7 1a3e 4eca e0be
000000f0: 1cf5 c2be 5b2e 06be 2d61 a1be f6ec a7be
00000100: 7fe5 4f3c 6783 403e 99b5 51bd b36b 8fbd
00000110: c49a f53c f5f3 e23d c338 bbbd c26f ac3e
00000120: 5ed5 d0be be52 b5be 0962 1cbe a8c7 003f
00000130: e1b7 4f3d d83d c6be 52f6 87be 28d2 8cbe
00000140: ea98 cbbc a071 6e3e 5d55 993d 407e e6bd
00000150: 995d 06be 1370 85bd 3562 89bd cfab c53d
00000160: 8d24 a5bd 108b b7be bdd7 bbbe bc35 6cbe
00000170: b975 0b3f 4b48 0e3f fb2c b0be 346c 2bbe
00000180: 3479 4abd 9281 18be 91ec 75be 5740 c9be
00000190: 64db 923e 23f9 3e3e 5e62 c53e 6729 9d3e
000001a0: 6cf6 b6be c6e1 e1be 6a48 04bf 2257 91be
000001b0: eb19 8bbe 812f d03e 38d3 e63e bab0 d5be
000001c0: e7a4 1ebe 53be 75be 405b ab3e 1b80 903e
000001d0: 5f2d 13be 835e 9f3e df22 673e 1188 06be
000001e0: 8d0a b4bd 6f98 ba3e addd 83bc 303d c63e
000001f0: a696 0fbf e874 6ebd 491b 12bf e5a6 35be

net.1.linear.weight f4 [128, 128]
-0.1349125 -0.21894918 -0.046581164 0.024712157 0.070689835 -0.12752084 -0.0883645 0.155865
-0.12869403 0.17224614 0.0039662174 -0.18081471 0.18374144 -0.076624714 0.15502381 -0.13518968
-0.13678725 0.17349152 0.18157224 -0.06371423 -0.01711173 -0.102961004 0.18040876 -0.09707539
-0.10774503 0.11862498 0.12764211 -0.06162742 -0.105405666 0.14478692 -0.11731398 0.110124275
0.16860151 0.05399268 -0.10336603 0.16081859 0.010593181 0.03749743 -0.03545203 -0.1692752
-0.12417741 0.1291398 -0.08087578 -0.007138692 -0.08034762 -0.050701417 -0.15627617 0.043156683
0.07678742 -0.0431058 -0.07728219 0.12955493 -0.05292665 0.0071091047 -0.02228866 -0.15688041
-0.13759066 0.19474126 0.16218893 0.09748762 0.18615407 -0.028048161 0.17389183 0.09569435
0.064039245 -0.17117615 0.13379906 0.18771712 -0.18705487 0.08789461 0.20806585 0.102004446
0.05379678 0.20185293 -0.01787343 -0.02949375 -0.07660124 0.059649967 -0.16859998 -0.19541888
0.16182654 0.062272076 0.07108533 -0.16143665 0.20511062 0.07973919 0.09333395 -0.009719275
-0.21611409 -0.20006797 -0.049166486 0.13572755 0.1710641 -0.08484083 -0.14631143 0.12526931
-0.14696877 -0.15124927 0.13281275 0.040931217 0.09124439 -0.16356593 0.10657902 -0.19018649
-0.047751468 0.15865569 -0.1284047 -0.036218055 -0.15692629 0.10132781 -0.07922804 -0.20760387
-0.11137616 0.047007922 0.011392598 0.033332504 -0.011890219 -0.14744227 0.1379466 0.040135402
-0.21408339 0.074107096 -0.029645568 0.04080946 -0.08426727 -0.05772916 0.039784227 0.1453178
-0.21766968 -0.21786772 0.108323775 -0.021536028 -0.0031296276 0.099701166 0.004301271 -0.08871603
0.091887616 0.093599 -0.11783924 -0.07468625 -0.20527972 -0.10278819 -0.18966657 0.09700628
-0.021091424 0.06841651 0.19959977 -0.1386387 -0.017458865 -0.07344208 -0.111351006 -0.1982159
0.10209395 0.04527698 -0.09248572 0.024714537 -0.18066747 -0.040440716 0.11449088 -0.012941703
-0.18812072 -0.09123324 -0.107351765 0.13636425 0.18153873 0.16079359 -0.1419682 0.0650677
-0.13069873 -0.1848244 0.06470721 0.15623894 -0.16456002 0.12828247 0.11662882 0.15905595
0.11885266 -0.010902791 -0.052997045 0.03939507 -0.20339523 -0.013574583 -0.21912397 0.20667517
0.042922113 0.03673452 -0.059460927 0.046993315 0.09836715 0.16074184 -0.033026032 -0.042240128
0.08238001 0.06704925 0.19188266 -0.07030843 -0.12606569 0.15195978 0.015111783 -0.17188603
0.13880256 0.04934627 -0.11550797 -0.046366032 -0.13205327 -0.006837243 0.19059701 -0.14493488
0.14557053 0.055780787 0.1887855 0.0006097453 0.011958074 0.0008144471 -0.1384345 -0.0487448
0.15761332 -0.20835948 -0.20741548 0.124710225 -0.08938081 -0.11243573 -0.19704427 0.043026898
-0.20558088 0.078988515 0.08234515 -0.021766009 -0.10161859 -0.14873226 -0.09083303 -0.20206659
0.02410663 0.106705874 0.19374748 0.06393015 0.001981993 -0.17636803 0.042893767 0.11997688
-0.037131667 -0.0072933794 -0.028805593 0.06494882 -0.054611757 -0.0029654193 0.13658136 0.011243427
0.08345922 0.06573209 0.14443722 -0.015650349 -0.19715194 -0.13980228 -0.22737221 -0.1476641
00000000: 8126 0abe 3734 60be e4cb 3ebd 2671 ca3c
00000010: d5c5 903d d394 02be 72f8 b4bd 139b 1f3e
00000020: 5ec8 03be 4b61 303e 0bf7 813b 7e27 39be
00000030: b726 3c3e 6bed 9cbd 90be 1e3e 2a6f 0abe
00000040: f511 0cbe c3a7 313e 13ee 393e 9b7c 82bd
00000050: e62d 8cbc 38dd d2bd 13bd 383e 76cf c6bd
00000060: 6da9 dcbd a7f1 f23d 9db4 023e 096d 7cbd
00000070: edde d7bd 0643 143e 5042 f0bd d688 e13d
00000080: e0a5 2c3e 6e27 5d3d 92b1 d3bd a1ad 243e
00000090: 058f 2d3c e896 193d 2636 11bd 7a56 2dbe
000000a0: ba50 febd 393d 043e 33a2 a5bd b0eb e9bb
000000b0: 4b8d a4bd 4aac 4fbd dc06 20be 10c5 303d
000000c0: b942 9d3d b58f 30bd 2046 9ebd 0caa 043e
000000d0: 9dc9 58bd 7ef3 e83b b596 b6bc 42a5 20be
000000e0: 91e4 0cbe 416a 473e db14 263e 97a7 c73d
000000f0: 2c9f 3e3e 42c5 e5bc b310 323e 66fb c33d
00000100: 0227 833d cd48 2fbe 9f02 093e eb38 403e
00000110: 508b 3fbe 1702 b43d 370f 553e b5e7 d03d
00000120: 035a 5c3d 89b2 4e3e 4d6b 92bc e09c f1bc
00000130: 1ce1 9cbd 8653 743d 79a5 2cbe e31b 48be
00000140: dbb5 253e 0111 7f3d 2f95 913d a64f 25be
00000150: 8508 523e 4d4e a33d df25 bf3d 983d 1fbc
00000160: 034d 5dbe 9ede 4cbe cc62 49bd 2afc 0a3e
00000170: 6d2b 2f3e 07c1 adbd aad2 15be 9946 003e
00000180: fb7e 16be 17e1 1abe 1100 083e 7ea7 273d
00000190: 57de ba3d d47d 27be 1a46 da3d 3fc0 42be
000001a0: 0b97 43bd a376 223e 867c 03be 6259 14bd
000001b0: 49b1 20be f484 cf3d 5042 a2bd 1c96 54be
000001c0: 2f19 e4bd 618b 403d 05a8 3a3c aa87 083d
000001d0: 31cf 42bc 1bfb 16be e041 0d3e 0565 243d
000001e0: ad38 5bbe 76c5 973d 43db f2bc d227 273d
000001f0: 5294 acbd 6975 6cbd c9f4 223d 30ce 143e
00000200: cde4 5ebe b718 5fbe dbd8 dd3d 536c b0bc
00000210: 701a 4dbb 2030 cc3d adf1 8c3b c0b0 b5bd
00000220: 932f bc3d d5b0 bf3d b355 f1bd 1bf5 98bd
00000230: d934 52be 9d82 d2bd f437 42be 3bab c63d
00000240: ecc7 acbc f51d 8c3d e263 4c3e 4ef7 0dbe
00000250: e505 8fbc cd68 96bd ff0b e4bd 1cf9 4abe
00000260: a216 d13d 5b74 393d 2769 bdbd 2476 ca3c
00000270: e500 39be 2aa5 25bd 327a ea3d 7009 54bc
00000280: b8a2 40be 7ed8 babd 3edb dbbd 12a3 0b3e
00000290: 4ae5 393e 13a7 243e 1d60 11be 3742 853d
000002a0: e3d5 05be 9c42 3dbe 3785 843d 1afd 1f3e
000002b0: 6c82 28be 7b5c 033e 17db ee3d 90df 223e
000002c0: 0669 f33d 9fa1 32bc 6e13 59bd ba5c 213d
000002d0: d746 50be ee67 5ebc 0962 60be a8a2 533e
000002e0: 19cf 2f3d f076 163d 4d8d 73bd 107c 403d
000002f0: b774 c93d 8299 243e 4e46 07bd fc03 2dbd
00000300: dab6 a83d 1e51 893d e37c 443e defd 8fbd
00000310: 5d17 01be 589b 1b3e 6997 773c e402 30be
00000320: 4222 0e3e 501f 4a3d 718f ecbd 4fea 3dbd
00000330: f938 07be f40a e0bb dd2b 433e cf69 14be
00000340: 7110 153e 657a 643d fc50 413e 50d7 1f3a
00000350: cceb 433c 9f80 553a c6c1 0dbe a1a8 47bd
00000360: 6365 213e 305c 55be b964 54be 1368 ff3d
00000370: 490d b7bd b444 e6bd f9c5 49be f93c 303d
00000380: cb83 52be bbc4 a13d 93a4 a83d a14e b2bc
00000390: 681d d0bd 454d 18be ab06 babd 8bea 4ebe
000003a0: 447b c53c 9c88 da3d bd65 463e cfed 823d
000003b0: 53e4 013b d299 34be 60b1 2f3d 70b6 f53d
000003c0: 6017 18bd 4dfd eebb b5f9 ebbc e303 853d
000003d0: 94b0 5fbd 7b57 42bb fcdb 0b3e 5a36 383c
000003e0: abec aa3d 8c9e 863d 5ae7 133e 2935 80bc
000003f0: 33e2 49be 5428 0fbe 43d4 68be 4235 17be

net.1.linear.bias f4 [128]
-0.034393296 -0.036030438 0.08108273 -0.022922905 -0.055412114 0.067548364 -0.05213024 0.034201216
-0.0044566053 -0.065905005 0.03178749 -0.066239454 0.058547027 -0.035114497 0.0035477947 0.06656127
-0.023154488 -0.05077114 -0.054446407 0.09463336 -0.015265325 0.083480544 0.056782193 -0.082386985
-0.055052374 0.007856678 -0.00658441 0.008998142 0.02723474 0.053931743 0.014364245 -0.03148428
-0.08711532 -0.02122724 0.042444654 0.09012112 -0.0018509263 -0.0695264 -0.034993075 0.060907684
0.0846317 -0.038770873 0.07962309 0.041961387 -0.0847551 0.0034515467 0.05289522 0.05185224
0.06345377 -0.026438575 -0.020992124 -0.08309936 0.020915637 0.00077704195 -0.07025158 0.049077958
-0.05346275 0.011753731 -0.011206045 0.0075852373 0.01471775 -0.01480821 0.07577335 -0.016805107
0.05109401 -0.028633444 -0.06641823 -0.0068286243 -0.060650203 -0.0017485629 -0.018171743 0.033443976
-0.010120748 0.00401487 -0.06412041 0.05477026 -0.06971073 -0.014871854 0.03398634 0.009541178
-0.08950759 -0.08091091 0.046922103 -0.015076093 -0.0415397 -0.032625936 -0.03734154 0.06863524
-0.00044253148 -0.054563068 0.06976628 0.04323652 0.044548735 0.062373 -0.030536514 0.073819466
0.049759444 -0.018041821 0.06674806 0.015689459 -0.03755344 -0.018683136 -0.00344212 -0.021487098
-0.025096217 0.03062866 0.048999406 -0.08056929 0.043068707 -0.055115905 -0.0028249582 -0.07180812
-0.078835465 0.02963476 -0.050912607 -0.04207797 0.07278448 -0.08391935 -0.069304764 -0.055452246
-0.023238659 0.056403015 0.027483378 -0.044626977 -0.016744142 0.026108127 -0.06728361 0.077141955
00000000: fcdf 0cbd a794 13bd b40e a63d d1c8 bbbc
00000010: d0f7 62bd cc56 8a3d 8586 55bd 9316 0c3d
00000020: b708 92bb 34f9 86bd 9933 023d 8da8 87bd
00000030: 02cf 6f3d 38d4 0fbd 1e82 683b 4651 883d
00000040: 7bae bdbc 66f5 4fbd 3203 5fbd 23cf c13d
00000050: 6a1b 7abc d9f7 aa3d 7294 683d 82ba a8bd
00000060: 997e 61bd 4cb9 003c 09c2 d7bb f16c 133c
00000070: 641b df3c 88e7 5c3d 0358 6b3c a9f5 00bd
00000080: 8469 b2bd c0e4 adbc 72da 2d3d 6c91 b83d
00000090: c89a f2ba db63 8ebd e654 0fbd 567a 793d
000000a0: 6253 ad3d 35ce 1ebd 6e11 a33d b4df 2b3d
000000b0: 1594 adbd 5833 623b a9a8 583d 0463 543d
000000c0: 0df4 813d b695 d8bc adf7 abbc ff2f aabd
000000d0: 4557 ab3c 67b2 4b3a 0fe0 8fbd f805 493d
000000e0: c2fb 5abd b992 403c 8f99 37bc 958d f83b
000000f0: b822 713c 229e 72bc 0f2f 9b3d ddaa 89bc
00000100: f447 513d af90 eabc 4806 88bd a7c2 dfbb
00000110: 596c 78bd 0930 e5ba e8dc 94bc 8dfc 083d
00000120: 7ed1 25bc 2c8f 833b 9051 83bd c856 603d
00000130: 80c4 8ebd 14a9 73bc 4335 0b3d 9a52 1c3c
00000140: c14f b7bd 9fb4 a5bd 6431 403d b801 77bc
00000150: 8825 2abd c6a2 05bd 71f3 18bd a290 8c3d
00000160: 9203 e8b9 867d 5fbd a0e1 8e3d c718 313d
00000170: bc78 363d d57a 7f3d b627 fabc a92e 973d
00000180: 8fd0 4b3d 71cc 93bc 35b3 883d 2e87 803c
00000190: a3d1 19bd 600d 99bc 3195 61bb b605 b0bc
000001a0: 9596 cdbc f5e8 fa3c 9ab3 483d 8301 a5bd
000001b0: d068 303d 37c1 61bd ef22 39bb 2310 93bd
000001c0: 7d74 a1bd 99c4 f23c bd89 50bd f359 2cbd
000001d0: 0810 953d e8dd abbd a8ef 8dbd e521 63bd
000001e0: 005f bebc d906 673d d224 e13c c7ca 36bd
000001f0: 032b 89bc b6e0 d53c fdcb 89bd 9afc 9d3d

net.2.linear.weight f4 [1, 128]
-0.120620355 -0.13635656 -0.020106157 0.12503314 -0.2067777 -0.12855005 0.19473846 0.25934696
0.16335699 0.073405184 -0.078641035 0.19423245 -0.03234846 0.0072260536 0.17950192 -0.008313582
-0.16831462 -0.08342993 -0.06073954 0.14166279 0.099923335 0.1897137 0.15117006 -0.19298543
-0.19230142 -0.1506875 0.11917724 -0.02354206 -0.029874856 -0.057857618 0.11179704 0.046062443
-0.18647818 -0.19439936 -0.13353965 -0.025223698 0.115915276 0.012045275 0.061189808 0.04501844
0.15039554 -0.1148906 -0.08142809 0.11317898 0.018591473 -0.13423912 -0.19589373 0.10557184
0.031859923 -0.006425623 0.022662228 -0.18448244 -0.084508434 -0.09083111 -0.20501024 0.11924805
-0.11197012 -0.0806295 0.16743842 0.07314874 0.038595192 0.08902113 -0.15408656 -0.052329786
0.0013651605 0.026550885 0.0411992 0.05173644 -0.25715643 -0.023221862 -0.19945249 0.14151314
0.008392213 0.19851962 -0.19567357 -0.037103876 0.084670134 -0.09906506 -0.012110359 0.20843735
-0.1191555 0.17128731 -0.15170524 -0.07734168 0.09676633 -0.0970162 -0.10738598 -0.17776671
-0.1499881 -0.19165511 0.103585966 0.13934699 -0.09326684 -0.19345061 -0.083406545 0.049899817
-0.042727374 0.052127197 0.104552515 0.10162725 0.014019367 0.16443805 0.13390097 -0.05312433
0.01607138 -0.19156793 0.14952049 -0.16964507 -0.17108908 0.047919855 0.010921029 0.021850018
0.113862514 0.029428218 0.031980984 -0.07626152 -0.0526033 -0.19452374 0.021145552 -0.0744967
-0.13725752 0.011635653 -0.07278533 -0.13940428 0.19848698 0.015204913 -0.16899376 -0.07590067
00000000: ce07 f7bd 0ea1 0bbe abb5 a4bc b008 003e
00000010: 89bd 53be a0a2 03be 8569 473e 20c9 843e
00000020: 0e47 273e 7555 963d 8d0e a1bd dfe4 463e
00000030: d27f 04bd 88c8 ec3b 5acf 373e b135 08bc
00000040: ab5a 2cbe 50dd aabd 06ca 78bd 0d10 113e
00000050: 9ba4 cc3d 4f44 423e 53cc 1a3e f99d 45be
00000060: aaea 44be d34d 1abe 3213 f43d 47db c0bc
00000070: 1dbc f4bc 1cfc 6cbd d9f5 e43d f9ab 3c3d
00000080: 23f4 3ebe a010 47be 9ebe 08be eea1 cebc
00000090: fd64 ed3d 8c59 453c 2aa2 7a3d 4165 383d
000000a0: 4a01 1a3e c34b ebbd c5c3 a6bd 62ca e73d
000000b0: 254d 983c fb75 09be 5e98 48be 0d36 d83d
000000c0: 8d7f 023d 088e d2bb 23a6 b93c f7e8 3cbe
000000d0: c212 adbd a905 babd 34ee 51be 5238 f43d
000000e0: 9750 e5bd 1421 a5bd fa74 2b3e 02cf 953d
000000f0: fe15 1e3d b650 b63d dec8 1dbe c257 56bd
00000100: 2fef b23a 3e81 d93c 7ec0 283d 97e9 533d
00000110: 02aa 83be c63b bebc 463d 4cbe d2e8 103e
00000120: 7e7f 093c ba48 4b3e a75e 48be 3cfa 17bd
00000130: 8967 ad3d 9fe2 cabd 876a 46bc 9a70 553e
00000140: cc07 f4bd f165 2f3e 9e58 1bbe 5165 9ebd
00000150: 6d2d c63d 6eb0 c6bd 2eed dbbd 7a08 36be
00000160: 7b96 19be 3d41 44be e124 d43d fab0 0e3e
00000170: af02 bfbd eb17 46be 0dd1 aabd c063 4c3d
00000180: e602 2fbd 5483 553d a11f d63d f321 d03d
00000190: 7db1 653c 7362 283e 561d 093e e698 59bd
000001a0: 20a8 833c 622a 44be e61b 193e 70b7 2dbe
000001b0: fa31 2fbe 9c47 443d 1eee 323c cffe b23c
000001c0: c030 e93d 7213 f13c 7efe 023d 002f 9cbd
000001d0: 8f76 57bd 3b31 47be 7039 ad3c ba91 98bd
000001e0: 3c8d 0cbe 77a3 3e3c 7a10 95bd ffbf 0ebe
000001f0: 2c40 4b3e 071e 793c b30c 2dbe cf71 9bbd
