geoinr/model/mlp/pretrained/plane_relu_pmodel30f_06s.pth (torch, 856836 bytes, 10 tensors)

net.0.frequency_spectrum.weight f4 [30, 3]
0.058279485 -0.32109216 1.1916316 0.2045693 1.1731113 -0.12595221 -1.3616947 -0.052502375
-0.72080934 0.6580713 -0.24085186 -0.008974183 -0.06896058 -0.022790547 -0.15930086 -0.2054384
0.38444513 0.364131 -0.3642906 -0.7143953 0.6951244 0.7873548 -0.49737266 -0.42086324
0.2699899 -0.054139324 -0.55195504 -0.34109 -0.2958695 -0.24357255 -0.80950993 0.80095375
0.23646662 -0.15020487 0.21322183 -1.1600727 0.15295061 0.15383574 -0.21847214 0.03129923
0.9197526 -0.103285134 -0.25140646 0.18916833 -0.7517356 -0.3008735 -0.22481677 0.02809468
0.32034466 0.23201537 0.07578704 0.57368726 0.011796381 -0.166863 -0.34276614 -0.67814076
0.9275265 -0.22344993 0.7354795 0.92875737 -0.5932343 0.76880145 -0.22267401 0.84251654
-0.18703716 0.07777325 0.57522 -0.3196854 0.3097333 -0.0075324713 0.38674995 -0.84208107
-0.46665108 0.075388834 -0.26719522 -0.1782608 0.025698066 -0.22493456 0.6399646 -0.65501016
0.50410503 -0.2286799 0.08357127 0.16088408 0.6435495 0.10928028 0.07977517 0.019075157
0.06046951 0.18737167
00000000: 78b6 6e3d 3166 a4be 6287 983f 9d7a 513e
00000010: 8328 963f 9ef9 00be 034c aebf bb0c 57bd
00000020: f686 38bf 5c77 283f dfa1 76be 7408 13bc
00000030: 343b 8dbd 3eb3 babc c41f 23be 725e 52be
00000040: fed5 c43e 616f ba3e 4c84 babe 9ce2 36bf
00000050: acf3 313f 1690 493f a1a7 febe 637b d7be
00000060: 1e3c 8a3e 32c1 5dbd ed4c 0dbf 59a3 aebe
00000070: 357c 97be 156b 79be 0b3c 4fbf 4e0b 4d3f
00000080: 4e24 723e 4ecf 19be d356 5a3e 437d 94bf
00000090: 169f 1c3e 1e87 1d3e 29b7 5fbe 9f33 003d
000000a0: e874 6b3f 2887 d3bd 59b8 80be 58b5 413e
000000b0: bf71 40bf 170c 9abe 5e36 66be d026 e63c
000000c0: 3704 a43e 7095 6d3e 3c36 9b3d 2bdd 123f
000000d0: 9c45 413c 22de 2abe 0b7f afbe a29a 2dbf
000000e0: 6072 6d3f 0fd0 64be 6248 3c3f 0bc3 6d3f
000000f0: 34de 17bf 2cd0 443f a804 64be 2aaf 573f
00000100: ab86 3fbe 9547 9f3d 9e41 133f cead a3be
00000110: 5d95 9e3e f3d2 f6bb 1704 c63e a092 57bf
00000120: e4ec eebe 7665 9a3d d0cd 88be 008a 36be
00000130: c084 d23c 3f55 66be b8d4 233f bfae 27bf
00000140: 070d 013f 102b 6abe 6a27 ab3d ccbe 243e
00000150: a9bf 243f 57ce df3d 2a61 a33d 8143 9c3c
00000160: e0ae 773d 5cde 3f3e

net.1.linear.weight f4 [256, 60]
0.07921979 -0.12305133 0.17955078 -0.017109571 -0.32976583 0.27202183 -0.09053172 -0.04459849
-0.30722663 -0.24200395 0.05304559 -0.14546143 -0.19616319 -0.0043945303 -0.13602337 -0.088252395
0.24576648 0.053065155 -0.26288608 0.09922065 0.05910504 -0.22114576 -0.06840481 0.14105658
0.06324279 0.044898342 0.110006735 -0.31275615 -0.044597294 -0.3767285 -0.10857639 -0.23829235
-0.032802764 0.15641041 -0.01641156 0.060947496 0.0041571897 -0.15765624 -0.023566233 0.27166253
0.06501111 0.040545832 0.132137 -0.16701336 0.31037843 0.07761042 -0.15423228 0.1450243
0.13072641 -0.15185677 0.15091684 0.18149553 -0.11832913 -0.102815 0.12459138 0.2902557
0.04765583 0.015215928 0.1682108 0.18569775 0.1352267 -0.24342248 -0.005313403 -0.24178906
0.3067571 -0.2188116 -0.03350494 -0.105293244 0.039302904 0.1853661 -0.14122182 -0.10484272
0.14305867 -0.12361087 -0.09320973 -0.1610241 0.094243445 0.20138182 0.23735341 0.114643164
-0.17197129 0.09314493 -0.08144619 0.015097918 -0.19621101 0.08846168 0.115126625 -0.042042907
0.06355869 0.10832903 -0.09340148 0.005301537 0.0592293 -0.14059037 -0.14620641 0.2448816
0.07097323 -0.059103366 0.1963265 0.21203683 -0.001000956 0.0835549 0.23806259 -0.18223804
0.118563324 -0.09995697 0.002618656 0.19848967 -0.022281516 -0.119977586 0.14141893 -0.28160992
-0.20564565 0.22648355 0.21483944 -0.11565411 -0.05326516 -0.11048869 0.18147852 0.15068313
-0.039460924 0.12633012 -0.19366214 -0.19165388 -0.512935 0.18364939 -0.2271102 -0.11158519
-0.108621426 0.048078395 0.14644146 0.19312152 -0.18844458 0.16839266 0.052491665 -0.0030327572
0.219835 -0.11920263 -0.09561536 0.062679105 -0.08847322 -0.12973611 -0.14362845 -0.09962048
0.27076384 -0.2748179 -0.18725756 0.10616091 0.14201339 -0.043702967 -0.07982137 -0.154507
-0.2180087 -0.020195484 -0.20799105 -0.22694692 0.14551125 0.11941376 0.10761235 0.07193121
0.13855578 0.210909 0.23416433 -0.10603189 -0.23513596 0.381182 -0.33375216 0.09200511
0.24449927 -0.20001298 0.011112108 -0.21029143 0.15174384 -0.25828972 -0.046986476 0.2840357
-0.20166583 0.08761522 0.055710964 0.19936623 -0.18584107 0.016680628 0.13169357 0.261021
0.24291205 -0.02785383 -0.077613205 0.22293475 -0.24665865 -0.17262891 -0.052321248 0.042453997
-0.11475355 -0.09832603 0.10450312 -0.20843723 0.22028087 -0.07073012 -0.16055927 -0.010158194
0.07566288 0.06604151 -0.27954516 0.22683673 0.12504783 0.4410793 -0.18112786 -0.085127525
-0.04898552 0.53373134 0.04640462 0.20878603 -0.055396374 -0.06317569 0.10308606 -0.05387977
-0.22150633 0.14346656 0.01758999 -0.061996028 -0.08004942 0.064066954 0.052312657 -0.05005357
0.18780929 -0.16776557 0.010990545 0.19997847 0.19451185 -0.008320839 0.20205197 -0.13482042
-0.20700414 0.10410602 -0.14882788 -0.3208579 0.010453314 -0.44033748 0.056988396 0.17128956
0.08359686 -0.15025312 0.011204881 0.59582776 0.019612754 -0.09405031 0.108650886 -0.24023734
0.23119994 0.20441942 0.048782032 -0.10509579 -0.13037713 -0.28556705 0.15208225 -0.24209902
00000000: fc3d a23d 5602 fcbd 29dc 373e 5f29 8cbc
00000010: 11d7 a8be 7246 8b3e b268 b9bd e8ac 36bd
00000020: cf4c 9dbe e2cf 77be 5546 593d d7f3 14be
00000030: 01df 48be feff 8fbb b649 0bbe acbd b4bd
00000040: 35aa 7b3e d95a 593d 0199 86be 3234 cb3d
00000050: 2018 723d 0974 62be d217 8cbd 2371 103e
00000060: 7085 813d 53e7 373d 364b e13d 9321 a0be
00000070: a7ab 36bd 8fe2 c0be 4c5d debd e902 74be
00000080: 315c 06bd 0d2a 203e 8971 86bc 15a4 793d
00000090: 0939 883b a370 21be f90d c1bc 5a17 8b3e
000000a0: 8b24 853d 6313 263d ec4e 073e 8d05 2bbe
000000b0: ece9 9e3e 36f2 9e3d 11ef 1dbe 4081 143e
000000c0: 25dd 053e 5780 1bbe f289 1a3e f7d9 393e
000000d0: 8b56 f2bd ac90 d2bd c429 ff3d 659c 943e
000000e0: c232 433d 3a4c 793c 743f 2c3e 8d27 3e3e
000000f0: de78 0a3e be43 79be 0e1c aebb 8d97 77be
00000100: 440f 9d3e 2610 60be 7a3c 09bd fca3 d7bd
00000110: 15fc 203d 9cd0 3d3e 749c 10be c8b7 d6bd
00000120: f97d 123e b227 fdbd bee4 bebd 80e3 24be
00000130: b502 c13d 0937 4e3e c60c 733e 09ca ea3d
00000140: 3e19 30be c5c2 be3d 43cd a6bd 425d 773c
00000150: 8aeb 48be 662b b53d 82c7 eb3d 2f35 2cbd
00000160: 0f2b 823d 9cdb dd3d 4649 bfbd 84b8 ad3b
00000170: 6c9a 723d ecf6 0fbe 22b7 15be 3ec2 7a3e
00000180: 6a5a 913d 5f16 72bd d009 493e 2f20 593e
00000190: 8332 83ba d51e ab3d aec6 733e 9c9c 3abe
000001a0: 54d1 f23d 3db6 ccbd c29d 2b3b e040 4b3e
000001b0: ba87 b6bc cfb6 f5bd 20d0 103e 2d2f 90be
000001c0: c694 52be 4eeb 673e dffe 5b3e 10dc ecbd
000001d0: 922c 5abd e547 e2bd 81d5 393e ae4c 1a3e
000001e0: c7a1 21bd af5c 013e 5e4f 46be ea40 44be
000001f0: b54f 03bf 960e 3c3e 948f 68be c786 e4bd
00000200: e974 debd daed 443d c0f4 153e a6c1 453e
00000210: 9ef7 40be 206f 2c3e 8001 573d 39c1 46bb
00000220: 6d1c 613e 8220 f4bd fcd1 c3bd e75d 803d
00000230: 7331 b5bd 8bd9 04be 5613 13be d205 ccbd
00000240: 8fa1 8a3e efb4 8cbe 72c0 3fbe e46a d93d
00000250: f56b 113e e201 33bd 6379 a3bd 1537 1ebe
00000260: ac3d 5fbe 0071 a5bc 9bfb 54be c664 68be
00000270: e700 153e 348f f43d dd63 dc3d ac50 933d
00000280: 91e1 0d3e 87f8 573e c6c8 6f3e 3f27 d9bd
00000290: 7bc7 70be 492a c33e 90e1 aabe 2d6d bc3d
000002a0: 045e 7a3e 34d0 4cbe 8f0f 363c a356 57be
000002b0: bd62 1b3e 8d3e 84be e474 40bd 216d 913e
000002c0: 7d81 4ebe 9c6f b33d 2e31 643d a926 4c3e
000002d0: 1f4d 3ebe d0a5 883c aeda 063e 8ba4 853e
000002e0: f0bd 783e b72d e4bc acf3 9ebd 0249 643e
000002f0: 1694 7cbe a2c5 30be ce4e 56bd 3ee4 2d3d
00000300: e903 ebbd 285f c9bd bb05 d63d 9270 55be
00000310: 4f91 613e f4da 90bd a669 24be 8e6e 26bc
00000320: 24f5 9a3d c540 873d 8b20 8fbe e347 683e
00000330: 8a0c 003e 25d5 e13e 9579 39be 5757 aebd
00000340: 0aa5 48bd 9ea2 083f c512 3e3d 01cc 553e
00000350: 4fe7 62bd 4262 81bd c91e d33d 09b1 5cbd
00000360: 8ed2 62be e6e8 123e e218 903c 8cef 7dbd
00000370: f3f0 a3bd 8935 833d cc45 563d f904 4dbd
00000380: 1451 403e bdca 2bbe b011 343c 28c7 4c3e
00000390: 1d2e 473e 2154 08bc b6e6 4e3e 5d0e 0abe
000003a0: e5f8 53be 8935 d53d 5666 18be 7d47 a4be
000003b0: 6044 2b3c ea73 e1be aa6c 693d 8866 2f3e
000003c0: d534 ab3d f4db 19be ad94 373c 2b88 183f
000003d0: edaa a03c 739d c0bd 5b84 de3d c700 76be
000003e0: adbf 6c3e 5353 513e abcf 473d 763c d7bd
000003f0: 9581 05be d835 92be 73bb 1b3e cee8 77be

net.1.linear.bias f4 [256]
-0.19894478 0.13506396 0.06499209 0.12787284 0.16572423 0.16233562 -0.15425117 0.09868694
0.027314028 0.03966478 0.048853338 0.11370216 0.031883452 -0.096412726 0.24280205 0.12780541
0.10309281 -0.11138045 0.088161774 0.06193849 -0.008112007 0.24951085 0.07328111 0.12859072
0.021075074 0.08697286 0.15690622 0.14382216 0.052701913 0.11048334 0.17957187 0.10687669
-0.0059718713 0.18516873 -0.03239052 0.15468633 -0.010851228 0.104141094 -0.033223636 -0.059622303
0.11069192 0.07382687 0.010573485 0.1869647 0.32470834 -0.122442245 0.061344165 -0.17118347
0.18208592 0.03330814 0.31800747 -0.009775369 0.0063274214 0.1867879 -0.095576 0.19505116
0.12318222 0.14405718 0.074599884 0.07088771 0.092629336 0.018446445 0.12417098 0.22750238
0.19439635 0.14943993 0.37469524 0.08683253 -0.11186005 -0.15523198 0.12698157 0.24689096
0.1729793 0.059047386 0.1969099 0.02661015 0.18889675 0.08278588 0.2669478 0.18524894
0.07712506 0.22912228 0.015352706 0.19048668 0.016184395 -0.082696676 -0.013693794 0.035036504
0.16879751 -0.1990945 0.23341018 0.18087035 0.09901649 0.10123151 0.023035528 -0.20134525
0.11107079 0.09942962 0.26070628 0.27760717 0.00352496 0.07478881 0.030380156 -0.073427655
0.044654995 0.05030887 0.26277962 0.09164875 -0.035124898 0.1677779 0.10347989 -0.12489908
-0.12522322 -0.009701032 0.083306774 -0.1104139 -0.0096948 0.16646507 0.16238123 0.036659103
0.005020098 -0.04159898 0.07484164 0.0708846 0.14157611 -0.024576986 0.16092588 0.08378381
0.031143332 0.16856483 0.05591798 0.32074305 0.112337254 0.06709939 0.14919743 0.18686725
-0.026088253 -0.07472333 -0.030544179 0.19499601 -0.06754407 0.15577394 0.107567415 0.050269604
0.13908522 -0.12513901 -0.10969749 0.11222925 -0.012799571 0.31677532 -0.027457632 0.19875419
0.058746427 0.19444872 0.123026356 0.25383407 0.08748103 0.0941592 0.19392583 -0.01203393
0.105398715 -0.060679317 -0.026027039 0.33165273 0.22875035 0.03732424 0.13559018 0.007705573
0.03865531 -0.10777697 0.09565392 0.028523259 0.019698527 -0.009665025 0.065830186 -0.115814984
0.05052758 0.029053567 0.008925886 0.07042037 0.20817211 0.110152885 -0.19041984 0.087455526
-0.16628142 -0.13849361 -0.066312544 -0.05481857 -0.004746649 0.39745715 0.021169523 0.20095424
-0.009584798 -0.05996434 0.1505056 0.15788037 0.19265112 0.01262419 -0.12322057 -0.033897467
0.044623185 0.003572656 -0.08398228 -0.005734417 0.13832256 0.12683713 -0.054639623 -0.08011648
0.16547161 0.25336987 0.11748828 -0.09616464 0.081010595 0.082485676 0.2787485 0.0057906345
0.011979764 0.0028449434 0.41419998 0.19474742 -0.11091433 0.08969951 0.059628654 0.29130864
-0.0407779 0.039244942 0.33299068 0.10963557 -0.021507258 0.035736952 0.28812817 0.20198056
0.30057955 0.13110907 0.15870681 -0.027394796 -0.16972218 0.13076952 -0.10341049 0.044004753
0.18435197 0.33443573 0.23616596 -0.040665135 0.22616178 0.12272493 -0.011818135 0.20475934
-0.033727165 0.16796246 0.090846576 0.10303705 0.11036062 0.052837618 0.01750435 0.17890266
00000000: 2eb8 4bbe 354e 0a3e 931a 853d 19f1 023e
00000010: 9db3 293e 4f3b 263e 05f4 1dbe 611c ca3d
00000020: abc1 df3c 8977 223d 701a 483d aedc e83d
00000030: 3998 023d 0974 c5bd 1aa1 783e 6cdf 023e
00000040: 5322 d33d 6f1b e4bd 298e b43d 37b3 7d3d
00000050: 39e8 04bc c67f 7f3e 6814 963d 49ad 033e
00000060: a2a5 ac3c d41e b23d 06ac 203e 1e46 133e
00000070: f6dd 573d 1745 e23d b0e1 373e 2be2 da3d
00000080: b0af c3bb df9c 3d3e ecab 04bd 1866 1e3e
00000090: 59c9 31bc ed47 d53d 8215 08bd 8436 74bd
000000a0: 72b2 e23d 8b32 973d 693c 2d3c ad73 3f3e
000000b0: 2c40 a63e 00c3 fabd 0544 7b3d b84a 2fbe
000000c0: bb74 3a3e 1e6e 083d e0d1 a23e df28 20bc
000000d0: 4256 cf3b 5445 3f3e 5abd c3bd 7ebb 473e
000000e0: f646 fc3d ba83 133e d3c7 983d 932d 913d
000000f0: 73b4 bd3d 001d 973c 5b4d fe3d 62f6 683e
00000100: d60f 473e c806 193e 0ed8 bf3e 41d5 b13d
00000110: e216 e5bd 22f5 1ebe 7507 023e fcd0 7c3e
00000120: 7c21 313e acdb 713d c0a2 493e 87fd d93c
00000130: 266e 413e a58b a93d 62ad 883e e6b1 3d3e
00000140: bef3 9d3d 089f 6a3e eb89 7b3c f10e 433e
00000150: 2395 843c e05c a9bd ef5b 60bc 7082 0f3d
00000160: 41d9 2c3e 6edf 4bbe 1403 6f3e 1436 393e
00000170: 28c9 ca3d 7752 cf3d 01b5 bc3c 732d 4ebe
00000180: 1579 e33d c2a1 cb3d 4b7b 853e 8722 8e3e
00000190: 0403 673b e02a 993d cedf f83c 3d61 96bd
000001a0: 28e8 363d ac10 4e3d 0d8b 863e 57b2 bb3d
000001b0: 20df 0fbd f8cd 2b3e 44ed d33d 17cb ffbd
000001c0: 843a 00be 14f1 1ebc be9c aa3d af20 e2bd
000001d0: f0d6 1ebc d275 2a3e 4447 263e db27 163d
000001e0: a27f a43b b163 2abd 9346 993d f22b 913d
000001f0: 54f9 103e ad55 c9bc c1c9 243e d996 ab3d
00000200: 4d20 ff3c 429c 2c3e 400a 653d 6f38 a43e
00000210: 1311 e63d 686b 893d 36c7 183e 215a 3f3e
00000220: 08b7 d5bc 8c08 99bd c937 fabc 09ad 473e
00000230: 8c54 8abd 3483 1f3e 4e4c dc3d 80e7 4d3d
00000240: 5b6c 0e3e 7124 00be 14a9 e0bd 73d8 e53d
00000250: 4bb5 51bc 6030 a23e d4ee e0bc 3886 4b3e
00000260: 18a0 703d 911d 473e 3ef5 fb3d 8af6 813e
00000270: 4129 b33d 8ad6 c03d 7e94 463e f629 45bc
00000280: 48db d73d e08a 78bd a836 d5bc 63ce a93e
00000290: 883d 6a3e 4de1 183d 27d8 0a3e 087f fc3b
000002a0: 0855 1e3d 2cba dcbd 34e6 c33d 9ca9 e93c
000002b0: ce5e a13c 0e5a 1ebc fad1 863d 6830 edbd
000002c0: 02f6 4e3d bf01 ee3c e13d 123c 8e38 903d
000002d0: 122b 553e d697 e13d 6bfd 42be e21b b33d
000002e0: ad45 2abe 45d1 0dbe dfce 87bd 7089 60bd
000002f0: c789 9bbb 817f cb3e b56b ad3c f3c6 4d3e
00000300: 8e09 1dbc 2b9d 75bd 241e 1a3e 64ab 213e
00000310: 5646 453e b1d5 4e3c 115b fcbd 12d8 0abd
00000320: cdc6 363d 3923 6a3b e7fe abbd c7e7 bbbb
00000330: 6ea4 0d3e 98e1 013e cccd 5fbd 1c14 a4bd
00000340: 6471 293e b2b9 813e b29d f03d f7f1 c4bd
00000350: e2e8 a53d 40ee a83d 20b8 8e3e 5dbf bd3b
00000360: c646 443c 3b72 3a3b 0512 d43e de6b 473e
00000370: 0d27 e3bd 60b4 b73d 2d3d 743d 6826 953e
00000380: ba06 27bd 4ebf 203d c17d aa3e 9d88 e03d
00000390: fd2f b0bc e960 123d 8985 933e fed3 4e3e
000003a0: 90e5 993e 7541 063e 0a84 223e 0d6b e0bc
000003b0: a7cb 2dbe 72e8 053e e1c8 d3bd 543e 343d
000003c0: c3c6 3c3e 293b ab3e 7dd5 713e 7c90 26bd
000003d0: f496 673e 3557 fb3d daa0 41bc 6fac 513e
000003e0: 7f25 0abd 5afe 2b3e c50d ba3d 1705 d33d
000003f0: c004 e23d 426c 583d 4865 8f3c 4232 373e

net.2.linear.weight f4 [256, 256]
-0.12682374 -0.036514435 -0.055955622 0.04578537 0.018073633 -0.070817344 0.087290555 -0.07107337
0.02432932 -0.016853707 0.107194625 0.07458076 -0.023935186 0.07302896 -0.08801837 -0.13438444
0.106331885 -0.05990983 0.060593124 0.07431582 -0.005858694 -0.02707411 -0.0065905843 -0.15911646
-0.06949693 -0.00855441 -0.14007469 0.07027836 -0.104630925 -0.088516854 0.056554876 0.0081703635
-0.12307293 -0.1252744 -0.013197776 -0.048377067 -0.09141497 -0.073819175 0.08077033 -0.1006652
0.08715358 -0.16474044 0.009367025 0.009798854 0.07659015 0.03193878 0.017899394 0.047938753
0.18116249 0.095720805 0.09760287 0.081558414 -0.11156131 -0.14627239 -0.15107462 -0.04527406
0.07079971 0.0015042459 -0.02118915 -0.15106894 -0.09502854 0.0756681 0.030278655 -0.07511087
-0.16703062 0.12799771 -0.028149026 0.04889369 -0.031060172 -0.0858413 -0.09092444 0.11758341
0.119931854 0.10022809 0.02581108 0.08167142 -0.08249519 -0.1507219 -0.03640536 -0.10204564
-0.02585497 0.0556509 0.028815418 -0.1181356 -0.17135784 0.0011304914 0.03203593 0.10621087
-0.08790268 -0.094290376 -0.08529859 0.10784464 0.073946156 -0.08998848 -0.085999876 0.040397797
0.018385926 -0.06551268 -0.004069412 -0.12657976 -0.019140938 -0.1283753 0.09177262 0.015526864
0.1000897 0.08537821 0.1644532 0.051499102 -0.037430957 -0.1309482 -0.045101397 -0.037791528
-0.11813524 -0.14796689 0.031733204 0.101780064 0.017498896 -0.03087739 0.048972037 0.022729637
-0.14195128 0.033723164 -0.05222105 -0.04454581 -0.10486252 0.06156342 -0.1245012 0.105016336
-0.07090514 0.086579286 -0.058511194 -0.09086905 -0.10436949 -0.09868562 -0.049439088 -0.14485936
-0.17643572 -0.016481625 -0.12419219 -0.13913365 -0.12167853 0.05501172 0.057982888 0.024037318
-0.114240356 0.025104681 0.09424827 0.07930794 -0.13818748 -0.10907347 0.10320985 0.004520355
0.039661378 -0.07013359 0.051446937 -0.17125598 -0.031545084 -0.009069243 -0.08788352 0.08417914
0.13266085 -0.04693125 0.10322166 0.028110364 -0.047315482 -0.053600255 -0.039565854 0.042393535
0.010296836 0.035369087 -0.108996384 0.07291232 -0.07381482 0.10947773 0.053124625 -0.010687568
-0.0026212765 0.05237595 -0.020610815 0.10669898 -0.1534173 -0.042169586 -0.056199424 -0.024820965
0.0018459216 0.033879254 0.100429654 0.06716746 0.065493874 0.065306835 -0.0863447 -0.1573754
0.03299414 0.094151266 0.0520325 -0.09057332 -0.07201345 -0.083343096 -0.01877458 -0.06224164
0.011685734 0.016269293 -0.10998369 0.014236292 -0.044373658 -0.06128924 -0.1831088 0.018385831
-0.07495781 0.11712633 -0.014900437 0.07143376 -0.035337698 0.09187221 0.11292307 -0.028676866
0.007008833 -0.07639952 -0.1356977 -0.079462215 -0.05153805 0.01053682 0.07250767 0.01648791
-0.15653463 -0.020760966 0.08342019 -0.086223036 0.057078328 0.093285866 0.009968836 0.012574584
-0.09692152 0.047170196 0.06001624 -0.013932183 0.053043865 -0.07439096 0.05581539 0.052661926
-0.059805755 -0.0010384849 -0.13652006 -0.0036921212 -0.18135388 0.012806787 -0.13758671 -0.099775314
-0.11190551 -0.0765775 0.066374876 -0.08885415 -0.080858625 -0.08752645 -0.030000357 -0.053243287
00000000: 15de 01be 2990 15bd b931 65bd 7189 3b3d
00000010: 280f 943c af08 91bd 64c5 b23d ea8e 91bd
00000020: 484e c73c c910 8abc db88 db3d ccbd 983d
00000030: b913 c4bc 3590 953d fa42 b4bd 139c 09be
00000040: 88c4 d93d 0364 75bd 7f30 783d e532 983d
00000050: 4afa bfbb 86ca ddbc d4f5 d7bb 6def 22be
00000060: 6854 8ebd cc27 0cbc bd6f 0fbe 1aee 8f3d
00000070: bd48 d6bd 5348 b5bd 16a6 673d fddc 053c
00000080: a90d fcbd ef47 00be 7c3b 58bc 0827 46bd
00000090: c637 bbbd 822e 97bd ea6a a53d 8e29 cebd
000000a0: 937d b23d b8b1 28be 2778 193c 5f8b 203c
000000b0: 4cdb 9c3d 3dd2 023d c0a1 923c 6d5b 443d
000000c0: a982 393e 4509 c43d 03e4 c73d 1908 a73d
000000d0: 427a e4bd 6ec8 15be 4eb3 1abe 4b71 39bd
000000e0: 70ff 903d 1e2a c53a de94 adbc d1b1 1abe
000000f0: 539e c2bd e0f7 9a3d f10a f83c bad3 99bd
00000100: 130a 2bbe d511 033e c998 e6bc c044 483d
00000110: e771 febc 90cd afbd 9836 babd 92cf f03d
00000120: d59e f53d 6344 cd3d c271 d33c 5843 a73d
00000130: 3df3 a8bd d756 1abe c91d 15bd 4efd d0bd
00000140: cdcd d3bc 33f2 633d 500e ec3c 14f1 f1bd
00000150: 6e78 2fbe ff2c 943a 1b38 033d 1685 d93d
00000160: 5206 b4bd 501b c1bd 07b1 aebd a7dd dc3d
00000170: 1571 973d e14b b8bd b420 b0bd 2978 253d
00000180: 159e 963c 832b 86bd b458 85bb 209e 01be
00000190: 75cd 9cbc d174 03be 49f3 bb3d 6364 7e3c
000001a0: d4fb cc3d c5da ae3d 6b66 283e b9f0 523d
000001b0: 3451 19bd 4917 06be 3ebc 38bd 4acb 1abd
000001c0: e4f0 f1bd a284 17be adfa 013d 1172 d03d
000001d0: d859 8f3c 95f2 fcbc e796 483d 8133 ba3c
000001e0: ad5b 11be 4d21 0a3d bde5 55bd ab75 36bd
000001f0: 29c2 d6bd ed29 7c3d 7cfa febd ce12 d73d
00000200: b736 91bd 7b50 b13d 6fa9 6fbd 8d19 babd
00000210: acbf d5bd b01b cabd a480 4abd 0356 14be
00000220: 91ab 34be 7904 87bc 7a58 febd 0d79 0ebe
00000230: 9832 f9bd f853 613d 777f 6d3d e9e9 c43c
00000240: d9f6 e9bd 55a8 cd3c 3d05 c13d 346c a23d
00000250: 0581 0dbe e961 dfbd b05f d33d 7c1f 943b
00000260: f873 223d 33a2 8fbd 06ba 523d ba5d 2fbe
00000270: 6b35 01bd 2a97 14bc 46fc b3bd 1d66 ac3d
00000280: 3fd8 073e fb3a 40bd e165 d33d b547 e63c
00000290: e1cd 41bd f18b 5bbd ce0f 22bd d8a4 2d3d
000002a0: 0fb4 283c 2ddf 103d 7f39 dfbd 0e53 953d
000002b0: 392c 97bd dc35 e03d 3599 593d e91a 2fbc
000002c0: b9c9 2bbb 2a88 563d 03d8 a8bc ff84 da3d
000002d0: 6d19 1dbe 04ba 2cbd 5e31 66bd 5655 cbbc
000002e0: daf2 f13a f9c4 0a3d 10ae cd3d 188f 893d
000002f0: a721 863d 97bf 853d 7dd5 b0bd 0427 21be
00000300: dd24 073d 61d2 c03d 0820 553d 817e b9bd
00000310: ca7b 93bd c9af aabd 26cd 99bc 17f1 7ebd
00000320: 8575 3f3c 2e47 853c 213f e1bd 563f 693c
00000330: 27c1 35bd 6d0a 7bbd e080 3bbe e29d 963c
00000340: 7b83 99bd eedf ef3d f620 74bc dd4b 923d
00000350: 43be 10bd 7f27 bc3d 3644 e73d bfeb eabc
00000360: 5aaa e53b 5a77 9cbd 56f4 0abe 16bd a2bd
00000370: 9019 53bd a0a2 2c3c e77e 943d a711 873c
00000380: 9d4a 20be e712 aabc 34d8 aa3d b495 b0bd
00000390: f7ca 693d a90c bf3d 5454 233c a105 4e3c
000003a0: ca7e c6bd 8935 413d 97d3 753d d043 64bc
000003b0: 8644 593d 4a5a 98bd ae9e 643d 08b4 573d
000003c0: e1f6 74bd c51d 88ba eacb 0bbe 84f7 71bb
000003d0: d5b4 39be 8fd3 513c 88e3 0cbe 0057 ccbd
000003e0: b72e e5bd aad4 9cbd 8def 873d 2af9 b5bd
000003f0: 3599 a5bd 1141 b3bd 4fc3 f5bc a215 5abd

net.2.linear.bias f4 [256]
-0.059607144 -0.013648284 -0.05862546 -0.018516544 0.041411687 -0.00034440355 -0.011307597 -0.017351294
-0.058398 -0.12396393 -0.044892184 -0.038266297 0.023651412 0.050243963 0.08571668 -0.0010220996
-0.0090357475 0.030041821 -0.03944626 -0.0077910214 0.0053589167 0.04908131 -0.044061553 0.067712106
-0.021802455 -0.022773188 0.022385256 0.02043592 -0.044082616 0.0039544296 -0.047542606 0.045188934
0.010049246 -0.04029894 -0.03302485 0.011561862 0.0024004187 0.026827823 -0.06076821 -0.012804854
-0.074099176 0.051169764 -0.045629077 -0.009348917 -0.090372086 0.027858168 -0.043661032 0.09685606
-0.0749765 0.0608064 -0.011430688 -0.0448348 -0.014756181 -0.06221897 0.05426524 -0.050942503
-0.035433862 -0.101685256 -0.036315955 -0.04955386 -0.044014543 -0.031293225 0.01328267 0.113292255
0.003636983 0.0208702 0.07056579 0.046294305 0.05440583 0.03327032 0.007350967 -0.015656698
0.018497027 0.025908155 -0.021712216 -0.08903227 0.0017442759 -0.09947966 0.03745798 -0.0364288
0.022786692 -0.086864226 0.023679549 0.08105498 -0.004345562 -0.06336383 -0.013859392 -0.058765557
-0.013686007 -0.01599169 -0.04415348 -0.0061056297 -0.00529805 0.07173023 -0.056191064 0.012989061
0.007462065 -0.08602765 -0.059689097 0.077905856 -0.033608116 -0.08262766 -0.0875888 -0.020157548
-0.100403294 0.04417383 0.031905375 -0.044332143 0.061456546 -0.0137498 -0.0037302726 -0.03278282
0.0034727592 0.032862745 0.0131028695 -0.032404378 0.034274474 0.06282832 -0.033226855 0.026289573
0.107641034 0.04116755 -0.06652804 -0.060283884 -0.06856757 -0.014527891 -0.024083683 -0.020538284
-0.01863416 -0.047960483 -0.005134395 0.06240043 -0.02305277 -0.05785863 -0.015741048 0.04052286
0.0015725977 -0.027406514 -0.079376034 -0.04987216 -0.016222104 0.042259205 -0.015676366 0.016985325
-0.072667494 0.004224698 -0.0075685154 0.034908257 0.040910233 -0.012526371 0.038412098 0.0056387526
-0.09184485 0.046497524 0.064177014 0.0059019243 -0.031362645 0.0028588527 0.0067991735 -0.046434555
-0.009025646 0.008318901 0.010229091 -0.033428404 0.0987784 -0.035433937 -0.022710254 -0.028790602
-0.0550242 -0.033082478 0.04380181 -0.046031054 0.0334279 0.058268458 0.105925925 -0.01173729
-0.041277543 0.009153734 0.08249487 -0.0029903094 0.030747203 0.043085437 0.031237502 0.07064439
-0.04435371 -0.03213457 0.06183669 -0.009397538 -0.036854062 -0.06619693 0.03583628 0.015077478
-0.023216639 -0.03588753 -0.031151708 0.0105494065 -0.0020708968 -0.083749786 0.05511617 -0.0726998
0.0048063146 -0.07773389 -0.017756464 0.09032166 0.0051075886 0.039969765 -0.019188266 -0.04534044
-0.033806283 -0.0029757218 0.02660908 -0.059265714 -0.053068925 0.087253 -0.02184368 -0.04345668
-0.061017983 0.0038212507 0.08863697 0.055121202 0.025296623 0.04702014 -0.06226918 -0.0774585
0.024258206 -0.00020413286 -0.06167009 0.028621951 -0.043729883 0.03964845 -0.021349821 -0.0102574425
-0.0047690794 -0.058636717 -0.0661193 -0.022470735 0.06313063 0.008816731 0.021563122 -0.05035854
0.008101 0.03973125 -0.023664564 -0.053838417 -0.0067960774 -0.07767161 0.011392788 -0.0042985915
0.019486789 -0.11594539 -0.0155791445 0.02048999 -0.05069261 0.024873782 0.032591186 -0.06302025
00000000: 9f26 74bd 0d9d 5fbc 4021 70bd 02b0 97bc
00000010: 4d9f 293d 1091 b4b9 8043 39bc 4d24 8ebc
00000020: be32 6fbd cde0 fdbd dee0 37bd 1fbd 1cbd
00000030: 9bc0 c13c 9dcc 4d3d 3a8c af3d f9f7 85ba
00000040: ac0a 14bc 441a f63c 6792 21bd d34b ffbb
00000050: da99 af3b 7c09 493d e379 34bd a5ac 8a3d
00000060: 109b b2bc d68e babc 4961 b73c 3b69 a73c
00000070: f98f 34bd 2994 813b 09bc 42bd 0818 393d
00000080: 98a5 243c 8010 25bd 1145 07bd f76d 3d3c
00000090: 5850 1d3b 06c6 db3c 16e8 78bd 73cb 51bc
000000a0: 4fc1 97bd 6397 513d 8ee5 3abd 332c 19bc
000000b0: 0015 b9bd d036 e43c e9d5 32bd 785c c63d
000000c0: 478d 99bd 2210 793d c847 3bbc b2a4 37bd
000000d0: e9c3 71bc 52d9 7ebd 3a45 5e3d 16a9 50bd
000000e0: 1923 11bd 5c40 d0bd 0ac0 14bd fdf8 4abd
000000f0: 9848 34bd 532d 00bd 8e9f 593c c505 e83d
00000100: 735a 6e3b fbf7 aa3c cc84 903d 199f 3d3d
00000110: a6d8 5e3d 7646 083d 61e0 f03b 7a42 80bc
00000120: 1487 973c 573d d43c d1dd b1bc 8d56 b6bd
00000130: 30a0 e43a febb cbbd 8a6d 193d 5e36 15bd
00000140: 28ab ba3c dfe5 b1bd 9dfb c13c 2700 a63d
00000150: 3765 8ebb e5c4 81bd 8112 63bc 27b4 70bd
00000160: 463b 60bc 0101 83bc 48da 34bd bc11 c8bb
00000170: 449b adbb 4ce7 923d 9a28 66bd 12d0 543c
00000180: 5784 f43b 442f b0bd 8e7c 74bd 1b8d 9f3d
00000190: aaa8 09bd b138 a9bd c261 b3bd 7121 a5bc
000001a0: 3ea0 cdbd 9eef 343d 36af 023d 9f95 35bd
000001b0: dcb9 7b3d d746 61bc 9777 74bb 4747 06bd
000001c0: 3b97 633b 169b 063d 6bad 563c 74ba 04bd
000001d0: 6463 0c3d 22ac 803d e218 08bd 3b5d d73c
000001e0: e772 dc3d 4e9f 283d da3f 88bd 3cec 76bd
000001f0: 276d 8cbd 6406 6ebc 254b c5bc e73f a8bc
00000200: aaa6 98bc 3672 44bd 6d3e a8bb 9897 7f3d
00000210: 2ad9 bcbc 2cfd 6cbd 5ff3 80bc 4cfb 253d
00000220: 9f1f ce3a a083 e0bc e78f a2bd c046 4cbd
00000230: 38e4 84bc fd17 2d3d b96b 80bc cf24 8b3c
00000240: b2d2 94bd 566f 8a3b 4f01 f8bb f6fb 0e3d
00000250: 7d91 273d 683b 4dbc 0156 1d3d 49c5 b83b
00000260: 2719 bcbd 3074 3e3d 3d6f 833d ee64 c13b
00000270: 1e76 00bd 975b 3b3b 9acb de3b 2932 3ebd
00000280: 4ee0 13bc 004c 083c eb97 273c 39ec 08bd
00000290: 544c ca3d 2d23 11bd db0a babc 45da ebbc
000002a0: 0e61 61bd 7e81 07bd 8769 333d 0f8b 3cbd
000002b0: b2eb 083d e8aa 6e3d b1ef d83d c34d 40bc
000002c0: a412 29bd 8bf9 153c 12f3 a83d 11f9 43bb
000002d0: 8fe1 fb3c 5b7a 303d cae5 ff3c 02ae 903d
000002e0: 3cac 35bd 8a9f 03bd 7848 7d3d 22f8 19bc
000002f0: 49f4 16bd 4292 87bd 10c9 123d 8707 773c
00000300: d230 bebc cdfe 12bd de31 ffbc 6bd7 2c3c
00000310: e2b7 07bb 0285 abbd 7ec1 613d a2e3 94bd
00000320: 4a7e 9d3b f232 9fbd 0176 91bc 90fa b83d
00000330: 8f5d a73b 56b7 233d b630 9dbc e6b6 39bd
00000340: 7578 0abd 5404 43bb 49fb d93c 9bc0 72bd
00000350: cd5e 59bd b3b1 b23d 84f1 b2bc a2ff 31bd
00000360: feed 79bd f36d 7a3b 4d87 b53d c5c6 613d
00000370: dd3a cf3c 3198 403d f80d 7fbd 90a2 9ebd
00000380: 25b9 c63c 7f0c 56b9 c799 7cbd 9578 ea3c
00000390: 1b1e 33bd 6a66 223d d2e5 aebc d50e 28bc
000003a0: f045 9cbb 0e2d 70bd 8e69 87bd 8c14 b8bc
000003b0: a24a 813d 0d74 103c 25a5 b03c c244 4ebd
000003c0: 0fba 043c 3cbd 223d 30dc c1bc ac85 5cbd
000003d0: a1b1 debb 4b12 9fbd d1a8 3a3c 33db 8cbb
000003e0: c2a2 9f3c c774 edbd ab3f 7fbc a0da a73c
000003f0: 0ea3 4fbd 1ac4 cb3c 567e 053d c310 81bd

net.3.linear.weight f4 [256, 256]
0.069504514 -0.028026436 0.10204861 0.1215517 -0.068135664 -0.02148732 0.018371206 -0.0007774989
-0.025698312 0.16495219 -0.045401003 0.009563474 -0.037824236 -0.03649481 0.033166334 -0.10338355
-0.032181524 0.12509683 0.02284361 -0.03519027 0.015671719 -0.07574779 -0.06810705 -0.005990229
0.0396766 0.01677461 -0.026801113 -0.041601006 0.020672852 0.09064615 0.038502503 -0.066647574
0.05237418 0.0031199872 0.1137976 0.022982907 0.07115245 -0.016994664 -0.096726246 -0.004907519
0.051359084 -0.09374065 -0.010082108 0.07003185 0.07610924 0.0165234 0.09192349 0.08698662
0.046631876 -0.032153524 -0.06485943 0.10245608 0.11286931 0.076234795 0.04228379 -0.038433656
-0.05545658 0.015070358 -0.046295237 -0.091310024 -0.15070511 -0.059543636 -0.12668562 0.020885441
-0.046387214 0.119318485 0.15930511 -0.042509217 0.13534474 0.06868408 0.02673784 0.054855626
-0.12309381 -0.04760567 0.016687982 0.07562728 0.04145275 -0.14801955 0.044996317 -0.020214785
-0.14454354 0.037937462 -0.047950596 -0.093603805 -0.0565171 -0.10296432 0.049486406 -0.024381818
-0.053758882 -0.14308135 -0.080127284 -0.1280678 0.010715641 0.03096199 -0.064819716 0.01501093
-0.0414421 0.02508645 0.05756717 0.063491635 -0.103658885 0.10855557 0.10306938 -0.008412526
-0.012447104 -0.0969258 0.10151304 0.13548806 -0.1419392 0.008197107 0.02222657 -0.08852116
0.12455323 0.11932157 0.011288993 -0.018876811 0.007859908 -0.08470729 -0.081827216 0.035316046
0.06050632 -0.070419796 0.088246785 0.0060255774 -0.07863588 -0.023081284 0.076571934 0.043635476
0.014916223 0.1131114 0.0020071848 0.07627349 0.06197913 -0.06823447 0.0838057 0.1773748
0.05945949 -0.2049196 -0.027180854 -0.14803435 -0.020436628 0.025475066 0.039674398 -0.06869351
0.072437674 0.042899523 0.034238577 0.11758496 -0.09916465 -0.0947994 -0.028430201 0.05846757
-0.055878196 -0.11201352 -0.061502438 0.10892994 -0.1273784 -0.05682107 0.018522725 -0.103829466
-0.019201698 -0.06935665 0.013420606 -0.13073091 0.10162673 0.06858546 0.13246036 0.07354622
-0.10316222 -0.017322702 -0.019006671 -0.076194964 -0.11436563 -0.083087996 0.14097539 0.06360103
-0.074520856 -0.039513875 0.11200887 0.035856042 0.08971984 -0.105950624 -0.011129229 0.024989452
0.10503302 -0.14319833 -0.00018630186 0.09607658 -0.10872789 0.10442235 -0.027225476 0.14890343
0.073858485 0.028460251 -0.12951891 -0.16346174 0.052463554 -0.071103685 0.081588976 0.032475986
-0.14190206 -0.041259684 0.09279429 0.11989242 0.038480554 0.047328588 -0.13241406 -0.049179584
-0.08904356 -0.0072945342 -0.07867259 -0.0021526508 0.18392764 0.022120642 0.09979252 -0.05429208
0.0073104682 0.06603283 0.052773047 -0.086007036 0.119610004 0.075932875 0.15450943 -0.037515685
-0.10637311 -0.14868875 -0.018281179 -0.045582663 0.07914143 0.019147106 -0.04419792 0.06481712
0.02935181 -0.063806884 -0.14676206 0.011475593 0.13830344 -0.13766609 0.06593703 -0.051496066
-0.15702616 0.06186869 -0.0664177 0.061528392 -0.017500186 -0.080635905 -0.026464798 0.01857583
0.10566657 0.046052836 0.091724105 0.022049733 -0.13740586 -0.17569086 0.0009511733 0.07281848
00000000: 6258 8e3d b297 e5bc ddfe d03d 19f0 f83d
00000010: b68a 8bbd 2d06 b0bc 367f 963c 11d1 4bba
00000020: 4485 d2bc 3ae9 283e 67f6 39bd 1eb0 1c3c
00000030: 96ed 1abd 957b 15bd 6cd9 073d c1ba d3bd
00000040: c6d0 03bd 6219 003e 8622 bb3c ac23 10bd
00000050: fa61 803c a821 9bbd b67b 8bbd af49 c4bb
00000060: ee83 223d e86a 893c 028e dbbc d165 2abd
00000070: 1d5a a93c b0a4 b93d cdb4 1d3d 867e 88bd
00000080: 4f86 563d b378 4c3b b70e e93d a646 bc3c
00000090: 60b8 913d 6538 8bbc 6918 c6bd 41cf a0bb
000000a0: e75d 523d 19fb bfbd 6d2f 25bc dc6c 8f3d
000000b0: 29df 9b3d 155c 873c 6242 bc3d 0b26 b23d
000000c0: 1101 3f3d 6ab3 03bd 05d5 84bd 7ed4 d13d
000000d0: 0628 e73d fd20 9c3d c431 2d3d 9c6c 1dbd
000000e0: 7026 63bd aae9 763c 13a0 3dbd c000 bbbd
000000f0: 7152 1abe 07e4 73bd e0b9 01be f217 ab3c
00000100: 8500 3ebd 405d f43d e120 233e 251e 2ebd
00000110: d097 0a3e 3daa 8c3d 5109 db3c 4bb0 603d
00000120: 9c18 fcbd 2afe 42bd 3cb5 883c 7ae2 9a3d
00000130: 5cca 293d 7092 17be 0f4e 383d 7a99 a5bc
00000140: 3903 14be 5064 1b3d d867 44bd 5ab3 bfbd
00000150: 7a7e 67bd f5de d2bd 42b2 4a3d 61bc c7bc
00000160: 4632 5cbd eb83 12be c619 a4bd 3524 03be
00000170: a890 2f3c 00a4 fd3c 33c0 84bd 67f0 753c
00000180: 31bf 29bd 1982 cd3c 8ecb 6b3d e707 823d
00000190: 1c4b d4bd 6252 de3d 0a16 d33d b1d4 09bc
000001a0: f0ee 4bbc 0981 c6bd 12e6 cf3d 62bd 0a3e
000001b0: 8258 11be 294d 063c 7f14 b63c 954a b5bd
000001c0: c415 ff3d de5e f43d 78f5 383c 8ba3 9abc
000001d0: d8c6 003c 047b adbd 0795 a7bd 8fa7 103d
000001e0: 7ad5 773d 4138 90bd bbba b43d 3572 c53b
000001f0: d90b a1bd f614 bdbc bfd1 9c3d 1dbb 323d
00000200: 2c63 743c f3a6 e73d f98a 033b 4735 9c3d
00000210: d4dd 7d3d 84be 8bbd 53a2 ab3d bda1 353e
00000220: cb8b 733d 72d6 51be 62aa debc 5196 17be
00000230: b76a a7bc 16b1 d03c 9f81 223d 2faf 8cbd
00000240: 345a 943d 69b7 2f3d c03d 0c3d 62d0 f03d
00000250: d616 cbbd 3026 c2bd 74e6 e8bc b17b 6f3d
00000260: 89e0 64bd 5867 e5bd fbe9 7bbd a916 df3d
00000270: 7c6f 02be 36bd 68bd f8bc 973c 8ba4 d4bd
00000280: e14c 9dbc dc0a 8ebd 1ae2 5b3c 53de 05be
00000290: ad21 d03d 8976 8c3d b0a3 073e 679f 963d
000002a0: b746 d3bd 57e8 8dbc e1b3 9bbc 1b0c 9cbd
000002b0: 8738 eabd 0a2a aabd da5b 103e 4241 823d
000002c0: 649e 98bd 4dd9 21bd e864 e53d c9dd 123d
000002d0: 09bf b73d a4fc d8bd 5f57 36bc aeb6 cc3c
000002e0: 8d1b d73d 95a2 12be 065a 43b9 ccc3 c43d
000002f0: baac debd 63db d53d f607 dfbc 247a 183e
00000300: 1e43 973d 7925 e93c 9ba0 04be 8462 27be
00000310: 06e4 563d cf9e 91bd 1f18 a73d 8a05 053d
00000320: c64e 11be eaff 28bd ef0a be3d 288a f53d
00000330: c99d 1d3d 9fdb 413d 8d97 07be 8870 49bd
00000340: 785c b6bd fd06 efbb 181f a1bd 7d13 0dbb
00000350: 8757 3c3e 5936 b53c 0560 cc3d 5f61 5ebd
00000360: a78c ef3b 383c 873d 8d28 583d 7524 b0bd
00000370: 17f6 f43d b282 9b3d b837 1e3e 0caa 19bd
00000380: 25da d9bd dd41 18be 69c2 95bc e3b4 3abd
00000390: e714 a23d 64da 9c3c e108 35bd d7be 843d
000003a0: 3573 f03c 2fad 82bd cb48 16be 2004 3c3c
000003b0: 6b9f 0d3e 57f8 0cbe fe09 873d 8aed 52bd
000003c0: 77cb 20be 066a 7d3d 0106 88bd 3205 7c3d
000003d0: 8d5c 8fbc 7024 a5bd b4cc d8bc 572c 983c
000003e0: b767 d83d e6a1 3c3d d9d9 bb3d a4a1 b43c
000003f0: 1fb4 0cbe 4ee8 33be 2958 793a db21 953d

net.3.linear.bias f4 [256]
0.046111144 0.021974744 0.030964179 -0.018709606 -0.0052178977 -0.014651117 -0.015555076 0.011977304
-0.027737055 -0.046175186 -0.00030408506 -0.007682575 0.0623263 -0.039335907 0.016238047 -0.042052478
0.069010966 -0.033836327 0.0212168 -0.025129793 0.008038922 -0.033507984 0.020431345 -0.045479596
-0.046948522 0.0048350655 0.026106488 -0.033354726 0.011603859 -0.060783934 0.029613664 -0.0038289092
-0.025850637 0.028168853 -0.013453656 -0.021402972 -0.0048567443 -0.05029647 -0.069853246 -0.042067796
0.017231338 -0.04636122 0.059834648 -0.02558048 0.024612233 0.0031376558 0.027541658 -0.065104015
-0.025900552 -0.046715844 -0.013189687 0.048249688 -0.04272651 0.018533425 -0.017076887 -0.082422
-0.08962236 0.0004366188 0.04743763 -0.022618242 -0.026989829 -0.0536269 0.015005413 -0.018021923
0.00053762767 -0.028766634 -0.0050110533 0.06624265 -0.035905857 -0.10342404 0.008888456 -0.040383358
-0.024295883 0.020977944 -0.0071995645 0.034586553 -0.0066315564 -0.029107843 -0.05043958 -0.017383883
0.01662655 0.047348764 -0.08141018 -0.021479338 -0.038761962 0.07676693 0.02469754 0.050894585
-0.03283574 -0.04216004 -0.07120056 0.04839022 -0.022981321 0.025905957 -0.09921558 -0.01667045
0.02269502 -0.045439284 0.048011202 -0.04381198 0.007962888 0.058134414 0.009411636 -0.054081544
-0.030483883 -0.008010889 0.030479437 0.008187951 0.005186264 -0.0723172 -0.05047802 -0.090212815
-0.08615513 0.022597864 -0.0037823548 -0.018268267 -0.010967266 -0.029303214 0.004383029 0.022156544
-0.031605635 0.07561068 -0.02338008 -0.07349775 -0.11271722 0.044780876 -0.046611436 0.016417352
-0.02293381 0.04590788 -0.07922104 0.054241963 -0.027486565 0.03242804 0.07681096 0.0045350124
0.08450279 -0.03212033 0.092807755 0.033955824 0.0065759895 -0.05527576 0.047346532 -0.07023401
0.013643349 -0.02390325 0.028763035 0.018062182 0.03483535 -0.0721056 -0.041056916 -0.009231049
-0.092298895 0.042437825 0.019553017 0.048188917 0.019869085 0.010551596 -0.02856094 0.06629746
0.038813792 -0.043336984 -0.016857212 0.007802642 0.016741142 0.040676575 0.08908994 -0.015207494
-0.09419572 0.020228118 0.033057168 0.0037715167 -0.071306325 -2.7262615e-05 -0.042141456 -0.106961615
0.043937862 -0.089611776 -0.060178157 -0.043527447 -0.013472591 -0.071606405 0.026109077 -0.01196843
0.00043944866 -0.06234309 -0.056004383 -0.07437234 0.037310474 0.048801772 -0.022581834 -0.003126406
-0.007059246 0.056958105 -0.06733864 0.037657075 0.0134718595 -0.069389924 -0.022068266 0.016359432
0.056573264 -0.0063685915 0.0038783792 0.02949796 -0.013089818 0.03718063 0.039734196 -0.054583777
-0.071877554 -0.037032414 0.064255714 0.040317062 0.08788662 -0.030792983 -0.055377346 0.016623894
0.06478248 0.011336111 -0.057075847 0.037643548 -0.088951 -0.030133193 -0.0041719447 0.0119875055
-0.020583795 -0.03673247 -0.029446622 -0.07082804 -0.0070069516 0.018076716 0.0062680845 -0.062055398
0.04036118 0.017094001 -0.038756464 -0.05030371 -0.09842948 0.035041507 0.050906245 -0.024549454
-0.02002496 0.013190508 -0.04816395 0.03589042 0.031732928 0.060024 -0.06362354 0.04193691
-0.049827147 -0.04905302 -0.0039774966 -0.06261887 -0.023266502 -0.026134176 0.015191373 0.010016833
00000000: 0adf 3c3d 6104 b43c 97a8 fd3c e344 99bc
00000010: e6fa aabb 3d0b 70bc b8da 7ebc 743c 443c
00000020: d238 e3bc 3122 3dbd 9b6d 9fb9 1cbe fbbb
00000030: dd49 7f3d b01e 21bd a705 853c 383f 2cbd
00000040: 9f55 8d3d f697 0abd dbce ad3c ffdc cdbc
00000050: afb5 033c ab3f 09bd a35f a73c d048 3abd
00000060: 184d 40bd 786f 9e3b 46dd d53c f79e 08bd
00000070: 1d1e 3e3c 93f8 78bd 5b98 f23c 70ee 7abb
00000080: b7c4 d3bc 5ec2 e63c b96c 5cbc 4955 afbc
00000090: 5325 9fbb ac03 4ebd 380f 8fbd 484f 2cbd
000000a0: bc28 8d3c 43e5 3dbd 2d15 753d 288e d1bc
000000b0: 989f c93c 21a1 4d3b 0b9f e13c 4155 85bd
000000c0: 652d d4bc 1d59 3fbd 8f19 58bc 77a1 453d
000000d0: fe01 2fbd 69d3 973c d4e4 8bbc decc a8bd
000000e0: ee8b b7bd fce9 e439 f64d 423d e449 b9bc
000000f0: c619 ddbc e1a7 5bbd 44d9 753c b6a2 93bc
00000100: 95ef 0c3a 01a8 ebbc c333 a4bb 3aaa 873d
00000110: 0512 13bd fccf d3bd e3a0 113c 0569 25bd
00000120: 2908 c7bc f0d9 ab3c 53ea ebbb a1aa 0d3d
00000130: 874d d9bb 9273 eebc bc99 4ebd a568 8ebc
00000140: 6734 883c c7f0 413d 61ba a6bd 70f5 afbc
00000150: ddc4 1ebd fb37 9d3d 7f52 ca3c d776 503d
00000160: c57e 06bd 02b0 2cbd 99d1 91bd d334 463d
00000170: 5343 bcbc bb38 d43c 8a31 cbbd 7890 88bc
00000180: e8ea b93c 8b1e 3abd 65a7 443d 3174 33bd
00000190: c676 023c 5a1e 6e3d 4333 1a3c 9c84 5dbd
000001a0: 56b9 f9bc 1b40 03bc 03b0 f93c c126 063c
000001b0: 89f1 a93b 0a1b 94bd 0ac2 4ebd 7fc1 b8bd
000001c0: 1a72 b0bd 281f b93c 62e1 77bb 55a7 95bc
000001d0: 0cb0 33bc 4b0d f0bc 839f 8f3b a481 b53c
000001e0: e974 01bd c6d9 9a3d 9587 bfbc fd85 96bd
000001f0: 49d8 e6bd 276c 373d a2eb 3ebd af7d 863c
00000200: afdf bbbc e709 3c3d a43e a2bd d22c 5e3d
00000210: 812b e1bc 44d3 043d 114f 9d3d 719a 943b
00000220: cc0f ad3d 9b90 03bd fe11 be3d 4315 0b3d
00000230: 667b d73b d668 62bd 70ee 413d d9d6 8fbd
00000240: 5a88 5f3c c0d0 c3bc 75a0 eb3c 24f7 933c
00000250: 83af 0e3d 1aac 93bd 4c2b 28bd d33d 17bc
00000260: 3407 bdbd 49d3 2d3d a62d a03c be61 453d
00000270: 7ec4 a23c 9ae0 2c3c a2f8 e9bc f6c6 873d
00000280: 36fb 1e3d 1f82 31bd 2318 8abc 4ead ff3b
00000290: b824 893c 7b9c 263d c974 b63d da28 79bc
000002a0: b0e9 c0bd 70b5 a53c f466 073d 8d2b 773b
000002b0: 0d09 92bd 05b2 e4b7 859c 2cbd b10e dbbd
000002c0: 30f8 333d 6186 b7bd 5f7d 76bd d649 32bd
000002d0: 24bc 5cbc 61a6 92bd b4e2 d53c 3c17 44bc
000002e0: cd65 e639 785b 7fbd da64 65bd 8750 98bd
000002f0: ded2 183d 5ee4 473d 8afd b8bc 64e4 4cbb
00000300: 3f51 e7bb e74c 693d d7e8 89bd 4e3e 1a3d
00000310: 13b9 5c3c 4e1c 8ebd 82c8 b4bc 3704 863c
00000320: 5eb9 673d 9eaf d0bb 682c 7e3b b5a5 f13c
00000330: ad76 56bc b74a 183d 53c0 223d 3d93 5fbd
00000340: 8a34 93bd 4daf 17bd 8098 833d 8123 253d
00000350: e6fd b33d 9141 fcbc 5bd3 62bd d52e 883c
00000360: adac 843d 19bb 393c 5dc8 69bd 1f30 1a3d
00000370: f12b b6bd e3d9 f6bc cfb4 88bb 3e67 443c
00000380: 599f a8bc c974 16bd 0b3a f1bc 4b0e 91bd
00000390: 929a e5bb 9f15 943c 8164 cd3b cd2d 7ebd
000003a0: c451 253d b808 8c3c 19bf 1ebd 430b 4ebd
000003b0: 6595 c9bd af87 0f3d 1183 503d f01b c9bc
000003c0: 630b a4bc 001d 583c 9047 45bd d501 133d
000003d0: 63fa 013d badb 753d 0f4d 82bd 0ac6 2b3d
000003e0: 8d17 4cbd d2eb 48bd a955 82bb 523e 80bd
000003f0: 6499 bebc 5717 d6bc 3de5 783c a51d 243c

net.4.linear.weight f4 [256, 256]
-0.15325424 0.07684249 0.07015392 -0.04888932 -0.13748592 -0.01205173 -0.11999975 -0.00077816716
-0.024484849 0.022539979 0.06077416 0.020993585 -0.113906465 -0.11295883 0.12544745 0.13123554
0.000678629 0.08764638 0.10729338 0.10583818 -0.17190383 -0.102417015 0.06315395 0.052233417
0.0008091319 -0.08244703 -0.071060196 -0.09687629 -0.08108977 -0.15473604 0.03906912 -0.10520954
-0.13517298 -0.0027554731 0.106312364 -0.14299966 -0.023491453 -0.09626718 -0.06135462 0.11817039
0.048777293 0.025819445 0.11138398 0.032219984 0.1410701 -0.06847235 -0.056142665 -0.13237046
-0.08312034 -0.031186854 0.023443727 0.049714662 -0.04006898 -0.031244116 0.05782034 0.031984318
-0.0026356778 0.08766727 -0.14286873 0.06868633 0.10794158 -0.021385489 -0.08445975 -0.10724575
-0.088343404 0.14513656 -0.14106448 0.13023253 0.1027425 -0.014984911 -0.085706495 -0.07764293
0.13475607 0.056777492 -0.11568953 -0.047661327 0.04140628 -0.028117424 0.02087315 0.030242385
-0.114018396 -0.05130136 -0.020942824 -0.008705365 0.035842583 0.10477238 -0.04475068 0.056710895
-0.006398124 -0.12580651 0.0021874425 0.08609509 -0.023336498 -0.13163565 0.018485418 0.07348107
-0.024551688 -0.031725287 -0.0005809692 -0.060010616 -0.082637064 0.11565973 0.016906602 0.04567592
0.022082545 0.11636559 0.04525106 -0.009693996 0.108048744 -0.06558662 -0.041904196 -0.03470217
-0.053618677 -0.105800584 -0.08602302 -0.09435578 0.12341001 -0.017475067 0.060519543 0.038298853
0.052559026 0.027824154 -0.043815948 -0.06446151 -0.0012107424 0.08711533 0.10319836 0.012024757
-0.12303653 -0.12888667 0.025087513 0.1288431 0.10011994 0.012067382 -0.052835196 -0.07889279
-0.057975277 0.075158924 -0.065063916 0.028551383 -0.041372813 -0.08924751 -0.032699678 0.06656831
-0.065397896 -0.08120344 0.052815538 0.14203426 0.0647366 -0.092813775 -0.066982165 0.10842335
-0.0020745764 -0.03200406 -0.11998354 -0.09630784 0.14587452 0.052838538 0.03656134 -0.11421371
0.082545914 0.043800518 -0.052390236 -0.10519349 -0.08914223 -0.15774326 -0.16010053 -0.06936399
0.03380757 0.06681404 0.027550543 0.020255053 -0.17589736 0.103015475 -0.055569813 -0.024347404
-0.09801138 0.045103077 -0.06597109 0.12563367 0.12978746 -0.093064405 -0.022637399 -0.14954165
0.07042496 0.11500783 0.13990915 0.09983639 0.029217862 0.14219604 0.03356129 0.09718584
0.01916026 0.0882085 0.03539078 -0.1072892 0.022851834 0.03685226 0.10238241 -0.006553466
-0.05756801 0.07607431 -0.06387653 0.043525722 0.101690196 0.06034146 -0.03322111 -0.037275024
-0.024754599 -0.036863346 -0.14345136 0.020520773 -0.02739365 0.038757738 0.008362535 0.022182276
-0.13702129 0.0003114978 -0.062615894 -0.14918843 0.03127131 -0.15452963 -0.071123645 0.060537405
0.084495135 -0.055951815 0.07950253 -0.0818882 0.07996047 -0.10584359 -0.09980224 0.08551845
-0.13642925 -0.07583621 -0.123610854 0.08250704 0.08982896 0.10156083 0.13482065 -0.08134994
-0.04934566 -0.102165006 -0.093839355 0.10261998 0.099628314 0.12169646 -0.0062076985 0.02531073
-0.035376716 -0.11711481 0.07824801 0.12318949 0.025681676 0.107699595 0.06227096 0.07611901
00000000: aeee 1cbe 985f 9d3d dcac 8f3d 2b40 48bd
00000010: 1cc9 0cbe 9f74 45bc 6ec2 f5bd eafd 4bba
00000020: 7394 c8bc c3a5 b83c 53ee 783d bdfa ab3c
00000030: cb47 e9bd f656 e7bd 4c75 003e 9c62 063e
00000040: 05e6 313a f27f b33d a2bc db3d b0c1 d83d
00000050: 8f07 30be 03c0 d1bd dc56 813d b5f2 553d
00000060: ec1b 543a fdd9 a8bd 0288 91bd 1467 c6bd
00000070: 6512 a6bd 2073 1ebe f106 203d 1978 d7bd
00000080: c96a 0abe 2b95 34bb 4cba d93d 816e 12be
00000090: 2671 c0bc ba27 c5bd fb4e 7bbd 5103 f23d
000000a0: b3ca 473d 4d83 d33c 491d e43d 1af9 033d
000000b0: ae74 103e 3b3b 8cbd daf5 65bd 1f8c 07be
000000c0: ff3a aabd 937b ffbc 0f0d c03c 9aa1 4b3d
000000d0: 5f1f 24bd a9f3 ffbc 05d5 6c3d fd01 033d
000000e0: 56bb 2cbb e68a b33d 2e4c 12be 6bab 8c3d
000000f0: 7a10 dd3d 9f30 afbc 3cf9 acbd a9a3 dbbd
00000100: 63ed b4bd ae9e 143e 3573 10be ad5b 053e
00000110: a96a d23d 4683 75bc e386 afbd 4203 9fbd
00000120: 7ffd 093e 848f 683d a2ee ecbd 8638 43bd
00000130: a299 293d 8356 e6bc 2bfe aa3c e1be f73c
00000140: 7a82 e9bd 6021 52bd 4990 abbc f2a0 0ebc
00000150: accf 123d e792 d63d 7d4c 37bd af49 683d
00000160: 5ba7 d1bb 6cd3 00be 325b 0f3b 9f52 b03d
00000170: 2f2c bfbc 7fcb 06be bb6e 973c 3e7d 963d
00000180: 9f20 c9bc 60f2 01bd 2f4c 18ba b1cd 75bd
00000190: 9f3d a9bd 02df ec3d b77f 8a3c ac16 3b3d
000001a0: 74e6 b43c 1551 ee3d 2d59 393d 91d3 1ebc
000001b0: a948 dd3d 4752 86bd bca3 2bbd dd23 0ebd
000001c0: 429f 5bbd faad d8bd d62c b0bd 9a3d c1bd
000001d0: 63be fc3d df27 8fbc 57e3 773d 42df 1c3d
000001e0: 2248 573d 7bef e33c 5a78 33bd 6504 84bd
000001f0: c6b1 9eba 8669 b23d a959 d33d 7d03 453c
00000200: 94fa fbbd defa 03be 5484 cd3c 72ef 033e
00000210: af0b cd3d 45b6 453c b869 58bd 8b92 a1bd
00000220: 7c77 6dbd ecec 993d 3b40 85bd 97e4 e93c
00000230: 8a76 29bd 66c7 b6bd 19f0 05bd f754 883d
00000240: 55ef 85bd fd4d a6bd 1b55 583d 6e71 113e
00000250: 9f94 843d 2615 bebd f22d 89bd 100d de3d
00000260: 9ef5 07bb b016 03bd eeb9 f5bd 0b3d c5bd
00000270: 2160 153e 396d 583d 58c1 153d e1e8 e9bd
00000280: d50d a93d 2c68 333d 2597 56bd af6f d7bd
00000290: 3490 b6bd 7387 21be 65f1 23be b50e 8ebd
000002a0: ce79 0a3d cdd5 883d adb1 e13c eded a53c
000002b0: 701e 34be c7f9 d23d 2c9d 63bd 3574 c7bc
000002c0: 31ba c8bd 01be 383d da1b 87bd 1da6 003e
000002d0: 01e7 043e 8d98 bebd 1172 b9bc 7221 19be
000002e0: f63a 903d 3a89 eb3d 5844 0f3e 0577 cc3d
000002f0: 4c5a ef3c d79b 113e 9077 093d 5f09 c73d
00000300: faf5 9c3c a8a6 b43d ecf5 103d 71ba dbbd
00000310: c533 bb3c 65f2 163d dead d13d 75be d6bb
00000320: 6fcc 6bbd d9cc 9b3d b3d1 82bd 0748 323d
00000330: f342 d03d 9b28 773d dc12 08bd b2ad 18bd
00000340: 28ca cabc 05fe 16bd eae4 12be 2e1b a83c
00000350: a668 e0bc 6fc0 1e3d 0403 093c 9bb7 b53c
00000360: 4f4f 0cbe 8750 a339 c33c 80bd dac4 18be
00000370: 5816 003d 043d 1ebe 46a9 91bd 12f6 773d
00000380: c90b ad3d bb2d 65bd 39d2 a23d 00b5 a7bd
00000390: 51c2 a33d 86c4 d8bd 1e65 ccbd 4c24 af3d
000003a0: 1cb4 0bbe 0450 9bbd b027 fdbd 73f9 a83d
000003b0: 3ff8 b73d 20ff cf3d 6d0e 0a3e cc9a a6bd
000003c0: ad1e 4abd e33b d1bd d92e c0bd 6d2a d23d
000003d0: ee09 cc3d fe3b f93d f369 cbbb 7358 cf3c
000003e0: 2de7 10bd e4d9 efbd 7e40 a03d c54a fc3d
000003f0: 6162 d23c 9b91 dc3d d60f 7f3d 49e4 9b3d
