geoinr/model/mlp/pretrained/plane_mish_model.pth (torch, 797767 bytes, 9 tensors)

net.0.linear.weight f4 [256, 3]
000000 22 4e 1f bd 72 bf aa bd cf 65 10 bd 4a 77 1c bc
       -0.038892873 -0.083372965 -0.035253342 -0.009549925
000010 ca 47 52 bb d2 23 b0 3c 02 dc f3 bd 55 46 99 bc
       -0.0032086247 0.021501455 -0.119071975 -0.018710295
000020 17 4a 97 bd 30 4a 04 bc 1f bb d6 3a 8a 32 ca b9
       -0.073871784 -0.008074328 0.0016382671 -0.00038566097
000030 a6 d1 2c 3b b2 ab 4e 3c b6 68 f4 3b 4a 32 3d bd
       0.0026370077 0.012614178 0.0074587716 -0.046190538
000040 bf 28 c7 3b 25 7f 01 3e 23 6b 0c 3d ba 6e 76 3c
       0.0060778554 0.12646158 0.03428186 0.015041048
000050 e3 a6 f6 bc af 56 8e bd b6 2c 87 bd 40 d5 94 3d
       -0.030108875 -0.06950127 -0.06600325 0.07267237
000060 33 f7 9e bb f8 77 06 bd 08 7c a6 3d 68 ec 77 bd
       -0.004851246 -0.032829255 0.08129126 -0.06052819
000070 8b 82 68 bd a1 94 74 3e 25 87 b8 bc ec 3b 9d bb
       -0.05676512 0.23884822 -0.02252538 -0.004798403
000080 b5 5d 23 bd 8c da 70 bd 23 e7 1b bd 14 25 d7 bc
       -0.039884288 -0.058802173 -0.038062226 -0.026262797
000090 3e 6d 08 3d 29 8c e9 39 24 98 9c bc 8f 8f 22 bd
       0.033307306 0.0004454565 -0.019115515 -0.03968769
0000a0 1a 2a 87 3c d0 a3 a9 3c 94 a7 80 bd 76 a5 81 3d
       0.016499568 0.020707995 -0.06281963 0.06330387
0000b0 b1 9f 0d bd 3a e0 72 bd df 2c 80 bd f0 d1 33 3e
       -0.03457612 -0.05929587 -0.062585585 0.17560554
0000c0 77 d0 07 bd 1a 1a ba 3d 5b 36 57 3d 96 08 12 bd
       -0.033157792 0.0908701 0.05254207 -0.03565272
0000d0 cd 2b 85 bd 51 f8 cd bc 63 a6 26 bd 63 d3 56 3d
       -0.06502495 -0.02514282 -0.040686022 0.052447688
0000e0 e6 48 1c 3d 8d 92 f3 bc 24 cd f9 3c a2 58 2a bd
       0.03815546 -0.029732967 0.030493326 -0.041588433
0000f0 13 3a 0b 3c ba 43 20 bb 27 56 b7 3c c7 17 8b 3c
       0.008497733 -0.002445443 0.022379948 0.016979111
000100 d1 00 06 3d af 4b 31 3c d5 db f0 3a 1d 9b 49 bc
       0.032715622 0.010821267 0.0018376062 -0.012305048
000110 96 45 80 bc e0 ec c1 3c ec a5 2d 3a d6 15 c5 bd
       -0.015658181 0.023672521 0.00066241506 -0.096233055
000120 20 51 af 3c 0a 85 1d bd ec 3b 45 3d 35 91 96 bc
       0.021400988 -0.038456954 0.04815285 -0.018379787
000130 43 4a 56 3c 86 0f cd 3a 60 25 30 3c cf dc 76 bd
       0.013079229 0.0015644885 0.010751098 -0.060269173
000140 cc d4 2e 3c 9c 80 32 3d 05 63 96 bc 2d cb 09 bc
       0.010670852 0.043579683 -0.018357763 -0.008410257
000150 18 e1 0d 3b 12 cb 05 3d aa 6a 32 3d a7 8f c8 bd
       0.002164906 0.032664366 0.043558754 -0.097930245
000160 b6 d4 8d bd 46 bf 42 bd 8a cd 9c bc 67 ab 2b bd
       -0.06925337 -0.047545694 -0.019140977 -0.04191151
000170 95 30 60 bc 50 93 e3 bc 0d c6 49 bd fe 9e 36 bc
       -0.013683458 -0.027780205 -0.04926114 -0.011146305
000180 fb 80 53 bb 26 20 61 bc 30 74 9f 3d aa 5b 57 bd
       -0.0032272923 -0.013740575 0.07785833 -0.052577652
000190 a1 e4 bb bd 9b c3 9e 3d 34 a6 8e bd 15 f5 18 3d
       -0.09174467 0.077521525 -0.069652945 0.037343103
0001a0 df 8c a0 3d 60 9a 67 bc 45 de 41 bc 72 f3 be 3b
       0.07839369 -0.014135927 -0.011832778 0.005827361
0001b0 30 fe fe bb e8 fa 09 bc 8e fc 44 bd f0 79 a9 3d
       -0.0077817664 -0.008421637 -0.048092417 0.08275211
0001c0 8c 4b 68 bb 28 4e dd 3d a4 e1 93 3d 27 e7 28 bc
       -0.003544542 0.10805923 0.07220772 -0.010309017
0001d0 e6 18 67 3d dc bb 39 3b 3b 60 9a 3d 27 ad 88 bc
       0.05642023 0.0028340733 0.07537886 -0.016684128
0001e0 16 a8 ed bc 3a 55 4b 3c e5 25 2a bd 0b e3 57 bb
       -0.029010814 0.012410456 -0.041540045 -0.0032941725
0001f0 63 79 a7 3d 82 95 70 3c de 5b d3 bc 41 a5 3e 3e
       0.081774496 0.014684083 -0.025800642 0.18617727
000200 4f 22 03 be fc 8e 3c bd b2 95 1e bc 57 e3 b3 3d
       -0.12806056 -0.046034798 -0.009679245 0.08783596
000210 d5 40 2b 3d 5d 33 e7 3d ba a2 ff 3c 44 da 71 bc
       0.041809876 0.11289094 0.031205524 -0.014761511
000220 8d 61 99 bc ec 1e 1c bd 78 f4 b0 bc 5b ec 36 bc
       -0.018723274 -0.038115427 -0.021600947 -0.01116475
000230 35 ef 50 bc ca 0a 2d 3c b0 9f 3f 3d bf 92 8b 3d
       -0.012752344 0.010561654 0.04678315 0.06815099
000240 bf d7 75 3c 37 75 2f bd 5a 99 a1 3c 20 d2 26 bc
       0.015005051 -0.042836394 0.019726444 -0.010181934
000250 e8 be 14 bd a3 e9 08 bd 6a 84 3a 3c 63 92 1e 3b
       -0.036314875 -0.03342594 0.011384109 0.002419614
000260 94 11 62 bc 1d 5b b8 3c 58 1f 4a 3c e0 37 40 ba
       -0.013798136 0.022504384 0.0123365745 -0.0007332545
000270 5d 69 3b 3c 7f 61 19 bb 68 c8 00 bd 1b 20 79 bd
       0.011438695 -0.002340406 -0.031441122 -0.060821634
000280 16 dd 13 3d ad 39 5e bd 20 eb 9f 3a 5e df 89 bd
       0.036099516 -0.054254223 0.001220081 -0.06732057
000290 f6 3c f6 3b e6 2e b2 bd ae 68 7a 3c b7 86 2d be
       0.0075145913 -0.087003514 0.015283747 -0.16945921
0002a0 9a 69 9f 3c 00 d1 3e bd 81 38 2e ba 4e db 32 3c
       0.019459534 -0.046586037 -0.0006645993 0.010916544
0002b0 0c da 31 bd 2d ea 2b 3d 1e 09 c8 3b db 0e ec bc
       -0.043420836 0.041971374 0.0061046025 -0.028815677
0002c0 cc c8 a8 bc 11 91 14 bc 86 23 44 3c fe a6 da bc
       -0.02060356 -0.00906779 0.01197136 -0.026690956
0002d0 a8 c4 06 bc 5d 77 e5 3c fd 1f 91 bc ad 40 a1 3c
       -0.008225597 0.028011018 -0.017715449 0.01968416
0002e0 1b 6f 4b 3c b0 21 d9 bc bb ec 46 3d 75 80 70 bc
       0.012416626 -0.026505321 0.048565608 -0.014679064
0002f0 6b 14 3b 3d 7f b3 26 3d b4 47 00 bc 95 d0 5b bc
       0.04567377 0.040698525 -0.007829595 -0.013416429
000300 21 a5 01 bd 91 74 aa bd cd ae b3 3d 8c 77 95 3c
       -0.03165162 -0.083230145 0.08773575 0.018245481
000310 07 3f 9d bd 57 fa dc 3c 0c ca 92 bc 03 a8 d9 3a
       -0.07678037 0.02697484 -0.01791861 0.0016605858
000320 f9 6e 88 3c 5a 22 e2 3c 63 69 79 3d a2 e7 ff bd
       0.016654478 0.02760427 0.06089152 -0.12495352
000330 f2 50 6f bc 5e 2b 68 bd de a3 1e 3b b0 73 1a bc
       -0.014606701 -0.056681983 0.002420656 -0.009426996
000340 74 34 a7 bc f3 3f eb bc a0 6d ec 3c 45 e5 4c bd
       -0.020410754 -0.028717017 0.028860867 -0.050023336
000350 5f a6 ba bc 67 42 38 bc 63 1b 8f 3d ee ca c8 bb
       -0.02278441 -0.0112463 0.069876455 -0.0061277067
000360 45 a7 a8 3a 42 f9 10 3c 6c 5c 1b 3b bf 43 28 bd
       0.0012867233 0.00884849 0.002370621 -0.041080233
000370 cb 75 6c bd 15 0e 1f bd c5 75 07 3c e7 7f 56 bd
       -0.057729524 -0.03883179 0.008267825 -0.05236807
000380 25 a6 18 3d e2 7e e2 3c be ab 34 3d 27 3c 18 3d
       0.037267823 0.027648393 0.0441091 0.03716674
000390 b2 0d 39 3c 84 a3 99 3c a5 6d 21 bc 51 1b 9c 3d
       0.011294769 0.018754728 -0.009852801 0.07622398
0003a0 e2 7e 31 bc 3b 24 4a 3b 5e 9e 54 3b 56 07 65 3c
       -0.010833474 0.003084435 0.0032443027 0.0139788
0003b0 63 99 0b 3d 6c bb f5 3c 9e 7b 47 3d 55 e5 a0 3c
       0.034081828 0.029996596 0.048701875 0.019640604
0003c0 7d 42 4a 3d 80 32 8d 3d ae 8a 29 3d 87 a7 97 bb
       0.049379814 0.06894398 0.04139202 -0.004628125
0003d0 f1 37 b2 bc b3 05 99 bc 2c fa 98 3c 18 fd 1d 3d
       -0.02175519 -0.018679475 0.018673979 0.038571447
0003e0 01 51 86 bc 3c d2 32 3d 4d e3 2a 3b eb 12 52 bc
       -0.016396048 0.043657526 0.0026075423 -0.012821893
0003f0 93 09 53 3d 46 42 b1 39 05 15 bd 3c 5d 94 a5 3b
       0.051522803 0.00033809448 0.023081312 0.0050530867

net.0.linear.bias f4 [256]
000000 e1 3b 92 bb f7 c1 1a bb a7 18 4f bb 5c dc 22 bc
       -0.0044627045 -0.0023614147 -0.0031600387 -0.009940233
000010 76 80 ca 3a 90 df 2e bd ed 5c da bb 0a 5b ff bc
       0.0015449661 -0.042693675 -0.0066639096 -0.03117134
000020 1b 06 11 bc fe e7 a4 bd df ff 0d bc 33 e0 24 bc
       -0.008851553 -0.080520615 -0.008666961 -0.010063219
000030 9d 8e b0 3a af ba 08 bc 98 4b 66 bc 81 ad 77 bd
       0.0013470236 -0.00834529 -0.014056109 -0.0604682
000040 60 20 ca bb 41 36 4d bc db 4d a7 bc 36 0b 72 bb
       -0.00616841 -0.012525142 -0.020422867 -0.0036932952
000050 04 51 83 bb 1d 9a 79 bc 6f 04 e2 3b c1 9c 83 bc
       -0.0040074605 -0.015234497 0.006897501 -0.016065957
000060 16 8c 9b bc e1 5f bb 3b 88 cf 84 bb d9 44 db ba
       -0.018987697 0.0057182168 -0.00405306 -0.0016728892
000070 a0 aa 0d bc 07 ba 0a bc d5 b7 83 bb 5d 2e e5 ba
       -0.008646637 -0.008467204 -0.004019717 -0.0017485131
000080 5e 0f 81 bd 07 90 51 bd e8 ca 8f bb a5 48 80 bb
       -0.06301759 -0.051162746 -0.004388202 -0.00391491
000090 63 6c 5e bc f1 e1 04 bc 58 ec 85 3b e4 a2 bb ba
       -0.013575646 -0.008110509 0.0040870123 -0.0014315513
0000a0 70 9a e7 ba b2 4d 25 3b 1b 44 38 bd bf dc 58 bc
       -0.0017669927 0.0025223312 -0.044986825 -0.013236224
0000b0 ee 0d 10 bc bb dd 03 bc 4c f8 cb 3b eb 57 83 bb
       -0.008792384 -0.00804847 0.0062246677 -0.0040082834
0000c0 e8 a0 27 bd 4c d1 bb bb 43 ab 0a bb bd c9 2a b9
       -0.040924937 -0.0057317372 -0.002115921 -0.00016287617
0000d0 ad a5 81 3b 7a f8 e6 bb 5d 16 06 bc ac d3 0c bc
       0.0039565177 -0.0070486637 -0.008184043 -0.008595388
0000e0 3b 17 9a bb ad f6 c7 3a 26 a6 01 bc 06 3d 18 bb
       -0.0047024763 0.001525601 -0.007913148 -0.0023229732
0000f0 a6 c1 16 3b 81 54 1e bc 59 1b c2 3b be 72 34 ba
       0.0023003607 -0.009663702 0.0059236703 -0.0006883553
000100 ed ca ba bb e8 12 9a 3b 1e c7 6a bb fa 4b 24 bd
       -0.00570046 0.004701961 -0.003582425 -0.04011152
000110 1d 32 00 bc f5 87 6d bb 5b a7 a1 bb 68 7e e6 3a
       -0.007824448 -0.0036244367 -0.0049332804 0.001758528
000120 20 f9 9f ba 39 79 a0 bb 4d 44 bd 38 b1 97 7f bb
       -0.0012204982 -0.0048972634 9.024944e-05 -0.0039000327
000130 be ab 8c 3b 73 90 a0 bc f6 c3 58 39 fb 0d fa 39
       0.004292934 -0.019600129 0.00020672366 0.00047694132
000140 ac 6b e3 bc 27 f4 c0 bb d4 bd 31 b9 7e 11 f5 bb
       -0.027761303 -0.00588848 -0.00016950752 -0.007478892
000150 4a c1 74 bb 2a ef 9a ba b4 b6 be bb 21 17 ab 3a
       -0.0037346655 -0.0011820544 -0.0058201198 0.0013053158
000160 b5 d6 9a bb f0 f2 04 3b 60 96 4c bc b3 de 43 3a
       -0.004725302 0.0020286404 -0.012487024 0.00074718444
000170 4d 4f 51 bb b6 01 c5 bb a0 71 4e 3b 15 5a 0b bc
       -0.0031938136 -0.006012167 0.0031500831 -0.008505364
000180 a5 d6 8f bc 79 d9 d3 ba 9d 2f 3c bc 8a ac b6 bb
       -0.017558405 -0.0016162834 -0.011485961 -0.0055747675
000190 10 fd a5 bc 89 a0 27 bb d9 dd df bb 61 1d fc 3a
       -0.020262271 -0.0025577864 -0.006831866 0.001923483
0001a0 89 85 9c bc b1 7c 33 b9 cc a9 b3 bc 2f 22 94 bc
       -0.019106643 -0.00017117221 -0.021931551 -0.018082706
0001b0 30 e0 90 bb de ad 32 3a 52 ad c5 3a 52 45 0d bb
       -0.0044212565 0.00068160694 0.0015081561 -0.002155621
0001c0 61 e3 28 ba a7 ba f4 bb 7c 9a fb ba 41 68 d9 ba
       -0.00064425735 -0.0074685398 -0.001919582 -0.0016586856
0001d0 5b d7 10 bd 04 a0 d4 bb 6a 45 2c bc de 3a 75 39
       -0.03536163 -0.006488802 -0.0105145965 0.0002338695
0001e0 10 a1 df bb 2b 5f a4 bc f0 34 bb bc 3e 1f 49 3b
       -0.00682462 -0.02006491 -0.022852391 0.0030688788
0001f0 8f 71 21 bc 29 a2 88 bb 9e c8 db bc 86 ee 61 bc
       -0.009853735 -0.0041697216 -0.02682906 -0.013789779
000200 7e df 1d bb 88 ff 01 bb 72 df f4 bb fe f5 80 3b
       -0.002408951 -0.0019836146 -0.007472926 0.0039355746
000210 f3 87 ca bb aa d9 04 3b 5b f3 84 bd 87 47 4a bb
       -0.006180757 0.002027134 -0.06491729 -0.0030865388
000220 60 b1 2e bc 86 0f 35 bc 70 80 af ba b0 ae f6 bb
       -0.010662407 -0.011051064 -0.0013389718 -0.0075281486
000230 a0 27 81 38 6f ef b5 bc 25 1a cf bc 6b 1b b3 bc
       6.15858e-05 -0.022208897 -0.025281021 -0.02186366
000240 35 3e 92 b9 ef e9 a0 3b 49 27 cb bc 09 da d6 bb
       -0.00027893638 0.0049106996 -0.024799006 -0.0065567535
000250 d5 60 f9 ba ae 94 c8 bb 31 18 f1 bb cc 51 0c 3b
       -0.001902605 -0.0061212396 -0.00735762 0.002141106
000260 49 ed 16 bc c6 82 8d ba b3 fa 12 bb 63 a0 cd bc
       -0.009211847 -0.001079642 -0.002242726 -0.025100892
000270 4b 10 f8 bc c4 a9 60 bd 10 09 c8 bb 96 27 be 3a
       -0.030281207 -0.0548494 -0.006104596 0.0014507647
000280 4a 3c cd b9 8d 09 2a ba 63 38 25 bb d7 6d 0c bc
       -0.00039145566 -0.00064864085 -0.002521061 -0.00857111
000290 da 89 81 bb 93 04 4e ba 13 bf 73 3b 0d 7a e3 bb
       -0.0039532008 -0.0007858958 0.0037192747 -0.00694204
0002a0 71 7a a3 bb 6b 31 80 bc c6 03 a3 ba 7c 1a 5b bc
       -0.0049889614 -0.015648564 -0.0012437038 -0.013373014
0002b0 88 c6 56 3a 6c 31 df b8 40 56 eb bb 54 81 12 bc
       0.00081930356 -0.00010642674 -0.0071819127 -0.008941967
0002c0 a0 e7 83 3b 65 cc 80 bc cd 63 51 3a e9 67 37 bb
       0.0040254146 -0.015722463 0.0007987589 -0.002798552
0002d0 9a 5a 73 3a 17 d3 59 ba 0d 30 0f bc 3a 5e 9f bb
       0.0009283215 -0.0008309348 -0.008739484 -0.0048635276
0002e0 a3 b6 c4 3b 2e 55 1c bd 24 e2 a9 bb b0 61 5c bc
       0.0060032173 -0.03816717 -0.0051844288 -0.013451025
0002f0 35 49 b9 3a ec bf 7d ba 24 4b 46 bc c7 dc a8 b9
       0.0014136197 -0.00096797827 -0.012102876 -0.0003220795
000300 35 d3 42 bc 4b 2c 0f bb 13 43 fe ba 37 62 56 bb
       -0.011891176 -0.002184647 -0.0019398652 -0.003271235
000310 da 40 f7 bb 78 b0 96 bc 1e 15 d7 bb e3 95 3a 3c
       -0.0075455727 -0.018394694 -0.0065637967 0.011388275
000320 b3 2d be bb b6 99 4f 3b 87 62 dd bb 7d f7 04 3b
       -0.0058037876 0.0031677312 -0.00675613 0.0020289116
000330 17 96 03 bd fd 06 88 39 a6 c1 6c bc 62 85 8a 3b
       -0.03212556 0.00025945148 -0.014450466 0.0042273263
000340 71 b9 98 bc ad c4 8c ba 3f 1b 24 ba c7 c9 9c 3a
       -0.018643113 -0.0010739766 -0.00062601635 0.001196199
000350 da 46 15 bd 02 35 89 bd ed 6e 69 bc 2d ff 8a bb
       -0.036444522 -0.066995636 -0.014247638 -0.004241845
000360 d3 9e 4e bd 08 1c 06 bb 63 79 30 bd e9 8e b2 ba
       -0.050444435 -0.0020463485 -0.043084513 -0.0013622913
000370 96 86 cb bb ed 6a 6f bb 4f d8 b0 bb 2b db cc ba
       -0.0062111123 -0.0036532239 -0.0053968797 -0.0015629282
000380 4e 9b 0e b9 b4 a7 2f bc a2 28 f0 bb 16 e8 98 bc
       -0.00013600031 -0.010721136 -0.0073290626 -0.018665355
000390 f2 33 0b bb 46 a1 85 bb 70 6e 46 3b 6b b5 4b bd
       -0.0021240679 -0.004078063 0.0030278228 -0.04973356
0003a0 c9 c1 2d bd a0 f7 cd 3a 80 39 0e bb 2a ce 8f bb
       -0.042421136 0.0015714057 -0.0021701753 -0.0043885903
0003b0 f2 dc 5c 3b 42 75 b0 ba 80 77 14 bd d0 74 1b bc
       0.003370103 -0.001346268 -0.036246777 -0.0094882995
0003c0 d5 37 4d bb fb 32 77 bb ef 85 e3 bb b5 34 0b bc
       -0.0031313796 -0.0037719596 -0.0069434564 -0.008496453
0003d0 54 c1 24 bc 3f bc 11 ba d3 a0 2d bc dc 15 05 39
       -0.010055859 -0.0005559362 -0.0105974255 0.00012692012
0003e0 7b 50 fc bb 7e da c2 bc 7b 62 97 bb 6f 3c ec 3b
       -0.0077000237 -0.023785826 -0.004619894 0.0072093527
0003f0 7e b4 ff ba 45 58 53 3c fb 2a 0f bc dd ff 0b bc
       -0.0019508747 0.012899463 -0.008738275 -0.008544889

net.1.linear.weight f4 [256, 256]
000000 14 99 04 bd 5e 95 63 bd 4e 84 10 3d 70 10 5c bd
       -0.03237255 -0.05556237 0.035282426 -0.053726614
000010 d7 1c ab bc fd 62 07 be da 43 fe bd a0 3f 31 bd
       -0.020887775 -0.13221355 -0.124152854 -0.04327357
000020 a5 0c bd bd 52 cb 23 3d 95 7d 69 bd bd c0 5b bd
       -0.092309274 0.039988823 -0.05700453 -0.053650606
000030 60 05 a5 bc e3 6d d0 bd 2f 50 72 3c fd c9 34 3c
       -0.020144165 -0.10177209 0.014789625 0.011034486
000040 88 20 b8 3d 10 c0 37 3d 63 cc bb bd a5 cb 03 3e
       0.0899058 0.0448609 -0.09169843 0.12870653
000050 2e f9 d7 bd 66 b8 08 be 62 40 14 3e 50 45 fa bd
       -0.10545574 -0.13351592 0.14477685 -0.122202516
000060 72 a8 05 bd 4a eb 33 be 5a 00 9d 3c 59 dc 81 bd
       -0.032631345 -0.17570224 0.019165207 -0.06340856
000070 77 05 45 3d 0b 09 1f 3e a0 e2 b1 bc d7 fb 50 bc
       0.048100915 0.15530793 -0.021714509 -0.012755356
000080 dc b2 47 3b b5 05 5a be 49 ce f5 bd ea 8d e0 3d
       0.0030471599 -0.2129124 -0.120022364 0.10964568
000090 3d cd 2b 3d 88 97 61 bc 50 93 5b bb a1 f1 54 3d
       0.041943777 -0.013769038 -0.0033504553 0.051988248
0000a0 c0 dd 71 3d 5a 41 00 3c af 84 dc 3c 9d 1e 87 3d
       0.059049368 0.007828081 0.026918737 0.06597636
0000b0 89 17 e2 3c 5d 02 c4 bd 91 fc 6d 3d 52 67 95 bd
       0.027599113 -0.09570763 0.058102194 -0.072950974
0000c0 a9 7a 99 bc 55 72 7f bd df 79 b5 3d 97 80 13 3e
       -0.018735247 -0.062364895 0.08861136 0.14404522
0000d0 c9 b7 7d 3c fe e9 03 be 1e 44 78 bc cc 88 06 bc
       0.015485712 -0.1288223 -0.015152959 -0.008211326
0000e0 92 c7 dd bd fa 57 d2 3d 26 94 b9 bc 46 80 ec 3c
       -0.10829081 0.102706864 -0.02265365 0.02886976
0000f0 73 8f 11 be 4e cd 23 3e 60 7c 36 3d cf 60 a1 bd
       -0.14214878 0.15996286 0.044552207 -0.07879793
000100 25 09 1d 3d 65 33 07 3e 22 6c eb bc bc 8f 43 3d
       0.0383388 0.13203199 -0.028738085 0.047744498
000110 69 82 2e bd c9 4e 04 be 09 41 21 bc 13 e8 9d bd
       -0.042604838 -0.12920679 -0.009842166 -0.0771028
000120 6f 53 12 3e 2f dd 9b bd c4 9f 23 bd b6 87 a1 3d
       0.1428964 -0.07610547 -0.039947286 0.07887213
000130 a0 94 60 3d 88 7b 22 be c0 f7 12 be 4a 22 ae bd
       0.05482924 -0.15867436 -0.14352322 -0.08502634
000140 61 67 38 bc b5 8e 5f 3d 05 3a 49 bd 08 55 ee 3d
       -0.011255116 0.054579455 -0.049127597 0.11637312
000150 cd a2 b0 bd cc 3e 46 be 4c 69 0c bd c4 3e 7e bd
       -0.08624802 -0.19359893 -0.034280106 -0.062071577
000160 a2 a9 60 bd b7 c9 d4 bd ab 6f 97 bd 18 5f fe bd
       -0.054849274 -0.103900366 -0.07394346 -0.124204814
000170 63 ee 8e bd 41 03 c8 bd e9 2e 18 bd 28 24 fe bd
       -0.069790624 -0.09766246 -0.037154112 -0.1240924
000180 09 e2 9b 3c 56 21 2f 3d 43 72 d1 3d 85 13 d7 bb
       0.01902868 0.0427564 0.10226872 -0.006563606
000190 37 20 66 3d 21 8d 88 bd ed d2 12 be e4 b6 08 be
       0.056183066 -0.06667543 -0.14338274 -0.13351017
0001a0 f0 43 08 be 00 8b 66 bc 6f 3b 3c 3e 8c 38 39 3d
       -0.13307166 -0.014071226 0.18382047 0.045219943
0001b0 c4 bf 62 3d 59 ff 27 3e b3 29 26 3e f6 4b 01 bd
       0.055358663 0.16406001 0.16226844 -0.031566583
0001c0 aa 3b a1 bd cc 10 62 be f8 d2 61 3d bc e2 23 3d
       -0.07872708 -0.2207672 0.055132836 0.040011153
0001d0 21 e5 eb bd cf 15 08 bd ae ff f7 bd 5c f7 9b bd
       -0.11518312 -0.033223923 -0.12109314 -0.076155394
0001e0 1c 1e 29 be 96 c1 51 be a3 4c f8 3c b9 17 c2 3c
       -0.16515392 -0.20484003 0.03030998 0.023692952
0001f0 9b fe a4 3d 98 12 b9 bd e3 02 a7 3d a6 2a aa 3a
       0.08056375 -0.090367496 0.081548475 0.0012982681
000200 c3 da ed 3c b3 c7 90 bd 2d 95 29 3c 46 76 a0 3d
       0.029034978 -0.070693396 0.010350508 0.07835059
000210 e1 96 f6 bc 98 45 28 bd 21 ab cd bd f1 15 3d bc
       -0.030101242 -0.041081995 -0.10042406 -0.011540876
000220 00 35 c0 3d 97 90 38 3d 5d 17 a3 3c c0 f1 c0 3d
       0.09385109 0.045059767 0.019908601 0.0942111
000230 d6 04 4d 3d 75 dd 4c bd 5a 24 96 bd 2a 87 b3 bd
       0.05005344 -0.050015885 -0.07331152 -0.08766015
000240 e3 78 8a 3e db d3 90 3d 5b 68 9f bd a8 e3 97 bd
       0.27045354 0.07071658 -0.07783576 -0.07416469
000250 85 75 c7 3d cc dc 8d 3d 50 6a 87 3d e2 8e a6 bd
       0.09739212 0.06926879 0.066120744 -0.081327215
000260 80 b1 d5 bd ce 22 96 bd 62 50 d2 bc ca c8 f9 bc
       -0.10434246 -0.07330857 -0.025673095 -0.030491251
000270 d2 5b 47 bc 50 01 8e bb 66 56 bf bd 16 bd 38 bd
       -0.012167888 -0.0043336526 -0.09342651 -0.0451022
000280 4a 1e fc 3c 72 67 84 bd c6 8b e8 bb ac e4 8d bb
       0.030776162 -0.06465043 -0.0070967404 -0.0043302383
000290 da 74 bf 3d 27 36 2a 3d 17 b4 29 3d 47 6f bb 3d
       0.093484595 0.04155555 0.041431513 0.09152084
0002a0 a6 18 5c bd f4 fd 39 bc 0a 7b ba 3c b1 91 87 3d
       -0.053734444 -0.011352051 0.022763748 0.06619585
0002b0 6a 18 cc 3d d3 d4 65 3d 0a 19 20 3d ee 1c 21 bd
       0.09965594 0.056111168 0.03908638 -0.03933423
0002c0 3c 28 2c be cd b7 69 3e dc a3 09 bd b3 c1 ec 3c
       -0.16812223 0.2282402 -0.033603534 0.028900957
0002d0 3f d5 2f be 94 b5 26 bd 7a ec 9e 3d 9f 21 58 3d
       -0.1717119 -0.04070051 0.07759948 0.05276644
0002e0 22 80 36 3e b2 f5 90 bc 31 d8 df bb c6 e9 ac 3d
       0.17822316 -0.017695282 -0.006831192 0.08443026
0002f0 87 ac 90 3d b9 f4 3f 3e 58 fb 80 bd e2 2f 9f bd
       0.07064157 0.18745698 -0.0629794 -0.07772805
000300 12 e2 c1 3d c6 3d 45 bd b7 cc 0a bd 81 c2 98 3c
       0.094669476 -0.048154615 -0.033886638 0.018647434
000310 c0 f1 af 3d fc cc c1 3c 71 e3 7a 3d c2 9d b7 3d
       0.08591032 0.023657314 0.06125206 0.08965637
000320 58 5f d7 ba 8e 1f 76 bd 54 3e 92 bd b4 ff 0a 3d
       -0.0016431613 -0.060088687 -0.071407944 0.033935264
000330 8a 8b 41 3d a5 2d 9e 3d 5f bd a0 3c a5 05 c6 3d
       0.047252215 0.0772355 0.01962155 0.09669045
000340 65 9f 07 3d 02 81 92 3d db 14 cf bd 51 96 62 3e
       0.033110995 0.071535125 -0.101114 0.22127654
000350 63 9c 8e bd 8b 69 5a bd b2 51 08 3e 52 8d 97 bd
       -0.06963422 -0.05332331 0.13312414 -0.074000016
000360 04 df 9b 3d c1 ca f2 3c ba 5e e1 bc 35 77 50 bd
       0.07610896 0.029637696 -0.02751099 -0.050894935
000370 72 60 82 3b 8f df 5a bd fc 67 18 3c e7 ee 2a 3e
       0.0039787823 -0.05343586 0.009302136 0.16692697
000380 4a fd d9 3c 8e cd c0 3d 5c ea 29 3c 71 28 b3 bd
       0.026610035 0.094142064 0.010370817 -0.08747948
000390 07 e8 41 bd f5 fc 63 bc ec 9f 40 3d 2a aa 99 bd
       -0.04734042 -0.01391529 0.047027513 -0.07503159
0003a0 5e 57 83 3c 11 f9 e2 bc 44 f9 49 3e aa 1b 53 bd
       0.01603287 -0.027706655 0.19723994 -0.051540054
0003b0 73 cb 0c be 70 b0 bd bd e6 10 af bd 2b 95 6e 3d
       -0.13749485 -0.092621684 -0.08548145 0.058247726
0003c0 d1 8b 9d 3c 6b cc 8b bc 08 8c 22 3d 27 a6 1b 3d
       0.019231709 -0.017065248 0.039684325 0.038000252
0003d0 10 ab 97 3d ae 6d ea bb 96 20 95 bd b5 23 9e bd
       0.074056745 -0.007154188 -0.07281606 -0.07721654
0003e0 de 50 9e 3d b2 32 43 be fe a9 a0 3c 26 b6 11 3e
       0.07730268 -0.19062307 0.019612309 0.1422964
0003f0 05 1d 4b 3d c7 24 82 3d e9 27 a0 bd e7 6f 42 be
       0.049588222 0.06354671 -0.07820112 -0.18988

net.1.linear.bias f4 [256]
000000 3b eb 06 bd 88 93 7b bc c3 2a 7f bc 00 78 33 3b
       -0.032939177 -0.015354998 -0.01557416 0.0027384758
000010 43 b6 b2 bc 4a 96 27 3c da 22 b1 3c 93 11 e1 bb
       -0.021815425 0.010228703 0.021623064 -0.00686855
000020 32 31 0a bd 69 35 a7 bc 7e 53 94 bc 02 8a a8 ba
       -0.033738323 -0.02041121 -0.018106218 -0.0012858512
000030 e5 59 ca 3c 1b 94 08 bd 2e d9 b8 3b 31 a7 ed 3b
       0.024701068 -0.03334437 0.005641124 0.007252597
000040 4a 2d e0 bc d4 f5 88 bc e5 62 fc 3b af 83 1f bd
       -0.027365346 -0.016718782 0.007702219 -0.038943943
000050 9e c6 43 3d 0d d0 2f 3b 84 42 b1 bc c4 16 c4 ba
       0.047796838 0.0026826889 -0.021638162 -0.0014960398
000060 33 81 1f bd b9 bb 01 3c d9 29 81 bc fa 15 12 bc
       -0.038941573 0.007918292 -0.015767025 -0.008916372
000070 bf 11 0c bd 5a 32 4e bc 82 9f 85 bc 9f 36 42 bd
       -0.03419661 -0.012585247 -0.01631141 -0.047415372
000080 f7 9f 7f bd 71 92 26 bd 51 34 75 3b fa 2c 8f bc
       -0.062408414 -0.040667 0.0037415216 -0.017477501
000090 9b 72 ed bb 57 16 fe bc 5a c6 a5 bb 28 37 8f bd
       -0.007246328 -0.031016512 -0.0050590457 -0.06992942
0000a0 6d e5 9b bb ff c6 84 bc c7 8e 56 bb de ab b7 3c
       -0.0047575743 -0.01620817 -0.003273891 0.02242082
0000b0 59 a5 bf bb ab 01 ac ba ae cf ed bc 52 60 75 bc
       -0.0058485684 -0.0013123056 -0.029029693 -0.014976578
0000c0 ae 1b 7d bb 82 58 6c bc ff 10 67 3c 4d 3e 94 bc
       -0.0038621235 -0.014425399 0.014103173 -0.018096114
0000d0 09 f7 b3 bc 25 d2 ad 3c 26 59 10 bd e8 97 c7 37
       -0.021968381 0.021218369 -0.03524127 2.3793385e-05
0000e0 fb a9 86 3c 7f ef a9 3c 06 98 2c 3b a0 71 b5 bc
       0.016438475 0.020744083 0.002633573 -0.022148907
0000f0 aa 78 c3 bb 4d 2a 98 bc 8e 9c fe bc 7f 86 be bb
       -0.005965312 -0.018574858 -0.03108051 -0.005814373
000100 a7 cb 12 bc 4e dd c5 bc 3d 35 55 3c de 6c c6 3b
       -0.008959687 -0.024153378 0.013013181 0.0060554584
000110 9c ee c2 3b fa 2e 4c bd 8b 45 99 3c 79 67 b5 3b
       0.0059488546 -0.049849488 0.018709918 0.0055360165
000120 d6 3c 74 3c 17 06 4d bd 54 fb ee bc fd ec 7c bc
       0.014907083 -0.050054636 -0.029172577 -0.015437362
000130 d5 ea 13 bd 2a a6 ca bc ce 05 58 3c ba 56 d4 3b
       -0.036112625 -0.024737436 0.013184978 0.006480065
000140 b0 bb f3 bb 9b e4 e6 bc 5a 5b 10 3c c9 eb 68 3c
       -0.0074381456 -0.02818518 0.008810842 0.014216372
000150 d9 e2 3d bc 3a 7f ee bb 1b e6 f8 bc 5e 48 03 bd
       -0.011589729 -0.00727835 -0.03038316 -0.032051437
000160 91 ae fb bc 76 48 05 bd 20 72 d5 3c 6d 3a af ba
       -0.030722888 -0.032539807 0.026055396 -0.0013368853
000170 8a 23 9f bc ce 82 3b bd 22 eb ff bc 32 35 80 bd
       -0.019426126 -0.045779042 -0.03124005 -0.06260146
000180 aa 65 f2 3b 6f 29 aa 3c 83 20 e2 bc 55 da b2 bb
       0.007397373 0.02077171 -0.027603393 -0.005458156
000190 c1 6d 3e 3c 5f e5 0a bd ee d9 82 bc 8c c8 57 bc
       0.011622847 -0.03391015 -0.015973058 -0.013170373
0001a0 d9 d7 54 3c c1 73 ff 3c 34 57 75 bd de 67 bc bb
       0.012990915 0.031183125 -0.059897617 -0.0057496866
0001b0 41 97 c4 3b 40 47 12 bd a5 5c cf bc 96 0e bb 3c
       0.005999476 -0.03571248 -0.025312731 0.022834104
0001c0 c3 a3 75 3b dd 86 13 bc a3 38 05 3d 8b 41 03 bc
       0.0037481643 -0.009004322 0.032524716 -0.008011232
0001d0 e3 c3 e8 bb 93 93 5f bc 87 66 97 bc 57 8a eb bc
       -0.0071034296 -0.013646024 -0.018481506 -0.028752489
0001e0 fe 71 cc b7 2c ce 41 bc 71 45 dd 3c 53 4b 40 bc
       -2.4371777e-05 -0.01182894 0.027010651 -0.011736709
0001f0 a3 02 3c bd 39 ee f8 bc 6b 79 fb bb 49 46 45 3c
       -0.045900952 -0.03038703 -0.0076743863 0.012040683
000200 c3 57 e4 b8 94 0d 91 3b 53 cf be bc 37 21 d7 bc
       -0.00010888234 0.0044266675 -0.02329222 -0.026260955
000210 c5 a3 eb bc 9c 08 87 3c 6f 33 9f 3c 9e 3b 74 bc
       -0.028764615 0.016483597 0.019433705 -0.014906792
000220 a2 a9 88 3b ba 45 11 bc 99 9a 0c bb 48 4b c0 bc
       0.0041706124 -0.008866722 -0.0021454452 -0.023473397
000230 2b 2e 15 bd 9f c4 2d bc e8 9d 4c bb a4 8c 26 bd
       -0.036420982 -0.01060596 -0.003122205 -0.04066147
000240 55 89 f5 bc a5 b0 2b bc ff 29 66 3c 14 e4 f6 bc
       -0.029972712 -0.010479127 0.014048099 -0.030138053
000250 4f e2 48 3c 46 2b 2f bd f9 8f 0d bd 85 2c ef bc
       0.012260987 -0.04276588 -0.03456113 -0.029196033
000260 be 66 91 bc 0c 03 34 3c 9d 69 54 3c 43 e4 00 bd
       -0.017749187 0.010987055 0.012964633 -0.031467687
000270 11 66 e1 bb 50 18 e9 bc 9e f8 e7 3c e6 ab 54 bc
       -0.0068786223 -0.028453976 0.028316792 -0.012980437
000280 69 af 2d bb e5 b6 0c 3d 92 51 99 bc a4 46 7d bc
       -0.0026502258 0.03435411 -0.018715654 -0.015458737
000290 82 c5 0c bd 16 5b 28 3c 89 d8 ac bc 4a 65 0d bb
       -0.034368046 0.010275623 -0.021099346 -0.0021575266
0002a0 2b 4b b7 bb 15 4f 1c bd 1a e3 2f bd 55 7d 35 3c
       -0.0055936775 -0.038161356 -0.04294119 0.011077245
0002b0 92 9e c2 bb 07 b3 07 bd 2c 6f d7 bb 04 0e 81 3c
       -0.005939313 -0.03312972 -0.006574532 0.015753753
0002c0 e5 c9 3d bc 74 ac 99 3c bf 99 b1 3b 04 8e c6 bc
       -0.01158378 0.01875899 0.0054199393 -0.02423764
0002d0 6f 8c 34 bd 4c 8c bf bc ba 0c e2 bc 48 b0 0a 3b
       -0.04407924 -0.023382328 -0.02759396 0.00211622
0002e0 ad a9 61 bc cd 58 cf bb 10 8d 06 bd a4 0a f1 3b
       -0.013773364 -0.0063277245 -0.03284937 0.007356005
0002f0 53 e2 b9 3c dc b4 49 bc dd 95 0d bc 93 99 e2 39
       0.022690928 -0.012311187 -0.008641687 0.000432205
000300 9e 96 b1 bc 89 8d 9e bc 2a 54 dc 3c e1 66 4f 3b
       -0.021678265 -0.019354599 0.026895601 0.0031647014
000310 26 5d 93 3c ee 13 a3 3c c9 aa 5f bb a2 18 35 bc
       0.017988753 0.019906964 -0.0034128895 -0.011053236
000320 1d c7 ba 3b 0a 94 00 bc 7d 28 93 bc 2e 7f d6 3c
       0.0057000057 -0.007847795 -0.017963642 0.02618369
000330 80 e7 f1 bc 30 9a bf bc 7a bf 5f bc 88 69 6e bc
       -0.029529333 -0.023388952 -0.013656491 -0.014551528
000340 e1 e0 b6 3b 4b bd 81 3c 08 a8 c4 3c de 12 d8 3c
       0.005581007 0.015837332 0.024005905 0.026376184
000350 75 fb 28 bd a3 cf 69 bc e5 97 8a bc 68 9d 9a bc
       -0.041255433 -0.014270696 -0.016918132 -0.018873885
000360 62 42 21 bd 5c 5f ae 3c a5 22 67 bc 82 5a b9 bc
       -0.03936995 0.021285705 -0.014107381 -0.022626165
000370 b4 87 5f bc 31 31 96 bc e8 53 e3 bb c5 4d 04 ba
       -0.013643194 -0.018334003 -0.0069374926 -0.0005046989
000380 25 7f 00 3a 81 52 5d bc 37 0f 80 3c d9 af b1 bc
       0.00049017585 -0.01350844 0.015632255 -0.021690296
000390 ab 5c 9c bc 0f f2 97 bc 68 96 b0 bc d3 d2 aa bc
       -0.019087156 -0.01854804 -0.021556094 -0.020852482
0003a0 40 da c9 bb c2 0e a9 bb 0e 85 59 bb b1 f3 42 bd
       -0.0061600506 -0.00515923 -0.003319088 -0.047595683
0003b0 98 d1 df bc 8d b6 d6 3c 3b 2e 95 bc 44 66 9e bc
       -0.027321622 0.026210094 -0.018210521 -0.019335873
0003c0 04 c3 ea b9 84 cc 18 bd ce 5e 83 3b b5 84 38 3b
       -0.00044777256 -0.037304416 0.0040091043 0.0028155271
0003d0 11 0f 76 bc 8c f7 01 3d 39 1b 44 bc 24 17 9e bb
       -0.015018241 0.03173022 -0.011969381 -0.004824536
0003e0 22 2d cc 3b 08 57 d0 bc 4e b5 5a 3c fd e2 5f 3c
       0.006230966 -0.025432125 0.0133488905 0.013664958
0003f0 a6 fa 81 bc 61 52 b5 3b e3 b9 41 bc 01 2a eb 3c
       -0.015866589 0.005533502 -0.011824104 0.028706552

net.2.linear.weight f4 [256, 256]
000000 ad 62 3c bd 7a f3 8a 3c 65 ac b8 3d a1 6f a1 bd
       -0.045992542 0.016961802 0.09017257 -0.0788262
000010 f1 ed 42 3e 3f 0b a6 3c ac ae 9c bc ad 45 f7 bd
       0.1903608 0.020269034 -0.019126259 -0.120738365
000020 2d eb f4 bc 7a d5 3b bc 0c d0 c4 bd 40 e5 49 3d
       -0.029897297 -0.011464471 -0.09609994 0.049290895
000030 3d 48 11 be 05 67 6a 3e 3e 5f ab 3d 61 c9 ea bd
       -0.14187713 0.22890861 0.083677754 -0.11464191
000040 4b 83 83 bd a9 62 bf bd 41 c5 3c 3e d4 aa 1a bd
       -0.064215265 -0.0934499 0.18434621 -0.03776057
000050 23 d8 14 be a2 df 02 3d 2e 16 2b bd 14 40 57 bd
       -0.14535575 0.031951554 -0.0417692 -0.052551344
000060 07 45 8f 3d 0a 6b 96 bd 79 95 53 bc 5a 17 4d b9
       0.06995588 -0.07344635 -0.012914055 -0.00019559023
000070 44 0e 7a bc f8 6a c9 bd 7c 92 ce 3d de 78 8c bd
       -0.01526219 -0.09834856 0.100865334 -0.06858991
000080 2c 71 0f 3d 6c db 26 3e 42 5b e4 bd e2 8c d0 bb
       0.03502004 0.1629464 -0.111502185 -0.006364451
000090 9f 98 e1 3b 9d d6 3e be d8 e6 82 3b 2b 55 9b bd
       0.006884649 -0.18636556 0.003994804 -0.07584604
0000a0 9a 7b 25 be 70 d8 20 bc fc 5f 4f 3d a9 26 97 3c
       -0.16160432 -0.009817228 0.050628647 0.018451052
0000b0 f0 3b 2a bc a9 7b 67 3e fe 66 0a 3e 90 a0 25 3e
       -0.010390267 0.22605766 0.13515851 0.16174531
0000c0 75 78 87 3e 45 49 5f bd 16 20 94 3d e7 e6 1f bd
       0.2645909 -0.054513235 0.072326824 -0.039038565
0000d0 86 0b 1a 3e db c4 e5 bd 82 f4 b2 3d 41 f3 6b bd
       0.15043458 -0.11219188 0.087380424 -0.057605032
0000e0 bc f2 88 bd c7 92 d6 3d f4 02 1f 3e 21 ec 3a be
       -0.06686923 0.10477214 0.1552847 -0.18254139
0000f0 97 a9 9d 3d 32 aa 99 bd 5a fc 84 bd 48 21 8e bc
       0.07698362 -0.07503165 -0.06493445 -0.017349854
000100 3d 98 17 bd fe 34 5c bd db 40 7c bd c7 ae ec 3d
       -0.03701042 -0.053761475 -0.06158529 0.11556774
000110 0b 6c 23 bc 53 a9 e1 bd 96 5d 79 3d c3 ce 44 3e
       -0.00997449 -0.11018624 0.060880266 0.19219498
000120 ab 3c 43 3d a9 5d 08 bd bf 7a 28 be 3e 1a a7 bc
       0.04766528 -0.033292446 -0.16453074 -0.020398255
000130 d1 d1 43 bd b2 c9 a7 bd 56 22 b5 bd c6 1d 1f bd
       -0.04780752 -0.08192767 -0.0884444 -0.038846754
000140 62 89 05 be 7e df b3 bd 45 57 68 bd 7a 7e 86 3d
       -0.13040689 -0.08782862 -0.05672385 0.06567092
000150 39 33 56 3d f2 a3 9e bd bf f4 8f bd 3b 88 d7 bd
       0.052294943 -0.07746114 -0.070291035 -0.10524031
000160 c6 88 a6 3d 8a ff f0 bd d7 f2 15 be 7b f4 bd bc
       0.08131556 -0.1176749 -0.14643417 -0.023187866
000170 7e 24 0e bd 71 33 66 bd 59 26 3c 3b 68 34 bb bb
       -0.03470277 -0.056201402 0.002870938 -0.0057130344
000180 08 b4 d0 3d ab 48 f8 bd bb 33 c0 bd 1d 4a 37 be
       0.10190588 -0.12123235 -0.09384867 -0.17899366
000190 17 ae 54 bc 14 fd 85 bc e1 15 d4 bd 21 fe a6 bc
       -0.012980959 -0.016356029 -0.103557356 -0.02038485
0001a0 46 71 ab bd 1f 4b 12 bd 49 9e 9e bd 2d 5e 26 bd
       -0.083712146 -0.035716172 -0.07745034 -0.040617157
0001b0 83 24 8a 3c 4c 53 15 3d 43 87 cd 3c 18 5c d1 bd
       0.016863113 0.03645639 0.025088912 -0.102226436
0001c0 d2 f4 2d bc f8 24 aa 3c 4b 3d c8 bc 3c e7 77 3d
       -0.010617452 0.020769581 -0.02444329 0.060523257
0001d0 2e 4e e2 ba 8a 96 56 3d b5 6b f8 3d 35 fb d1 bd
       -0.0017265731 0.05238966 0.121299185 -0.10252992
0001e0 03 b1 ee 3d 36 0c d6 bd c8 ac f3 bd 30 95 40 3e
       0.11654856 -0.10451548 -0.1189819 0.1880691
0001f0 d7 27 19 3e b8 87 bd 3d 23 e0 d4 bd 68 82 66 bd
       0.14956604 0.09254402 -0.10394313 -0.05627671
000200 8d b5 1f 3d 7f 09 1e 3c e8 79 8c bd fe ff 32 3e
       0.0389915 0.009645819 -0.06859189 0.17480466
000210 d7 79 fe bc b0 a2 a4 3c cc a2 0d be 51 f9 03 3e
       -0.031063957 0.020097107 -0.13831633 0.12888075
000220 c8 ab 0f bd 96 f1 21 3e a5 ba ce 3d 29 b6 af bb
       -0.035075933 0.15814814 0.10094193 -0.0053622914
000230 d2 06 6b bd c2 15 1a 3d 60 99 6b 3d c5 17 20 be
       -0.05737955 0.037618406 0.057519317 -0.15634067
000240 89 87 8e 3c a4 65 24 bd a6 d1 e0 bd fc 98 87 3c
       0.017398613 -0.040135995 -0.10977487 0.01655244
000250 33 a0 0f be 2c 9c b1 bd fe 2c 47 3e da b1 3e 3e
       -0.14025955 -0.086723655 0.19450757 0.18622532
000260 cb e8 43 3d d0 65 a8 bd bc 2b 74 3d f7 00 da 3d
       0.04782943 -0.08222544 0.05961202 0.10644715
000270 e3 2a f4 b9 89 12 60 bd 20 d1 54 3e 6f ec 7e bc
       -0.0004657126 -0.054705177 0.207829 -0.0155593
000280 c4 2c 15 3d 61 3b 3b 3e 38 01 96 bd 4f 3d 21 3d
       0.036419645 0.1828437 -0.07324451 0.03936511
000290 dc e5 23 3e a0 aa 71 bd 59 1c 1d bd d0 30 82 bd
       0.16005653 -0.05900061 -0.038357113 -0.063569665
0002a0 18 bb 7d 3d ef ab 47 bd d3 64 c7 bc f6 8e aa 3a
       0.061946005 -0.048747953 -0.024340069 0.0013012576
0002b0 c2 e9 b7 3d 83 cf aa bd 2c 39 11 3d f8 23 2f 3d
       0.08980133 -0.08340361 0.035454914 0.04275891
0002c0 fb 3d e9 3d 07 86 bb 3d a9 e6 9c bd e7 3f db bc
       0.11388775 0.09156423 -0.076611824 -0.02676387
0002d0 13 f4 d0 bb 91 02 0e be e1 70 db bd 65 a6 56 3d
       -0.006376752 -0.13868167 -0.10714889 0.05240478
0002e0 a0 2e 50 3d 28 4a 4c bd 47 d8 0a 3d 9b 12 3b bc
       0.050825715 -0.04987541 0.033897664 -0.01141801
0002f0 9d f4 c9 3d 96 1e 9b 3c 60 f9 dc bc 34 33 13 bc
       0.098611094 0.018935483 -0.02697438 -0.008984376
000300 c1 2d 95 bd 4d c8 63 bc 62 2c 7a bc 71 07 6a 3d
       -0.072841175 -0.013902736 -0.015269371 0.057136003
000310 8b ed 8e bd b1 e6 18 3d 8d d6 4d bd 4f ac 56 3d
       -0.069789015 0.03732938 -0.05025344 0.05241042
000320 23 ec b4 3c 5d 35 82 bd e1 d0 28 3e 49 52 41 be
       0.022085255 -0.063578345 0.16485931 -0.18879046
000330 de 16 3e 3d 40 3c 83 bd 45 c9 96 3d 6e 3d cc bc
       0.046408527 -0.06407976 0.07362608 -0.024931636
000340 74 9f c0 3d 4b 21 b8 3d 9a 45 d4 3d 26 f3 0f 3c
       0.09405413 0.08990725 0.10364838 0.008785998
000350 3c ca 56 bd 0a 4a 98 bc 13 1f 45 3e ae 23 3f be
       -0.05243896 -0.018589992 0.19250135 -0.18665954
000360 8f 4c 4b be bd 6a 59 3d 8b f1 94 3d 12 ed 42 bd
       -0.19853424 0.05308031 0.07272633 -0.04758937
000370 4a 80 84 bd ea 30 c2 3d 5d 57 a0 bd 3c 73 1e bc
       -0.06469782 0.09481986 -0.07829163 -0.009671029
000380 41 55 28 3d e4 a4 91 bd 79 16 d5 bd 98 55 87 3d
       0.04109693 -0.071115285 -0.10404677 0.066081226
000390 41 73 1f bd d0 b7 e1 bc f1 66 0f bd 92 bf 22 3d
       -0.038928274 -0.027553469 -0.035010282 0.039733477
0003a0 5b b5 e7 bd ad b3 92 3d f0 3f aa bc 6d 79 0f 3e
       -0.11313888 0.07163177 -0.02078244 0.14011164
0003b0 b1 68 d1 bd 86 ed 0a be 2c fc 1b be 62 57 e6 3c
       -0.102250464 -0.1356717 -0.15232915 0.02811784
0003c0 43 5e 8a 3d db 67 23 3d b3 25 5a 3e 70 67 06 be
       0.0675626 0.039893966 0.21303444 -0.13125396
0003d0 fe ac 02 be 0b 4c 55 bc 3a fe 82 3d df 21 7e bd
       -0.12761304 -0.013018618 0.06396146 -0.06204402
0003e0 18 0c b5 3c 64 1a cf 3d aa de b2 3d 60 44 d6 3d
       0.022100493 0.101124555 0.08733876 0.1046226
0003f0 f1 68 11 bc 3b 5e 15 3e ca d5 f7 3c 41 47 b2 bd
       -0.008875118 0.14586727 0.03025331 -0.08704997

net.2.linear.bias f4 [256]
000000 63 b0 45 bb b5 35 b5 bc 20 48 7e bc a6 62 94 bc
       -0.003016495 -0.022120336 -0.015520126 -0.018113445
000010 37 be 3b 3c e0 93 84 3c 52 e3 37 3c 04 72 5d bc
       0.011458925 0.016183794 0.011223631 -0.013515953
000020 2e a1 65 bd 89 5d 87 3c 7e 44 aa 3a d6 1a 85 bc
       -0.056061916 0.016524093 0.0012990383 -0.016248148
000030 1b 67 42 bb 0f 1f 68 3b 0a e5 ab bc 81 9b 43 3c
       -0.0029663506 0.0035418903 -0.020983238 0.0119389305
000040 0c ae af bb 64 56 b0 3c 77 84 f0 bc ec 7a d4 b8
       -0.005361324 0.02152557 -0.02936004 -0.00010131844
000050 49 73 48 bc 01 99 86 bb 01 bd 48 3c 8e f1 f2 3a
       -0.012234517 -0.004107595 0.012252093 0.0018535124
000060 a1 c4 d5 bb 2c 03 30 bc 24 df 1f 3c ea f4 83 3c
       -0.006523684 -0.010742944 0.009757791 0.016107995
000070 fd 76 ea bc fd e6 a0 3c ab bb ed bc a8 a2 50 bb
       -0.028621191 0.019641394 -0.029020151 -0.0031835232
000080 7e 49 8e bc c4 7f 9c bc 1f ed 03 bd 45 03 43 3c
       -0.017369028 -0.019103892 -0.03220856 0.011902635
000090 6b 03 5c bc ba b1 ab bc fa 51 c5 3a c7 f3 10 bd
       -0.013428549 -0.02095877 0.0015054338 -0.035388734
0000a0 6d 78 2d bc 26 a9 a0 3c 32 56 dd bc 0b cd 1c 3a
       -0.010587794 0.019611906 -0.02701864 0.00059814815
0000b0 b5 b2 d6 bb 3e 8b 9b bc b2 26 ef bc 2e 06 b0 bc
       -0.0065520653 -0.018987294 -0.029193256 -0.021487322
0000c0 93 49 02 ba fc 05 79 bc f4 ab 66 3b 17 c1 30 bc
       -0.000497007 -0.015199181 0.0035197707 -0.010788224
0000d0 44 cc bd 3b 85 86 84 3b 6c 8b c7 bc 21 a8 10 bd
       0.0057921726 0.0040443563 -0.024358474 -0.03531659
0000e0 73 47 c3 bc 12 4f 03 bc 08 d4 2d bd 67 b5 35 3c
       -0.02383778 -0.008014457 -0.042438537 0.011090613
0000f0 84 11 92 bb 2d 75 ad 3b b7 6c 3d bb a2 9e d7 bc
       -0.0044576544 0.0052935095 -0.002890391 -0.02632076
000100 39 d4 03 bc 6e fe 9d bc af 85 78 bb ea 24 8b bc
       -0.008046203 -0.01928636 -0.0037921479 -0.016985375
000110 b5 a7 b2 3b bd 44 75 bc 47 a8 29 bd f2 8f ba bc
       0.005452121 -0.014970002 -0.041420247 -0.022773717
000120 dc 6d aa bc fe a5 5e bc a4 59 aa 3a c3 f3 14 bd
       -0.020804338 -0.01358938 0.0012996686 -0.03636528
000130 9b b2 88 bc 16 f5 b8 bc c1 ae 55 bb a7 12 73 3c
       -0.016686728 -0.022577804 -0.0032605382 0.01483599
000140 7b 87 2e 3c ee 7a 5b bc 79 5e 94 bc c4 b8 7b b9
       0.010652418 -0.013396008 -0.018111454 -0.00024006056
000150 19 1e 48 3a 0d 0e 15 bd 12 1e ac bb b0 4a 72 bb
       0.00076338794 -0.036390353 -0.005252608 -0.0036970787
000160 99 db 14 3c 63 8b fd bc 98 87 0d 3c 48 2d e7 bb
       0.009085559 -0.030950254 0.008638285 -0.0070549585
000170 2c bb 6d bd 83 db 81 bc 82 0b ff bb 9a 9f 82 bb
       -0.05803983 -0.015851742 -0.0077833543 -0.003986311
000180 a8 37 d8 bc b7 53 57 bc a2 43 b1 bb ae a5 60 bc
       -0.026393726 -0.013142518 -0.005409674 -0.013711376
000190 b3 d8 85 ba 05 b6 d2 bb 51 fe 83 bc 3f ce fc ba
       -0.0010211676 -0.00643039 -0.016112478 -0.001928754
0001a0 d5 7d 2d bb 08 93 b4 bb 28 30 03 bb 2f f7 5f bc
       -0.0026472707 -0.0055106916 -0.0020017717 -0.013669773
0001b0 bf 1c cb bb a5 ef c6 39 44 bf f6 bb d5 dc 2a bc
       -0.006198495 0.00037944052 -0.007530125 -0.010428627
0001c0 1d bf 02 bd ec 50 d3 3b cc b0 ae bb 0c 1d da bc
       -0.03192054 0.0064488556 -0.0053311344 -0.026625179
0001d0 11 25 92 bb 6d c7 04 bd 31 ee a6 bb c1 57 81 3c
       -0.004459985 -0.03241675 -0.0050943126 0.015788915
0001e0 98 7c 03 bd ed 92 87 bc b1 38 b0 3b 33 a6 b0 bc
       -0.032101244 -0.016549552 0.005377852 -0.021563625
0001f0 59 ac a6 bc d4 e9 53 bc 8a fe b0 bb 8e bc 5f bc
       -0.020345854 -0.012934167 -0.005401437 -0.013655795
000200 57 63 8b bc fd a1 7a bc f7 c1 3d bb 07 64 4a bd
       -0.017015142 -0.01529741 -0.0028954723 -0.0494118
000210 8d d6 9b 3b a4 58 60 3c ce 57 17 bc 9f 07 73 3c
       0.004755801 0.013693009 -0.009237243 0.01483336
000220 59 50 64 bc fc 16 b6 bc 99 7c f7 bc 2e 16 da bc
       -0.013935172 -0.022227757 -0.03021078 -0.026621904
000230 34 da 87 bc 13 ac 68 bc 88 02 3b 3c 90 5b 46 3c
       -0.01658354 -0.014201182 0.011414178 0.012106791
000240 be 29 82 bd 8f 13 01 bc 79 11 c7 bb a0 4b 83 bc
       -0.06355618 -0.007878198 -0.006075081 -0.016027272
000250 92 ec 67 bc 2a d1 92 3c 07 82 2c bd 2a ef fc 3b
       -0.014155524 0.017922003 -0.04211619 0.0077189403
000260 ee db 35 bb 33 e6 91 3c 2e 61 90 bc 24 02 47 bc
       -0.0027749497 0.017809963 -0.017624464 -0.012146506
000270 f3 88 b5 3c 08 09 72 3c d6 58 11 bb 74 05 b6 3b
       0.022160029 0.014772661 -0.0022178194 0.0055548493
000280 a8 f5 4f 3b 1b 37 09 bb 9d 1f ec 3c 5f 02 46 bb
       0.0031732116 -0.0020937386 0.028823668 -0.0030213816
000290 c1 17 59 3c 1d 34 da bc e6 af 07 bc 6a 2a 97 bc
       0.013250292 -0.026636178 -0.008281684 -0.018452842
0002a0 2a bb 0e ba d6 1c 5c 3b 58 b8 16 3c 4b 5b f7 bb
       -0.000544476 0.0033586523 0.009199224 -0.0075487248
0002b0 40 23 86 bb 8f 74 6b bd 01 1f fe bb 14 f7 a9 bb
       -0.0040935576 -0.057484206 -0.007755161 -0.0051869247
0002c0 b2 bb 8a bb 85 52 a8 bc 51 e8 9d bb 07 2e 2a 3c
       -0.004233801 -0.02054716 -0.004818954 0.01038695
0002d0 7c 45 2d bd 4e b5 5d bc 83 67 a4 3b e4 33 7b bc
       -0.042302594 -0.013531996 0.0050172224 -0.015332196
0002e0 e3 4d 1d bb 4d b0 f5 3b c2 a9 93 bb d4 f9 a7 bc
       -0.0024002723 0.0074978233 -0.0045063207 -0.02050487
0002f0 f9 b1 c3 bc 63 c6 5a bd 7d ee fc bc e7 06 78 bc
       -0.023888575 -0.053411853 -0.030875439 -0.015138364
000300 b4 bc 3e bc 86 ab 77 bc 35 7f 6f 3c 61 1f 36 ba
       -0.01164167 -0.015116578 0.014617731 -0.0006947425
000310 c3 70 6d bb c4 21 96 b8 fb 4c 05 bd 78 28 a2 39
       -0.0036230541 -7.158847e-05 -0.032544117 0.000309292
000320 9c 0b 7f bc 76 6b e5 3b c7 84 0a 3c 01 d1 24 bd
       -0.015566733 0.0070013357 0.008454508 -0.040238384
000330 55 27 90 bc e0 28 fc bc de e5 85 bb 0c 10 96 3c
       -0.01759688 -0.03078121 -0.00408624 0.018318199
000340 3e 21 8f 3a af 26 98 3c 44 28 05 bd ee 92 d0 bb
       0.0010919941 0.018573133 -0.032509103 -0.0063651716
000350 23 24 70 bb 43 4d 34 bc 43 4d 35 bc 71 49 6b bc
       -0.0036642633 -0.011004749 -0.011065784 -0.0143607715
000360 f6 61 47 bc cc 04 83 bc a8 44 d1 bb 3d d6 8d bc
       -0.012169352 -0.015993498 -0.0063863583 -0.01731407
000370 32 84 52 bb 3d 10 f1 3b 4c 35 5d 3a 90 de 56 bc
       -0.0032122252 0.007356672 0.0008438423 -0.0131145865
000380 02 2d 2a ba 98 43 07 3c 65 ec fb bc 73 2d ce 3b
       -0.0006491692 0.008255862 -0.03075237 0.006292039
000390 79 df 79 bc d2 1a 05 3c 7f 30 18 3c 54 b8 d3 ba
       -0.015251034 0.00812407 0.009288906 -0.0016152957
0003a0 9c b6 a0 bc 5a 6a ba bc dc 1b 5a bc 28 f5 95 3a
       -0.019618325 -0.02275579 -0.013312306 0.001144086
0003b0 13 b9 0a bc 75 64 17 bc d6 20 80 bb 3f 7e a3 ba
       -0.008466977 -0.009240259 -0.0039101643 -0.0012473537
0003c0 2c 23 6c 3c a3 e0 86 bc d0 5f 8c 3c 6c d1 21 bc
       0.0144126825 -0.016464537 0.01713553 -0.00987659
0003d0 88 c3 41 ba 1b 38 4b bc 25 f8 69 3c 7c 07 db 3b
       -0.0007391502 -0.012403513 0.014280354 0.006684242
0003e0 1d 91 10 3b 7f a3 32 3c 6b 0a a5 3c 0c e9 25 3c
       0.002205915 0.010903238 0.02014657 0.0101263635
0003f0 84 33 13 bd 10 d2 bc bb 82 ec a5 ba ea 66 70 bc
       -0.0359378 -0.005762346 -0.0012658986 -0.014672974
