geoinr/model/mlp/pretrained/plane_splus_model2L_256_100b.pth (torch, 534095 bytes, 7 tensors)

net.0.linear.weight f4 [256, 3]
000000 99 c4 61 3e 18 59 c3 3e f4 82 a5 3f 2c f7 9f bf
       0.22047652 0.3815391 1.2930589 -1.2497306
000010 c5 95 3c 3f f4 7d 96 3f 3f ee 99 3e dd 55 46 bf
       0.7366603 1.1757188 0.3006458 -0.77474767
000020 ff a4 80 bf b7 f5 91 bf 27 9d f9 3e 3e 2b e7 3e
       -1.0050353 -1.1403111 0.4875271 0.4515018
000030 95 79 3b 3f c3 48 88 3f 45 75 8d 3f 61 71 a3 3e
       0.73232394 1.0647205 1.1051413 0.3192244
000040 7c 90 25 be 40 15 76 3f 4e 4f d2 be ab 87 90 3e
       -0.16168398 0.96126175 -0.4107613 0.28228506
000050 15 04 20 3d 7f fb 18 bf c4 6b 38 be 32 da 8a bf
       0.039066393 -0.5975875 -0.1800986 -1.0847838
000060 e0 92 58 bf a9 f5 94 be 49 2b 87 bf 14 d5 0f be
       -0.84599113 -0.29093674 -1.0560085 -0.14046127
000070 da ca df be fb 70 85 be 2c 19 8e bd 4f 3a 78 bf
       -0.4370945 -0.2606276 -0.06938395 -0.9696397
000080 dd 3b 89 3f b6 2c 7e 3f eb c6 0d be 53 92 46 bf
       1.0721394 0.99286973 -0.13845412 -0.77567023
000090 42 92 b0 bf 16 c6 8c 3f 82 90 88 bf 11 db a0 bf
       -1.3794634 1.0997951 -1.06691 -1.2566854
0000a0 20 54 80 3f 3f 32 1b 3f 26 ad 6f 3f 1e 10 1e be
       1.0025673 0.60623544 0.9362358 -0.15435836
0000b0 5f f2 25 bf 35 84 4c 3d 37 55 9e bf fc 76 3c 3f
       -0.64822954 0.04993077 -1.2369756 0.73619056
0000c0 3a 0b 92 bf 9d 72 8a be 56 ec 82 be ca a6 97 3f
       -1.1409676 -0.27040568 -0.25570935 1.1847775
0000d0 59 5c 88 bf 07 4e 31 bf 38 4c fc 3e 2d a4 bb 3d
       -1.0653182 -0.69259685 0.492769 0.091621734
0000e0 a4 e4 64 3f 2c 66 78 be 09 28 ad be 2c 00 e7 3e
       0.8941138 -0.24257725 -0.33819607 0.4511732
0000f0 b3 26 5e 3f 3f 97 63 bf 21 a3 b5 be 6c 76 71 bf
       0.867778 -0.8890266 -0.3547602 -0.9432132
000100 df a3 93 3e c9 0c 72 3f d6 2c 76 3f 6c b8 9c bf
       0.2883596 0.9455076 0.96162164 -1.2243781
000110 78 6d a1 bf 87 94 87 bf d0 44 08 3f ce 15 21 bb
       -1.2611532 -1.0592202 0.5323 -0.0024579647
000120 ee e2 86 3f 8b 2f 0b 3e da 4a a6 3f 02 88 36 3f
       1.0538003 0.13592355 1.2991593 0.7130128
000130 0a 31 5a 3f f3 b3 93 bf 3d 98 b0 3f 55 07 f2 3e
       0.8523108 -1.1539291 1.379646 0.4727122
000140 88 49 ad 3e 42 e6 b4 3f c7 17 b1 3f 26 22 3b 3f
       0.33845162 1.4132769 1.3835381 0.7309898
000150 ab b2 95 3e 73 0c c3 be c6 63 a0 bf 99 18 0f 3f
       0.29237875 -0.38095436 -1.2530448 0.5589691
000160 54 75 6d 3f 72 98 97 3f 97 ab 53 bf 52 12 d5 be
       0.92757154 1.1843398 -0.826837 -0.4161554
000170 de 31 9f 3f ac fb 69 3e 1e e1 9b 3e 4a f9 93 bf
       1.2437093 0.22849911 0.30445188 -1.1560452
000180 36 5a 98 bd 0a a0 aa bf 24 11 c5 3e af 50 9a be
       -0.07439081 -1.333009 0.3848964 -0.30139682
000190 b5 78 8c 3f f5 7e 25 bf 05 7f 3b 3f bf 12 06 bf
       1.0974337 -0.64646846 0.7324069 -0.52372354
0001a0 33 2c af 3f 3d 82 0b be f4 e9 0a 3f 5b 18 23 3f
       1.3685364 -0.136239 0.54263234 0.6370904
0001b0 8b fd 82 3f 00 7b a0 b9 1a 11 8f bf 4b 66 de 3d
       1.0233625 -0.0003060922 -1.1177094 0.108593546
0001c0 15 61 51 3f e2 39 8c 3e fb a7 d8 be cd 08 79 be
       0.8178876 0.2738791 -0.4231566 -0.24319763
0001d0 88 78 39 bf d4 89 8b bf 13 ba 92 3f e0 b4 87 bf
       -0.7244954 -1.0901437 1.1463035 -1.0602074
0001e0 e4 10 b4 3f 1a 93 d0 be 4d fa 97 3b 82 d2 8e bf
       1.4067655 -0.4073723 0.0046379925 -1.1157992
0001f0 1e f3 a7 bd 9b 32 59 bf fa 81 48 3f 9b df 84 3f
       -0.08200668 -0.8484284 0.7832333 1.0380739
000200 12 22 8c 3f e6 6c 85 bf fb d0 80 3f ed 53 a7 3f
       1.0947897 -1.0423858 1.0063776 1.3072487
000210 b4 eb de 3d 13 e8 9f be f9 a3 a9 3d 42 52 22 be
       0.108848006 -0.31231746 0.082832284 -0.15851691
000220 ce 57 7e 3f c6 6b 92 bf b6 dc a0 3f 3f 23 60 bf
       0.9935273 -1.143914 1.2567356 -0.8755378
000230 38 40 2a bf 89 5f 0f 3e 99 36 d2 be 8f 60 5b 3e
       -0.6650424 0.14001288 -0.4105728 0.21423553
000240 24 3b 82 bf 69 ae 9c bf bb a3 56 3f c7 94 6f bf
       -1.0174298 -1.2240726 0.8384358 -0.9358639
000250 f0 6d 84 bf e9 e3 ae bf b0 46 0e 3e ab 76 91 bf
       -1.034605 -1.3663303 0.13894153 -1.136434
000260 7f 7e 07 3f fd 50 8e 3f b8 a3 9b bf de 40 42 3f
       0.5292739 1.1118466 -1.2159338 0.7588023
000270 65 2c 79 3e 9a a9 3d 3f 9f bd 95 3e 2f ab 4c be
       0.24333341 0.74086916 0.29246232 -0.19987176
000280 20 91 87 be 65 a6 ad bf ca f4 5f bf d6 59 97 bf
       -0.2647791 -1.3566405 -0.87482893 -1.1824291
000290 9f bc 61 bf 84 92 49 bf 4f a0 ac bf 58 c3 af bf
       -0.8817844 -0.7873919 -1.3486422 -1.3731489
0002a0 d9 7a 8c bf 3a ad d9 3d 9c 0e 97 3f 9b ce c6 3e
       -1.097499 0.106287435 1.1801333 0.38829502
0002b0 53 2e 35 be 36 2c b1 be a9 20 b2 bf 07 5f 0c bf
       -0.17693453 -0.34604043 -1.3916217 -0.548325
0002c0 4f 9a 3a 3f 23 37 86 3f c1 3e 8f 3e 59 f9 aa 3f
       0.72891706 1.0485576 0.27977565 1.3357345
0002d0 89 8d b0 3f 35 07 f5 3e a7 ab 81 3f 36 b3 8c bf
       1.3793193 0.4785706 1.0130509 -1.0992191
0002e0 1a 60 42 be 82 ba 5d bf b0 5e 28 bf af 06 51 3f
       -0.18981972 -0.86612713 -0.6576948 0.81650823
0002f0 f9 6f 51 bf 68 cf a4 3e 21 83 34 3f cc f7 35 bf
       -0.8181148 0.32189488 0.70512587 -0.71081233
000300 af ea 3d bf c0 86 b4 bf 39 fe 08 3e 18 6e 3d be
       -0.74186224 -1.4103622 0.13378228 -0.18499029
000310 23 c5 76 be 83 f8 54 3f 5b 47 48 bf 50 15 1b bf
       -0.24098639 0.831917 -0.7823388 -0.60579395
000320 fa 9c 5f bf 7c 55 9d bf f1 b5 19 3f f7 b2 7d 3f
       -0.873489 -1.2291713 0.60043246 0.99101204
000330 83 f3 61 bd 88 d4 98 3f b9 cd 96 bf 24 df 1b bf
       -0.05516387 1.1939859 -1.1781532 -0.6088736
000340 21 d7 19 3f 50 1d 9a bf 2b e2 87 bf 13 a8 70 3f
       0.60093886 -1.2040195 -1.0615896 0.9400646
000350 06 40 a2 bf 7c dd 23 bd 89 63 d6 3a 4f c9 5e bf
       -1.2675788 -0.040006146 0.0016356568 -0.8702592
000360 a4 eb 8e bf 16 6c ad be 2c 1b 69 3f 70 7f 2c bf
       -1.1165662 -0.33871526 0.91057086 -0.67381954
000370 d4 8a 6c 3f c3 a2 c6 bd f1 e0 87 bf 54 7c 97 3e
       0.92399335 -0.09699013 -1.0615522 0.29587042
000380 55 6e 96 bf e5 10 96 3e eb dd de be ee e3 a0 3f
       -1.1752421 0.29309765 -0.43528685 1.2569559
000390 dd aa fa bc ac 0e c4 3e bb 01 5d 3f e9 3a c7 3e
       -0.030599052 0.38292444 0.86330765 0.38912132
0003a0 02 c3 35 bf f6 a2 3e 3e 56 5d aa bf 3e b6 c6 be
       -0.71000683 0.18616852 -1.3309734 -0.38810915
0003b0 48 c8 4a be fe 51 42 bf 39 30 26 3f 83 b3 7a be
       -0.19802964 -0.7590636 0.6491733 -0.24482541
0003c0 51 8d 97 bf bb 0e 47 3f 8c da 0d 3f 10 1a 8a 3f
       -1.1840001 0.7775685 0.554116 1.0789204
0003d0 46 d1 79 bf 6e 59 21 be 5c 88 06 bf d9 21 e4 3e
       -0.9758495 -0.15756771 -0.5255182 0.44557074
0003e0 88 3d a7 be d5 45 5c bc ae d8 2c bf ba 54 03 bf
       -0.32664132 -0.013444384 -0.67518127 -0.5130116
0003f0 70 95 26 3e 6f a6 19 bf f8 24 b2 3e 24 88 2b bf
       0.16267943 -0.6001958 0.3479383 -0.6700461

net.0.linear.bias f4 [256]
000000 1f 0d 22 3e d6 ed 02 3f 2b 14 4d be 37 70 4f ba
       0.15825318 0.5114416 -0.20027225 -0.00079131447
000010 09 93 8f bc 1a 0d b6 3d 19 6f b9 be 71 2d 49 be
       -0.017526167 0.08889218 -0.36217573 -0.19646241
000020 16 4b fc 3e 04 1f 1f be 1b 73 a4 be 53 76 3f 3e
       0.49276036 -0.15539175 -0.32119069 0.18697481
000030 17 e8 c9 3d e9 9a ce 3c 5e e3 81 3e 33 af 01 3e
       0.09858721 0.025220351 0.2536878 0.1266449
000040 99 48 8d be cf 03 31 be 61 18 01 bf b1 c4 93 be
       -0.2759445 -0.17286609 -0.50427824 -0.28861
000050 99 87 ff be 01 e6 af be 3b 5c f0 be 4d 61 d9 be
       -0.4990814 -0.34355167 -0.46945366 -0.42457047
000060 43 af bf be 28 3b ea bd 25 e8 3c be e6 47 9f 3e
       -0.37438402 -0.114370644 -0.18447931 0.31109542
000070 78 49 22 be 43 8b c9 3e 20 ef 26 3e fb e1 01 3f
       -0.15848339 0.3936406 0.16302156 0.50735444
000080 69 00 c9 be 91 08 9f be 4f 00 04 3e c8 21 c8 3d
       -0.39258125 -0.31061223 0.12890743 0.09772068
000090 01 94 05 bf bc d2 43 3e 1a fd ca be 8e 1a cf be
       -0.5217896 0.19123358 -0.39646226 -0.40449947
0000a0 4a 89 11 3e 29 46 92 be 43 dc fd 3e af de 0e 3f
       0.14212528 -0.28569153 0.4958211 0.5580854
0000b0 7b 2a ee be 43 26 db 3e ed 3a ee 3e 14 f4 40 3e
       -0.46516785 0.4280263 0.46529332 0.18843108
0000c0 81 de 94 3d 15 7b 96 be 13 82 f5 bd 9a 4d e0 3e
       0.07269002 -0.2939078 -0.119877 0.43809205
0000d0 ad 67 fd 3e 15 84 b2 3e 53 db c8 3e e5 54 fa 3c
       0.4949316 0.34866396 0.3922983 0.030558059
0000e0 2d 82 04 bf af fd b2 be dd 54 42 3e ba 83 e8 be
       -0.5176113 -0.3495917 0.18977685 -0.45413
0000f0 ce 05 39 3e b5 02 5c 3d 6e 58 04 3f c1 bd b5 3d
       0.1806862 0.05371352 0.51697433 0.08874083
000100 df e1 e2 bc d5 33 c6 3e ae 60 87 be 30 0f c3 bd
       -0.027695594 0.3871142 -0.26440948 -0.09524381
000110 ed 51 0d 3f 89 21 a3 be 4e 54 0f bf 4e 60 c5 be
       0.55203134 -0.31861523 -0.55988014 -0.38550037
000120 38 40 10 be 0a 41 bc be d7 13 21 3e b2 12 99 be
       -0.14086998 -0.3676837 0.15730225 -0.29897076
000130 50 3a cc 3e 48 12 83 3e a7 9d 69 be 5b 60 3c be
       0.3988824 0.25599885 -0.22814046 -0.18396132
000140 fd d4 e5 bd a6 84 a6 bd 73 e8 f1 be d8 29 93 be
       -0.11222265 -0.081307694 -0.47247657 -0.28742862
000150 d2 71 ba be de 1f c7 3e 3d ab 36 be bd 8c 8e 3e
       -0.36414963 0.388915 -0.1783876 0.2784175
000160 13 61 d3 3d 9a b1 b4 3d f9 c1 f4 3e 93 97 00 3f
       0.1032125 0.08822937 0.4780424 0.50231284
000170 66 33 d0 bd 33 8d 90 3d 40 63 4a be d8 32 05 bf
       -0.101660535 0.070581816 -0.19764423 -0.52030706
000180 8d 37 e7 be 58 16 c1 3d da 95 bb be f5 81 e7 bd
       -0.4515957 0.0942809 -0.36637765 -0.11304084
000190 fc 12 b5 be e0 0e 86 3e ae 5e 41 3d 03 9a 98 be
       -0.35366046 0.26183224 0.047209434 -0.29805002
0001a0 c9 58 db 3e f7 41 6b be bf 4a 4d be 55 fd e8 bd
       0.42841175 -0.22974382 -0.20048045 -0.11376444
0001b0 03 a7 d4 bd 74 36 00 bf c6 fa d4 be c2 65 07 3f
       -0.103834175 -0.5008309 -0.41597575 0.52889645
0001c0 cc 27 30 3e ac d8 7d be 67 e1 07 3f 4c 49 a9 3e
       0.17202681 -0.24789685 0.5307831 0.33063734
0001d0 ed 2b 01 bf a9 4d dc 3e ed 60 09 bf 22 5f 07 3f
       -0.5045765 0.43028 -0.5366352 0.52879536
0001e0 a9 e1 c1 3d c3 f7 81 3e 9b 59 0b 3f 46 4d b2 be
       0.094668694 0.2538434 0.544336 -0.3482458
0001f0 cd c6 e6 3e d5 b3 bb 3e 8f f4 c1 3d e3 ab 6a 3e
       0.45073548 0.36660638 0.09470474 0.22917132
000200 46 87 e0 be 63 37 2a 3e 77 06 b0 be 58 1a c4 3e
       -0.43853205 0.16622691 -0.34379932 0.3830135
000210 3f dd c4 3e aa 89 db be 42 db 1c be 07 bb c5 be
       0.38450047 -0.42878467 -0.15318015 -0.38619253
000220 8e 92 97 3e e8 b2 07 3f eb 04 81 3d 25 2a e4 bc
       0.29604 0.53007364 0.06299766 -0.027852127
000230 65 ac c4 3e 15 5d a6 3d e7 d8 90 3e 13 95 e4 3e
       0.38412777 0.08123223 0.28290483 0.44644985
000240 aa c6 d7 be 72 ea 12 bf 6c 47 c7 be ea ca 1d 3e
       -0.42143756 -0.57388985 -0.38921678 0.15409437
000250 fe 24 0b 3f 8b b8 ae 3e 0b b5 c3 be 3f 20 bb be
       0.5435332 0.3412517 -0.38224062 -0.3654804
000260 c1 a7 69 3d c0 ee b4 3e e4 56 4d 3d 67 b0 ab bd
       0.05704475 0.35338402 0.050131693 -0.083832555
000270 ad da 3e 3e 89 54 88 3d 19 28 0f bf b1 c5 ab 3e
       0.18638106 0.06656749 -0.5592056 0.33549264
000280 59 97 a8 3e c5 7d 0d 3e c4 ca 83 3e 1d ce 0a bf
       0.3292797 0.13817509 0.25740635 -0.54220754
000290 8c da 3a bd ca af 66 bd 0a 58 07 3f 28 78 9a 3d
       -0.04561858 -0.05631999 0.5286871 0.07542449
0002a0 af 74 29 3e 7e 96 c5 3e ae 52 01 3f c0 d6 cd 3d
       0.16548418 0.3859138 0.50516784 0.10050726
0002b0 ae cc 39 be d1 fd 6f 3e 75 2e 6c 3d cb b6 0b 3f
       -0.18144485 0.23436667 0.057661492 0.54575795
0002c0 ba fa fa be 88 eb 02 be 23 0f ea be 19 ee b4 bd
       -0.49019414 -0.1278516 -0.45714673 -0.08834476
0002d0 8a 83 5c 3e 7a 31 9e 3e 52 ea b5 3e 64 d3 4a 3e
       0.21534553 0.30897123 0.35530335 0.19807202
0002e0 64 24 af bc 6c f3 a1 be 7d 5b d6 3d be 58 f6 be
       -0.021379657 -0.3163103 0.10466669 -0.4811458
0002f0 97 8c 85 3e d4 43 9a 3c 6d ba d0 3e a5 6c f8 3e
       0.26083824 0.018831171 0.40767232 0.4852039
000300 57 ae 62 be 9d 5b fe be 66 b3 ed 3e 36 2e 4c be
       -0.22136818 -0.4967927 0.46425933 -0.19939503
000310 dc 1b dc be ee 58 7d be 73 ad 77 be 52 83 a5 3e
       -0.42990005 -0.24740955 -0.2418726 0.32326752
000320 67 1c 80 3e 68 ac 8b 3e de b9 3d be 33 0d 64 bb
       0.2502167 0.27279973 -0.18527934 -0.0034797906
000330 c2 e8 8a 3d 0a 02 36 3e 5a 61 9e bc 5e e0 b5 3e
       0.06782676 0.17774215 -0.01933353 0.3552274
000340 f8 97 e5 be 71 75 b6 be 8d e6 01 3f 7e 15 69 3d
       -0.44842505 -0.35636476 0.5074242 0.056905262
000350 8c e2 0e bf d5 8b 06 3e 89 b3 05 3f ba 35 4d 3e
       -0.55814433 0.13139279 0.52227074 0.20040026
000360 c1 91 85 bd 23 91 8a be 77 ab 69 bd e3 3e 83 be
       -0.06521941 -0.27063856 -0.057048287 -0.25633916
000370 82 4c 41 be 02 11 00 3f 2c 1a 5a 3e 39 25 be be
       -0.18876842 0.5002595 0.21299046 -0.37137774
000380 09 fc 00 bf 15 6e 0e 3e 77 e6 98 3e 52 ba f3 3e
       -0.50384575 0.1390918 0.2986333 0.4760309
000390 d8 7a d4 bd 22 1f 9c be 0e 7b b8 3e 82 f3 11 3f
       -0.10374993 -0.30492502 0.36031383 0.5701219
0003a0 ed 98 ad be a5 f0 82 3e da 44 a1 be 60 1c cc 3e
       -0.33905736 0.25574222 -0.31497842 0.39865398
0003b0 5e af a6 3d ec 48 44 3e ea b1 fb 3e 06 f0 f0 3e
       0.081389174 0.19168442 0.49159175 0.47058123
0003c0 25 f6 10 3f f2 aa 01 be 0d 84 15 be 47 15 c1 3e
       0.56625587 -0.12662867 -0.14601155 0.37711546
0003d0 cf da fb bd 0d a4 ee be 55 1b 10 bf 0f 8f 38 be
       -0.12297594 -0.46609536 -0.56291705 -0.18023323
0003e0 00 e9 7e be 5b a6 f7 be db d9 04 3f a1 62 8f 3e
       -0.2489357 -0.48369107 0.5189492 0.28004935
0003f0 a2 19 12 bf 2c f7 f6 3e ac b3 12 3f 82 16 3c 3e
       -0.5707036 0.48235452 0.5730541 0.18367961

net.1.linear.weight f4 [256, 256]
000000 c0 0d 0c 3e 55 34 13 be 90 14 69 3d 79 ed 16 be
       0.1367712 -0.14375432 0.056904376 -0.14739026
000010 f0 69 ac bd f4 60 e8 3d 99 ba 01 be 13 96 67 3d
       -0.084186435 0.11346617 -0.12668838 0.056539606
000020 43 bb 12 3e e9 a4 1b be 35 6f c7 3d 60 23 c8 3d
       0.14329247 -0.15199627 0.09738008 0.09772372
000030 e0 50 03 be db f8 30 bc 79 42 4e bd ea f5 eb 3d
       -0.1282382 -0.010801519 -0.050356362 0.11521514
000040 81 db bb 3d 2e 96 30 bd ab 62 a1 bd 36 b1 a6 3c
       0.091727264 -0.043111973 -0.078801475 0.020348173
000050 8f a4 f5 bd 3f 0c 02 3d 9a 91 ef 3c 03 f2 07 3e
       -0.11994278 0.03174996 0.029244233 0.13275914
000060 71 c4 a0 bd e1 46 11 3e 72 18 b1 3c d7 bd a4 3d
       -0.07849968 0.14187194 0.021618102 0.080440216
000070 9e e4 19 3e 59 8f db 3d f9 84 a3 bd d5 62 10 3e
       0.15028617 0.10720701 -0.07984347 0.14100201
000080 ab 45 86 bd 8d 1b e5 bd e9 2b 80 bd c9 78 86 3d
       -0.06556257 -0.111868955 -0.06258375 0.06566007
000090 7c 37 fc bd ff bd 16 3e 23 0f 3e 3d de 64 52 bd
       -0.1231527 0.14720915 0.046401154 -0.051365726
0000a0 cc c4 0e be 42 17 a2 bd a1 ab d5 bd ea 6a d3 bd
       -0.1394226 -0.07914592 -0.10433126 -0.103231266
0000b0 a5 28 df 3d 52 11 c9 bd 82 45 13 be e4 ec 05 be
       0.10896424 -0.09817757 -0.14381984 -0.13078648
0000c0 c3 e3 e6 3c de 3e 5d bd e8 6d 1b be 5c 50 ed bd
       0.028184777 -0.054015033 -0.15178645 -0.11587593
0000d0 6b cf 8c 3d 5b b8 ba 3b 3f 8a fe bc 9d d1 16 be
       0.06875499 0.0056982464 -0.03107178 -0.14728399
0000e0 20 6c 53 bd 09 e4 a8 3b f5 0d c4 bd a0 20 fd 3d
       -0.051616788 0.005154137 -0.095729746 0.12359738
0000f0 f2 ec 18 3e 13 88 ac 3d 10 83 08 3d 3f 47 16 3e
       0.14934137 0.084243916 0.033328116 0.14675616
000100 79 25 a1 3d 2b f8 a3 bc e8 f1 6d bc 63 89 4e 3d
       0.078684755 -0.020015797 -0.014523007 0.05042399
000110 21 38 8e bd 32 5f f5 bd 95 47 8a 3d 1e ee 33 3d
       -0.069442995 -0.11981048 0.067519344 0.043928258
000120 7a 46 4d 3d f8 60 0b bd cc 94 10 be da 6d 0f bb
       0.05011604 -0.034028023 -0.14119262 -0.0021885545
000130 ee 80 7d bd 60 ba 0a bd 5a 8e 30 bd 03 f0 01 bc
       -0.061890535 -0.033869147 -0.043104507 -0.007930758
000140 53 cd bd 3d 36 91 f9 3d 8e 64 24 3d 76 c8 bd bd
       0.09267678 0.121859 0.04013496 -0.092667505
000150 de ee e4 3d c1 f1 8a b9 8f 85 47 3d 68 ca eb 3c
       0.11178373 -0.00026501532 0.048711356 0.028783038
000160 b4 24 c6 3d 34 d8 eb bd 7d 79 c9 bd 73 d7 cf 3d
       0.09674969 -0.11515847 -0.09837625 0.101485156
000170 ca 07 fa 3c 01 0d a6 3d 81 b7 c4 3d 0a 29 b4 3c
       0.030521292 0.08107949 0.09605313 0.021992225
000180 f8 93 f7 3c 7f c1 d9 bd ce 30 05 be 38 d1 af bd
       0.030221924 -0.106326096 -0.13006899 -0.08584827
000190 8a 5b a5 3d c2 86 20 3c 9d 09 ea 3d 1f e8 19 be
       0.080741 0.009797754 0.11427615 -0.15029953
0001a0 66 c5 96 bd b0 c4 0c 3e 6c a5 03 be b3 a6 16 be
       -0.073618695 0.13746905 -0.12856072 -0.14712028
0001b0 22 2b a4 3d 13 27 2e 3d f6 e5 4e 3d 80 3b 3a bd
       0.080160394 0.042517733 0.050512277 -0.0454669
0001c0 56 4a 15 be 28 75 bf 3d 71 3e d0 3d 24 cc db bd
       -0.14579138 0.09348518 0.1016816 -0.10732296
0001d0 0d 72 db 3d ad 25 bd 3d 93 e7 8d bd a1 93 bc 3b
       0.10715113 0.09235702 -0.06928935 0.0057549034
0001e0 45 04 fc bd f4 d2 ef 3d f2 6e fc 3d fe ef 04 3e
       -0.12305502 0.11710158 0.12325849 0.12982175
0001f0 1a a4 97 3d 68 63 8e 3d 8d 40 28 bd 9e bc 2f 3d
       0.07404347 0.06952554 -0.041077185 0.04290449
000200 87 06 94 3d cd 85 17 3d b7 16 42 bd f4 09 a6 3d
       0.072278075 0.036992837 -0.047384944 0.08107367
000210 ab 2a 96 bd 8b 5e ef 3d 9e 47 05 3e 3d 10 ac bd
       -0.07332357 0.116879545 0.13015601 -0.08401535
000220 1d 27 f8 3d 2b ad 06 be 7f e4 df bd cb d4 24 3d
       0.12116835 -0.13151996 -0.10932254 0.040241998
000230 07 99 f7 3d 7b 36 8f 3c ae 21 a5 bd 77 d7 6a 3d
       0.120897345 0.017482033 -0.080630645 0.05733439
000240 31 84 83 bc 60 35 21 3d a3 c0 16 be 5d 13 31 3d
       -0.016054245 0.039357543 -0.14721923 0.043231357
000250 70 06 b1 bd 2a 14 70 3d 53 85 0c 3c e7 7c d0 3c
       -0.08643806 0.05861298 0.008576709 0.025450183
000260 f5 a0 76 bd ee 07 09 3e 4e 19 db bd 84 ca b7 3d
       -0.060212094 0.13381931 -0.10698186 0.08974174
000270 0b 08 95 bd d1 33 4b 3d 37 7d 0d bd 7b eb e6 bd
       -0.07276925 0.049609963 -0.034543242 -0.11275383
000280 fe 47 e1 bd 85 49 f7 3c 3c a5 f8 3d ff 68 04 be
       -0.110000595 0.030186424 0.12140891 -0.12930678
000290 c8 75 9d 3c c2 fe 4c bd b2 e1 de bd a8 cd ff 3d
       0.019221202 -0.050047643 -0.10882892 0.12490398
0002a0 52 11 56 3d 6f b8 59 bd eb 1c a3 bd 2f 7e dc bd
       0.05226261 -0.053154405 -0.079645 -0.10766255
0002b0 12 57 86 bd 9d 33 09 be 7e 9f c5 bd 31 de f2 3b
       -0.06559576 -0.13398595 -0.09649561 0.007411741
0002c0 7e 7e 00 be 43 7e 84 bd b2 1c 16 be e5 9d bd 3a
       -0.12548253 -0.06469395 -0.14659384 0.0014466612
0002d0 79 ae d0 bd 2c 4e 06 bd bb da 01 be 56 19 c7 bd
       -0.10189528 -0.032789394 -0.12681095 -0.09721629
0002e0 53 24 bc bd 3a 47 84 3c a9 35 e9 bc ec 78 ae 3d
       -0.09186616 0.016147245 -0.02846797 0.08519158
0002f0 2c 7a 02 3d 93 73 9a 3d 4d a8 c5 bc 87 84 14 3e
       0.031854793 0.07541575 -0.024128104 0.1450368
000300 48 9d a7 bd dd c4 55 3d 03 85 2a bd 52 ed 34 bc
       -0.08184296 0.052189697 -0.041630756 -0.01104291
000310 62 f7 0f 3e 04 4a 73 bd 4e a8 6c 3d 69 53 37 3d
       0.14059213 -0.05939676 0.057777695 0.04475728
000320 10 01 f3 3d 4f 4b 1b 3e d1 49 1a 3e 21 03 18 be
       0.11865437 0.15165447 0.15067221 -0.14844944
000330 58 a6 ee 3c a7 55 9e 3d 7a 81 e8 3d b0 15 e4 bd
       0.029132053 0.07731181 0.11352821 -0.11136949
000340 48 e6 c1 3d 09 80 18 be 05 1c 12 be 19 f4 ac bc
       0.09467751 -0.14892592 -0.14268501 -0.021112489
000350 65 2e 22 bd d0 1f 82 3d 10 00 9c 3d 10 da a6 3d
       -0.039595027 0.06353724 0.076171994 0.08147061
000360 6e e9 82 3d 55 a9 07 3e 63 78 c4 3c 6b f4 a5 bd
       0.063921794 0.13248189 0.023983186 -0.0810326
000370 89 28 3f 3d 93 fd 8c bd 4d 9e 19 3e 2c 32 1d bd
       0.046669517 -0.06884303 0.15001793 -0.038377926
000380 e8 94 b9 3d 31 38 9e 3d 3f 5a 96 bd 0e 84 dc 3b
       0.09061605 0.077255614 -0.07341432 0.0067296093
000390 91 e8 a3 3d ed f6 ae bd c4 bf de 3d ce 83 18 3e
       0.08003343 -0.08543191 0.1087642 0.1489403
0003a0 b0 12 a9 bc e7 52 06 be 0c 53 90 3d 05 5e 20 bc
       -0.020638794 -0.13117562 0.0704709 -0.009788041
0003b0 fc 62 5e 3d 13 97 ff bc bd 93 72 bd da fb ca 3d
       0.054293618 -0.031199967 -0.059222925 0.09911318
0003c0 53 66 f8 3d 29 cb d6 3d 98 be 46 bd ea 5b 15 be
       0.12128892 0.104879685 -0.048521608 -0.14585844
0003d0 19 11 00 bd 4a a1 72 3c e0 6f ab bd 86 aa 2d bd
       -0.031266306 0.014808962 -0.08370948 -0.042398952
0003e0 c0 48 d2 bd fa f1 f0 3d df 1a f4 3d 81 3b 96 3d
       -0.10267782 0.11764903 0.11919188 0.07335568
0003f0 85 91 05 3e 4f 04 2c bd 75 f0 e5 bd 9f 01 24 bd
       0.13043793 -0.041996296 -0.11227504 -0.04004061

net.1.linear.bias f4 [256]
000000 e6 5b 3a bd e3 0d 8f 3a 3a 75 fe 3c 13 99 3e bd
       -0.045497797 0.0010914173 0.031061757 -0.0465327
000010 d4 74 14 bd 1e 97 22 bd 2d 05 54 3d 5e 2a 51 bd
       -0.03624423 -0.039694898 0.05176275 -0.051065795
000020 5b af 20 3c 2b 1c 0e 3d 50 f3 c2 bc 45 d0 8b 3c
       0.009807433 0.03469483 -0.023797661 0.017067084
000030 bf 34 8e 3b 87 c7 59 bc d0 d8 20 bd e4 37 6e bd
       0.004339784 -0.0132922 -0.03926927 -0.05815877
000040 16 26 38 3d bd 32 6d 3c 2a e3 19 bd af e7 ef 3b
       0.044958197 0.014477429 -0.037570156 0.00732132
000050 5e 1f 07 bc 7e 05 3d 3d 6a d8 60 3d 04 73 39 bd
       -0.008247225 0.046147816 0.05489389 -0.045275703
000060 af 25 d6 39 13 57 12 bd b6 fa 3f 3b e8 00 06 bd
       0.00040845337 -0.03572757 0.0029293722 -0.032715708
000070 75 21 9d 3c 55 d4 3d 3d c6 0c 02 bd 9f bd 39 bd
       0.019180993 0.046345074 -0.031750463 -0.045346852
000080 b5 75 28 bd 89 83 d7 3a 7c a2 4b 3d 15 68 17 bc
       -0.04112788 0.0016442399 0.049715504 -0.009241124
000090 be b8 54 bd 9c 4c 27 ba 7e 9f 77 bc 6c 32 d5 bc
       -0.051933996 -0.000638196 -0.0151137095 -0.02602502
0000a0 48 39 c0 3c ab 0d 1c bd 97 60 2c bd dd 73 23 bd
       0.023464814 -0.038098972 -0.042084303 -0.039905418
0000b0 82 d1 2f bc 9b cb 1a bc 4b 75 2d 3d f0 ce 7c bd
       -0.010731103 -0.009447957 0.042348187 -0.06172079
0000c0 b4 ea 05 3d 0c 35 63 bd 78 19 2c bd 8a 5a 3a 3d
       0.032694533 -0.05547051 -0.042016476 0.0454965
0000d0 68 f0 1e 3c de 44 37 bd 82 1d c9 3c 47 40 c5 3c
       0.009700872 -0.04474341 0.024550203 0.024078501
0000e0 7e e1 54 3d 72 41 55 3d 28 fb f5 3c d9 2e 12 3c
       0.05197286 0.052064367 0.030026987 0.008922302
0000f0 96 30 dd bb 38 04 f8 3c 5e 2a 73 3d 45 52 f5 3b
       -0.0067501767 0.03027545 0.059366576 0.007486614
000100 67 df 45 3c 58 da 1a 3d 66 82 37 bd eb 57 13 bc
       0.012077189 0.037805885 -0.044802092 -0.008993129
000110 0a 68 f3 ba 51 db bf 3c 91 b5 17 bd b9 3d 6e 3c
       -0.0018570435 0.023420008 -0.03703839 0.014541083
000120 9d df 99 3c 1f e1 83 bc 72 46 ee 3c ca 1d 1b bd
       0.018783385 -0.016098557 0.029086325 -0.037870206
000130 84 27 51 3d 9e 6d a2 bc 22 69 73 bc 2f 8b 60 3d
       0.051063076 -0.01982766 -0.014856609 0.054820236
000140 6f b8 4c 3d a3 90 03 3d 6d 49 7f 3c 7b 72 3f 3d
       0.049980577 0.03212036 0.015581471 0.046740036
000150 50 9a 94 bb f0 fa 82 b9 85 cd 9c bc 59 15 2b 3d
       -0.004534997 -0.00024982495 -0.019140968 0.041768406
000160 c7 22 1c 3d cb c3 82 bd f0 51 1b bd 9b 27 3f bd
       0.038119104 -0.06385001 -0.03791994 -0.04666863
000170 46 d3 3a bd a8 42 c0 bc 10 92 13 3d fc bf 81 3c
       -0.045611642 -0.023469284 0.036027968 0.015838616
000180 eb d1 8b bc 62 a2 2b bc 37 15 88 3c 35 61 30 bd
       -0.01706787 -0.010475727 0.016611679 -0.043061454
000190 d2 71 01 bd 11 0f 51 3d 6e 68 1f bd 01 27 39 3c
       -0.031602688 0.05103976 -0.03891795 0.011300803
0001a0 cd e9 58 bd 90 71 f2 bb 44 c2 67 3d c2 2d 21 3c
       -0.052957345 -0.0073987916 0.05658175 0.00983757
0001b0 7e c0 4d bd 9c 19 eb bc 67 d3 c4 3c 53 0f ef 3c
       -0.050232403 -0.028698735 0.024026586 0.029182112
0001c0 f1 32 8f ba 7f dc 04 bd bb 95 d0 3c 1a 1c 49 bd
       -0.0010925216 -0.032436844 0.025462022 -0.049099065
0001d0 85 4b 37 3c fd 12 93 bb 91 1a 00 3d 27 7c 11 3d
       0.011187439 -0.0044883476 0.031275336 0.03551879
0001e0 ef cb 21 3d ea 32 43 bc 7f e1 55 3d 37 28 4d 3b
       0.039501127 -0.011913994 0.052217003 0.0031304487
0001f0 57 d4 31 bd e0 53 a3 3c 7a 75 24 bd 79 eb 39 bd
       -0.043415394 0.019937456 -0.040151097 -0.04539058
000200 d8 f0 27 3d 7c 5f 5e 3d 16 37 c1 bb 39 00 a9 bc
       0.04100117 0.05429028 -0.0058964593 -0.020629989
000210 97 dd 0e bd 7e ca 5e bd 32 ea 70 3c 79 ef 8d bc
       -0.034879293 -0.05439233 0.014704274 -0.017326104
000220 ec 4c 4a 3d 88 ea 53 3d 0c b9 80 bc 21 25 1b bd
       0.049389765 0.05173734 -0.015713237 -0.037877206
000230 65 16 5e ba df 30 6a bd 54 93 35 3d 8b b4 6e 3d
       -0.0008471965 -0.057175513 0.044329956 0.058277648
000240 bc fa a4 3c d6 d3 a8 3b 4d 8a 7d bd ee cb 2a bd
       0.02013909 0.005152206 -0.061899472 -0.04169839
000250 9d c1 38 3d cc b9 37 3c 68 ca 2b 3c 80 87 b5 3b
       0.04510652 0.011213731 0.010485269 0.0055398345
000260 50 76 3c bb 12 ec 36 3d e7 8e ec bc 93 b0 ed bc
       -0.0028757043 0.044658728 -0.028876735 -0.029014861
000270 3b cc ee 3c 87 a4 85 bc 58 6e 6b bc 97 24 0e bd
       0.029150119 -0.016313804 -0.01436957 -0.034702864
000280 36 1b 8b 3c d3 51 67 bd c0 9e e8 bc b1 f9 09 bd
       0.016980749 -0.056474518 -0.02839601 -0.03368539
000290 a6 9d 63 3d ec d5 a6 bc c2 ce 1e bd 7c 50 1f bd
       0.055570267 -0.020365678 -0.0387714 -0.038895115
0002a0 9c 93 22 3d 27 10 4d 3d 83 36 ee bc 67 97 fa bc
       0.039691553 0.050064232 -0.029078728 -0.030589772
0002b0 f1 d5 eb bc 19 3c 51 3c 4b 46 52 bd 4e ce 88 bd
       -0.028788539 0.012770676 -0.051336568 -0.066799745
0002c0 a3 b2 92 bc 91 95 08 bc db d6 d0 3c b3 7f 5c 3d
       -0.017907446 -0.008336441 0.025493076 0.05383272
0002d0 c8 1e f6 bb 12 33 25 3d 60 03 9d 3c b4 78 7c 3c
       -0.0075109936 0.040331908 0.019166648 0.015409637
0002e0 8a 72 2a bd 9a 39 57 bd 7a 21 dd 3c 5e ff a7 bb
       -0.04161314 -0.052545168 0.026993502 -0.0051268777
0002f0 dc 73 07 3d de 41 64 3d b8 f4 d4 bc 97 9f 39 3c
       0.033069476 0.05572688 -0.025995597 0.011329553
000300 56 20 66 bd 18 e9 95 bc 0e fd 9d bb 9f 22 5e 3c
       -0.05618318 -0.018299624 -0.0048214262 0.013558059
000310 1c 6c 61 bd 54 44 23 3d 6c e9 7a 3d b1 22 1f bd
       -0.05503474 0.039860085 0.061257765 -0.038851444
000320 87 9a 47 3d 55 58 9c 3c 91 2e 5e bd e5 8a 79 3d
       0.048731353 0.019085089 -0.054243628 0.060923476
000330 c0 2e 1f bd c4 84 cf 3c af 4a 89 bd d3 7a 2b bc
       -0.038862944 0.025331862 -0.06703698 -0.010466295
000340 74 a4 08 3d e2 9b 96 3c e1 65 17 bd fb d4 4b 3d
       0.03335996 0.018384878 -0.036962394 0.04976366
000350 ab 13 aa 3c 29 dd 1e bd 5c be a3 3c 47 58 43 bd
       0.020761332 -0.038785134 0.019988231 -0.04769161
000360 6e 6f c6 3b 36 b7 a1 3c ea 16 70 bd 02 1a 72 3c
       0.006055764 0.019740682 -0.058615603 0.014776709
000370 ad c7 bc ba 28 22 91 bc 04 0e b1 ba 01 79 31 bd
       -0.001440277 -0.017716482 -0.0013508205 -0.04332829
000380 90 4d 80 bc fb 95 ed bc f7 61 e4 bc 86 67 1a bd
       -0.015661985 -0.02900218 -0.027878745 -0.037696384
000390 b4 31 3d 3c 72 a0 43 ba 24 6f 6b 3c 74 c0 3d bd
       0.011547495 -0.0007462568 0.01436976 -0.046326116
0003a0 25 6d 56 bd 9d 9e 0c 3d ac df 4c bd d4 9d 80 3c
       -0.052350182 0.034330953 -0.050017998 0.015700258
0003b0 0b b1 14 bd c0 73 4b 3c e3 58 7f 3c e7 38 a7 3c
       -0.036301654 0.012417734 0.015585157 0.020412875
0003c0 6a 33 76 3d de 96 04 3d 27 41 ef bc 0f 8f a6 bc
       0.060107626 0.03237044 -0.029205872 -0.020331888
0003d0 3b d1 63 bd 3d 29 d7 3c ce 31 f1 3c 2f 2f c1 3c
       -0.05561946 0.026264781 0.029442694 0.02358207
0003e0 48 91 7d 3d 82 79 46 3d 20 0b aa 3c ac 26 ab 3b
       0.06190613 0.048455723 0.020757258 0.005223116
0003f0 21 14 0f 3d 54 d5 2d 3d 82 2b 59 bd 40 e7 7b bd
       0.034931306 0.042439774 -0.053020008 -0.061499834

net.2.linear.weight f4 [256, 256]
000000 61 86 e9 bd 0a 5a 8a 3d ab d1 04 3d 8a aa 8c bd
       -0.11402584 0.06755455 0.032426517 -0.06868465
000010 9d 28 0b 3d 39 63 57 3d 65 77 10 3e 44 79 1a bd
       0.03397428 0.05258486 0.14108045 -0.037713304
000020 16 df d0 3d e4 ed 2b 3d 65 71 d7 bb 5a 1c 0d 3e
       0.101988 0.041974917 -0.006574797 0.13780347
000030 eb 50 4c 3d 9c 73 a5 bd d1 3d ac 3d d3 80 ed bd
       0.049881857 -0.08078691 0.08410228 -0.11596837
000040 77 85 a0 bd 3e b5 5f 3c 45 7a b6 3d 7a 8a 13 be
       -0.078379564 0.013654051 0.0891004 -0.14408293
000050 fe e9 02 3e 4b 20 bb bd 41 43 ab bd 2c cd 9a bb
       0.12784573 -0.09137019 -0.08362437 -0.0047241654
000060 e7 d1 0a 3d ee c9 2b bd b7 22 02 3e f8 df 15 bd
       0.033891585 -0.041940622 0.12708555 -0.036590546
000070 8e 1b 54 3d 12 6c de 3d dd 28 71 3d a9 89 c7 bd
       0.05178409 0.108604565 0.05887686 -0.097430535
000080 b0 58 14 3e 33 aa 8f bc 44 72 08 3e 01 8f ae 3d
       0.14486957 -0.017537212 0.13324839 0.085233696
000090 0e 68 38 bc 75 d3 7e bd 7c 6f 9c bd e6 1a cc 3d
       -0.011255277 -0.06221338 -0.076384515 0.09966068
0000a0 96 e9 fe 3c fa a2 cc bd 8a af 22 3d 79 5b 9a 3d
       0.031117242 -0.09992023 0.03971819 0.07536978
0000b0 12 09 1c bd e3 dd bb 3d 85 ad 50 bd 93 42 1a be
       -0.038094588 0.09173181 -0.05094673 -0.15064459
0000c0 a4 00 e0 bc 64 1c 5e bd 69 15 c8 bd dc c2 95 bc
       -0.027344055 -0.054226294 -0.09769709 -0.018281393
0000d0 78 c7 11 be 2c 6e 57 bd b0 38 54 bd d2 09 49 bd
       -0.14236248 -0.052595302 -0.051811874 -0.04908163
0000e0 ef 92 00 3e 3f 71 29 3d 1e 23 43 3d 01 c2 a8 3d
       0.1255605 0.041367766 0.047640912 0.08240128
0000f0 3d f4 19 3e b6 e3 a1 3c d0 2f 22 3d 46 17 c2 bd
       0.15034576 0.019761901 0.03959638 -0.09477095
000100 bf c1 dd bd 30 05 f2 3d 52 38 82 bd c3 c3 04 be
       -0.1082797 0.11817396 -0.063583985 -0.12965302
000110 0b a5 d2 bd d1 75 5f bd 2c ae 19 be fb 66 0b 3e
       -0.10285386 -0.054555718 -0.15007848 0.13613503
000120 32 ae 06 3e df 13 d3 bd fe db c8 3d f2 bb d0 bd
       0.13152388 -0.103065245 0.09807585 -0.10192098
000130 c9 29 e9 bd e3 17 e0 3d eb aa fe 3d a5 4a 53 bd
       -0.11384923 0.10942056 0.12434944 -0.05158486
000140 2e a6 08 be f3 8d 10 3d d5 87 da bd b7 8f 03 3e
       -0.13344643 0.035291623 -0.10670439 0.12847792
000150 b3 c9 76 3d 45 f8 7f 3c a5 96 c1 3d 51 75 09 be
       0.06025095 0.015623157 0.09452561 -0.13423659
000160 fe 0d 16 3e 87 45 cc 3d 04 dc 03 3e fd 9d 95 bd
       0.14653775 0.09974199 0.12876898 -0.073055245
000170 ff f2 c3 bd b4 d2 1a 3e d8 54 e4 bd 36 38 f2 3d
       -0.09567832 0.1511944 -0.11148995 0.11827128
000180 f0 3e be 3d d0 26 0f be e4 e0 07 3c b6 84 89 3d
       0.09289348 -0.1397965 0.008293364 0.06714766
000190 9d 91 dc 3d 2d 70 ec bd f9 98 16 bd ae ca ac bd
       0.10769961 -0.11544833 -0.03676698 -0.084370956
0001a0 7a 59 12 be 2f 1e a0 3d ae 71 97 3b 58 c8 b5 3d
       -0.14291945 0.07818257 0.004621706 0.08876103
0001b0 5d c9 68 bd 32 78 b3 3b 93 23 95 bd 11 1d 32 3b
       -0.05683266 0.005476975 -0.07282176 0.002717797
0001c0 4d 73 11 be 40 f9 10 3d 40 38 79 3d f8 d8 1a bd
       -0.1420414 0.035393953 0.06084466 -0.037804574
0001d0 00 1e 02 bd b0 49 1b 3d fb ba 4e bc b9 79 84 3d
       -0.03176689 0.03791207 -0.012617822 0.06468529
0001e0 cd 27 40 3d 3d 9b 82 3d 5f 6d de bd f5 1b af 3d
       0.046912957 0.063772656 -0.10860705 0.08550254
0001f0 e6 7b e0 bd 54 7c fb bd de 73 fa 3d 10 59 d6 3d
       -0.10961132 -0.12279573 0.12229131 0.10466206
000200 46 f0 e3 3d 9f 9f e7 bb be 29 41 3c 7f 3f a2 3d
       0.11129813 -0.007068589 0.011789737 0.07922267
000210 7c aa c9 bc ca 5f 02 be bb 7f 48 bd 04 15 31 bc
       -0.024617426 -0.12731853 -0.04894994 -0.010808233
000220 92 3a 11 be 0f da 14 3e b9 3b 3d bd 70 e5 c8 bd
       -0.14182499 0.14536308 -0.046199534 -0.09809387
000230 c7 f4 30 3d ab 8a 7e 3d 35 fd df bd 4c 18 b1 bd
       0.043202188 0.062143963 -0.10936967 -0.086472124
000240 cc a5 5d 3d 4d b4 88 3b d5 40 ad bd e8 66 88 bc
       0.054113194 0.004171884 -0.08459631 -0.016650632
000250 66 ba e4 3d d1 63 91 bc fd 25 19 be ab 61 d8 bd
       0.11168365 -0.017747791 -0.14955898 -0.10565504
000260 70 44 90 bd 45 18 dd 3d 74 c8 ff bd fa ff 10 be
       -0.070443034 0.10795645 -0.12489405 -0.14160147
000270 e4 26 d6 bc 1d f5 9e bd 34 ab 1a 3c fe 23 e1 bc
       -0.026141591 -0.077615954 0.009440232 -0.027482983
000280 19 92 06 3e f3 d1 c3 3d f1 b9 89 bc 98 9e 38 3d
       0.1314167 0.09561529 -0.016812297 0.04507312
000290 a6 ff 6f 3c dc a8 c4 bb ce 2c ba 3b 0d a1 73 3c
       0.014648354 -0.006001575 0.0056816107 0.0148699405
0002a0 b4 46 60 3d 60 72 15 be 9f d5 06 3e 0b 66 10 be
       0.054754928 -0.14594412 0.13167427 -0.14101426
0002b0 37 16 8d bd 37 c5 a1 bd d4 87 ba 3c fd 83 40 bd
       -0.06889003 -0.07898944 0.022769846 -0.047000874
0002c0 62 c5 9e bc 34 44 32 3d 88 9e b7 bd df 9b 0b 3e
       -0.019381229 0.043522075 -0.08965784 0.13633679
0002d0 fe d2 c6 bd 48 89 8e 3d 82 ee e3 bd 1c a1 51 bd
       -0.09708212 0.06959778 -0.11129476 -0.051179036
0002e0 ea 6e 30 bd 4a e7 83 bd cb 7c 3c bd 6a 78 50 3d
       -0.043074526 -0.06440599 -0.04601745 0.050896086
0002f0 32 c0 83 3d 2e 69 98 bd 3e aa 0c be 0a 44 d9 bd
       0.06433143 -0.074419364 -0.13736817 -0.106086805
000300 00 aa 06 3c 85 0b ce bd 3a 82 01 be fa 6f 08 3e
       0.008219242 -0.10060791 -0.12647334 0.13323966
000310 d7 47 fe bd a4 cc a1 3d 64 69 b8 bc ac 91 fd 3d
       -0.12416046 0.0790036 -0.022511192 0.123813
000320 32 62 73 3c e8 33 41 3d ca 8c ba bd d6 72 f3 3d
       0.014854955 0.047168642 -0.09108885 0.118871376
000330 3b 99 a6 bd 9b ec 87 bd 36 eb 89 3d e1 52 97 3d
       -0.08134695 -0.06636926 0.06734316 0.07388855
000340 5a 15 b8 3d 38 4e 00 3e 27 29 9c 3d 33 44 d3 3c
       0.089884475 0.12529838 0.07625037 0.025789356
000350 a1 0c 50 bc fd 40 f7 bd 18 6e 86 bd 0a 43 9e 3d
       -0.0126983235 -0.120729424 -0.065639675 0.077276304
000360 22 cf 11 3e 32 a6 dc 3d 52 b2 bd 3d b9 2b 94 3b
       0.14239171 0.10773887 0.092625275 0.0045218137
000370 84 4c 7d 3d 41 b1 f7 3d 29 64 a9 3d 0e d7 02 be
       0.06184055 0.120943554 0.08271057 -0.1277735
000380 1c e8 32 bd 13 81 0e bd e2 ad a2 bd 0e 38 be bd
       -0.043678388 -0.034791064 -0.07943322 -0.09288035
000390 86 c5 e4 bc 5b 0c a6 3d 7a 73 ef 3d bc 47 62 bd
       -0.027926218 0.08107825 0.11691947 -0.055244192
0003a0 40 9e a7 3d 23 26 1a bd 06 d0 fb 3d cf 7a 07 be
       0.08184481 -0.037634026 0.12295537 -0.13230442
0003b0 7f 83 a1 3d 60 33 09 be 7f 54 80 bd f0 5c bf 3a
       0.07886409 -0.13398504 -0.06266116 0.0014599841
0003c0 e6 7f 45 bc 10 8b e8 3d 47 0a 84 bc d2 16 12 be
       -0.012054419 0.11354649 -0.016118182 -0.14266518
0003d0 eb f4 08 be 00 da d0 bd 6c 39 0b be 8d f9 b0 3d
       -0.13374679 -0.1019783 -0.13596123 0.08641348
0003e0 e1 16 59 bd e4 51 8a 3d c0 29 c6 3d 35 f4 3c 3d
       -0.053000335 0.06753901 0.09675932 0.04613133
0003f0 df 6a c1 3c 43 b5 ca 3d 99 5b a4 3d a0 91 bc 3d
       0.02361053 0.09897854 0.08025283 0.09207463

net.2.linear.bias f4 [256]
000000 2f 9b 31 3d f1 55 e5 bc 49 5a 07 3c fd 36 06 bd
       0.043360885 -0.027995082 0.008261272 -0.032767285
000010 86 05 07 bc cf 24 76 3d f4 42 9c bc 3d a9 c7 3b
       -0.008241063 0.060093697 -0.019074894 0.006093173
000020 fb b9 52 3d 8b 93 69 3d 43 cb c6 3c 37 5a 39 bc
       0.051446896 0.057025474 0.024266845 -0.011313013
000030 cf 2f de b9 02 14 e3 3a 2a 1b 4c bd f4 e9 b3 bc
       -0.0004237876 0.0017324688 -0.049830593 -0.021962143
000040 0d ca af 3c 27 c0 5b bc a7 93 fb b9 b6 5a be bc
       0.02145865 -0.013412512 -0.0004798446 -0.023236614
000050 93 df 3e bd 3b 63 8d 3c c6 be 6d 3d 6a 91 21 bd
       -0.046599936 0.01725923 0.058043264 -0.03944532
000060 9c 20 39 bc f1 7e 32 3d 53 8d 58 3d 1a cb 5c 3c
       -0.011299279 0.043578092 0.052869152 0.013476158
000070 40 77 44 bc e9 cb 5f 3d a7 bd 76 bc 26 73 47 bd
       -0.011991322 0.054637823 -0.015059865 -0.0486938
000080 76 98 d7 3c 41 c6 70 3d 7d 20 53 bc 70 a0 0b bc
       0.026317816 0.05878282 -0.012886164 -0.008522138
000090 5b fe 86 ba a4 f1 cc bc e2 af 49 bd cf 28 2a 3d
       -0.0010299193 -0.025017567 -0.04924 0.041542824
0000a0 6a 64 7b 3d b8 32 57 3d e9 58 3b 3d 94 77 79 bc
       0.06137506 0.052538604 0.04573909 -0.015226264
0000b0 da 29 09 3d 22 82 e3 3c 3b 3e a1 bc 6f e0 7e 3d
       0.03348718 0.027772013 -0.019682994 0.062225755
0000c0 32 54 6c bd 96 1c 3b 3c c9 fe 37 3d 9b 9e 28 3d
       -0.057697482 0.01142039 0.044920716 0.041166883
0000d0 ec 9b 6d 3d 0e b3 28 3d 8b c9 74 bd 8f 7e 64 3c
       0.058010027 0.041186385 -0.05976252 0.01394619
0000e0 6b 37 be bc 76 65 be bc 4d 1f a5 bc 41 5d 19 3d
       -0.023219785 -0.02324174 -0.020156527 0.03744245
0000f0 2d e5 05 3d ff 10 23 bd a7 01 6a bc 68 64 98 3b
       0.032689262 -0.03981113 -0.0142826205 0.004650641
000100 03 c2 1a 3c b0 07 3b 3d 55 d3 22 3d bf 20 6e 3b
       0.00944567 0.04566163 0.039752323 0.0036335436
000110 d8 bd c6 3c 5f 1c 78 bc b3 35 16 3d 24 00 57 3d
       0.024260446 -0.015143483 0.036672305 0.05249037
000120 c2 56 3f bd 04 d6 5d 3d e8 36 eb bc e7 56 62 bd
       -0.046713598 0.05415918 -0.028712705 -0.055258658
000130 35 b7 53 bd ed 3e a4 3b 2f 95 ab bc cd f0 26 3d
       -0.05168839 0.005012384 -0.02094516 0.04075699
000140 77 4f 9c 3c df 70 4f bd 2b 1c 86 3c 40 c4 20 bd
       0.01908086 -0.05064475 0.016370853 -0.03924966
000150 9a e2 22 3c 78 21 1b 3d b0 fd 7c bd 83 54 15 bc
       0.009941721 0.037873715 -0.061765373 -0.009114387
000160 5c 4e 34 bd 59 bf 1d bd a5 d8 1e bb c0 65 b7 bc
       -0.04402004 -0.03851256 -0.0024238017 -0.022387385
000170 21 da 60 3d 5c 97 94 bc c1 30 2e 3d 3a 80 20 3c
       0.054895524 -0.01813858 0.042526964 0.009796197
000180 44 c3 6c 3d 05 03 af ba 11 5c 6b bd c1 59 4b 3d
       0.057803407 -0.001335234 -0.05746085 0.049646143
000190 5f 65 c6 bb b0 d3 c9 bc c5 03 3d bc 46 82 04 bd
       -0.006054565 -0.024637073 -0.011536543 -0.0323508
0001a0 42 ac 1c bd 23 8e 2b bd 61 7f 0f 3c fc db 15 3c
       -0.038250215 -0.0418836 0.008758397 0.009146687
0001b0 21 e0 db bc e8 d5 79 bc d8 58 23 bd 53 8e 8a bc
       -0.026840271 -0.015248753 -0.03987965 -0.016913569
0001c0 ae 0a 1b 3c 00 6c 54 bd cc 65 16 3d 19 d7 46 bc
       0.009462995 -0.05186081 0.036718175 -0.012136244
0001d0 ba c1 58 3d a9 b0 39 bd b3 a9 a2 3b fe 39 cb 3c
       0.052919127 -0.045334492 0.0049640774 0.024807926
0001e0 fb 5a 3e bd 7c a3 96 bc 9e 8c f0 3c f2 df 4f 3d
       -0.046473484 -0.018388502 0.029363927 0.05075068
0001f0 5d 8f 4c 3c 99 e5 41 bc 78 3c af 3c 6b 29 43 bc
       0.012485352 -0.0118345255 0.021391138 -0.01191173
000200 02 85 1d bd 8b f5 0a 3d ca 11 2b bd 68 55 4c bb
       -0.038456924 0.033925574 -0.04176501 -0.0031178836
000210 ed 28 27 bd 05 e2 4d bd 2f 41 6e 3d 17 80 34 bd
       -0.040810514 -0.050264377 0.058167633 -0.04406747
000220 e3 df 3d 3d 04 6a fe bc f5 15 0e 3b ea 40 89 3c
       0.046356093 -0.031056412 0.0021680568 0.016754586
000230 08 33 45 3c 33 0d e4 bc c0 cd 6a bd dc 0d 4e bd
       0.012036093 -0.027838325 -0.057325125 -0.050306186
000240 24 aa 00 bd 5f ac 72 bc 4c 66 52 3d 0b 50 a3 3c
       -0.03141226 -0.014811604 0.05136709 0.019935628
000250 1f 8a bf 3c 9f ae 17 bd 39 11 81 bc ad f3 70 bb
       0.023381291 -0.037031766 -0.015755283 -0.0036766336
000260 5d 97 20 3d 09 40 2c bd a0 03 0e 3d 2e a8 af bc
       0.03920685 -0.042053256 0.034671426 -0.021442499
000270 56 a1 3c bd 4d cf b3 3b 7b 2c 37 bd 40 23 03 3d
       -0.0460523 0.0054873587 -0.044720154 0.03201604
000280 90 69 7a bd 36 72 1b bd 48 63 4b bd 9f f4 12 3b
       -0.06113583 -0.037950717 -0.04965523 0.0022423638
000290 37 fe 6e bb e3 c4 b2 3c 8d 51 78 bd bd d5 33 bd
       -0.0036467442 0.021822399 -0.060624648 -0.04390501
0002a0 c0 7b 2c bd 7f ef bc bb 08 4b 27 3b 1a 2f 3b 3d
       -0.042110205 -0.005765855 0.00255269 0.045699216
0002b0 73 f1 50 3c db aa f3 3c 95 91 7a 3d 7d ce aa bc
       0.0127528785 0.029744556 0.061173994 -0.020850414
0002c0 d4 49 4f bc a1 ca 6d bc fe 99 4a bd f7 05 15 bd
       -0.012651879 -0.0145136425 -0.049463265 -0.03638264
0002d0 06 98 95 3c dd 02 2b 3d 3d be c5 bb 88 ee 0f 3c
       0.018260967 0.041750778 -0.006034641 0.008784898
0002e0 8f 78 b1 bc 8c b7 ea 3c 16 15 27 3d 6b ea 87 3b
       -0.021663932 0.028651975 0.040791593 0.004147818
0002f0 ad bd cc bb 2b 48 7b bd 82 35 b8 3c 1e ff 25 bd
       -0.006248197 -0.06134812 0.022486452 -0.0405265
000300 52 22 92 b9 dc fc 1f bd d6 50 88 3c b7 3d 2f bd
       -0.0002787286 -0.039059505 0.016640108 -0.042783465
000310 ad be d0 3c 3f d5 42 bd 4e c4 38 bd 42 70 78 bd
       0.025481546 -0.04756665 -0.045109086 -0.060653932
000320 12 44 2b 3d ba 93 05 bd 71 36 49 bd e4 93 37 3d
       0.041812964 -0.032611586 -0.049124185 0.044818774
000330 06 25 0c 3d 81 59 0c bd 8c d1 59 3c ca a0 72 3c
       0.034214996 -0.034265045 0.013294589 0.014808843
000340 24 64 4b 3d dd e4 b8 bc e7 ef 76 3c b9 45 f8 bc
       0.04965605 -0.022570068 0.015071846 -0.030306684
000350 99 b8 16 3d 7d a9 c6 3c e5 82 96 bc 19 db 4b 3d
       0.03679714 0.02425074 -0.018372962 0.049769495
000360 fa 7d 34 3d 30 3f 63 bd 84 86 1a bd fa 11 c7 bc
       0.044065453 -0.055480182 -0.03772594 -0.024300564
000370 4f f8 30 3d 82 e1 0e 3c 8c fb 70 bd c9 cc 2e 3b
       0.043205556 0.008720757 -0.058833644 0.0026672354
000380 aa 16 ac bc 9f 3b ee bc 48 f6 67 3d 2e a1 4f 3d
       -0.0210069 -0.029081164 0.056631356 0.050690822
000390 91 75 9d bc 9b a5 22 3d 51 a2 1e bd 71 9d 63 3d
       -0.0192211 0.039708715 -0.038729016 0.05557007
0003a0 b1 ad 19 bd f0 4e 40 3d d8 3c b6 3c 38 75 03 3c
       -0.03751916 0.04695028 0.02224581 0.008023553
0003b0 bf 32 83 bd 85 e2 2d 3c 5a f5 4e 3d 0e 98 c3 ba
       -0.064061634 0.0106130885 0.050526954 -0.0014922635
0003c0 f4 45 d1 bb 72 6b b4 bc cc f2 d5 bc c3 51 de 3b
       -0.006386513 -0.02202389 -0.026116751 0.006784649
0003d0 11 0a 6b bb f7 55 6f bd 46 36 2d 3c 0c 43 c3 bc
       -0.0035864154 -0.05843159 0.010572022 -0.023835681
0003e0 c8 64 8f 3c fd 68 5c 3c 1f 5e 43 3d 31 e5 87 3c
       0.017504111 0.0134527655 0.047697183 0.01658878
0003f0 34 a0 91 bc 49 fb 70 bd 7c ea 0b 3d e7 76 f4 bc
       -0.017776586 -0.058833394 0.03415917 -0.029841853

net.3.linear.weight f4 [1, 256]
000000 99 b2 cb bd 16 9a ae bd 5e a5 5e bc b8 84 f2 3d
       -0.09946174 -0.08525483 -0.013589231 0.1184172
000010 bf d1 0a be b8 0b 1b be 5e 4d 92 3d 94 91 95 bd
       -0.13556574 -0.15141189 0.07143663 -0.073031574
000020 18 44 04 be 2a 7b b6 3d 86 91 87 bc c7 12 c4 3d
       -0.129166 0.089102104 -0.016548883 0.09573894
000030 c1 c6 a9 3d d3 a7 9a bd 81 1a e5 3d c5 32 a7 bd
       0.082898624 -0.07551541 0.11186696 -0.081639804
000040 bc 3e d9 3b 9b d1 57 bd 20 6e 7b bd 99 5a ae bd
       0.006629793 -0.05269013 -0.06138432 -0.08513374
000050 e9 20 23 3d 33 c9 a9 3d dd 93 0b bd d7 a6 0a be
       0.039826307 0.08290329 -0.03407656 -0.13540207
000060 5b c8 f8 ba 2a da 83 bd 7a f2 0b bd 6e 57 0d 3d
       -0.0018980609 -0.06438096 -0.03416679 0.034507208
000070 d0 47 05 be 70 4b 1a bd 53 11 cb 3d 91 8d f0 bd
       -0.13015676 -0.0376696 0.09915414 -0.11745752
000080 46 6b 00 be 12 b4 6d bd 07 db 0a 3e 42 00 bc bd
       -0.12540922 -0.058033057 0.13560115 -0.09179737
000090 ee 87 b3 3d 5e 8f 83 3d 6b e9 01 3e 68 59 fe 3d
       0.08766161 0.064238295 0.12686698 0.12419397
0000a0 7e 62 05 3e 8b 11 1b bd 11 41 26 3d 9f 62 10 3e
       0.13025853 -0.037858527 0.040589396 0.14100121
0000b0 79 35 14 be 9d d6 cd bd 8c 06 f0 3d d4 03 a1 3d
       -0.14473523 -0.100507 0.11719999 0.07862058
0000c0 e2 ea 8e bd b0 1a ab 3d 04 14 4b 3d e4 9c fe bc
       -0.06978394 0.083546996 0.049579635 -0.03108067
0000d0 8b f2 12 3e e0 7c d0 bc 79 aa 12 be 7d 76 16 be
       0.14350335 -0.02545017 -0.14322843 -0.14693637
0000e0 e5 14 d5 bd 23 19 ae 3d 11 ed b7 3d 69 67 ae 3d
       -0.10404376 0.08500888 0.08980764 0.08515818
0000f0 53 c0 54 3d 7d ad 0c 3d 7a 8a 0f 3b 80 7a cb bd
       0.051941227 0.03434514 0.0021902607 -0.099354744
000100 56 18 0b 3e d8 94 30 3d a1 7d b1 3d 90 1c 10 be
       0.13583502 0.0431107 0.0866654 -0.14073396
000110 17 3d 82 bd 46 79 65 3d d2 3f 13 bd a9 dd ba bc
       -0.06359308 0.05602386 -0.035949536 -0.022810774
000120 36 0b 81 bc 99 a6 b5 bc 6c 39 04 be 3c 49 2a bd
       -0.015752416 -0.022174167 -0.1291253 -0.041573748
000130 66 72 2c 3d 56 f4 d5 3d 4f 3f c0 bd 9d f2 b3 3d
       0.042101286 0.10446994 -0.09387075 0.08786509
000140 0a a0 9c bd 50 4e 11 be 73 e4 0b 3e 5c 0b 04 3d
       -0.076477125 -0.1419003 0.13661365 0.032237396
000150 62 3d 56 3d 3f 6a 53 3c 07 56 02 be 58 8f dc bd
       0.052304633 0.012903749 -0.1272813 -0.10769528
000160 eb bc fb 3d a5 ff 87 3a f2 42 93 bd a5 ec c7 3d
       0.122918926 0.0010375871 -0.07190503 0.09761933
000170 43 6f b8 bb aa cf 0d be a1 6c c6 3d 3e da 15 3b
       -0.005628498 -0.13848749 0.09688688 0.0022865678
000180 d2 d1 26 3d b3 69 aa 3d 3f 1d 79 3d 84 97 02 be
       0.040727444 0.08320942 0.060818907 -0.12753111
000190 46 af 2c 3d 7f bd ac bd f1 81 0e 3e bd 53 c2 bd
       0.04215934 -0.08434581 0.13916756 -0.09488628
0001a0 2a 40 3a 3d 4a fc 65 bc f9 c5 c1 bc 21 d3 02 be
       0.045471348 -0.014037201 -0.023653971 -0.12775852
0001b0 7b eb f4 3c 02 69 ec 3c f4 88 ef 3d 3c e3 ce 3d
       0.029897442 0.028858665 0.116960436 0.10101935
0001c0 66 fd 8b bd 34 4e 96 3d 8f d4 3c bd 50 6a 09 3e
       -0.06835441 0.07339135 -0.04610115 0.13419461
0001d0 fa 20 d5 3d ee 18 ad 3d 52 ab ec bd cc 52 c3 ba
       0.104066804 0.084520206 -0.11556114 -0.0014901995
0001e0 31 54 ff 3d c5 33 52 bc 2f 35 1a be 61 d5 eb 3d
       0.1246723 -0.012829726 -0.1505935 0.11515308
0001f0 0c 73 e6 3b 89 b9 57 3a a2 f3 c0 bd 43 19 e6 3d
       0.0070327576 0.0008229246 -0.09421469 0.11235287
000200 ff c8 68 bd b4 90 17 be c4 06 65 3d 8d 69 f8 bd
       -0.05683231 -0.14801294 0.055914655 -0.12129507
000210 be 5f 21 bd b1 1d 9e bc c9 e0 d9 3d 0b e9 6c bd
       -0.039397947 -0.019301267 0.106385775 -0.057839435
000220 30 a2 a2 bd 91 72 d2 bc 5d f9 4b 3d ca 88 1d 3d
       -0.07941091 -0.025689395 0.04979836 0.03846053
000230 0f a1 71 3d 18 7c a4 3d 28 69 0d 3e c0 d5 a1 bc
       0.058991488 0.080314815 0.13809645 -0.019755244
000240 5b d0 d5 bd f4 8f e1 3d 2b d9 de bd 94 fd 18 be
       -0.10440131 0.11013785 -0.10881265 -0.14940482
000250 85 08 53 3d 9a e6 cc bd 11 7c b1 bc ce 87 ac bd
       0.051521797 -0.10004921 -0.021665605 -0.0842434
000260 01 dc ab 3d b6 4d a8 bd 4c 38 ad ba c0 16 8d bd
       0.08391572 -0.08217947 -0.001321563 -0.06889105
000270 b3 5b ea 3d 20 04 97 bd 50 95 c5 bd 92 b5 df 3c
       0.114432715 -0.07373834 -0.0964762 0.02730826
000280 b1 c1 9e bd 15 3a 61 3c 0e 92 96 bd d2 71 02 3e
       -0.077517875 0.013746758 -0.073520765 0.12738732
000290 f3 31 61 bd 12 6a 5e 3d e7 fd bc 3d 32 4c ea 3d
       -0.054979276 0.054300375 0.092281155 0.11440314
0002a0 ef c4 c3 3d 04 ad 3d 3d b6 fe e4 bc 94 f8 30 3c
       0.095590465 0.04630758 -0.027953487 0.010801453
0002b0 99 f8 0e 3e 69 45 67 bd 2a 24 45 bd 26 f7 af 3d
       0.1396202 -0.05646268 -0.04813019 0.08592062
0002c0 98 8a de bc 38 dc 0f be 68 21 28 3d 01 66 23 3d
       -0.027165696 -0.1404885 0.041047484 0.0398922
0002d0 08 97 7a bd 33 43 4b 3d 08 cd a0 bb ea cc c1 3a
       -0.06117919 0.049624633 -0.004907254 0.0014785801
0002e0 42 b2 22 be b4 d8 63 3d 87 0f 16 3e 6e 8e 00 3e
       -0.15888312 0.055626586 0.1465436 0.12554333
0002f0 f9 8b e0 bd 65 40 29 3c 74 83 8e bd 00 fb bc 3d
       -0.10964198 0.010330294 -0.069586664 0.09227562
000300 7a 8a b9 bd ff 20 ae bd 48 71 f1 3d 03 80 50 3a
       -0.090596154 -0.08502387 0.11789185 0.00079536455
000310 f7 50 89 3d 2f 15 73 3c 19 37 9b bd 1d 95 0d 3e
       0.06704896 0.0148365935 -0.075788684 0.13826413
000320 9a 32 0b 3e 3d 77 df 3d c8 de b7 bd b2 6d e4 bc
       0.13593522 0.10911415 -0.08978039 -0.027884338
000330 97 da a0 bd 77 74 30 3d 2d 83 42 3d 90 0c 03 3e
       -0.07854193 0.04307982 0.04748838 0.12797761
000340 2a 11 9d bd cd cb ed bd 33 33 fe 3d 05 e3 c0 bd
       -0.076692894 -0.116111375 0.12412109 -0.094183005
000350 25 35 95 3d 07 49 fd bd d0 31 92 bd 97 42 7b bd
       0.07285527 -0.123674445 -0.07138407 -0.061342802
000360 9c 13 cb bd b1 9a 9d bd 19 b6 1c 3b 49 68 05 3e
       -0.099158496 -0.07695521 0.002391225 0.13028063
000370 65 eb 5b bd ab a1 41 bd 85 51 ad 3d 2b 86 d0 bc
       -0.053691287 -0.04727332 0.08462814 -0.025454601
000380 ef ed e7 bd 42 1b ff 3c b7 ad 9d bd 5b 5d 66 3a
       -0.11324679 0.031140927 -0.07699149 0.0008787715
000390 da a1 bd bd 69 10 16 be b3 17 f6 bc d2 fc f7 3d
       -0.09259386 -0.14654697 -0.030040598 0.121087685
0003a0 44 2b 41 bd 34 98 24 bd 3f ae 85 3d cc 2d c6 bd
       -0.047160402 -0.040184215 0.065273754 -0.09676704
0003b0 8b b1 00 3a a3 3d d9 3d 61 cc 9e bc 07 40 fc 3d
       0.00049092685 0.106074594 -0.019384565 0.123169
0003c0 90 e2 55 bc 7d 44 89 bd 6f c9 df 3d 09 63 73 3c
       -0.013054505 -0.06702516 0.10927092 0.014855155
0003d0 c5 a7 be 3d c2 f0 e8 3c 6b 1f 9b bc ac e6 09 be
       0.09309343 0.028435115 -0.01893588 -0.134669
0003e0 c2 fb d5 ba e2 23 c6 3d c2 74 f2 3d 1e 48 0f 3e
       -0.001632564 0.09674813 0.11838676 0.13992354
0003f0 1f 06 49 bc ae dd 54 3d e6 19 a0 bd 4a 88 58 bd
       -0.012269526 0.051969223 -0.0781744 -0.05286435
