geoinr/data/unconformities/plane_splus_model1L_128_50b.pth (torch, 70743 bytes, 5 tensors)

net.0.linear.weight f4 [128, 3]
00000000: ebda cf3e 017e 843f 4ffa 7dbe 64ce 91be
00000010: 50f8 b13f 6f88 223f 6c34 63bf 376e 623f
00000020: 47ac ab3e 1184 843f 257b 9e3e f46f 513f
00000030: cd3d ecbe 9aa8 97bf 47a3 b8be b4be 90bf
00000040: 3f65 72bc 0a54 71bd 09f8 9fbf c5f0 073f
00000050: 6e3e 823e a445 89bf 10a9 74bf c885 f1be
00000060: d396 593e 9a1c 633f dda0 893e d273 7dbf
00000070: 6edc 42bf 86a8 92bf 1265 3c3e 3897 f23c
00000080: 8878 e63e 4eef 33be 66bb b2bf 1e68 96bf
00000090: 57a1 a6be 06fe a1bf e21f 6e3f 4895 acbe
000000a0: a82e d8be 97e7 7b3e 9ee5 953d c2bb a23d
000000b0: e499 8437 b47d 59bf 27b4 233f 682f a93d
000000c0: 63bb 973f b311 aa3f c9db a7bf be04 c03e
000000d0: 83dd 683b 6b06 9fbf ff09 72bf 74ce 6f3f
000000e0: a1ed adbf 0b80 c6be 9933 9f3f da3b 873f
000000f0: 6f5c 8cbf 1db1 9f3e 5ebf 2ebe ad65 aabf
00000100: 1da2 373f 14d9 a5bf 15a3 11bf 04f1 05be
00000110: 0947 88bf 8680 00be 1137 d63e 7f4e 363d
00000120: ab22 2c3f 58ed fabe 2ea0 8e3f 38be 93bd
00000130: 339e 8fbf 7ba7 90be 8c5d e03b d662 66bf
00000140: cdec 5d3f 2b90 8b3e 01b5 953f bd52 863f
00000150: 08c3 8a3f d7cb 133f ba5e 5f3e 9824 a8bf
00000160: 7aa9 a7bf ab39 56be fa89 86bf 7bbb a8bf
00000170: 1fda 33bf e9e8 c7be c993 c13d 07c3 503f
00000180: db82 1fbf 9c88 a83f 0641 8c3f 494a 22bf
00000190: b4ba 50bf 2537 653f ff58 243f 8d8a 833e
000001a0: f285 7bbf 25a0 95bf 7ab2 83bf 40ff 283f
000001b0: 7bd2 143f 376d 9dbe bdff 953e 3ee7 593f
000001c0: 3608 b0bd 29b7 3b3f d7b3 83bf 88fb 7cbf
000001d0: 2477 b1bf 4576 a33f 338f 733f 2b04 fe3e
000001e0: 183f 6b3f db96 80bf 1b88 173e 37e1 7ebf
000001f0: 15fd 79bf 97ca 1c3f 8eb9 df3e fb8f 0abf
00000200: 2ec1 693f 5c01 9e3e f259 a0be 43c3 a33e
00000210: 7324 303f b730 9bbf efe6 01bd 7034 1b3d
00000220: 095e b63d 5421 87be c447 923d 74b9 b43e
00000230: 2438 9e3f 27ad 4e3e e2cd 13bf 4f8b a63f
00000240: 9753 68be 23f8 c83e f6ac 80be 88f6 c03e
00000250: c41b ca3c e4dd 043f 0523 2f3f 032a 5f3f
00000260: 7866 8abd 0dcd aebe 6114 203f 1605 613f
00000270: d6af 0e3e 441d 543f fc3a 88be 7654 a33f
00000280: b934 abbf c938 debe d247 5fbf ba6d 183e
00000290: 7f9f 9e3f 3715 7d3f 4ccf a6bf 95ee 84bf
000002a0: ce24 b5be 9327 fbbe 3c69 9ebf 6c14 31bf
000002b0: aaa6 b43f 0bdf 303f e424 883f 2f25 683f
000002c0: e820 583e 69d1 8c3d d1b8 90bf 9f3c 623f
000002d0: 0308 9cbf 95f4 203f 6cd2 0c3e 18e2 9dbf
000002e0: 430b 22bf b250 613f daf4 943f fdc8 78bf
000002f0: 305f dd3d 79a9 3f3f af4f b43f 4317 103d
00000300: e890 b1be fee5 793e bb62 05bf c736 c0be
00000310: 4df4 8fbf 70a1 77be 9e02 8a3f e1e9 64be
00000320: 09c5 953f 3484 cbbe 3700 17bf c308 ec3c
00000330: b93e b5bf 6884 5b3f 01ff 75bf c8ba 8c3f
00000340: 82e0 f2be 8669 a13f 3cab 8fbf 2bc0 a63f
00000350: 2f41 323f 509a 973f 7ddf a83f a6ca 71be
00000360: 34f0 c43d 6ff1 5f3f d3f9 aebf 38c2 81bf
00000370: 977e 203e ae85 8bbf 7d1a a2bf baa1 8a3f
00000380: 4e39 bbbe 7926 873f 097e 5c3f ac4f 8abf
00000390: 5aaf 9e3f 8189 653f 30de 573f ceec 0b3f
000003a0: ff98 b13f e7ea a3bf 809a 173c 5cc8 b7be
000003b0: c74f 233e ba60 27bf 9df0 aa3f e940 1f3d
000003c0: 5ee3 bfbe 630a 3abf 1f83 2ebf 9cf6 c0be
000003d0: 65fd 3d3f 8354 7b3f 1ac2 a9bd c99a f4be
000003e0: f449 48bf 16a3 86bf 8b79 13bd 1ca8 5cbf
000003f0: 9987 a93f 6928 c3bd 5ab1 3d3e 0446 09bf
0.4059671 1.0350953 -0.24802516 -0.28477776 1.3903904 0.6348943 -0.88751864 0.88449425
0.33529875 1.0352803 0.30953327 0.8181145 -0.461409 -1.1848328 -0.3606207 -1.1308198
-0.014794647 -0.058918037 -1.2497569 0.5310176 0.25438255 -1.0724378 -0.9557047 -0.4717238
0.21248941 0.8871552 0.2688054 -0.9900485 -0.761176 -1.1457679 0.1839793 0.029613122
0.45013833 -0.17571756 -1.396344 -1.1750524 -0.32544968 -1.2655647 0.930174 -0.33707643
-0.42223096 0.24600063 0.07319187 0.07945968 1.5807287e-05 -0.8495743 0.63946766 0.08260995
1.1854061 1.3286651 -1.3113948 0.37503618 0.0035532422 -1.2423834 -0.945465 0.936744
-1.3588144 -0.38769564 1.2437621 1.056514 -1.0965708 0.31189814 -0.17065188 -1.3312279
0.7173174 -1.2956872 -0.5688947 -0.13080221 -1.0646678 -0.12549028 0.41838887 0.044508453
0.672404 -0.49009204 1.1142633 -0.07214016 -1.1220154 -0.28252777 0.006847089 -0.8999456
0.86689454 0.2725843 1.1695863 1.0494 1.0840769 0.5773291 0.21813479 -1.3136168
-1.3098595 -0.20920436 -1.0510857 -1.3182214 -0.702547 -0.39044884 0.09452016 0.8154759
-0.62309045 1.316669 1.0957344 -0.633946 -0.81534886 0.8953727 0.641983 0.25691643
-0.9825126 -1.1689497 -1.0288842 0.6601448 0.5813367 -0.30747387 0.29296675 0.8511847
-0.08595316 0.73326355 -1.0289258 -0.98821306 -1.3864484 1.2770468 0.9514038 0.49612555
0.9189315 -1.0046037 0.14798014 -0.995624 -0.976518 0.6124663 0.43696254 -0.54125947
0.91310394 0.30860412 -0.31318623 0.3198491 0.6880562 -1.2124242 -0.031714376 0.037891805
0.089046545 -0.26392615 0.071425945 0.3529774 1.2360883 0.2018324 -0.5773603 1.3011264
-0.22688137 0.39251813 -0.2513196 0.37688088 0.024671443 0.5190108 0.6841281 0.8717348
-0.067578256 -0.34140816 0.62531096 0.87898386 0.13934264 0.82857156 -0.26607502 1.276015
-1.3375465 -0.434027 -0.87218964 0.14885607 1.2392424 0.98860496 -1.3032012 -1.038531
-0.35379642 -0.4905363 -1.2375865 -0.69171786 1.4113362 0.69090337 1.0636258 0.9068174
0.21106303 0.06875879 -1.1306401 0.8837375 -1.2189945 0.628732 0.13752145 -1.2334623
-0.63298434 0.88013756 1.1637223 -0.97181684 0.10809171 0.7486797 1.4086818 0.035178434
-0.34680867 0.24404141 -0.52103776 -0.37541792 -1.124643 -0.24182677 1.0782049 -0.22354843
1.1700755 -0.397493 -0.589847 0.028812772 -1.4159766 0.8574891 -0.9609223 1.0994501
-0.4743691 1.2610328 -1.1224132 1.3027395 0.6963071 1.1843967 1.3193203 -0.2361246
0.096161276 0.87477773 -1.366999 -1.0137396 0.1567329 -1.0900171 -1.2664334 1.0830605
-0.36567158 1.0558616 0.86129814 -1.0805564 1.2397263 0.8966294 0.84323406 0.5465821
1.3874816 -1.2806062 0.009253144 -0.3589505 0.15948401 -0.6538197 1.3354679 0.038880263
-0.37478155 -0.726721 -0.68168825 -0.37688148 0.74214774 0.9817583 -0.08288975 -0.47774342
-0.78237844 -1.051852 -0.036004584 -0.86194015 1.3244506 -0.09529192 0.18524686 -0.5362246

net.0.linear.bias f4 [128]
00000000: d818 423e 1031 993e d217 793d caf3 a13e
00000010: eeaf 77bd 7072 383e f8c1 5c3d 0d9e f43d
00000020: 0188 8dbe ee18 f539 f1cc 22be 9560 003f
00000030: fa12 a53e d226 da3e 250b c33d 50ed 53be
00000040: 7898 b13d 29c0 3d3e 3844 fd3e 0ff8 2b3d
00000050: 28d6 e33e c78b 8d3e ddbe fabe b3be d43d
00000060: 64a9 e43d 43ca dbbd 3c35 1cbc e924 103f
00000070: 3bf1 943e cda6 fe3e d739 65bd b01f 98be
00000080: f553 6c3e 4967 7cbe a329 993d 024b 083e
00000090: 5722 883e 37d2 193e 160f 3dbd a28f 2d3e
000000a0: 9683 0a3f 1b87 333e dd02 f0be 1ca6 4d3e
000000b0: f1bc 3fbe 008c 233d 96cd c03e 988e e3be
000000c0: b7d7 aa3e ed43 acbe 21de c03e 763e 903e
000000d0: 147c f23e 7358 e5be c0aa a53e 90a6 123f
000000e0: 6beb 963e 72fa 7e3e 2b13 c2bd 0cf0 03bf
000000f0: c6df 363c f483 cf3d bf01 0dbf 25af 883e
00000100: 8f9d 08bf f3c7 f9be 1a48 d3be a360 753d
00000110: dec7 813d a618 d33d 4acc f3be 4a3c e2bb
00000120: 75ea 413e 5cb3 e43e d6c4 433e 6afc c93e
00000130: 2986 0fbf 8c02 82be 5ca3 72bc 6912 b6bd
00000140: 73f2 013f 1122 b3be 50c6 fe3b 5473 10be
00000150: a669 a5be afdd 7e3e cb0f b8be 4799 053f
00000160: 4f58 f73e f8c4 a8be 0ce8 3c3e 2901 f33e
00000170: 4169 f6be ea15 883e dd4e d73e dc76 86be
00000180: 5355 123e 869d 2c3e 18d0 043f b88f e73e
00000190: 1d3c 8dbe 89d9 00bf 44b8 83bd edab e9be
000001a0: aed5 dbbd 2017 b13e 2463 93be 526b eebe
000001b0: 923c 883e 8512 fa3e c23c 5c3e b26a 9bbe
000001c0: 0ab4 d3be 2a4f d13d f851 f23c 8af1 92be
000001d0: 2b89 913e dd66 393d 3f37 bbbe 4d0a ee3e
000001e0: 23e9 4c3e 8f0c 9f3e 193e ce3e f84f d8be
000001f0: d85b 463d 80e4 ebbd 8e9e 943e f81c 86bd
0.1895479 0.29920244 0.060813732 0.3163131 -0.060470514 0.18012404 0.05389592 0.11944208
-0.27642825 0.00046748616 -0.15898491 0.5014737 0.3224104 0.42607743 0.0952361 -0.20695996
0.08671659 0.18530335 0.4946611 0.041984614 0.44499326 0.27645704 -0.48973742 0.103879355
0.11165121 -0.10731938 -0.009534176 0.5630632 0.29090294 0.49736634 -0.055963363 -0.29711676
0.23078902 -0.24648775 0.07478645 0.13309863 0.265887 0.15021597 -0.046156965 0.16949323
0.54107034 0.17532007 -0.46877185 0.20082897 -0.18724419 0.039928436 0.3765685 -0.44444728
0.33367702 -0.33645573 0.3766947 0.28172654 0.4736029 -0.44794044 0.32356834 0.57285404
0.29476485 0.24900225 -0.09476312 -0.5153816 0.01116175 0.1013259 -0.5508079 0.26696125
-0.53365415 -0.48785362 -0.41265947 0.059906613 0.0633695 0.10307436 -0.47616798 -0.0069041597
0.18937095 0.4466809 0.19118056 0.3945039 -0.5606409 -0.25392568 -0.014809456 -0.0889023
0.50760573 -0.34986928 0.0077751055 -0.14106494 -0.32307166 0.24889253 -0.3594955 0.5218701
0.48309562 -0.32962775 0.18447894 0.47461823 -0.48127177 0.2657922 0.42052355 -0.26262558
0.14290361 0.16856965 0.51880026 0.45226836 -0.27584925 -0.5033193 -0.0643163 -0.4563898
-0.107341155 0.34587955 -0.28786576 -0.46566254 0.2660871 0.48842254 0.21507552 -0.3035484
-0.41348296 0.102201775 0.029580101 -0.28699905 0.28424963 0.045264114 -0.36565587 0.46492234
0.2001081 0.3106427 0.40281752 -0.4224851 0.048427433 -0.11518192 0.29027218 -0.06548494

net.1.linear.weight f4 [128, 128]
00000000: a19b 653d 9db7 b93d f1b0 983d 6c40 cebd
00000010: 7391 97bb ed1a 9b3d fe7a d33d e08e 1e3e
00000020: 4b3e 07be 4156 efbc 4bde 4dbe 83db f6bd
00000030: e08c aebd 110c 60bd e127 193e 49c7 cfbd
00000040: 22a9 023e fea6 1e3e fb12 683d 7f3e ecbd
00000050: 0a9c 07be 73e5 0f3e fc7c 393e 4480 adbd
00000060: f42f e93d 99c2 103e bb3b 963d 887c 7c3c
00000070: 9c11 99ba d208 0b3e 769d 003e 30ef 223e
00000080: f2d9 69bd a2cf 5fbe 990a 7cbd e3a8 e8bd
00000090: 050e 613d c1cd 643c 1aa8 33be a540 b9bd
000000a0: c181 6bbd b0a3 03be 5960 83bd aeb4 1dbe
000000b0: 7229 bd3d f2db 45bb 14c2 fdbc e9dc 9dbd
000000c0: 14ed 4b3e 24b6 ff3d 8cd6 04be 36f4 2abe
000000d0: a3d1 073e 3be6 c53d d701 343e 57ce 6fbd
000000e0: 3323 c53d 6c24 0e3e d1e2 943d 01c5 133d
000000f0: b96d 06bb c7b7 d9bd 046a e6bd ce36 563e
00000100: f601 173d 1e19 993d 0e95 2b3e 3d5a 283e
00000110: 0f85 a73a d5bc 073e e0c6 3a3e a07c 473e
00000120: e6e8 093e 2aac 94bc f482 ab3d f8ac 793d
00000130: b556 3c3d bf51 31be ac5a 1cbe 2771 0fbe
00000140: 169f 213e 752e 58be 91ab a4bd 037b 4dbe
00000150: c207 90bb 0581 213e 1f52 523e faa4 36be
00000160: bd41 593a 822e 3bbe 5224 1fbc 0804 4d3e
00000170: 811f 433e a358 c0bd 8995 7a3d cdb7 80bd
00000180: 370a c8bd f1e6 09be 0d48 4e3e f388 1abc
00000190: 7e0e d2bd 07f7 173e 94d9 ccbd 5444 99bc
000001a0: 558e 2a3e 9bb2 3fbe 22dc 1c3e 9730 4e3e
000001b0: a026 183e db2b 063d 641a 173d 00cc 573e
000001c0: 073d 083c 952b f13d 712f 3bbe e875 91bc
000001d0: 1895 42be cb42 40be 7afd b9bc 61b3 903d
000001e0: f0a8 ddbd bc42 85bd c806 fbbd febc 4f3e
000001f0: d453 51be f2d5 223e 09ed e23d 069e 53be
00000200: 4dfa 26be 9155 2c3e 602f a33d 5700 363e
00000210: 310b 50be f16d 18be 2ecd e5bd 9a8b 1d3e
00000220: 7520 fe3d 0be3 c1bc a549 183e 0788 1a3e
00000230: 2de2 b9bd 3ca0 9ebd 44d8 683d 62b7 c83d
00000240: 429d f5bc 4b40 413e 0f1f a23d 008d 14be
00000250: 875a fe3c 8dd8 3bbd a65e 2c3e a8fe 33be
00000260: 1d57 86bd 2527 213e 76a6 0fbc b6a9 d63c
00000270: fba2 2c3e 7158 37be 86cf e03c 08cf df3d
00000280: 8a44 95bd a324 22be f1a4 2d3e d884 45bd
00000290: d200 243e 542a 71bd d6dd 50be e26c 0b3e
000002a0: 4a95 853b c1d1 f93d bdee 483e 88ae 8ebc
000002b0: 6cfa 0e3e 80c8 2b3d cd02 0abd b193 50be
000002c0: 0320 1e3e bced e2bd f3dc 55be 802c 93bc
000002d0: d0df 3bbc 628b 893d 4816 d23d 05a7 55bd
000002e0: a411 e93d aa34 ec3d c56d 1b3e be08 0abe
000002f0: 6911 d8bd 41a8 933d 6f7b 6b3d b484 4b3e
00000300: b49b cb3d c567 533e 2961 de3d 78ad ee3d
00000310: 7b60 42be 15af c3bd 2ba2 c43d 2b2a 33be
00000320: 075f 2f3e e1da e63d c1ac 8d3d 270d 2dbe
00000330: 2e4d b23d 2bdf d53b 7347 b83d 4b80 05be
00000340: 627c 133e 29bb b0bd 4b92 1abe 46ca 37bd
00000350: 30ab ecbc 8f3e fdbd 9c97 4b3d dd13 743d
00000360: 5c5d 3ebe 9b41 063e 31a6 80bd 9216 f1bd
00000370: 8f36 89bd 1f97 363e 1486 e9bd 370b cd3c
00000380: 3a45 2c3e ab5d 1abe 777e 443e cd09 293c
00000390: f74c 3e3e d7cb 263d 2d78 443e e124 5dbe
000003a0: 2490 51be d58d ad3d 16bb 80bd 5cd9 ab3d
000003b0: ff1c 9ebd c924 c9bd 15a8 dd3d ca0f 05be
000003c0: db06 94ba 82c0 21be a245 533e cd48 383e
000003d0: 5d02 0d3d da6f 6f3c 7dea 0cbe ab79 953d
000003e0: a014 f53d 3360 173e 7b32 3dbe 7dfa 473e
000003f0: 1a0e 98bb e558 4abe 0704 773d f1e3 84bd
0.056056622 0.090682246 0.07455624 -0.10070881 -0.004625493 0.07573495 0.10326193 0.1548419
-0.13207357 -0.029215934 -0.2010433 -0.12053587 -0.085229635 -0.054699007 0.14956619 -0.101454325
0.12759832 0.1549339 0.056658726 -0.11535358 -0.13243118 0.14052372 0.18114084 -0.0847173
0.113860995 0.14136733 0.073356114 0.01541055 -0.0011678222 0.13577583 0.12560067 0.15911555
-0.057092614 -0.2185655 -0.061533544 -0.113603376 0.05494501 0.013965071 -0.17544594 -0.09045533
-0.05749679 -0.1285541 -0.06414861 -0.15400955 0.09236421 -0.0030190912 -0.030976333 -0.07708151
0.19914657 0.124859124 -0.12972468 -0.16694722 0.13263564 0.096630536 0.17578827 -0.05854639
0.09625854 0.13881081 0.07269824 0.03607655 -0.0020512177 -0.10630756 -0.112506896 0.20919344
0.036867104 0.07475494 0.16756079 0.16440673 0.0012780743 0.13255627 0.18239927 0.19481134
0.1346775 -0.0181485 0.08374587 0.06095597 0.045981128 -0.1731634 -0.15268964 -0.14008008
0.15783343 -0.21111472 -0.08040536 -0.20066456 -0.004395456 0.15771873 0.20539139 -0.17836371
0.0008287689 -0.1827946 -0.009713249 0.20021069 0.19054987 -0.09391906 0.061177764 -0.06285057
-0.09767573 -0.13467003 0.20144673 -0.009432065 -0.102566704 0.14840327 -0.10002437 -0.01870934
0.16655858 -0.18720476 0.15318349 0.20135723 0.14858484 0.032756668 0.036890402 0.21073914
0.008315331 0.11775891 -0.18279816 -0.017756417 -0.19002187 -0.1877548 -0.022703875 0.07065464
-0.10823238 -0.06506869 -0.12257153 0.20286939 -0.20442134 0.15901926 0.11080367 -0.2066575
-0.1630642 0.16829516 0.079680204 0.17773567 -0.20316769 -0.1488569 -0.112207755 0.15385285
0.124085344 -0.023667833 0.14871843 0.15090953 -0.09076343 -0.07745406 0.056846872 0.098006025
-0.029982213 0.18872182 0.0791608 -0.14506912 0.031049026 -0.045860816 0.1683298 -0.17577612
-0.06559584 0.15737589 -0.008767715 0.026203971 0.16859047 -0.17904831 0.027442705 0.1092816
-0.072884634 -0.15834288 0.16957451 -0.048222393 0.16015938 -0.058878258 -0.20397124 0.13615754
0.0040766345 0.121982105 0.19622321 -0.017417207 0.13962716 0.04193926 -0.033694077 -0.2036884
0.15441899 -0.110805005 -0.20885067 -0.017965555 -0.011466935 0.06716038 0.10258156 -0.052161235
0.11380318 0.115334824 0.15178593 -0.13479897 -0.10550196 0.07209826 0.057490762 0.19874841
0.099418074 0.20645054 0.108583756 0.1165418 -0.18982117 -0.095548786 0.096012436 -0.17496555
0.17126094 0.112722166 0.06917716 -0.16899548 0.08706127 0.006526848 0.08998003 -0.13037221
0.14402917 -0.08629448 -0.15094869 -0.044870637 -0.028890222 -0.12365448 0.049705133 0.059589256
-0.18590301 0.13110964 -0.062816985 -0.11771883 -0.06699859 0.17831086 -0.114025265 0.025029762
0.16823283 -0.15074794 0.19188868 0.010317278 0.18584047 0.04072174 0.19186468 -0.215961
-0.20465142 0.08474318 -0.06285684 0.083910674 -0.07720374 -0.09821469 0.10823075 -0.12994304
-0.0011293547 -0.15796092 0.20632032 0.17996521 0.034426082 0.01461407 -0.13761325 0.07298597
0.119668245 0.14782791 -0.18476288 0.19529147 -0.004640353 -0.19760473 0.060306575 -0.06488789

net.1.linear.bias f4 [128]
00000000: 42a4 27bd 2051 a5bd 1bb6 97bd d66b a6bd
00000010: f7f9 1f3b 52d2 8f3d fa06 a7bd f850 b93d
00000020: b6a8 d63c 8c5b 613c f2fc a1bd 3c3d 84bd
00000030: df91 92bd 8875 9f3d e878 f83c dd9c 5abd
00000040: 34b0 a03d 0ebc e7bc 4164 10bd 68a2 ae3d
00000050: f949 9cbb 24ba 12bc d8e0 bfbd c8a7 b5bb
00000060: a27f 1e3d 22ab 8cbd 5c69 d4bc b6fe 603d
00000070: b05b 873d 81cf b7bd 8750 a1bd c316 373b
00000080: b186 453d 537f c5bb 0c31 88bb 490d 20bd
00000090: 2dca af3d 6863 53bd 75d3 b33d 27f4 953c
000000a0: 1aac a0b9 6326 993d ff19 443d 5826 e03c
000000b0: add8 c9bc 3427 13bd 95ac 4dbd 01c7 8abd
000000c0: b7e6 493d dec8 7a3d 9135 91bd 3c56 7dbd
000000d0: bd8d b0bd 42cd 883d 4d3c 783d 1e44 933c
000000e0: f31e 14bc e2eb a93d 08ef 253d b044 79bd
000000f0: 0665 2cbd bb06 f03c c1e5 90ba fea5 9a3d
00000100: b306 4d3d e761 15ba 76a2 893d 5709 483d
00000110: a239 5fbb 8417 813d 0952 24bd 76e2 553b
00000120: 3e36 a9bd 2490 603d 6288 e4bc e4d9 99bd
00000130: 4ab9 bcbd 342d 86bd 1081 f7ba a973 9f3a
00000140: 14f5 933c 41d2 ebbb 8e03 853d 02e2 b53d
00000150: c7c0 583d 565f f4bc 6564 a83d 0a2d a93b
00000160: 0313 40bd 8332 df3c 1ebb 553d 523c b13d
00000170: 4de2 8bbc eed1 b03b e9d9 ffbc 0771 04bd
00000180: 87e6 9cbd 9c0a 1e3b c2b9 343d ad5d 343d
00000190: a42a cebc edb7 013c 23d4 25bb 460a 113d
000001a0: 4d1a 913d 7fbf a23d b7dc 6dbc 3726 1cbd
000001b0: dc49 14bd bf16 6bbc c7c2 c03c 27a1 91bb
000001c0: b380 b1bd 32af 593d 2917 8cbb 525b 6fbc
000001d0: 3e22 903d 5e60 9a3d 0b8d 9f3d 434c 41bd
000001e0: 7b77 eebc a242 d73c 9403 1fbc b14c a73d
000001f0: 62cb b0bd caf8 b33d bdcc a8bd 4c88 be3b
-0.040928133 -0.08072114 -0.07407781 -0.08126037 0.0024410465 0.07022537 -0.081556275 0.09048647
0.026203495 0.013754737 -0.079095736 -0.06456992 -0.07156729 0.07786089 0.03033109 -0.053372253
0.07846108 -0.028287914 -0.03525186 0.0852707 -0.0047695604 -0.008955512 -0.093690574 -0.0055436827
0.03869594 -0.068685785 -0.025929146 0.05493041 0.06609285 -0.08975125 -0.078766875 0.002793715
0.048224155 -0.006027141 -0.0041562375 -0.03907517 0.08583484 -0.051608473 0.087805666 0.018304897
-0.00030645804 0.07478025 0.047876354 0.027362034 -0.024639452 -0.03592606 -0.050213415 -0.06776238
0.049292292 0.061226718 -0.07090295 -0.061849818 -0.086207844 0.06679775 0.060604382 0.017976817
-0.009040582 0.08296944 0.04051116 -0.06085652 -0.04208853 0.029300084 -0.00110548 0.07551192
0.050055217 -0.00056984875 0.0672044 0.048837032 -0.0034061451 0.063033134 -0.040117297 0.0032636202
-0.08262299 0.054824963 -0.027897064 -0.075122625 -0.092150286 -0.065515906 -0.0018883068 0.0012165207
0.018061198 -0.007196695 0.06494819 0.08880998 0.05291822 -0.029830616 0.08222274 0.00516284
-0.04689313 0.027245766 0.052180402 0.08654083 -0.017075682 0.0053961193 -0.031231837 -0.032334354
-0.07661157 0.002411521 0.044122465 0.04403465 -0.025166817 0.0079173865 -0.0025303445 0.03541019
0.070850946 0.07946681 -0.014517955 -0.038122382 -0.03620325 -0.014348685 0.023530377 -0.0044442597
-0.086671256 0.053145595 -0.004275222 -0.014609175 0.07037781 0.07537912 0.07790574 -0.04719187
-0.029109707 0.02627689 -0.009705443 0.081689246 -0.08632542 0.08787687 -0.08242176 0.0058145877

net.2.linear.weight f4 [1, 128]
00000000: da1b 05be f981 803d 3b66 b8bd c780 cabc
00000010: 3f90 2d3e bd0a c83d b63d 0dbe e2b6 3dbc
00000020: a37f 493e 09be 4f3e bf84 913d 11a9 9b3a
00000030: 44cd 35be 0cae e2bd eaec 193b 1c76 f23d
00000040: 4251 083d f804 bfbd 5e3b 943d 08c2 203e
00000050: 8e92 233e d1a1 e8bc 2480 323e edc3 3a3c
00000060: 9cea 98bd 5a5f d43d f063 b438 0157 56bd
00000070: 84e3 533e ca29 49be cafe 05be 15c4 cc3d
00000080: 603b ffbd a0b0 08be b108 dcbd 242a 11be
00000090: fe30 efbc 2824 343e f395 4abe bb80 6cbd
000000a0: 30d3 81bc 0b1e 69bd e1ee 3fbe 6f2f 0b3d
000000b0: cf3f bc3d 30d2 243e b7d1 c73d 6e69 59be
000000c0: f359 113e becc 23be af77 293d da2e 383e
000000d0: cd55 9cbc 668f 20be d571 37be 8695 34be
000000e0: 3d0b 943d 6baa 4bbc 6995 37bd d7f6 2bbe
000000f0: 88f5 60bd b488 453d e305 293c 070d 98bd
00000100: b0d5 413e 4402 eb3d 3053 d43d c868 aebd
00000110: 8c56 113e 20f6 0cbe 3d92 acbd c183 083e
00000120: 3f0b bd3c 2550 0c3e 6f2d 323e 9cf7 033e
00000130: 6a3e 043e 332c 083e 352d 293e 5f56 3b3d
00000140: e46e e6bd 7f2b 173e 57fb bf3d d7b4 aabd
00000150: 19dc c3bd bb01 643c c439 8fbb c110 16be
00000160: 5297 38be 791b 573e d221 3c3e bf0f 843c
00000170: c206 383e a725 f4bd 217a 06be a41f 50be
00000180: c0ef d03d a3b6 223d 860e 0c3e 5e01 1d3e
00000190: 0f8e bfbd 83e6 053e 2205 36be 3f46 76bd
000001a0: 1d75 47be 4d9f 0dbc 8e19 36bd 7355 823d
000001b0: 3d81 26be cc4b f8bd b960 123e 2d60 9abd
000001c0: 318b 6f3d e633 c4bc bd96 183e 2a61 4abe
000001d0: 8a44 15be 2aa0 373e 9a6e eabd 2cee 9f3d
000001e0: 11c1 47bd a11a 2c3d 4ad4 f7bd 0555 8b3d
000001f0: f4a8 5cbe 547d 46be 1a42 0b3d 5aa8 af3d
-0.12998906 0.0627479 -0.09003874 -0.024719609 0.16949557 0.09767673 -0.13793072 -0.011579247
0.19677596 0.20287336 0.071053974 0.0011875947 -0.17754084 -0.11068353 0.002348716 0.11838934
0.03328062 -0.093271196 0.07237886 0.15699017 0.15973875 -0.028397473 0.17431694 0.011399251
-0.07466623 0.10369749 8.601684e-05 -0.052329067 0.20692259 -0.19644848 -0.13085476 0.09998337
-0.12462497 -0.13348627 -0.10743845 -0.14176232 -0.029198166 0.17591918 -0.19783764 -0.057739954
-0.015847772 -0.056913417 -0.18743469 0.033980783 0.09191858 0.16095805 0.09756797 -0.21231624
0.14194469 -0.15996072 0.041373905 0.17986622 -0.019083882 -0.15679702 -0.17914517 -0.17635164
0.07228706 -0.0124307675 -0.044820223 -0.1679338 -0.054921657 0.048226073 0.010316345 -0.0742436
0.18929172 0.114750415 0.10367429 -0.08516079 0.14193171 -0.13765764 -0.0842633 0.1333151
0.023076652 0.13702448 0.17400144 0.12887424 0.12914434 0.1329811 0.16521151 0.045736667
-0.112516195 0.14762686 0.09374111 -0.08335274 -0.09563465 0.013916428 -0.0043709 -0.14654829
-0.18026474 0.21006574 0.18372276 0.01612079 0.17971328 -0.11921244 -0.13132526 -0.2032457
0.10201979 0.039724957 0.13677415 0.15332553 -0.093532674 0.13076214 -0.17775396 -0.060125586
-0.19478269 -0.008643937 -0.044457965 0.063639544 -0.16260238 -0.12123832 0.1429471 -0.07537875
0.058482353 -0.023950528 0.14901252 -0.19763628 -0.14576927 0.17932191 -0.11446877 0.078090996
-0.048768107 0.042017583 -0.12101038 0.068033256 -0.21548826 -0.19383746 0.033998586 0.085770324
