geoinr/data/unconformities/plane_splus_model1L_256_100b.pth (torch, 270423 bytes, 5 tensors)

net.0.linear.weight f4 [256, 3]
0	0x3fac6a58	1.3469954
1	0xbead1b4f	-0.33809897
2	0x3f6790e3	0.90455455
3	0x3f8d1cc7	1.1024407
4	0x3fb46de7	1.409604
5	0x3f70309b	0.93824166
6	0x3f8226e2	1.0168116
7	0x3f3ec2b7	0.7451586
8	0xbed2f0ad	-0.41199246
9	0x3e9c8281	0.30568317
10	0x3e03639a	0.12830964
11	0xbe944ac7	-0.289633
12	0x3f387545	0.7205394
13	0x3baf843e	0.0053563407
14	0xbf980ece	-1.1879518
15	0xbfad5825	-1.3542525
16	0xbf5fcc8d	-0.87421495
17	0xbf28ced2	-0.6594058
18	0xbe999b50	-0.30001307
19	0xbf718a8d	-0.94352037
20	0x3de4c14a	0.111696795
21	0xbf824ecb	-1.0180296
22	0xbeed9e1a	-0.46409684
23	0xbf7abe49	-0.979466
24	0xbed8ae92	-0.42320687
25	0x3f797f0e	0.97459495
26	0x3f4dd4ff	0.8040313
27	0xbef24015	-0.47314516
28	0xbeaa53f4	-0.33267176
29	0xbe22c4f1	-0.1589544
30	0xbd4360a0	-0.04769957
31	0x3fa29b69	1.2703677
32	0xbf91196e	-1.1335886
33	0x3fb02b66	1.3763244
34	0xbf60f15f	-0.87868303
35	0x3f44d7bf	0.768917
36	0x3f744d76	0.95430696
37	0xbec17251	-0.3778253
38	0xbf9f2f39	-1.2436286
39	0xbf4662ab	-0.77494305
40	0xbf80de18	-1.0067778
41	0x3f98d822	1.1940958
42	0x3f9de906	1.2336738
43	0x3effad16	0.49936742
44	0xbf767bb0	-0.9628248
45	0xbd8bdd03	-0.06829264
46	0xbf90d793	-1.1315788
47	0xbf24c862	-0.6436826
48	0x3f8835f5	1.0641466
49	0x3f98862e	1.1915948
50	0xbda324bb	-0.0796599
51	0x3f4e41bf	0.8056907
52	0xbea05604	-0.31315625
53	0x3f827ed2	1.0194952
54	0x3f3ec9fb	0.7452695
55	0xbf8499a6	-1.035939
56	0xbfaffdd6	-1.374934
57	0x3fa584a3	1.2931103
58	0x3f8b856c	1.0900092
59	0xbf8d2b90	-1.1028919
60	0x3fa8ed18	1.3197355
61	0xbe893bc2	-0.26803404
62	0x3f6df16b	0.929465
63	0x3f8d3ec3	1.1034778
64	0xbf301e24	-0.6879599
65	0xbf32c621	-0.6983357
66	0xbeec6965	-0.4617416
67	0xbd8966ec	-0.06709084
68	0x3ed05345	0.4068853
69	0xbd33342f	-0.043750938
70	0xbf9edc62	-1.2411005
71	0x3fa7c3fe	1.3106687
72	0xbd572127	-0.05252185
73	0x3d28766e	0.04112857
74	0xbf96e204	-1.1787724
75	0x3f30bd5b	0.69038934
76	0x3f984bba	1.189811
77	0xbf96195c	-1.1726489
78	0x3e6e1201	0.23249055
79	0x3fad9e59	1.3563949
80	0x3e82715d	0.25477114
81	0x3f372de4	0.715544
82	0x3f8ddce3	1.1083034
83	0x3e2f3f10	0.171139
84	0x3f887c2d	1.0662895
85	0x3f8b218f	1.0869616
86	0xbf42bd46	-0.7607006
87	0xbe60c480	-0.21949959
88	0xbf33072e	-0.6993283
89	0x3f6bf38b	0.9216849
90	0x3efa87aa	0.48931628
91	0x3f2e5505	0.6809848
92	0x3f2f9d3e	0.6859931
93	0xbf158847	-0.5841107
94	0x3e52006a	0.2050797
95	0x3f882b20	1.0638161
96	0xbfb0da59	-1.3816634
97	0x3f8bf5a9	1.0934345
98	0x3f648966	0.89272153
99	0xbeafd679	-0.34343317
100	0x3fa5ca0e	1.2952287
101	0x3f868bff	1.0511473
102	0xbd459031	-0.048233215
103	0x3f3f7d00	0.7480011
104	0xbf93a0fc	-1.1533504
105	0x3ecb7b98	0.39742732
106	0xbecaf89b	-0.39642796
107	0xbe2ebc22	-0.17063954
108	0xbe0a43a8	-0.13502371
109	0x3fa0ccc2	1.2562487
110	0xbefc96f0	-0.49333906
111	0xbf2b077f	-0.66808313
112	0x3fa1b897	1.2634457
113	0x3fa86f1e	1.315891
114	0xbf91f58c	-1.140306
115	0xbf90f4aa	-1.1324666
116	0x3f7fbeed	0.99900705
117	0xbe48de92	-0.19616154
118	0xbf824ee3	-1.0180324
119	0x3f713f2a	0.94237006
120	0x3ebf536c	0.37368333
121	0xbf601c56	-0.8754324
122	0x3e4c585b	0.1995558
123	0xbee5cafd	-0.4488143
124	0x3ea30fcf	0.31847998
125	0xbe28bae3	-0.16477542
126	0xbe58e245	-0.21180065
127	0x3ee5f196	0.44910878
128	0xbf8f4533	-1.1192993
129	0x3e1abdfe	0.15111539
130	0xbf882056	-1.0634868
131	0xbf6442e0	-0.89164543
132	0x3f0b079c	0.54308486
133	0xbf84bfd6	-1.0371044
134	0xbeb12ae8	-0.34603047
135	0xbfa27234	-1.2691102
136	0x3f2dc2e4	0.67875504
137	0xbf9b8948	-1.215127
138	0xbfadab2d	-1.3567864
139	0x3f92f54c	1.1481109
140	0xbf7e1363	-0.9924833
141	0xbf1c5c35	-0.61078197
142	0xbf7b03c0	-0.980526
143	0xbee7c5f7	-0.45268223
144	0x3e8506be	0.25981706
145	0xbf88c5e7	-1.0685395
146	0xbee80936	-0.45319527
147	0xbe9eb798	-0.30999446
148	0xbf46d8be	-0.7767447
149	0xbf540c90	-0.8283167
150	0xbf04ccdb	-0.51875085
151	0x3f70cd14	0.94062924
152	0xbf05ddc6	-0.52291524
153	0x3f17347a	0.5906445
154	0x3eee9e5e	0.466052
155	0xbf6af603	-0.91781634
156	0x3dc6c1b2	0.09704913
157	0x3f8d5b2c	1.1043448
158	0xbf70e022	-0.94092
159	0xbe6e9c05	-0.23301704
160	0x3e89d0a8	0.26917005
161	0x3f886e92	1.0658743
162	0x3ea6014a	0.32422858
163	0x3f364011	0.7119151
164	0x3f8fee2c	1.1244559
165	0x3fa43171	1.2827588
166	0x3da36d23	0.079798006
167	0xbe417ce2	-0.18895295
168	0x3e382146	0.17981443
169	0x3ee31b0e	0.4435658
170	0x3e19e10c	0.15027255
171	0xbea2b7b7	-0.31780788
172	0x3f02f573	0.51155776
173	0xbf184a72	-0.59488595
174	0xbf106db7	-0.5641741
175	0xbf38b607	-0.7215275
176	0x3f5d1e8b	0.8637473
177	0xbf1e43ac	-0.6182201
178	0x3e2ddfc1	0.16979887
179	0x3eab69a1	0.33479026
180	0x3e935bc4	0.2878095
181	0xbe9ecf82	-0.3101769
182	0xbf8d479c	-1.1037478
183	0x3f893762	1.0720026
184	0x3f1f6798	0.62267447
185	0x3f90b27d	1.130447
186	0xbf9b5e86	-1.2138221
187	0xbe1e24c8	-0.15443718
188	0xbf98dc0c	-1.1942153
189	0xbf8d0172	-1.1016066
190	0xbf72d973	-0.9486305
191	0x3d4d1c48	0.0500758
192	0x3ec5b00f	0.38610885
193	0x3f501c06	0.8129276
194	0xbf9dc31d	-1.2325169
195	0x3efb9e84	0.49144375
196	0xbf82de16	-1.0224025
197	0x3ead4840	0.33844185
198	0x3e30e539	0.17274942
199	0xbf575b7e	-0.8412398
200	0xbf74f3db	-0.95684594
201	0xbf5195ec	-0.8186939
202	0x3f632db0	0.8874159
203	0x3fa6d5ce	1.3033998
204	0xbf6b2bca	-0.9186369
205	0x3fa2de7e	1.2724149
206	0xbe0d28c3	-0.1378508
207	0xbedd81a8	-0.43262982
208	0xbee758b2	-0.45184857
209	0xbecbfa75	-0.3983952
210	0xbe25d5ff	-0.16194914
211	0xbf933daf	-1.1503199
212	0xbf5ef3c8	-0.8709073
213	0xbe3ef228	-0.18647063
214	0x3f9a4c8d	1.2054611
215	0xbea5b0c4	-0.32361424
216	0x3f43491b	0.76283425
217	0x3e54b4f1	0.20772149
218	0x3e330d91	0.17485644
219	0xbdb5f582	-0.088847175
220	0xbfa9af84	-1.3256688
221	0x3e96534f	0.29360434
222	0x3fa13a9b	1.259601
223	0xbef552a8	-0.47914624
224	0xbf9dbd28	-1.2323351
225	0xbfb2ba17	-1.396304
226	0xbf5a7005	-0.8532718
227	0xbf7e6d81	-0.9938584
228	0xbf95a815	-1.169192
229	0x3ece6c5a	0.4031704
230	0xbf4e87ea	-0.8067614
231	0xbf0702da	-0.52738726
232	0x3f810d6f	1.0082225
233	0x3f6e54d1	0.9309817
234	0x3f0adbe3	0.5424177
235	0xbf9cf69a	-1.2262757
236	0x3f4036d8	0.75083685
237	0x3f5826af	0.84434026
238	0x3f8ff2fe	1.124603
239	0x3f3d950e	0.74055564
240	0xbe56f705	-0.20992668
241	0xbf2b1443	-0.6682779
242	0xbfa60ae0	-1.2972069
243	0xbf1200fa	-0.5703274
244	0x3fa64758	1.2990522
245	0xbfa14c43	-1.2601398
246	0x3e2dfec0	0.1699171
247	0xbe0cbf96	-0.13744959
248	0x3f90df60	1.1318169
249	0x3f9330c3	1.1499256
250	0xbf036081	-0.5131913
251	0xbea1bcda	-0.31589395
252	0xbeba18a4	-0.36346924
253	0x3f8eff19	1.11716
254	0xbe343eab	-0.17602031
255	0x3f811d44	1.0087056

net.0.linear.bias f4 [256]
0	0xbf03538b	-0.5129935
1	0x3dbb759f	0.09153294
2	0x3d964b87	0.073386244
3	0xbbda86c6	-0.0066688983
4	0x3e5c13d9	0.21491946
5	0xbee7f963	-0.45307454
6	0x3d56a75e	0.052405708
7	0x3ed24c27	0.41073725
8	0x3ea43070	0.32068205
9	0xbedc44aa	-0.43021137
10	0xbe919ea4	-0.28441346
11	0xbf0df9b4	-0.5545914
12	0xbe7f9916	-0.24960741
13	0x3ec60c65	0.3868133
14	0x3ef47392	0.47744423
15	0x3da0429e	0.07825206
16	0x3ea18dc7	0.3155348
17	0x3e0a4f46	0.13506803
18	0xbeed3e3a	-0.46336538
19	0xbed86ce6	-0.42270583
20	0xbee0c2f0	-0.43898726
21	0xbec38b05	-0.38192
22	0xbc8d3ba3	-0.017240351
23	0xbdc8402f	-0.09777867
24	0xbe61149e	-0.21980521
25	0xbe84d6c1	-0.25945094
26	0xbe4491a4	-0.19196182
27	0x3f0974d9	0.5369392
28	0x3e826a52	0.2547174
29	0xbf0ea0a6	-0.5571388
30	0xbe6f5c3a	-0.23375025
31	0xbe51057d	-0.2041225
32	0xbe23fb0f	-0.1601374
33	0x3edd5143	0.4322606
34	0xbee7d894	-0.45282423
35	0xbf0fc2b6	-0.5615648
36	0xbf04ab52	-0.51823914
37	0x3e2c19e5	0.16806753
38	0xbebbc32f	-0.3667235
39	0x3f030335	0.5117677
40	0xbe20234c	-0.15638465
41	0xbebff9d3	-0.37495288
42	0x3f132093	0.5747158
43	0x3ef7354a	0.48282844
44	0xbf00d3ec	-0.5032337
45	0xbe920df4	-0.2852627
46	0x3eaf55a3	0.34245023
47	0xbd317037	-0.043319907
48	0x3e316ab2	0.17325857
49	0xbe8548ea	-0.26032192
50	0x3f0b4527	0.54402393
51	0x3e8e8ecb	0.27843317
52	0xbf055874	-0.52088094
53	0x3e8ae685	0.27128997
54	0xbe73f1ef	-0.23822759
55	0x3ede8b87	0.43465826
56	0x3e971035	0.29504552
57	0x3eda944b	0.42691264
58	0x3eccd9ab	0.40009817
59	0xbedb9ea7	-0.4289448
60	0xbdd6b49d	-0.10483668
61	0x3f11c3cc	0.5693939
62	0x3ea58b5b	0.32332882
63	0x3e1ea9c7	0.15494452
64	0x3ed456bb	0.4147242
65	0xbf067aab	-0.52530926
66	0x3eae352b	0.3402494
67	0xbee8f5d5	-0.45500055
68	0x3dffcd16	0.12490289
69	0xbece865f	-0.40336892
70	0x3e825d10	0.25461626
71	0xbf08efa6	-0.53490674
72	0xbece3985	-0.4027826
73	0xbec9315d	-0.39295474
74	0x3ecdf143	0.4022313
75	0x3f0fff23	0.5624868
76	0x3ee3ecc1	0.44516566
77	0xbd9cd69d	-0.07658122
78	0xbeba2f01	-0.36363986
79	0x3ea8b491	0.3295026
80	0xbf0c3a55	-0.5477651
81	0x3e5bb59c	0.21455997
82	0xbf103958	-0.563375
83	0xbec617fc	-0.38690174
84	0xbdd83972	-0.10557832
85	0xbda8314d	-0.082125284
86	0xbe4e4a8d	-0.20145626
87	0xbe8a9f59	-0.27074698
88	0x3e945f56	0.28978986
89	0x3e9bcf4e	0.30431598
90	0xbf0508ef	-0.51966757
91	0xbe9e1de6	-0.30882186
92	0xbec7fc78	-0.39059806
93	0xbee6658e	-0.44999355
94	0xbe174051	-0.14770629
95	0x3ec2a24a	0.38014442
96	0xbee85cc9	-0.4538329
97	0x3f002cd6	0.50068414
98	0xbf039d98	-0.51412344
99	0x3ef7e517	0.4841697
100	0x3eafb723	0.3431941
101	0x3dd0ced1	0.10195697
102	0xbea6a82e	-0.32550186
103	0x3e8c1f12	0.27367455
104	0x3e8a8e08	0.27061486
105	0xbe508226	-0.20362148
106	0xbedbc93d	-0.4292697
107	0xbf0d5d05	-0.5522006
108	0x3db03fbb	0.086059056
109	0xbee6b815	-0.45062318
110	0x3e56787d	0.209444
111	0xbe3cfd78	-0.18456066
112	0x3ecca68d	0.39970818
113	0xbeed029a	-0.46291047
114	0x3d2ce68c	0.042212054
115	0xbe43c137	-0.19116674
116	0xbd3a57b7	-0.045493808
117	0x3e138d82	0.1440945
118	0xbf00affa	-0.5026852
119	0xbe2ceb77	-0.16886698
120	0xbea1ad84	-0.31577694
121	0xbeb3e62a	-0.3513654
122	0x3f030437	0.51178306
123	0xbe008f1a	-0.12554589
124	0x3dc59461	0.09647442
125	0x3e3b7247	0.18305312
126	0x3ce5f8b6	0.028072696
127	0xbda6db25	-0.08147267
128	0x3f000283	0.5000383
129	0xbf1349f2	-0.57534707
130	0xbe2e6f00	-0.1703453
131	0xbeab17a3	-0.3341647
132	0x3dc69145	0.09695677
133	0x3efb476f	0.49077937
134	0xbee72de8	-0.4515221
135	0xbec29ebf	-0.3801174
136	0xbec26cf5	-0.37973753
137	0x3e2dedc1	0.16985227
138	0x3f1130a3	0.5671484
139	0x3df062bb	0.11737581
140	0x3ed7fcc5	0.42185035
141	0x3e09fd33	0.13475494
142	0x3e8562b7	0.26051876
143	0x3f080ba8	0.53142786
144	0x3f0631fa	0.5242001
145	0x3e3741c3	0.1789618
146	0xbea5ac2c	-0.3235792
147	0x3e1942b0	0.14966846
148	0x3e1d71a7	0.15375386
149	0x3de00b3a	0.10939641
150	0xbca15f0a	-0.019698638
151	0xbe56c125	-0.20972116
152	0xbe4acfd0	-0.19805837
153	0x3f0e229c	0.5552156
154	0xbe8bfe53	-0.2734247
155	0xbf007da1	-0.50191694
156	0x3ea43820	0.3207407
157	0xbf00d11d	-0.5031908
158	0x3f050f93	0.5197689
159	0xbc70e30c	-0.01470257
160	0xbd99d8c7	-0.0751205
161	0xbeaeb99c	-0.34125984
162	0xbefd18bd	-0.49432936
163	0x3f105999	0.56386715
164	0xbf0ed96f	-0.5580053
165	0x3e28383b	0.164277
166	0x3ea912ff	0.33022305
167	0x3ea67125	0.32508197
168	0x3eae5861	0.34051803
169	0xbdebc8a6	-0.1151288
170	0xbec60cfd	-0.38681784
171	0xbf045f28	-0.51707697
172	0x3d8dfca2	0.069329515
173	0x3ed2dfa1	0.4118624
174	0x3e318f9a	0.17339936
175	0x3ed39178	0.4132192
176	0x3f14bc7f	0.5810012
177	0xbeac7043	-0.336794
178	0x3c218dc2	0.009860458
179	0x3d81faba	0.063466504
180	0xbed4152c	-0.41422403
181	0x3eea8fb1	0.45812753
182	0xbde10c33	-0.10988655
183	0xbf123b95	-0.57122165
184	0x3e8b7d32	0.27243954
185	0x3e89c0c8	0.26904893
186	0x3ef26959	0.47346
187	0xbda4dad1	-0.080495484
188	0x3e9e0313	0.3086172
189	0xbe588154	-0.21143085
190	0xbdb1e462	-0.08686139
191	0x3e8ddb5e	0.27706426
192	0x3d05e881	0.032692436
193	0x3ee2a487	0.4426615
194	0xbeba9eb5	-0.3644921
195	0xbe83d115	-0.25745454
196	0x3ece17c9	0.40252522
197	0x3e4569b3	0.19278602
198	0x3df2a2c5	0.11847452
199	0xbe9c4993	-0.30524883
200	0xbeb28d49	-0.34873417
201	0x3f10cfa9	0.56566864
202	0x3e8e3237	0.27772686
203	0xbedefa4e	-0.43550342
204	0xbe2a7b49	-0.16648592
205	0x3de9499a	0.113909915
206	0xbe8b2fdd	-0.27184954
207	0xbe89bd42	-0.26902205
208	0xbe6f6c21	-0.23381092
209	0x3e979426	0.29605216
210	0xbec7d5cb	-0.390303
211	0x3eecceef	0.46251628
212	0x3e9928b9	0.2991388
213	0xbe4aaa61	-0.19791557
214	0xbec9869d	-0.39360514
215	0x3ed382de	0.4131078
216	0xbf0d9d48	-0.5531812
217	0xbd6a039f	-0.05713236
218	0xbf00e24d	-0.5034531
219	0xbee78312	-0.45217186
220	0x3f0bf76b	0.54674405
221	0x3f11c708	0.5694432
222	0x3e45f881	0.19333078
223	0xbdbe6b44	-0.09297803
224	0x3f05739e	0.5212954
225	0xbde391fb	-0.11111828
226	0xbda46839	-0.080276914
227	0xbec0b1c3	-0.3763562
228	0xbd35901b	-0.044326883
229	0xbf0bae6e	-0.54563034
230	0x3dd8a3c4	0.10578111
231	0x3da1c4d8	0.07898873
232	0xbecca757	-0.3997142
233	0xbe650e19	-0.22368659
234	0xbf040995	-0.5157712
235	0x3eef51fd	0.4674224
236	0x3ed4769d	0.41496745
237	0x3ec68f00	0.38780975
238	0xbefb7af1	-0.49117234
239	0xbe90fc03	-0.2831727
240	0xbe1145c3	-0.14186768
241	0xbec67ddf	-0.38767907
242	0x3eba4bb2	0.36385876
243	0xbf016c95	-0.5055631
244	0xbeccc1d6	-0.39991635
245	0x3e4b5443	0.19856362
246	0x3c848dea	0.016180951
247	0x3e4004a4	0.1875177
248	0xbe648ea0	-0.22320032
249	0x3f0daf99	0.55346066
250	0x3e584ae4	0.21122319
251	0x3ebe0f7b	0.37121186
252	0x3e8d5a27	0.27607843
253	0x3dfe51a3	0.12417915
254	0xbd8105a2	-0.062999025
255	0xbdcbf612	-0.099590436

net.1.linear.weight f4 [256, 256]
0	0xbdb31405	-0.08744053
1	0xbdcd71a2	-0.10031439
2	0xbc0b4394	-0.008499999
3	0xbd4ab08f	-0.049484786
4	0xbdb808d6	-0.0898606
5	0xbd7d3098	-0.06181392
6	0xbd82b4ae	-0.06382118
7	0xbdc75f45	-0.09734968
8	0x3dd21c0e	0.10259257
9	0x3cfebf9b	0.031097224
10	0xbdc2e2d7	-0.095159225
11	0xbd153f54	-0.036437348
12	0x3da9e368	0.082953274
13	0x3db1303d	0.08651779
14	0x3da2c1c6	0.079471156
15	0xbdddc858	-0.10829228
16	0xbdf84f57	-0.12124508
17	0x3dab9bd7	0.083793335
18	0x3da04e41	0.07827426
19	0x3e06c5cc	0.13161391
20	0x3dad4093	0.08459582
21	0x3dd65fdc	0.104675025
22	0x3ca19948	0.01972641
23	0x3c075835	0.008260776
24	0xbe138c4a	-0.14408985
25	0x3d63190d	0.055443812
26	0x3defb1ea	0.11703856
27	0x3dc6fedb	0.097165786
28	0xbce5c0bf	-0.02804601
29	0xbb16fcb7	-0.0023038813
30	0xbdd4ad09	-0.10384566
31	0x3d028e40	0.03187394
32	0x3d80e157	0.0629298
33	0xbe0019d0	-0.12509847
34	0xbdb8fad8	-0.0903222
35	0x3d963411	0.0733415
36	0xbba621b5	-0.005069936
37	0xbd8348f3	-0.06410398
38	0x3d97e4fa	0.07416721
39	0x3c95ea72	0.018300269
40	0xbdeb5ad3	-0.11491933
41	0xbd5d85a4	-0.054082528
42	0xbbd26897	-0.0064211595
43	0x38ad539f	8.2648585e-05
44	0x3cb69cda	0.02229159
45	0xbd16e618	-0.03684053
46	0x3d386710	0.045020163
47	0x3d9ca9bb	0.07649561
48	0xbd4f0592	-0.05054242
49	0x3d929925	0.07158116
50	0xbdfa9057	-0.12234562
51	0x3dd4d9e3	0.10393121
52	0xbcac6e84	-0.021048792
53	0xbd51de7c	-0.05123757
54	0xbdd82ffd	-0.10556028
55	0xbdc6d164	-0.09707907
56	0x3e14e38d	0.14539929
57	0x3e1afe7e	0.15136144
58	0x3e12110e	0.14264318
59	0xbc2c2ecb	-0.010509203
60	0xbd7a1626	-0.06105628
61	0xbd616cbf	-0.05503535
62	0x3e09e716	0.13467059
63	0x3e0e870b	0.13918702
64	0xbdb64989	-0.089007445
65	0x3c82ac23	0.015951222
66	0x3e15f426	0.14643916
67	0xbdac1165	-0.08401755
68	0x3e01b90c	0.12668246
69	0xbded6d5a	-0.11593123
70	0x3d59fe11	0.053220812
71	0x3e1f5e76	0.15563378
72	0x3def517c	0.11685464
73	0xbbfb09f9	-0.007661101
74	0xbe181214	-0.14850646
75	0xbe065715	-0.13119157
76	0x3d1a98f1	0.037743513
77	0xbd3c56cc	-0.045981213
78	0xbbc56938	-0.006024506
79	0x3c0cb223	0.008587393
80	0x3d3f59d6	0.046716534
81	0xbddb4d38	-0.10708088
82	0xbe0d3fe7	-0.13793908
83	0x3e1223a7	0.14271413
84	0xbd0968dd	-0.03354727
85	0xbdb5f69c	-0.08884928
86	0x3d515b30	0.051112354
87	0x3dbd3e57	0.09240406
88	0xbe0bc9de	-0.13651225
89	0xbc7b1e52	-0.015327053
90	0xbdf51ec5	-0.119687594
91	0x3e132e63	0.14373164
92	0xbe02a2bd	-0.12757392
93	0xbcf5b6f2	-0.029994462
94	0xbce45d0d	-0.027876401
95	0xbd683b55	-0.05669721
96	0x3c983e16	0.018584292
97	0x3d4b4ddb	0.049634796
98	0xbcc0ba5f	-0.023526369
99	0x3dea3b6c	0.11437115
100	0xbbccdc50	-0.0062518492
101	0xbdf512eb	-0.11966499
102	0xbda0f466	-0.07859115
103	0xbbc9dd17	-0.006160389
104	0xbb6e7644	-0.003638641
105	0x3e0e6178	0.13904369
106	0xbe0fceaa	-0.1404368
107	0x3debe6e9	0.11518652
108	0xbdf6db55	-0.12053553
109	0x3e0ea1cc	0.13928908
110	0x3e13dde0	0.14440107
111	0x3e163ffa	0.14672843
112	0xbdf4a549	-0.11945588
113	0xbb9753fe	-0.004618167
114	0x3d4b9f0e	0.049712233
115	0xbd0fb5df	-0.035085555
116	0x3db0fe9e	0.086423144
117	0x3d098515	0.033574183
118	0x3d53f791	0.05174977
119	0xbd82cd95	-0.06386868
120	0x3c0fc354	0.008774597
121	0xbdecd1b8	-0.11563438
122	0xbd408eb2	-0.047011085
123	0xbd79b828	-0.06096664
124	0xbe0d9950	-0.13828015
125	0xbe006095	-0.12536843
126	0xbe04e09c	-0.12976307
127	0x3d9390e3	0.07205369
128	0xbe1787c6	-0.14797887
129	0x3dbaa412	0.09113325
130	0x3df91801	0.121627815
131	0xbe0d108d	-0.13775845
132	0x3d5cc683	0.053900253
133	0x3d9b7c8f	0.07592117
134	0xbd8d918f	-0.06912529
135	0xbe05fed1	-0.13085486
136	0xbdeb8eca	-0.11501844
137	0xbae11f40	-0.0017175451
138	0x3dfe32cd	0.12412033
139	0xbd055a8d	-0.03255706
140	0xbd0418e7	-0.03225031
141	0x3d4f3733	0.05058975
142	0x3c220630	0.0098891705
143	0xbe05a64d	-0.1305172
144	0x3ddf8970	0.10914886
145	0xbde2e455	-0.11078707
146	0x3de123d4	0.10993162
147	0x3d984659	0.07435293
148	0xbba3ed30	-0.00500264
149	0x3e0d9dd0	0.13829732
150	0xbe13b549	-0.14424624
151	0x3dc4480e	0.09584056
152	0x3e0ee13e	0.1395311
153	0xbc94d457	-0.018167658
154	0xbde7c950	-0.11317694
155	0x3e0e4ce3	0.13896517
156	0x3de305ae	0.11085068
157	0x3da32660	0.07966304
158	0x3de6c868	0.11268693
159	0xbc3f3b37	-0.011671833
160	0xbde30caf	-0.110864036
161	0x3dcf9991	0.10136712
162	0xbe16499c	-0.14676517
163	0x3d3a8ee0	0.045546412
164	0xbcc858cc	-0.024456404
165	0xbd90da31	-0.07072867
166	0x3c759628	0.014989413
167	0xbe060bac	-0.1309039
168	0x3c1266bf	0.008935629
169	0xbcc303d8	-0.023805544
170	0xbbf43f0c	-0.007453805
171	0xbe27ae83	-0.16375165
172	0x3c8627a1	0.016376318
173	0x3b11a849	0.002222555
174	0x3e119bcb	0.14219587
175	0x3d6d043e	0.057865374
176	0xbe00b1f0	-0.12567878
177	0x3b81bba6	0.003959137
178	0xbbfa7422	-0.0076432386
179	0x3d8860a4	0.06659058
180	0x3d9d5603	0.07682421
181	0x3c2935ce	0.010327769
182	0x3d105616	0.035238348
183	0x3c50edf7	0.012752048
184	0x3d804a69	0.062641926
185	0xbdea737c	-0.11447808
186	0xbe0d2fd4	-0.13787776
187	0xbdcd6ea2	-0.10030867
188	0xbdd24a49	-0.10268075
189	0x3c8df5a4	0.017329045
190	0x3d6b3fcd	0.057433892
191	0xbdd089b4	-0.10182515
192	0x3d9540d2	0.07287754
193	0xbc00becc	-0.0078579895
194	0x3c3ad2f2	0.011402832
195	0x3cc85193	0.02445296
196	0xbe1b37c2	-0.15157989
197	0x3c1dc11e	0.009628562
198	0xbdcd4ae3	-0.10024049
199	0xbd02b2cf	-0.031908806
200	0x3e10c287	0.14136706
201	0x3ce6e7fa	0.028186787
202	0xbc95a690	-0.0182679
203	0x3c8123d1	0.015764149
204	0x3df341d3	0.11877789
205	0x3e1981a1	0.14990856
206	0xbe00f1c5	-0.12592228
207	0xbdb4648c	-0.0880824
208	0x3d9e8832	0.07740821
209	0x3d75d5e8	0.06001845
210	0xbc0caaba	-0.008585626
211	0x3b9d40c5	0.004798981
212	0x3d1d9c07	0.038478877
213	0xbe0cd1dd	-0.13751931
214	0x3dd35172	0.10318269
215	0xbde56c2e	-0.11202274
216	0xbe09259f	-0.13393258
217	0xbcb011fb	-0.021492949
218	0xbdb4a972	-0.08821382
219	0xbd369573	-0.04457612
220	0xbd89fed8	-0.06738061
221	0xbd130d14	-0.035901144
222	0x3cda3d09	0.026640432
223	0xbe038d1a	-0.12846795
224	0xbdce180d	-0.10063181
225	0xbd599918	-0.053124517
226	0x3d82d65c	0.06388542
227	0xbd7a4cf1	-0.061108533
228	0xbdb38b29	-0.08766777
229	0xbd84ea34	-0.06489983
230	0x3e0053fb	0.12532036
231	0xbd8af387	-0.067847304
232	0xbd3b5282	-0.045732982
233	0x3dde0742	0.10841228
234	0x3e17b04d	0.14813347
235	0x3de6eac5	0.112752475
236	0x3dbfa915	0.09358422
237	0x3ddef37e	0.10886286
238	0x3d5fd879	0.054649804
239	0xbe06303f	-0.13104342
240	0x3c69ca84	0.014269475
241	0x3e1adad0	0.15122533
242	0x3ca19646	0.019724976
243	0x3db93456	0.090431854
244	0xbe2fbdd5	-0.17162259
245	0x3d215561	0.039388064
246	0xbd03a471	-0.032139245
247	0x3df69244	0.12039617
248	0xbdf2dfb2	-0.11859073
249	0x3de05153	0.10953011
250	0x3d5965ea	0.05307571
251	0x3d0f7c3f	0.0350306
252	0xbc9b57f3	-0.018962836
253	0x3ce0c8c3	0.02743948
254	0xbd5da7f2	-0.054115243
255	0x3dccecff	0.10006141

net.1.linear.bias f4 [256]
0	0xbd345fc5	-0.044036645
1	0xbd4ceb50	-0.0500291
2	0x3d0aa626	0.033849858
3	0x3d1c5adb	0.038172584
4	0x3c53f339	0.012936407
5	0xbbd40b3b	-0.0064710653
6	0x3b866ba1	0.004102186
7	0xbd46f3af	-0.04857224
8	0x3ce5680c	0.028003715
9	0x3be40b0c	0.0069593247
10	0xbd73413f	-0.059388395
11	0xbd5c352f	-0.053761657
12	0xbcdcae87	-0.02693869
13	0xbd819296	-0.06326787
14	0xbc3e3af2	-0.011610733
15	0xbd4647b3	-0.04840822
16	0xbcabf8ac	-0.0209926
17	0x3c4d2617	0.012521288
18	0x3d665abe	0.056238882
19	0x3d6772d0	0.056505978
20	0x3d78567d	0.060629357
21	0x3d394351	0.045230214
22	0xbc2fd33d	-0.0107315155
23	0x3c109d21	0.008826525
24	0x3d21bdca	0.039487638
25	0x3c578d62	0.013156267
26	0xbc4059ab	-0.0117401285
27	0xbd382dde	-0.044965617
28	0xbc2a5411	-0.01039602
29	0x3c1603ba	0.009156162
30	0x3c04cfd1	0.008106188
31	0xbc0878c7	-0.008329577
32	0x3cd88fc8	0.026435748
33	0x3d6b4a70	0.057444036
34	0xbd1102e0	-0.035403132
35	0xbce3bf22	-0.0278011
36	0xbbafa8f8	-0.005360719
37	0x3d3bf9a1	0.04589236
38	0x3c8a859d	0.016909415
39	0xbd525d20	-0.051358342
40	0x3d075ae1	0.033045653
41	0x3d3a80e9	0.045533095
42	0x3d5edc6b	0.054409426
43	0xbd52f5c2	-0.051503904
44	0xbc170ce1	-0.009219379
45	0xbd3bd666	-0.045858763
46	0x3d5671d9	0.052354667
47	0x3bc20b9a	0.005921793
48	0xbcdfb809	-0.027309434
49	0x3cdf99e3	0.027295059
50	0x3cab385c	0.020900898
51	0x3afbf3f9	0.001922249
52	0xbd087c68	-0.033321768
53	0x3d74c893	0.059761595
54	0x3d6d941a	0.05800257
55	0x3c4ba5d2	0.012429671
56	0x3d410107	0.04712012
57	0x3d460116	0.04834088
58	0xbd0f50bd	-0.034989107
59	0x3d6f7801	0.058464054
60	0x3c86affc	0.016441338
61	0x3d58db7d	0.052943695
62	0x3d182fae	0.037154846
63	0x3d01d0b4	0.031693175
64	0xbd860db7	-0.06545585
65	0x3cf399ca	0.029736418
66	0xbcae2025	-0.021255562
67	0x3d391e08	0.045194656
68	0x3c3eef12	0.0116536785
69	0xbcbb9b20	-0.022901118
70	0xbd55ebac	-0.052226707
71	0x3c72fadd	0.014830318
72	0x3d86ab6e	0.06575666
73	0xbb3eecf0	-0.0029132925
74	0x3d2e5299	0.04255924
75	0x3d341be0	0.043971896
76	0x3d183ada	0.0371655
77	0x3b891f66	0.004184651
78	0xbc08a0a7	-0.008339084
79	0x3d4d32ec	0.05009739
80	0x3c2bc892	0.010484831
81	0x3c4fb7cb	0.012678097
82	0xbd2f7b97	-0.042842474
83	0x3d25b784	0.040458217
84	0x3b63f303	0.0034782297
85	0xbd286915	-0.04111584
86	0xbd12af4e	-0.035811715
87	0xbd08d23a	-0.033403613
88	0xbc1e933f	-0.009678661
89	0xbd0504ef	-0.03247541
90	0x3be8c8d1	0.0071040173
91	0x3cd15a22	0.025555674
92	0x3c689d76	0.014197698
93	0x3c81a335	0.015824893
94	0x3c0a1270	0.008427247
95	0x3c03c264	0.008041952
96	0xbcaff00c	-0.021476768
97	0x3c816a2f	0.015797703
98	0xbb386757	-0.0028137767
99	0xbc879460	-0.016550243
100	0xbd357657	-0.04430231
101	0x3d46a0af	0.048493084
102	0xbbb07a5c	-0.00538568
103	0x3d538ac0	0.051645994
104	0x3cc21b16	0.023694556
105	0x3d3e3bd7	0.046443786
106	0xbaa097d1	-0.0012252276
107	0x3d177936	0.03698083
108	0xbc8115b4	-0.01575742
109	0xbcee8aa6	-0.029118847
110	0x3b791fd2	0.003801335
111	0xbd2fd6c6	-0.042929433
112	0x3c3d3553	0.011548358
113	0xbccdb353	-0.025109923
114	0x3c7d8b15	0.015475054
115	0x3cf3d9c6	0.029766928
116	0x3d541200	0.05177498
117	0x3d5a9f57	0.053374615
118	0xbd1c59ee	-0.0381717
119	0xbd31cf31	-0.043410484
120	0xbcea7e99	-0.02862482
121	0x3ad9ddaa	0.0016621847
122	0x3d14c301	0.036318783
123	0xbc6ef924	-0.014585767
124	0x3ca22d23	0.019796913
125	0x3c6c43bd	0.014420447
126	0x3d1b2a36	0.037882052
127	0x3d8198c4	0.06327966
128	0x3bc8f1c5	0.006132337
129	0xbcec7ca1	-0.028868021
130	0xbc60375b	-0.013685073
131	0x3d7db7f1	0.061943
132	0xbc9fefaa	-0.01952346
133	0xbcd3d85a	-0.02586
134	0x3d793f9b	0.060851675
135	0xbd022085	-0.031769294
136	0x3bf5ec30	0.0075049624
137	0xbd3514d0	-0.0442093
138	0xbb54d84b	-0.0032477553
139	0x3d264c38	0.04060003
140	0xbd688fff	-0.05677795
141	0x3cea49de	0.028599676
142	0xbbd7eb6c	-0.006589344
143	0xbd0e9aef	-0.034815725
144	0xbd01e262	-0.031710036
145	0x3c4c4bda	0.012469256
146	0xbd378825	-0.044807572
147	0xbd1473b8	-0.03624317
148	0xbd64870d	-0.055792857
149	0x3d478940	0.048714876
150	0x3ca484ca	0.02008285
151	0xbd59207a	-0.053009488
152	0x3bcd89a6	0.0062725125
153	0x3c8600b2	0.016357753
154	0x3c8bd954	0.017071404
155	0xbc3b720a	-0.011440763
156	0xbceccd8b	-0.028906604
157	0x3c2f381f	0.010694533
158	0x3cc1233c	0.023576371
159	0x3c7bd19a	0.015369797
160	0x3d350d1a	0.044201948
161	0xbbd296e2	-0.006426678
162	0xbc0b50ae	-0.008503122
163	0xbcad5dc0	-0.021162868
164	0x3d22a569	0.03970853
165	0xbd07a4e4	-0.033116236
166	0xbd673afc	-0.056452736
167	0x3c4ac5ac	0.01237623
168	0xbc355cfe	-0.011069534
169	0xbd70bf6a	-0.058776297
170	0xbba3dc8a	-0.0050006555
171	0x3d45d24d	0.04829626
172	0xbd494ffc	-0.049148545
173	0x3c8fb73d	0.01754343
174	0x3c7277e4	0.014799092
175	0x3d71ed4f	0.059064206
176	0xbd6e0bbd	-0.058116663
177	0xbcccab44	-0.02498401
178	0xbca5634b	-0.020188948
179	0x3ccc7394	0.024957456
180	0x3c2cb583	0.010541323
181	0x3bad9e02	0.005298377
182	0xbd6b3e33	-0.057432365
183	0xbc4a9eae	-0.012366934
184	0x3c9286f2	0.017886613
185	0x3d15a280	0.036531925
186	0xbbd43668	-0.0064762123
187	0x3d1be2ec	0.038058206
188	0x3cc04ecf	0.023475079
189	0xbb98937c	-0.0046562534
190	0xbd6d7e3a	-0.057981707
191	0xbc83d092	-0.016090665
192	0x3d6cfc07	0.05785754
193	0x3d3bc38c	0.045840785
194	0x3d5a45e0	0.053289294
195	0x3ba2b5b4	0.0049655084
196	0xbd4faf3c	-0.050704226
197	0xbd733163	-0.05937327
198	0x3c5cdf40	0.013480961
199	0x3d12aa3a	0.035806872
200	0x3d4e52bd	0.050371874
201	0xbc33ba2f	-0.010969683
202	0xbc52d349	-0.012867757
203	0x3c9d43b8	0.01919733
204	0xbd25c2d5	-0.04046901
205	0xbcce81d4	-0.025208391
206	0x3cf1841f	0.029481946
207	0xbd4dcfa3	-0.050246846
208	0x3d524064	0.05133094
209	0x3b125aac	0.0022331877
210	0x3d703f82	0.058654316
211	0x3d7e8c16	0.062145315
212	0x3c4f95a6	0.012669956
213	0xbcf612b5	-0.030038217
214	0x3c19c9f1	0.0093865255
215	0x3d58259b	0.05277024
216	0x3cb39b6e	0.0219247
217	0x3d4ae101	0.049530987
218	0xbc1c2cfd	-0.00953221
219	0x3ce29b9e	0.027662095
220	0x3d0fc57d	0.03510045
221	0xbd0f37c7	-0.034965303
222	0xbce0aeee	-0.027427163
223	0x3d6c31f2	0.05766482
224	0x3d63304a	0.055465974
225	0x3d32d9e9	0.043664847
226	0x3d7ac6e3	0.06122483
227	0xbd1d5b11	-0.038416926
228	0xbd431f3a	-0.0476372
229	0x3d13a59f	0.03604662
230	0x3ad7e37f	0.0016470997
231	0xbcc75776	-0.024333697
232	0xbd4560e2	-0.048188098
233	0x3c95b42d	0.018274391
234	0xb92d8fac	-0.00016552088
235	0xbd28c4c8	-0.04120329
236	0x3d47de45	0.048795957
237	0x3cca583f	0.024700282
238	0xbb160e9d	-0.0022896894
239	0xbbf12635	-0.007359291
240	0xbd2187db	-0.039436202
241	0x3b966e49	0.0045907837
242	0xbd6c08c8	-0.057625562
243	0x3b874816	0.0041284664
244	0xbd518a62	-0.051157363
245	0x3cc31326	0.023812842
246	0xbd063ae8	-0.03277102
247	0x3d0f0e5f	0.034925815
248	0x3c855835	0.016277412
249	0xbd249853	-0.04018433
250	0x3d0ba6b0	0.034094512
251	0x3d55924c	0.052141473
252	0xbb8748e7	-0.0041285637
253	0xbd703b0a	-0.058650054
254	0x3b8954be	0.0041910103
255	0x3d70a754	0.058753327

net.2.linear.weight f4 [1, 256]
0	0xbd882255	-0.06647173
1	0x3d34acfe	0.04411029
2	0xbd47de18	-0.04879579
3	0xbd44451a	-0.047917463
4	0xbd084b11	-0.033274714
5	0xbe17a3b4	-0.14808542
6	0x3de42f8e	0.11141883
7	0x3dab410e	0.083620176
8	0xbca02da9	-0.019553022
9	0x3dcf09cb	0.1010929
10	0xbd82ae75	-0.06380931
11	0x3e154b3d	0.14579482
12	0xbcd7dd49	-0.026350634
13	0xbba3577b	-0.0049847937
14	0x3dcbc0f2	0.09948911
15	0x3cb142e8	0.021638349
16	0x3d06f381	0.032947067
17	0x3da67482	0.08127691
18	0x3dfe3c40	0.124138355
19	0xbdb0861d	-0.0861933
20	0xbd875d95	-0.06609646
21	0xbda9ff2f	-0.083006255
22	0x3dab6546	0.08368926
23	0xbd4fef37	-0.050765242
24	0xbc07cd8c	-0.008288752
25	0xbd8b0b41	-0.06789256
26	0x3d84cef3	0.06484785
27	0xbd8c4c80	-0.06850529
28	0xbdd30b3f	-0.103048794
29	0x3e08b439	0.1335
30	0x3e139aaa	0.14414468
31	0xbe094114	-0.13403732
32	0x3d75dfce	0.06002789
33	0xbded16ae	-0.115765914
34	0xbd1a867a	-0.037725903
35	0x3d9593c5	0.073035754
36	0x3dda7463	0.1066673
37	0x3d5e3cee	0.054257326
38	0x3ccb8274	0.024842478
39	0x3dc3a46b	0.095528446
40	0xbd9e011a	-0.07715054
41	0x3e0dccee	0.13847706
42	0x3de847a3	0.113417886
43	0x3df135ef	0.11777865
44	0xbdc6754b	-0.096903406
45	0x3a3114e0	0.0006755125
46	0x3cf99ab1	0.03046927
47	0x3cc7d962	0.024395648
48	0x3db0266c	0.086010784
49	0x3de26559	0.11054487
50	0xbe024c4b	-0.12724416
51	0xbcb3b3f2	-0.02193639
52	0x3d277bff	0.040889736
53	0x3d1d8d79	0.038464997
54	0x3e1022f3	0.14075832
55	0x3d8f7119	0.070039935
56	0xbd7472e4	-0.05967988
57	0x3d096bb5	0.033549983
58	0xbe0ca3b1	-0.13734318
59	0x3dbe9605	0.09305958
60	0x3df521aa	0.119693115
61	0xbd944605	-0.07239918
62	0x3d206132	0.039155193
63	0xbc90f19e	-0.017693337
64	0x3de18d42	0.11013271
65	0x3d5e1cd2	0.054226704
66	0x3da1a513	0.078928135
67	0x3dd0369f	0.10166668
68	0xbe175ee8	-0.14782298
69	0x3e05d09b	0.13067858
70	0xbe09f0a1	-0.13470699
71	0xbd921382	-0.07132627
72	0xbd66d0c6	-0.056351446
73	0x3cfaa9f6	0.030598622
74	0xbe0f2bb8	-0.13981521
75	0xbd68bebf	-0.056822535
76	0x3d919144	0.07107785
77	0x3dbae176	0.091250345
78	0xbca2c246	-0.019868027
79	0x3d05a825	0.03263106
80	0xbd30b59d	-0.04314195
81	0xbd9b5c91	-0.07586015
82	0x3ce9a7e8	0.028522447
83	0x3cc73954	0.024319328
84	0xbdf15d3b	-0.117853604
85	0xbd0effe2	-0.034911998
86	0xbda0c3e9	-0.07849867
87	0xbd89f5ed	-0.0673636
88	0x3df0ac5c	0.11751625
89	0x3d9d783b	0.07688948
90	0x3d9d2a28	0.07674056
91	0xbdd9a767	-0.106276326
92	0xbe03ded0	-0.12877965
93	0x3e01eb29	0.12687363
94	0xbdbb77ea	-0.09153731
95	0x3e148015	0.14501984
96	0x3df24fde	0.1183164
97	0xbdd7f9a2	-0.105456606
98	0x3d03983a	0.032127596
99	0x3ded0363	0.115729116
100	0x3cb3e608	0.021960273
101	0x3cb4beba	0.022063602
102	0xbcdf5f9f	-0.027267275
103	0xbd4a0624	-0.049322262
104	0x3dac1d58	0.084040344
105	0x3d3b0d17	0.04566678
106	0x3de50b12	0.11183752
107	0xbdc85484	-0.09781745
108	0xbe18a349	-0.14906038
109	0x3dbda81a	0.092605785
110	0x3e04237b	0.1290416
111	0x3d8d1879	0.068894334
112	0x3dfadece	0.12249528
113	0x3da2b1cf	0.079440705
114	0xbcbee1f1	-0.023301097
115	0xbdae2e60	-0.08504939
116	0xbdbcfad2	-0.09227528
117	0xbe119245	-0.14215954
118	0xbbcb6b04	-0.0062078256
119	0xbddf7001	-0.10910035
120	0x3dd165a4	0.102244645
121	0x3c860e5f	0.016364275
122	0x3da9d0f1	0.082918055
123	0x3d0675c2	0.032827146
124	0xbd5b5cd9	-0.053555343
125	0x3da13c0e	0.07872783
126	0x3dce6f59	0.10079832
127	0xbca58d70	-0.020209044
128	0x3d4fd5e8	0.050741106
129	0x3bb362b3	0.0054744123
130	0x3c9f1fb7	0.019424303
131	0x3d79d78a	0.06099657
132	0xbdb2294b	-0.08699282
133	0xbd547c0b	-0.05187611
134	0x3df63d59	0.1202342
135	0xbcf5183d	-0.029918784
136	0xbc7e7a58	-0.015532099
137	0x3dc7e74b	0.097609125
138	0x3d9d8771	0.07691849
139	0x3ceb664b	0.0287353
140	0xbd793c7f	-0.06084871
141	0xbc1da1b9	-0.009621077
142	0xbe047473	-0.12935047
143	0xbdd09f77	-0.101866655
144	0xbe1356b1	-0.14388539
145	0xbd73e44e	-0.0595439
146	0xbd9bdb92	-0.07610239
147	0x3cad9115	0.021187345
148	0xbd4eebab	-0.05051772
149	0x3dd6e449	0.10492761
150	0xbdc25f86	-0.09490876
151	0xbc063ee9	-0.00819371
152	0xbe01bdf4	-0.12670118
153	0x3cf73c71	0.030180188
154	0xbd5b8da2	-0.05360187
155	0xbd5c944b	-0.05385236
156	0xbd6bf586	-0.057607196
157	0xbc3518d0	-0.011053279
158	0x3d68f51d	0.056874383
159	0xbdab6345	-0.083685435
160	0x3d9c4d78	0.076319635
161	0x3d1c8774	0.038215116
162	0xbdffad96	-0.12484281
163	0xbdb81cc1	-0.08989859
164	0xbdda3e19	-0.106563754
165	0xbdc5cc66	-0.096581265
166	0x3da0aad3	0.07845082
167	0xbccede02	-0.025252346
168	0xbd42dbe2	-0.047572978
169	0x3df8c3b5	0.12146703
170	0x3d5dff24	0.0541984
171	0xbd9af930	-0.0756706
172	0xbc40e8e3	-0.0117742745
173	0xbdf65bce	-0.12029229
174	0xbd164733	-0.036688995
175	0x3d932b26	0.07185964
176	0x3c00e6e6	0.0078675505
177	0x3cd8e36f	0.026475636
178	0xbb56ad2f	-0.0032757034
179	0xbd2061b8	-0.03915569
180	0xbdd35812	-0.103195325
181	0xbdd41017	-0.103546314
182	0xbc8c334a	-0.0171143
183	0x3d941b1b	0.072317325
184	0x3dfe3f61	0.12414432
185	0x3ceb63a9	0.028734045
186	0x3c923e9f	0.017852126
187	0xbcd99948	-0.026562348
188	0xbde18dc4	-0.11013368
189	0x3d93f655	0.072247185
190	0x3dbe05b7	0.09278434
191	0xbde6053f	-0.11231469
192	0x3d3098b0	0.043114364
193	0xbda1018e	-0.07861625
194	0xbcb4492f	-0.022007553
195	0x3e045ff5	0.1292723
196	0x3ccac61b	0.024752667
197	0x3d3d2b51	0.046183888
198	0x3be5c6a1	0.007012204
199	0xbd4113d9	-0.04713807
200	0xbd637309	-0.055529628
201	0x3d8e0da3	0.06936195
202	0x3d9f354a	0.07773836
203	0xbc7c6533	-0.015404987
204	0xbe1a8cac	-0.15092725
205	0x3dffdf68	0.12493783
206	0x3ddf7ce7	0.10912495
207	0x3db772d1	0.08957446
208	0x3d79f8b0	0.061028183
209	0xbd9d7c1f	-0.0768969
210	0x3cc65000	0.024208069
211	0x3e132388	0.14369023
212	0x3cccda30	0.025006384
213	0x3d03872a	0.032111324
214	0xbdd002c8	-0.101567805
215	0xbd8b0ca3	-0.0678952
216	0x3add9470	0.00169052
217	0xbd6782c7	-0.056521203
218	0x3d95eb65	0.073202886
219	0xbde625c5	-0.11237673
220	0x38c83fff	9.5486634e-05
221	0x3e18f330	0.14936519
222	0xbe108c05	-0.14115913
223	0xbd4e549e	-0.050373666
224	0xbd4a03e0	-0.0493201
225	0x3c07b1b2	0.008282112
226	0xbd44f937	-0.048089232
227	0x3da5e6ba	0.08100648
228	0xbc9c9b9f	-0.019117175
229	0x3e0a6418	0.13514745
230	0x3d93d2ca	0.07217939
231	0x3c5e4750	0.013566807
232	0x3ddbbc8e	0.10729323
233	0x3da0fc80	0.078606606
234	0xbd470fd5	-0.048599083
235	0x3dd9a691	0.10627473
236	0xbc4cdb31	-0.012503431
237	0xbdbcafe7	-0.09213238
238	0x3d531ed1	0.05154306
239	0x3c96b398	0.018396184
240	0xbdc14496	-0.0943691
241	0xbd89baf7	-0.06725114
242	0xbe12fa35	-0.14353259
243	0x3d537620	0.051626325
244	0x3e098a78	0.13431728
245	0xbc983a34	-0.01858244
246	0x3dc180a6	0.09448366
247	0xbde93d4f	-0.11388647
248	0xbd348ee6	-0.04408159
249	0xbd7da0a3	-0.061920773
250	0x3b9a7d7a	0.004714665
251	0xbdb5a48f	-0.08869278
252	0x3e05c858	0.13064706
253	0xbd30b708	-0.043143302
254	0xbe15e66a	-0.14638677
255	0xbe195a60	-0.14975882
