geoinr/data/unconformities/plane_splus_model1L_128_100b.pth (torch, 70743 bytes, 5 tensors)

net.0.linear.weight f4 [128, 3]
0	0x3fb04fae	1.3774316
1	0xbd984b0d	-0.0743619
2	0x3f71e37e	0.9448775
3	0xbfb02a80	-1.376297
4	0x3f9ffc9c	1.2498965
5	0x3f036f0d	0.51341325
6	0xbde387bb	-0.11109873
7	0x3e1ecb19	0.15507163
8	0x3f5947a4	0.8487494
9	0x3dc7addb	0.09749957
10	0xbfab7be1	-1.339718
11	0xbe5e5d9f	-0.21715401
12	0x3f60d367	0.87822574
13	0x3e84103c	0.25793636
14	0xbed91719	-0.42400435
15	0x3f95b902	1.1697085
16	0x3f2de4dc	0.67927337
17	0x3cf15c8c	0.029463075
18	0xbe815484	-0.25259793
19	0x3fa9766a	1.3239262
20	0x3f7a884d	0.9786423
21	0xbf8ea615	-1.1144434
22	0xbd19ebdf	-0.03757846
23	0x3cb065ea	0.021532971
24	0xbf27a621	-0.6548787
25	0x3f50e5c3	0.8160059
26	0x3f8ff22c	1.124578
27	0xbf92bb53	-1.1463417
28	0xbf111bf0	-0.56683254
29	0xbf9960a0	-1.1982613
30	0x3fa178c9	1.2614986
31	0x3e0ca8a9	0.13736214
32	0x3f7db0b3	0.99097747
33	0xbedf8d5e	-0.43662542
34	0x3cab55be	0.020914908
35	0xbf81d1e7	-1.0142182
36	0xbf1eb85a	-0.6200005
37	0xbf889d1d	-1.0672947
38	0xbf08f700	-0.5350189
39	0x3ee69201	0.45033267
40	0x3f82ca4a	1.0217984
41	0xbe9afcfb	-0.30271134
42	0xbeee7da5	-0.46580234
43	0xbf833ec7	-1.0253533
44	0x3fa77ab0	1.3084316
45	0xbee3cb60	-0.444911
46	0xbf9dced7	-1.2328748
47	0xbe28965d	-0.16463609
48	0x3d0b6462	0.03403128
49	0x3fa16aa1	1.2610666
50	0xbf543374	-0.8289101
51	0x3eee8eb9	0.46593264
52	0x3eac256c	0.336223
53	0xbf537872	-0.8260566
54	0xbf5aa83d	-0.8541296
55	0x3ecfe0ee	0.40601295
56	0x3f28256a	0.6568209
57	0xbf3f4c13	-0.74725455
58	0xbd094f25	-0.033522744
59	0xbf5b10a4	-0.85572267
60	0xbeb6b7e3	-0.3568717
61	0x3fac134c	1.3443389
62	0x3e2a60b4	0.16638452
63	0xbd8ab062	-0.067719236
64	0xbf3fd731	-0.7493773
65	0xbeb56fdb	-0.354369
66	0x3f30afb2	0.6901809
67	0x3e45ee25	0.19329126
68	0x3f0a3d5b	0.5399987
69	0x3f847d29	1.0350696
70	0xbfb33cab	-1.4002889
71	0xbefabec3	-0.48973665
72	0xbf8957d1	-1.0729924
73	0xbf453a76	-0.7704233
74	0x3e092999	0.13394774
75	0xbe80aa77	-0.25130054
76	0x3f937738	1.1520758
77	0xbf76afae	-0.96361816
78	0x3e9f76bd	0.31145278
79	0xbf872d3c	-1.056068
80	0xbfa5f714	-1.2966027
81	0x3fa47542	1.2848284
82	0xbe88e5a6	-0.26737708
83	0xbfacca0f	-1.3499163
84	0xbf7918d2	-0.973035
85	0x3f4b2280	0.7934952
86	0xbe52e3e0	-0.2059474
87	0xbeef3cc0	-0.46726036
88	0xbf7d6f7f	-0.98998255
89	0x3efa1742	0.4884587
90	0xbfa067f6	-1.2531726
91	0xbe769679	-0.24080838
92	0xbeeeb53d	-0.4662265
93	0xbf2acb5e	-0.66716564
94	0x3ddc5189	0.10757739
95	0xbfb3c6d6	-1.4045055
96	0x3f8aa693	1.0832084
97	0xbd9c11bd	-0.07620571
98	0x3f9b9e9d	1.215778
99	0x3e20d949	0.15707888
100	0x3f17d816	0.59314096
101	0xbf007ae1	-0.501875
102	0x3e87e1ed	0.26539555
103	0x3f77e6c4	0.96836495
104	0x3e9e6d22	0.30942637
105	0x3f9e62d4	1.237391
106	0x3f3fad20	0.7487354
107	0x3f06f1b3	0.52712554
108	0x3e56a3d7	0.20960937
109	0x3ea2e8ab	0.31818137
110	0x3f0dc36d	0.5537632
111	0x3f49be36	0.78805864
112	0xbeda2411	-0.4260564
113	0x3dcd2105	0.100160636
114	0x3fa9b578	1.3258505
115	0x3fa5ab4c	1.2942901
116	0xbf31a228	-0.69388056
117	0x3f2b3300	0.66874695
118	0xbf8583fa	-1.0430901
119	0x3f1fadb0	0.623744
120	0xbf645510	-0.89192295
121	0xbf82e516	-1.0226161
122	0xbde8a782	-0.113600746
123	0x3fa672e3	1.3003811
124	0x3fa1cd6f	1.2640818
125	0xbf4d9e85	-0.80320007
126	0x3f44c734	0.7686646
127	0x3fa0709c	1.2534366
128	0xbf8d3601	-1.1032106
129	0xbf56e6dd	-0.8394602
130	0x3f4faea3	0.8112585
131	0xbced9695	-0.029002467
132	0xbebfc72b	-0.3745664
133	0x3f5e051b	0.8672654
134	0xbe69dce9	-0.22838177
135	0x3f1a2d34	0.60225224
136	0x3f5d25ec	0.8638599
137	0xbea6e0e2	-0.32593447
138	0x3d70612f	0.05868643
139	0x3e39be4f	0.18139003
140	0x3f821454	1.0162454
141	0xbefa2c4c	-0.4886192
142	0x3f8c0d47	1.0941552
143	0xbd59832f	-0.053103622
144	0x3f864375	1.0489336
145	0x3f86ffe5	1.0546843
146	0x3e9bf9fd	0.30464163
147	0xbf74bdfd	-0.956024
148	0x3f8acbe4	1.0843472
149	0xbfa62039	-1.2978584
150	0xbe5c80e9	-0.2153355
151	0xbf28d9e2	-0.6595746
152	0x3f903a9f	1.126789
153	0x3ee32811	0.44366506
154	0x3f9785c5	1.1837698
155	0x3f40c4a0	0.75300026
156	0xbf502945	-0.8131297
157	0xbf35232b	-0.7075679
158	0x3e8c37e2	0.27386385
159	0xbfa1be8c	-1.2636275
160	0x3df73d42	0.12072231
161	0xbf982b9d	-1.188831
162	0x3fa9112e	1.3208368
163	0xbf6a4a46	-0.9151958
164	0x3ede6b34	0.43441164
165	0x3fa8874c	1.3166289
166	0xbecbe743	-0.39824876
167	0xbf9fcf38	-1.2485113
168	0x3f3f1894	0.7464688
169	0xbfa0f421	-1.2574502
170	0xbe234566	-0.15944442
171	0x3ed9343e	0.4242267
172	0x3fa2f279	1.2730247
173	0xbf27b6a0	-0.6551304
174	0x3fa3efab	1.2807516
175	0x3bac584d	0.0052595497
176	0x3f82f6d3	1.0231575
177	0xbface8ca	-1.3508542
178	0xbf272ce8	-0.65302896
179	0x3ebb65e3	0.3660117
180	0xbf4cd93d	-0.8001898
181	0xbea64356	-0.32473248
182	0x3f842fc2	1.0327075
183	0x3f488dd3	0.78341407
184	0xbebec26e	-0.37257713
185	0x3f3f7bf6	0.74798524
186	0xbee5670f	-0.4480519
187	0xbf10bec6	-0.565411
188	0x3f25f9a3	0.6483404
189	0xbf5cfb3c	-0.86320853
190	0xbfb45cbe	-1.4090803
191	0xbf3dc3b8	-0.7412677
192	0x3f24d283	0.64383715
193	0xbe0befff	-0.1366577
194	0xbdb7b4e9	-0.08970053
195	0x3e811600	0.25212097
196	0x3f8fe962	1.1243098
197	0xbf3537aa	-0.7078806
198	0xbf960473	-1.1720108
199	0x3f1cd74f	0.61266035
200	0xbf589c5d	-0.8461359
201	0xbe11f907	-0.14255153
202	0xbf96d252	-1.1782935
203	0xbf0dc95b	-0.5538537
204	0xbed72463	-0.42019948
205	0xbf47094a	-0.7774855
206	0xbf710278	-0.9414439
207	0xbf28a6f0	-0.65879726
208	0x3c172774	0.009225715
209	0x3e732f38	0.23748481
210	0x3edb0a54	0.42781317
211	0xbf875801	-1.0573732
212	0xbf17636a	-0.5913607
213	0xbc4c4060	-0.01246652
214	0x3efff377	0.49990436
215	0xbdee154e	-0.11625157
216	0xbf81fd2e	-1.0155389
217	0x3df3a6a4	0.118970186
218	0xbf81f18e	-1.0151842
219	0x3f591705	0.8480075
220	0x3ecaf2bc	0.39638317
221	0x3f7c3633	0.985202
222	0xbfa979a2	-1.3240244
223	0xbef2e221	-0.47438148
224	0x3e5a483a	0.21316615
225	0x3f34ed7e	0.70674884
226	0x3d9396d1	0.072065
227	0xbf8ae0af	-1.0849818
228	0xbedbc6b6	-0.42925042
229	0x3d8a9668	0.06766969
230	0x3f29ac50	0.66278553
231	0xbeb3ef35	-0.35143438
232	0xbdb93e34	-0.090450674
233	0xbf92c2b0	-1.1465664
234	0xbeb55131	-0.35413507
235	0x3c4633fa	0.012097353
236	0xbf40876b	-0.7520663
237	0xbe31f6d5	-0.17379315
238	0xbf70bcb0	-0.94037914
239	0xbf87b9ac	-1.0603538
240	0x3f43d58b	0.76497716
241	0xbf661f66	-0.8989166
242	0x3f58f350	0.84746265
243	0x3e6dfc42	0.2324076
244	0x3ee6b115	0.45056978
245	0xbf19d989	-0.6009756
246	0xbe450cb3	-0.19243126
247	0x3f4f2056	0.80908716
248	0xbe8cfb4e	-0.2753548
249	0x3f12a960	0.57289696
250	0xbf71cf28	-0.9445672
251	0xbf8b1225	-1.0864912
252	0x3f523d59	0.8212486
253	0xbf4ba86f	-0.79553884
254	0xbea0da27	-0.31416437
255	0x3f57bfbc	0.8427694

net.0.linear.bias f4 [128]
0	0x3ed9503f	0.42444035
1	0x3e2f15d4	0.1709817
2	0xbb1c7964	-0.0023876065
3	0x3d233bc2	0.03985191
4	0xbf0bce84	-0.5461199
5	0x3ef436b7	0.47697994
6	0x3f068435	0.5254548
7	0xbd54e6e0	-0.051977992
8	0xbe1fea61	-0.15616752
9	0xbebbb61a	-0.3666237
10	0x3ecfb0b1	0.40564492
11	0x3ea586fb	0.32329544
12	0x3e74d4c8	0.23909295
13	0x3ea9838c	0.33108175
14	0x3e198632	0.14992598
15	0xbc83587a	-0.0160334
16	0xbee346c3	-0.44389924
17	0xbe586553	-0.21132402
18	0xbe1b6755	-0.15176137
19	0x3ea660e2	0.3249579
20	0xbe437852	-0.19088867
21	0xbeffa767	-0.49932405
22	0x3efe54f3	0.49674186
23	0xbdf0900e	-0.11746226
24	0xbd075b26	-0.03304591
25	0x3ebea35c	0.37234008
26	0xbeb65f78	-0.35619712
27	0x3ea1ae87	0.31578466
28	0xbf00e0cb	-0.50343007
29	0xbebd0b4e	-0.36922687
30	0x3e684b9e	0.22685096
31	0xbcf29952	-0.029614124
32	0x3e3146d4	0.17312175
33	0x3db39bd4	0.08769956
34	0x3f00517d	0.5012434
35	0x3d087920	0.03331864
36	0xbef5bb51	-0.47994474
37	0x3f015771	0.5052405
38	0xbe72e3c5	-0.237197
39	0xbf0fa14b	-0.5610549
40	0x3ec14ea5	0.37755314
41	0x3ee898d3	0.45429096
42	0x3ef8b20f	0.48573348
43	0x3ee0ae43	0.4388295
44	0x3d906585	0.07050613
45	0xbe7d9529	-0.24763931
46	0xbe39b9ea	-0.18137327
47	0x3d7366e7	0.059424307
48	0xbf048e1d	-0.5177935
49	0x3e0838cd	0.13302918
50	0x3c51890e	0.012789024
51	0x3e124e6c	0.14287728
52	0x3db9b12e	0.090669975
53	0x3e9a52e3	0.30141363
54	0xbe01b740	-0.1266756
55	0x3df894c0	0.12137747
56	0x3d578542	0.05261732
57	0x3f0041ae	0.5010022
58	0x3e330cb3	0.17485313
59	0xbd38bcb3	-0.045101833
60	0xbd06cee3	-0.032912146
61	0xbeac7ab5	-0.33687368
62	0xbe90b2b0	-0.28261328
63	0xbe0a6ddd	-0.13518472
64	0xbe685b83	-0.22691159
65	0xbe62894e	-0.2212269
66	0xbe70f886	-0.23532304
67	0xbbd85142	-0.0066014836
68	0x3dfa6da3	0.12227943
69	0x3e67660a	0.22597519
70	0xbeae82a0	-0.34084034
71	0x3ed4bdc9	0.41551045
72	0x3ebe3e4f	0.37156913
73	0xbe0a395e	-0.13498446
74	0x3ed9609f	0.4245653
75	0x3f0e0c64	0.55487657
76	0xbec3fd24	-0.38279068
77	0x3f0f4598	0.55965567
78	0xbda7f18f	-0.082003705
79	0x3ec32dbb	0.38120827
80	0x3e322779	0.1739787
81	0x3e988eb1	0.29796365
82	0xbf079d40	-0.5297432
83	0xbe180b1e	-0.14847991
84	0x3edd14f6	0.43180054
85	0x3ed714f8	0.42008185
86	0x3cdd898e	0.02704313
87	0xbed4bc3f	-0.4154987
88	0x3ee589b1	0.44831613
89	0x3e53614d	0.20642586
90	0x3e58de35	0.21178515
91	0xbe3e6b60	-0.18595648
92	0xbf014b74	-0.5050576
93	0xbdf6ebc1	-0.12056685
94	0x3edca6f2	0.4309612
95	0x3f0169c2	0.50552
96	0x3edf4e47	0.43614408
97	0x3ee54cb2	0.44785076
98	0x3ce4fe6f	0.027953355
99	0xbe0000b3	-0.12500267
100	0x3de49c9f	0.111626856
101	0x3eca59de	0.39521688
102	0xbedb1ae6	-0.4279396
103	0xbe1e3be0	-0.15452528
104	0x3ebdd99a	0.3708008
105	0x3e139896	0.14413676
106	0xbe9b9a41	-0.30391124
107	0x3f0f99f2	0.56094277
108	0xbee8070c	-0.45317876
109	0xbeac696f	-0.3367419
110	0xbe0d782c	-0.13815373
111	0x3e43a0f7	0.19104372
112	0xbecddbc8	-0.40206742
113	0x3f058d37	0.521686
114	0xbd6d8dc8	-0.05799654
115	0xbebffe3a	-0.37498647
116	0x3e350b82	0.17680171
117	0x3eb59360	0.35464
118	0x3f053dc9	0.520474
119	0x3e51ba73	0.20481281
120	0x3ebf1e0c	0.3732761
121	0x3e1a22b8	0.15052307
122	0x3eaa07e6	0.3320915
123	0xbef4ffc5	-0.47851387
124	0x3eb34cb7	0.35019466
125	0x3eccbae5	0.3998634
126	0x3ea935ee	0.33048958
127	0x3f027a8c	0.5096824

net.1.linear.weight f4 [128, 128]
0	0xbcee82a5	-0.02911503
1	0xbe30024f	-0.1718838
2	0x3bb7ee4b	0.0056131235
3	0xbacf78eb	-0.0015828883
4	0xbcbece2f	-0.023291675
5	0xbe1fd917	-0.15610157
6	0x3d957d65	0.07299308
7	0xbe5ca4de	-0.21547267
8	0xbd3502f8	-0.044192284
9	0xbdc7f569	-0.09763605
10	0x3df0a4e6	0.11750202
11	0xbd67a76c	-0.05655615
12	0xbd57da67	-0.05269852
13	0x3d6faa75	0.05851217
14	0xbe54c154	-0.20776874
15	0xbdd3250f	-0.10309803
16	0x3e2486cb	0.16067044
17	0xbd942909	-0.07234389
18	0x3e28f8da	0.1650118
19	0xbc82d2b6	-0.015969615
20	0xbe44ecf1	-0.19231011
21	0x3da7c0e6	0.08191089
22	0x3e3d3c96	0.18480143
23	0xbcb5cdf4	-0.022192933
24	0xbc81d59d	-0.015848929
25	0xbe30a309	-0.17249693
26	0x3e1aff73	0.15136509
27	0x3e43fe13	0.1913989
28	0x3ddf7cf2	0.10912503
29	0xbddac136	-0.10681383
30	0x3d8ca017	0.06866472
31	0xbe50329a	-0.20331803
32	0xbe39a0fb	-0.18127815
33	0x3de7be2f	0.113155715
34	0x3d82cb64	0.0638645
35	0x3e2a8e92	0.16655949
36	0xbdeaace2	-0.11458756
37	0xbe37a6fe	-0.17934796
38	0x3c6c632b	0.01442794
39	0xbe2f0bc0	-0.17094326
40	0x3c7bdb77	0.015372149
41	0x3e00133d	0.12507339
42	0xbe36059d	-0.17775579
43	0xbe5c7db1	-0.21532322
44	0xbd2675ba	-0.040639617
45	0x3e299b7b	0.16563217
46	0xbe1bfe88	-0.15233815
47	0x3e4088bc	0.1880216
48	0x3e350287	0.17676745
49	0x3e01bf73	0.12670688
50	0x3c9dfc08	0.019285217
51	0x3e09bfb1	0.1345203
52	0xbda1c2fb	-0.07898518
53	0x3e15c9f7	0.14627825
54	0xbdd9c278	-0.10632795
55	0xbe2db037	-0.16961752
56	0xbe1f4539	-0.1555375
57	0xbab240a3	-0.0013599586
58	0x3c0f179f	0.008733659
59	0x3d494db6	0.049146377
60	0x3d20b32f	0.039233383
61	0x3dce16d7	0.1006295
62	0x3d85f955	0.06541697
63	0x3dd2c1a7	0.102908425
64	0x3e102a72	0.14078692
65	0xbe1a842c	-0.15089482
66	0xbe249f61	-0.16076423
67	0xbd56756f	-0.052358087
68	0xbddb0911	-0.10695089
69	0xbc744f4f	-0.014911487
70	0x3e35caff	0.17753218
71	0xbd2abf2a	-0.041686215
72	0xbd74f2be	-0.05980181
73	0x3d24066b	0.040045183
74	0x3e5794bd	0.21052833
75	0x3e29b05a	0.16571179
76	0xbcaa44e0	-0.020784795
77	0xbd3926f4	-0.045203164
78	0x3d418839	0.047249053
79	0x3e59a222	0.21253255
80	0x3e15a396	0.14613184
81	0x3df546fc	0.1197643
82	0x3dbb048c	0.091317266
83	0x3d5ae16b	0.05343763
84	0xbe01f9b3	-0.12692909
85	0x3e08e58d	0.13368817
86	0x3e34b513	0.176472
87	0xbd4140e5	-0.04718103
88	0xbda424c6	-0.080148265
89	0x3d1c6d66	0.038190268
90	0xbbaa55ff	-0.00519824
91	0xbdeafd10	-0.11474049
92	0x3e553625	0.20821436
93	0x3c9f4eb9	0.019446718
94	0xbda5af32	-0.080900565
95	0xbddd5675	-0.10807506
96	0x3d8b3806	0.06797795
97	0xbdd56004	-0.10418704
98	0x3df2c35f	0.1185367
99	0x3dadf2d0	0.084935784
100	0x3d0be182	0.034150608
101	0x3e429ade	0.1900439
102	0x3e0e6165	0.1390434
103	0x3e556a71	0.20841385
104	0x3df03857	0.11729496
105	0x3e3dd585	0.18538482
106	0xbe52ed24	-0.20598274
107	0xbe46ae48	-0.1940242
108	0xbcdd787f	-0.027034996
109	0xbdbb6223	-0.091495775
110	0xbd057527	-0.03258243
111	0x3d8f2797	0.06989973
112	0xbcc5003d	-0.024047965
113	0xbd229cc5	-0.03970029
114	0x3de2c90e	0.110735044
115	0x3e34fab9	0.17673768
116	0x3da095e6	0.07841091
117	0xbe3b4510	-0.18288064
118	0x3e299eaf	0.16564439
119	0xbd00c39c	-0.031436548
120	0xbd2d548f	-0.04231697
121	0x3e0b1d48	0.13585389
122	0x3e37ba7b	0.1794223
123	0x3e3f2ef7	0.1867026
124	0x3de8bd6f	0.113642566
125	0x3d42a292	0.04751832
126	0x3d5ac623	0.053411614
127	0xbde3a7ec	-0.11116013
128	0x3e0b751a	0.1361889
129	0xbcaf8a11	-0.02142814
130	0x3d0cb055	0.03434785
131	0x3d3e31c7	0.04643419
132	0xbe19076e	-0.1494424
133	0xbd29d734	-0.041465
134	0x3e14be39	0.14525689
135	0x3e05ea06	0.13077554
136	0x3e60e5f8	0.21962726
137	0xbe2e744d	-0.17036553
138	0xbceef871	-0.0291712
139	0x3e08a7fd	0.13345332
140	0x3e4aeae8	0.19816172
141	0xbb8a37f9	-0.0042180982
142	0x3cc26a66	0.023732375
143	0xbe18012b	-0.14844196
144	0x3d2a0ba0	0.041514993
145	0x3e444393	0.19166403
146	0xbe2f9f13	-0.17150526
147	0x3dfa5b85	0.12224487
148	0x3e260602	0.1621323
149	0x3e5009db	0.2031626
150	0x3dad5678	0.08463758
151	0x3e169e3a	0.14708796
152	0x3df3cae2	0.11903931
153	0x3e1f4659	0.15554179
154	0xbc385990	-0.011251822
155	0xbcf0de63	-0.029402917
156	0xbe3b7fa6	-0.18310413
157	0x3e483c99	0.19554366
158	0x3e00f6d4	0.12594157
159	0xbe43131a	-0.19050255
160	0xbe32b08b	-0.17450158
161	0xbe0eac39	-0.13932885
162	0x3d3b13f3	0.045673322
163	0xbd65cdc4	-0.056104437
164	0xbe31efbe	-0.1737661
165	0xbdf0de8e	-0.11761199
166	0xbe33d185	-0.17560394
167	0xbd8c3a09	-0.06847007
168	0x3e3f8e53	0.18706636
169	0xbbd31784	-0.0064420123
170	0x3c821c8f	0.015882758
171	0xbe414492	-0.18873814
172	0x3d8541ef	0.065067165
173	0x3d4f69e6	0.050638102
174	0x3d1a2fc3	0.037643205
175	0x3ce4101a	0.02783971
176	0xbd73e2a8	-0.059542328
177	0x3e5208bf	0.20511149
178	0x3e24ebac	0.16105527
179	0xbe11ee62	-0.14251092
180	0xbe40e9f0	-0.1883924
181	0xbe218db4	-0.15776712
182	0xbded1e7a	-0.115780786
183	0x3e401da1	0.18761303
184	0xbe20b49f	-0.15693901
185	0x3d03e9cf	0.0322054
186	0xbd4d1599	-0.050069425
187	0x3e30513e	0.17218491
188	0x3be350f9	0.006937143
189	0x3e48db9e	0.19615027
190	0xbd65becc	-0.05609016
191	0x3d37810a	0.044800796
192	0xbe1951d5	-0.14972623
193	0xbcc9d1df	-0.024636207
194	0x3bf4b31a	0.0074676396
195	0xbe0f7de3	-0.14012866
196	0xbda9dcbb	-0.08294054
197	0x3d6b6446	0.057468675
198	0xbb01a765	-0.0019783613
199	0xbdf5eb45	-0.12007765
200	0x3e4e047f	0.20118903
201	0x3e1c15af	0.15242647
202	0xbc0172cc	-0.007900905
203	0xbbdd3028	-0.0067501254
204	0xbd627d11	-0.055295054
205	0x3d967a99	0.073476024
206	0x3a60f2aa	0.00085810816
207	0x3e00a383	0.12562375
208	0x3c93adba	0.018027175
209	0xbe3f4ea0	-0.18682337
210	0x3e5b64cc	0.2142517
211	0xbe3a3f49	-0.18188204
212	0x3e4dbd52	0.20091751
213	0x3d892120	0.06695771
214	0xbda7837c	-0.081793755
215	0x3e1201b0	0.14258456
216	0x3d860c94	0.06545368
217	0xbe184753	-0.14870958
218	0x3cd73242	0.026269082
219	0x3dba7fb1	0.091063865
220	0x3e518eca	0.20464626
221	0x3ded1e47	0.115780406
222	0x3e52f0f0	0.20599723
223	0x3e568827	0.20950375
224	0x3e3d63df	0.18495129
225	0x3c26b438	0.010174803
226	0x3d26dd2a	0.040738262
227	0x3e23719e	0.1596131
228	0x3e33a9b1	0.17545201
229	0xbdb10c36	-0.08644907
230	0x3e48c6c4	0.19607073
231	0xbdb30247	-0.08740669
232	0xbb1bfba0	-0.0023801103
233	0x3cc30c4d	0.023809576
234	0x3c5e1dbc	0.013556894
235	0xbe388b02	-0.18021777
236	0x3e10d8dd	0.14145227
237	0x3df4ddfb	0.11956402
238	0x3b03f115	0.002013271
239	0xbe2168da	-0.15762654
240	0x3d8a5a7f	0.06755542
241	0x3cfe05c9	0.031008618
242	0x3d982854	0.07429567
243	0xbddb4dc3	-0.10708191
244	0xbe09d8dc	-0.13461632
245	0x3ca9c8b6	0.02072559
246	0x3cfa9b3c	0.0305916
247	0x3e2c3bf9	0.16819753
248	0xbe003d6a	-0.12523428
249	0xbe5b1591	-0.21394946
250	0xbdbf6e8a	-0.093472555
251	0x3e114599	0.14186706
252	0x3e073899	0.13205184
253	0x3d6dd4dd	0.05806433
254	0x3e576350	0.21033978
255	0xbd2935f9	-0.041311238

net.1.linear.bias f4 [128]
0	0x3d899f77	0.06719869
1	0x3d90e10b	0.070741735
2	0xbc215b15	-0.009848376
3	0xbdb778f9	-0.089586206
4	0xbcb82e90	-0.02248314
5	0xbcdc0d7e	-0.026861902
6	0x3d8581c1	0.06518889
7	0x3cdb43f2	0.026765797
8	0xbbd043a0	-0.006355718
9	0x3d5d559b	0.054036718
10	0x3c69c09d	0.014267114
11	0xbd7454f2	-0.059651323
12	0x3d049c71	0.032375757
13	0x3d7cabb5	0.06168719
14	0xbab9aa8c	-0.0014165207
15	0xbc5e314c	-0.013561558
16	0xbd7e248f	-0.062046584
17	0xbda4dd61	-0.08050037
18	0xbd217b3f	-0.039424177
19	0x3da0d086	0.07852273
20	0x3d87081a	0.06593342
21	0x3d0dbb9a	0.03460274
22	0xbc0bf90c	-0.008543264
23	0xbdbcf41e	-0.09226249
24	0x3d825590	0.06363976
25	0xbcb38585	-0.021914253
26	0x3d91b859	0.0711524
27	0xbce4327c	-0.027856104
28	0xbc6c7664	-0.014432523
29	0xbd607625	-0.05480017
30	0x3c00956d	0.007848126
31	0xbd9dece7	-0.07711201
32	0xbcad12da	-0.021127153
33	0xbad020f4	-0.0015878961
34	0xbd144bad	-0.036204983
35	0x3c188238	0.00930839
36	0x3dbd9fed	0.09259019
37	0xbcd57178	-0.026055083
38	0xbd41ccfe	-0.047314636
39	0x3cbce4c5	0.023058305
40	0x3bb2ec42	0.005460293
41	0xbce5e8f1	-0.028065177
42	0xb9370d71	-0.00017457247
43	0x3c9392f4	0.018014409
44	0xbd48af36	-0.04899522
45	0xbac407e4	-0.0014955965
46	0xbd750d2f	-0.059827026
47	0x3c91b558	0.017786667
48	0xbd9944da	-0.074838355
49	0xbccecd02	-0.02524424
50	0x3d9ca53e	0.07648705
51	0x3c38aa96	0.01127114
52	0xbd7c7f13	-0.061644625
53	0xbca8ebe9	-0.020620303
54	0xbd638930	-0.055550754
55	0xbdbcf003	-0.09225466
56	0xbb84c10a	-0.0040513324
57	0x3c93c25b	0.018037012
58	0x3da3896a	0.07985194
59	0xbc52003d	-0.01281744
60	0xbb5ef6c2	-0.003402159
61	0x3cf408a7	0.029789282
62	0xbb1e4760	-0.002415143
63	0x3c9ab752	0.018886242
64	0xbd895fb3	-0.06707706
65	0x3aa9c775	0.001295312
66	0x3d834c1a	0.064109996
67	0xbd588d09	-0.052868877
68	0x3c737fa5	0.014861976
69	0x3d780b87	0.06055787
70	0x3d47f63a	0.048818804
71	0xbda862b5	-0.08221952
72	0xbb7c72d9	-0.0038520603
73	0x3d921129	0.07132179
74	0x3d5b0fb0	0.053481758
75	0xbce88821	-0.028385224
76	0x3c27bf30	0.010238454
77	0xbd8d28d5	-0.06892554
78	0xbcca3d3a	-0.024687398
79	0xbb36250e	-0.0027793082
80	0x3da09f1f	0.0784285
81	0x3ba36d30	0.0049873814
82	0x3d073a4b	0.033014577
83	0xbd82a795	-0.0637962
84	0xbd87a8df	-0.066240065
85	0x3d9704d9	0.073739715
86	0x3cabe118	0.020981357
87	0x3da6afb4	0.081389815
88	0x3cf66159	0.030075716
89	0xbcac3c4b	-0.021024844
90	0xbd7f832c	-0.062380955
91	0x3c75358f	0.014966383
92	0x3baaf4d0	0.005217172
93	0x3d8024b9	0.06257004
94	0x3c2e0ac3	0.010622683
95	0x3d8a0226	0.06738691
96	0x3cab6a7f	0.020924805
97	0x3d263b31	0.040583793
98	0xbd56a3dd	-0.052402366
99	0x3bc97a1c	0.00614859
100	0xba9450dc	-0.0011315602
101	0xbd9d70c8	-0.07687527
102	0xbd44df13	-0.048064303
103	0x3c57bd10	0.013167635
104	0x3cc61000	0.024177551
105	0xbd4e7d67	-0.05041256
106	0x3d8636c6	0.06553416
107	0xbd62258f	-0.0552116
108	0xbce96e31	-0.028494926
109	0x3d9c8163	0.07641866
110	0xbd8595ef	-0.06522738
111	0x3d129036	0.03578206
112	0xbcaf6ff6	-0.021415692
113	0xbd5f1781	-0.054465774
114	0xbd034aa3	-0.0320536
115	0xbc6b1718	-0.014348768
116	0x3ca876e0	0.020564497
117	0xbd797854	-0.06090577
118	0x3da2adfc	0.07943341
119	0x3d3f57d0	0.046714604
120	0xbd2586c9	-0.040411744
121	0x3c951c2b	0.018201908
122	0xbd922c8c	-0.07137403
123	0x3d78baab	0.060724895
124	0xbd64b1ba	-0.055833556
125	0x3d1f5277	0.038897004
126	0x3c94e0dc	0.018173628
127	0x3d4c11e2	0.049821742

net.2.linear.weight f4 [1, 128]
0	0xbe316e8a	-0.17327324
1	0x3cefb65e	0.029261764
2	0x3dc27994	0.094958454
3	0x3dd560c8	0.1041885
4	0xbe13a61f	-0.14418839
5	0xbe38dceb	-0.18053024
6	0x3d779651	0.060446087
7	0x3e0da4cf	0.138324
8	0xbe07527f	-0.13215064
9	0x3e2770bd	0.163516
10	0x3e1bc4e4	0.15211827
11	0x3dc697b5	0.096969046
12	0x3e579c7b	0.21055786
13	0x3c9ca0ca	0.019119639
14	0xbe2f6279	-0.17127408
15	0xbbec6f56	-0.0072154207
16	0xbdfc23ff	-0.12311553
17	0x3e50e573	0.20400028
18	0x3e0c6b55	0.13712819
19	0x3dab4a59	0.0836379
20	0x3e0759ed	0.13217898
21	0x3e443c1c	0.19163555
22	0xbe297c07	-0.16551219
23	0x3d9cf4a8	0.07663852
24	0xbde9f3e2	-0.1142347
25	0xbe2207a1	-0.15823223
26	0x3def601e	0.11688255
27	0x3caa3c37	0.020780666
28	0xbe258371	-0.16163422
29	0x3d8c4bf7	0.06850427
30	0xbdb01317	-0.08597391
31	0xbe3da0d1	-0.18518378
32	0x3dc4a1e4	0.09601191
33	0x3d8e6bb0	0.069541335
34	0xbdbeefa2	-0.0932305
35	0x3d3be4cd	0.0458725
36	0x3ca6c460	0.02035731
37	0x3e0c24d7	0.13685928
38	0xbe513aa7	-0.2043253
39	0xba8a5bb9	-0.00105559
40	0x3dfc12a6	0.123082444
41	0x3e34a0d0	0.1763947
42	0xbd4646f6	-0.048407517
43	0x3e2d0cb5	0.16899379
44	0xbb7f5ec9	-0.0038966408
45	0xbe1663ce	-0.1468651
46	0xbddd7ed8	-0.10815209
47	0xbdcccceb	-0.100000225
48	0xbdb27a8b	-0.087147795
49	0xbcdc1ac1	-0.026868226
50	0x3e0821bc	0.13294119
51	0x3e176549	0.14784731
52	0xbd765687	-0.060141113
53	0x3e4df347	0.20112334
54	0xbe0eae37	-0.13933645
55	0x3d4b2c7a	0.049602963
56	0xbd88c18f	-0.06677543
57	0x3c68201a	0.01416781
58	0x3e48d167	0.1961113
59	0x3e18d43a	0.14924708
60	0x3dda99d2	0.1067387
61	0x3d218460	0.039432883
62	0x3d965314	0.07340065
63	0xbe1cbbbf	-0.15305994
64	0xbe56952d	-0.20955344
65	0x3e43396a	0.1906487
66	0x3cf306af	0.029666273
67	0x3e04d7e9	0.12972988
68	0x3e38d2bf	0.18049143
69	0x3e16654a	0.14687076
70	0x3e297e00	0.16551971
71	0xbe518e47	-0.20464431
72	0xbe20e9c4	-0.15714175
73	0x3d2ff06f	0.042953905
74	0x3d843ced	0.06456933
75	0x3e190330	0.14942622
76	0xbd7c4ba1	-0.061595563
77	0x3e2949cf	0.16532062
78	0x3c875f86	0.016525041
79	0xbe231ef5	-0.15929778
80	0xbdd9a005	-0.106262244
81	0x3e04cbd0	0.12968373
82	0x3e0ff8ed	0.14059801
83	0x3d5c0059	0.05371127
84	0xbdfdd2fb	-0.12393757
85	0x3d44297f	0.047891136
86	0xbe4a9158	-0.19782007
87	0xbe2aaf79	-0.166685
88	0x3e2707cd	0.1631157
89	0xbe2e0713	-0.16994886
90	0xbe378235	-0.17920764
91	0xbe2a6109	-0.16638578
92	0x3dfed260	0.124424696
93	0x3d6f8bfc	0.05848311
94	0x3d1a76e9	0.037711058
95	0xbe133fe2	-0.14379838
96	0xbdc0921d	-0.09402869
97	0xbd9dfbef	-0.07714068
98	0xbe0ea5d6	-0.13930449
99	0xbe3582c2	-0.17725661
100	0x3d86bb4c	0.06578693
101	0x3c84a0eb	0.016190013
102	0xbe03c89d	-0.12869497
103	0x3e559cd2	0.20860603
104	0x3e0dc87d	0.13846011
105	0x3cbabe5a	0.022795845
106	0xbd040afc	-0.032237038
107	0xbdcf92e8	-0.10135442
108	0xbdb5dd50	-0.08880103
109	0xbcfa735a	-0.030572582
110	0xbc652b2f	-0.013987347
111	0x3d32002a	0.043457188
112	0x3d3f177b	0.046653252
113	0x3e02f1e1	0.12787582
114	0xbd6cd3f1	-0.05781931
115	0x3e2c269b	0.16811602
116	0xbcb32ed1	-0.02187291
117	0x3e4e4d46	0.20146665
118	0x3d7130c5	0.0588844
119	0x3be84a97	0.00708897
120	0xbe1b25f6	-0.151512
121	0xbcc445f7	-0.023959143
122	0xbe1363db	-0.1439356
123	0xbe2d8acf	-0.16947483
124	0xbd1444af	-0.036198314
125	0x3ddd0c34	0.10793343
126	0x3e10cf9d	0.14141698
127	0xbca4584f	-0.02006164
