geoinr/data/unconformities/plane_splus_model3L_256_20b.pth (torch, 797767 bytes, 9 tensors)

net.0.linear.weight f4 [256, 3]
0	0xbe3f90a2	-0.18707517
1	0x3f8953f0	1.0728741
2	0xbe88d647	-0.2672598
3	0x3f7e2dc3	0.99288577
4	0x3f33ca20	0.70230293
5	0xbf5f2451	-0.8716479
6	0x3e6028b1	0.21890523
7	0xbde75730	-0.112959266
8	0x3e99cf2f	0.3004088
9	0xbf84408d	-1.0332199
10	0xbf281726	-0.6566032
11	0xbeac3b4d	-0.33638993
12	0x3de1fc44	0.11034444
13	0x3f8eed6e	1.1166208
14	0x3f973b8a	1.1815045
15	0x3ed991b2	0.4249397
16	0x3ecfac16	0.4056098
17	0xbe7da948	-0.24771607
18	0x3ef3dfe2	0.47631747
19	0xbf9791cf	-1.1841372
20	0x3fa752f8	1.3072195
21	0xbf8b2aee	-1.0872476
22	0xbf0ed93f	-0.5580024
23	0x3f55b5aa	0.8348032
24	0xbe58352f	-0.21114038
25	0x3e7ab867	0.24484406
26	0x3f348caa	0.70527136
27	0x3f9d7643	1.2301716
28	0x3fa08230	1.253973
29	0xbc61155b	-0.013738002
30	0xbec538a0	-0.38519764
31	0x3e0dacb1	0.13835408
32	0xbf0e8cb3	-0.5568344
33	0xbf17908e	-0.5920495
34	0xbedd4ca2	-0.4322253
35	0x3f2729af	0.6529798
36	0xbf7d48ac	-0.98939013
37	0x3f1d7444	0.6150553
38	0xbea9b233	-0.33143768
39	0xbeddb6a3	-0.43303403
40	0x3f7007e2	0.9376203
41	0x3e38eefa	0.18059912
42	0xbeefdbd5	-0.46847406
43	0x3e1ebb3c	0.15501112
44	0xbfa2654e	-1.2687166
45	0x3fae01a5	1.3594252
46	0x3f53813f	0.8261909
47	0x3ebb15fc	0.3654021
48	0x3dd03870	0.101670146
49	0xbf4235a0	-0.75863075
50	0xbf4faf64	-0.81127
51	0xbfa854a8	-1.3150835
52	0xbf8ddfca	-1.108392
53	0xbfb46380	-1.4092865
54	0xbfb43f7b	-1.4081873
55	0x3f2878f2	0.6580955
56	0xbf584050	-0.84473133
57	0x3faee606	1.3663948
58	0x3f5235cb	0.8211333
59	0xbee7d208	-0.4527743
60	0xbe81c418	-0.2534492
61	0x3f89c6f1	1.0763837
62	0x3d12e42b	0.03586213
63	0xbe66f397	-0.2255386
64	0x3eb3d785	0.35125366
65	0x3f8ce595	1.1007563
66	0xbcace217	-0.021103902
67	0xbe2812b4	-0.16413385
68	0xbebed99c	-0.37275398
69	0xbe1e101a	-0.1543583
70	0x3f8b55b8	1.0885534
71	0x3ed5e775	0.4177815
72	0xbf5ed6a9	-0.87046295
73	0x3e536d99	0.20647277
74	0x3ee7bd68	0.45261693
75	0xbe864d0c	-0.26230657
76	0xbfa432e4	-1.282803
77	0x3f9e2ebf	1.2358016
78	0x3f3c83d1	0.73638636
79	0xbf1d03a7	-0.613337
80	0xbe76f8c9	-0.24118342
81	0x3f97981b	1.1843294
82	0x3e321607	0.17391215
83	0xbecf9e9f	-0.40550706
84	0x3fa0f6c0	1.2575302
85	0x3e0ed3fc	0.13948053
86	0x3f1b477f	0.6065597
87	0x3f5c9f0c	0.86180186
88	0x3f6cb7f8	0.92468214
89	0xbe0f7aa2	-0.14011624
90	0xbf9c32e4	-1.220303
91	0xbcd7fffc	-0.02636718
92	0x3dda457d	0.10657785
93	0x3fab796f	1.3396434
94	0xbf92d6dc	-1.147182
95	0x3f85ecd6	1.0462902
96	0x3ea63c3b	0.32467827
97	0x3e4fb910	0.2028544
98	0x3f0f99ee	0.56094253
99	0xbe29b0ec	-0.16571397
100	0x3c905f4e	0.01762357
101	0xbf59f43d	-0.85138303
102	0x3ed3785a	0.41302758
103	0xbeb0140a	-0.3439029
104	0xbf98d02c	-1.1938529
105	0xbf5d5016	-0.86450326
106	0x3f1d56ca	0.61460555
107	0x3f1bff2b	0.6093623
108	0xbf879a33	-1.0593933
109	0x3ed03383	0.406643
110	0xbf73e618	-0.9527297
111	0xbf902177	-1.1260213
112	0x3f6b0ae5	0.918135
113	0xbec4d0c0	-0.38440514
114	0x3f932ddf	1.1498374
115	0xbd9c157b	-0.076212846
116	0x3f7d7ae3	0.99015635
117	0xbf804731	-1.0021726
118	0x3f390846	0.7227825
119	0xbe93c5ff	-0.28861997
120	0x3e1e6767	0.15469132
121	0x3ec92599	0.39286497
122	0x3f180409	0.5938116
123	0x3f520414	0.8203747
124	0x3f36d31e	0.7141589
125	0x3f482a6f	0.7818975
126	0x3eb05eaf	0.34447238
127	0xbeec4599	-0.4614685
128	0xbe89755c	-0.2684735
129	0xbd9cfbec	-0.07665238
130	0xbf1501bc	-0.5820577
131	0xbf3e1375	-0.7424844
132	0xbe3e8c9a	-0.18608323
133	0x3faa9362	1.3326228
134	0x3f885390	1.0650501
135	0xbf9e187c	-1.2351222
136	0x3f858448	1.0430994
137	0x3f810545	1.0079733
138	0xbeb04f59	-0.34435537
139	0xbf9bb7d7	-1.2165478
140	0xbfa31d6e	-1.2743356
141	0x3d8ffbdd	0.07030461
142	0x3f312aaa	0.69205725
143	0xbe3b904a	-0.1831676
144	0xbe947cb1	-0.29001382
145	0xbe387d05	-0.18016441
146	0xbf2c57b7	-0.6732134
147	0xbf6bfae7	-0.9217972
148	0xbf2f5384	-0.6848681
149	0xbeac171c	-0.3361138
150	0xbec7466f	-0.38920924
151	0x3fa12ad4	1.2591195
152	0x3ea6c83e	0.32574648
153	0x3ee7132d	0.45131817
154	0x3e775587	0.2415372
155	0xbf868367	-1.0508851
156	0x3d499ef9	0.049223874
157	0xbcc9d084	-0.02463556
158	0x3ea8d16c	0.32972276
159	0x3f594c3b	0.84881943
160	0xbe9218e3	-0.28534612
161	0x3f923cf7	1.1424855
162	0xbfab68f4	-1.3391404
163	0xbf3bd428	-0.733706
164	0xbf346e24	-0.7048056
165	0xbf810863	-1.0080684
166	0x3eb69af4	0.35665095
167	0x3c5502d6	0.013001164
168	0x3f438e70	0.7638922
169	0x3f8be612	1.0929587
170	0x3ee22a5d	0.44172946
171	0xbf7eebe2	-0.9957868
172	0x3e1b087c	0.15139955
173	0xbfa3f87e	-1.2810209
174	0x3f07e17f	0.53078455
175	0xbfa1ce7a	-1.2641137
176	0x3f4aebe6	0.792662
177	0xbe967612	-0.29386955
178	0x3ebea3b0	0.3723426
179	0xbf1ef079	-0.6208568
180	0x3f01040f	0.5039682
181	0x3e22af25	0.15887125
182	0xbf4c917e	-0.79909503
183	0xbf93daad	-1.155111
184	0xbf924211	-1.1426412
185	0x3e81548d	0.2525982
186	0x3f95d7cf	1.1706485
187	0xbf9e4863	-1.2365841
188	0x3fad2a6b	1.352857
189	0xbea96504	-0.3308488
190	0xbeb32ad5	-0.34993616
191	0xbfa3bfa8	-1.2792864
192	0xbe37d85f	-0.17953633
193	0x3ef563ed	0.479278
194	0xbe84cb7a	-0.2593649
195	0x3f8fe964	1.12431
196	0x3f8909b6	1.0706089
197	0xbf2e4cf3	-0.68086165
198	0x3fa78e7e	1.309036
199	0x3f22db46	0.63615835
200	0x3ed15ccd	0.40891114
201	0x3f193795	0.59850436
202	0xbe213cd8	-0.15745866
203	0x3f621536	0.88313615
204	0x3f088217	0.533235
205	0xbf7308b3	-0.9493515
206	0x3f7ff801	0.999878
207	0xbfaf41e3	-1.3691982
208	0x3f293f32	0.66112053
209	0xbf359171	-0.7092505
210	0xbf8cbf72	-1.0995924
211	0xbf24e0f2	-0.6440574
212	0xbf2377e1	-0.63854796
213	0xbf77a58c	-0.9673698
214	0xbf3d764d	-0.7400864
215	0xbccc9d41	-0.024977328
216	0xbe99a287	-0.3000681
217	0x3f1d8b67	0.61540836
218	0xbeb53c6a	-0.35397655
219	0x3f92d27e	1.1470487
220	0x3d3dfe62	0.046385176
221	0x3ef3388f	0.47504088
222	0xbf717737	-0.9432253
223	0xbf395638	-0.72397184
224	0x3e8b6e8f	0.27232787
225	0xbe28e3a2	-0.16493085
226	0x3f214b75	0.63005763
227	0xbf951d90	-1.1649647
228	0x3f9c53bc	1.2213054
229	0xbf88d3cf	-1.0689639
230	0x3e8b6223	0.2722331
231	0xbf27c7cc	-0.6553924
232	0x3f754aef	0.95817465
233	0x3f53af4b	0.8268935
234	0xbe8f4485	-0.27981964
235	0xbe67490f	-0.22586463
236	0xbd90d647	-0.0707212
237	0x3f5a9439	0.8538242
238	0x3f54fa53	0.83194464
239	0x3f1c0e01	0.6095887
240	0x3f194f1b	0.5988633
241	0xbfaae513	-1.3351158
242	0xbed8d5dd	-0.42350665
243	0xbfadafcf	-1.3569278
244	0x3e62fddf	0.22167157
245	0xbf0ec4e4	-0.5576918
246	0x3e098f46	0.1343356
247	0x3e86272c	0.2620176
248	0x3f118212	0.56839097
249	0x3f51199c	0.816797
250	0x3f82f1d4	1.023005
251	0xbfb2a48a	-1.3956463
252	0x3f817fa9	1.0117084
253	0xbe66cdc4	-0.22539431
254	0x3fa39eb1	1.2782804
255	0xbf971ddd	-1.1805989

net.0.linear.bias f4 [256]
0	0xbcf2865c	-0.029605083
1	0x3e9bc640	0.3042469
2	0x3ec3e548	0.38260865
3	0xbee2d9ac	-0.44306695
4	0x3a78d43b	0.0009492074
5	0xbe2020c6	-0.15637502
6	0x3ea48d0a	0.32138854
7	0xbf08e0cb	-0.53468007
8	0x3e40fc2d	0.18846197
9	0x3e556052	0.20837525
10	0x3ea6c222	0.32569987
11	0xbe2acc9e	-0.16679618
12	0x3f06bc4c	0.5263107
13	0x3e3116d1	0.1729386
14	0x3e8ed506	0.278969
15	0xbdc677cc	-0.09690818
16	0xbe2e4c01	-0.1702118
17	0x3effb09f	0.4993944
18	0x3efa0be8	0.4883721
19	0x3e509bc0	0.20371914
20	0xbe5f37e4	-0.21798664
21	0x3d51be20	0.051206708
22	0xbe63b773	-0.22237949
23	0x3ef84c62	0.48495775
24	0x3eb0b950	0.34516382
25	0xbee47b03	-0.446251
26	0xbeeed6da	-0.46648294
27	0x3c6a1093	0.014286178
28	0xbeee3c7e	-0.46530527
29	0xbef2fa99	-0.47456816
30	0x3ea8340a	0.32852203
31	0x3ee1faee	0.44136757
32	0xbe3f999f	-0.18710946
33	0xbf0c5db2	-0.5483047
34	0x3ed30e2e	0.41221756
35	0x3e36193b	0.17783062
36	0xbdb743c0	-0.08948469
37	0x3e570c28	0.21000731
38	0xbc9ce285	-0.019150982
39	0xbdbfc30b	-0.09363373
40	0xbef3fcd7	-0.4765384
41	0x3e6d4427	0.2317053
42	0x3f0ea704	0.55723596
43	0x3d842a32	0.064533606
44	0xbeac1684	-0.33610928
45	0x3eb05131	0.34436944
46	0x3d75835b	0.059939723
47	0x3e0931a7	0.13397847
48	0x3e94fa88	0.2909739
49	0x3e38b005	0.18035896
50	0xbee84e7a	-0.45372373
51	0xbe1b9788	-0.15194523
52	0xbed5b501	-0.41739658
53	0xbbbd936e	-0.0057853973
54	0x3eca7c5f	0.39548013
55	0x3ea03c38	0.31295943
56	0xbee5471c	-0.44780815
57	0x3da857e0	0.08219886
58	0xbe94ef27	-0.2908871
59	0xbf0db244	-0.55350137
60	0x3c2c3f78	0.010513179
61	0x3be03be8	0.006843079
62	0xbe86cb12	-0.26326805
63	0x3ecfd4b3	0.40591964
64	0xbe8136c5	-0.25237098
65	0x3ef42fc1	0.47692683
66	0x3dc47399	0.09592361
67	0xbeedea66	-0.46467894
68	0x3ec9dd7d	0.39426795
69	0xbeff2e20	-0.49839878
70	0xbdde7e64	-0.10863951
71	0x3efb0f82	0.4903527
72	0xbe395927	-0.18100415
73	0x3f07970b	0.5296485
74	0xbd2e5e21	-0.042570237
75	0x3f0b9715	0.5452741
76	0xbe7aac3f	-0.24479769
77	0x3ee90b7f	0.45516583
78	0xbf11f992	-0.5702144
79	0xbeafeab6	-0.34358758
80	0x3ee98281	0.4560738
81	0xbf07d8b6	-0.5306505
82	0xbe38146d	-0.17976542
83	0x3e38e103	0.18054585
84	0x3e7d8c77	0.24760614
85	0xbd92fe68	-0.071774304
86	0x3eb5f1bb	0.35535988
87	0x3f022009	0.5083013
88	0xbe778c3e	-0.24174592
89	0x3de94249	0.11389596
90	0xbe49f738	-0.19723213
91	0x3f0c2473	0.5474312
92	0x3f10f677	0.56626076
93	0xbe2f0793	-0.17092733
94	0x3f049ddb	0.5180337
95	0xbea83bb4	-0.3285805
96	0xbce5703e	-0.028007623
97	0x3d09c89c	0.03363858
98	0xbf112ec0	-0.5671196
99	0x3ea741fb	0.32667527
100	0xbe80b6c7	-0.25139448
101	0x3e40a6a5	0.1881357
102	0xbed8de56	-0.4235713
103	0xbebb528d	-0.3658642
104	0xbeab15ee	-0.3341517
105	0x3de30d7f	0.110865586
106	0xbf04f923	-0.5194265
107	0x3e8b6d45	0.27231804
108	0xbeb28109	-0.3486407
109	0xbef4b680	-0.47795486
110	0xbebd2781	-0.36944202
111	0x3e8fff52	0.2812448
112	0x3eaec07e	0.34131235
113	0x3eeebf61	0.46630386
114	0x3ec33d5e	0.38132757
115	0x3ef9e9bd	0.4881114
116	0x3db7defc	0.08978078
117	0x3e32c26f	0.17456983
118	0x3eb28b13	0.3487173
119	0x3ca42237	0.020035846
120	0x3f0779ab	0.52920026
121	0xbe4f066d	-0.20217295
122	0x3e9ee45e	0.31033605
123	0xbe81b186	-0.25330752
124	0x3e57298d	0.21011944
125	0xbdcf8d23	-0.101343416
126	0x3ef30bf1	0.47470048
127	0xbeea9314	-0.45815337
128	0xbf0b5ab5	-0.5443528
129	0xbd39471a	-0.045233823
130	0x3eaa1060	0.33215618
131	0xbe1e732c	-0.15473622
132	0x3e85340f	0.2601628
133	0x3de5d5a1	0.11222387
134	0x3e6bf115	0.23041184
135	0x3e7874cc	0.24263304
136	0xbf0567aa	-0.52111304
137	0xbec6c4cc	-0.3882202
138	0xbe1057a1	-0.14095928
139	0x3e884050	0.26611567
140	0x3eff3548	0.49845338
141	0xbebed0cd	-0.37268677
142	0xbe85617d	-0.2605094
143	0x3e1d2762	0.15347055
144	0xbebfddc2	-0.37473875
145	0x3db06411	0.08612836
146	0xbf02c5a4	-0.51082826
147	0xbefc48cb	-0.49274287
148	0x3d82cb4a	0.063864306
149	0xbe321301	-0.17390062
150	0xbeafb80e	-0.3432011
151	0x3e8b2db7	0.27183315
152	0x3e6c4e67	0.23076783
153	0x3ef5970a	0.47966796
154	0xbef4c54e	-0.47806782
155	0xbe459032	-0.19293287
156	0xbe5bc3cf	-0.21461414
157	0x3d8de9d4	0.06929365
158	0x3e2ba67c	0.16762727
159	0xbf04f49a	-0.5193573
160	0x3f008c35	0.5021394
161	0x3ecf8759	0.4053295
162	0x3e7ac6a8	0.24489844
163	0x3ede0852	0.43365723
164	0xbca8a4f8	-0.020586476
165	0x3de1fe9c	0.11034891
166	0xbecaf1b9	-0.39637545
167	0x3eaeab8e	0.3411526
168	0xbe4c65da	-0.19960728
169	0xbdc46d22	-0.09591128
170	0x3f0e59c2	0.5560571
171	0xbed1a917	-0.40949318
172	0x3ee90984	0.45515072
173	0xbf0aa6d1	-0.5416079
174	0xbdcb6988	-0.09932238
175	0xbee091b2	-0.43861157
176	0xbd9a28f3	-0.07527342
177	0x3be76a9b	0.007062269
178	0x3e817e15	0.25291505
179	0xbe47d78d	-0.1951582
180	0x3eecffdd	0.46288958
181	0xbecd7b6e	-0.40133232
182	0xbea8b3ec	-0.3294977
183	0x3eccad4d	0.39975968
184	0xbe9e55bd	-0.30924788
185	0x3efc7882	0.4931069
186	0xbdc37225	-0.09543256
187	0x3ee243f6	0.44192475
188	0x3f032b3d	0.5123785
189	0x3e8205ca	0.25395042
190	0xbda7eda3	-0.081996225
191	0x3e4b8a0a	0.19876876
192	0xbf0bf37c	-0.546684
193	0x3e529bb0	0.20567203
194	0xbef21a1e	-0.4728555
195	0xbe1e9a6f	-0.15488599
196	0xbed40a2f	-0.4141402
197	0x3e2851c1	0.16437437
198	0xbeef1405	-0.4669496
199	0xbee68afe	-0.45027918
200	0xbeee3cf8	-0.4653089
201	0x3e85585f	0.26043984
202	0x3ec6cca2	0.38827997
203	0xbe41f99c	-0.18942875
204	0x3d7bee91	0.06150681
205	0xbe3d710c	-0.18500155
206	0xbf094d92	-0.5363399
207	0x3dbd1d34	0.09234086
208	0x3e267e68	0.16259158
209	0xbef650fd	-0.48108664
210	0x3e42a672	0.19008806
211	0xbe413f29	-0.1887175
212	0xbe7cd5f2	-0.24690989
213	0x3e883f28	0.26610684
214	0x3e920e4a	0.28526527
215	0x3eddd660	0.43327618
216	0x3d296d83	0.041364204
217	0x3d43f85b	0.047844272
218	0x3e40fdce	0.18846819
219	0x3f077439	0.52911717
220	0x3e97c0e4	0.2963935
221	0xbefed96c	-0.49775255
222	0x3e2fa0cb	0.17151181
223	0x3f11ae9b	0.5690705
224	0xbe9e1870	-0.3087802
225	0x3ef23a8c	0.47310293
226	0x3e88d436	0.26724404
227	0xbd8cb40b	-0.06870278
228	0xbedc0670	-0.4297366
229	0xbd34229d	-0.043978322
230	0x3e140990	0.14456773
231	0xbf0c1aa7	-0.5472817
232	0x3edea5d7	0.434859
233	0xbeea4ab6	-0.45760125
234	0xbe51bed0	-0.20482945
235	0xbe73e82e	-0.23819038
236	0x3e91a781	0.28448108
237	0xbe89be4d	-0.26903
238	0x3efa0b06	0.48836535
239	0xbee9767b	-0.45598206
240	0x3e28e944	0.16495234
241	0x3effb43c	0.49942195
242	0x3eb83f73	0.35985908
243	0xbd765133	-0.06013603
244	0xbe9f33f8	-0.31094337
245	0xbf004cb6	-0.5011705
246	0xbe0e9933	-0.13925628
247	0xbe8468f6	-0.2586133
248	0x3d9ad04d	0.075592615
249	0x3e9e7346	0.30947322
250	0x3d193f4f	0.03741389
251	0xbe91cc5c	-0.28476226
252	0x3f10f0cc	0.56617427
253	0xbee728cc	-0.45148313
254	0xbeee78b2	-0.46576458
255	0x3e07a183	0.13245206

net.1.linear.weight f4 [256, 256]
0	0x3e00cc6b	0.1257798
1	0x3d4d8536	0.050175868
2	0x3c982edf	0.018577037
3	0x3d9f0deb	0.077663265
4	0x3de8d0e2	0.11367966
5	0x3e13c5cf	0.14430927
6	0xbe112eea	-0.14178053
7	0x3e014327	0.12623273
8	0x3c878fda	0.016548086
9	0x3e0e5ba1	0.13902141
10	0xbd9b6f3c	-0.07589576
11	0x3c8d2ff1	0.017234774
12	0xbda8e552	-0.082468644
13	0x3dab3aa6	0.08360796
14	0x3c527cf8	0.012847178
15	0x3d8b4c83	0.06801703
16	0x3e12d86a	0.14340368
17	0x3e0c4556	0.13698325
18	0xbd8f7c6b	-0.07006153
19	0x3db10af0	0.08644664
20	0x3df1b326	0.11801748
21	0xbd71ede2	-0.059064753
22	0x3833ad5d	4.2838383e-05
23	0xbd826fa6	-0.063689515
24	0xbd0c7698	-0.034292787
25	0x3e036d9d	0.12834783
26	0x3d532ad7	0.051554527
27	0x3cb45c43	0.02201665
28	0xbe0b5a3f	-0.13608645
29	0x3d5b1ff0	0.053497255
30	0x3de19c55	0.11016146
31	0xbda593a6	-0.08084802
32	0x3d32bb08	0.0436354
33	0x3d5dd1aa	0.05415503
34	0xbcfa2f77	-0.030540211
35	0x3d3ac3b7	0.045596804
36	0x3e05af26	0.13055095
37	0xbc1f9f66	-0.009742593
38	0xbc6d8aa5	-0.014498387
39	0xbe112a7b	-0.14176361
40	0x3ce0e653	0.027453577
41	0xbd68c8bc	-0.05683206
42	0x3d944d1e	0.072412714
43	0xbde8c472	-0.11365594
44	0x3df199f6	0.11796944
45	0x3cbc7205	0.023003587
46	0x3cd110f9	0.025520789
47	0x3dd266ed	0.10273538
48	0xbdd0a94a	-0.10188539
49	0xbca5d12f	-0.020241348
50	0x3d55d538	0.052205294
51	0xbd4c357a	-0.049855687
52	0x3ddb7bb4	0.10716954
53	0xbd01a12e	-0.031647854
54	0xbda6a654	-0.08137193
55	0xbd08b6b3	-0.03337736
56	0x3d8476e1	0.06467987
57	0xbde87e81	-0.11352254
58	0xbd962bcc	-0.07332572
59	0x3d1a1eb9	0.037626956
60	0x3e22e5b8	0.15907943
61	0x3e1a2ab0	0.15055346
62	0xbde614f8	-0.11234468
63	0x3df0bda4	0.11754921
64	0x3dec49b9	0.11537499
65	0x3c1ca4ef	0.009560808
66	0x3d52b1dc	0.05143915
67	0xbe246590	-0.16054368
68	0x3d87d985	0.066332854
69	0x3cec1679	0.02881931
70	0xbd4b038b	-0.049563926
71	0xbd9e8ebd	-0.07742069
72	0xbd0b68c6	-0.034035467
73	0x3d24d3ed	0.04024117
74	0x3c8d4fc7	0.017249955
75	0xbd9f2850	-0.07771361
76	0xbe24febf	-0.16112803
77	0x3e0baa91	0.13639285
78	0x3de13404	0.10996249
79	0x3de75a6d	0.11296544
80	0xbde4ddcd	-0.11175118
81	0xbca29b4c	-0.019849442
82	0x3d696116	0.056977354
83	0x3dc5bee3	0.096555494
84	0x3d666d2c	0.05625646
85	0xbd93bc6c	-0.07213673
86	0x3da6e108	0.0814839
87	0x3d860b72	0.06545152
88	0xbe0d1f89	-0.13781561
89	0xbe06b7f0	-0.13156104
90	0xbdaa5283	-0.08316519
91	0xbdb12c71	-0.08651055
92	0x3d9d9361	0.07694126
93	0x3de5d62f	0.11222493
94	0xbd9949ea	-0.07484801
95	0x3dd34211	0.103153355
96	0xbba998f8	-0.005175706
97	0x3cac5a50	0.021039158
98	0xbdc64dcb	-0.096828066
99	0xbd8c65cf	-0.06855356
100	0x3d8fe11e	0.070253596
101	0x3dcff2aa	0.10153706
102	0x3decc91c	0.11561796
103	0x3dbe71d3	0.09299054
104	0xbe047c88	-0.1293813
105	0x3de858fc	0.113450974
106	0x3ce7659e	0.028246697
107	0xbe15f2f0	-0.14643455
108	0x3d3b805f	0.04577672
109	0x3e14c17a	0.1452693
110	0x3d473b79	0.048640702
111	0xbd5a7a78	-0.05333945
112	0x3d4d3227	0.050096657
113	0xbda379c0	-0.07982206
114	0xbd514c32	-0.051098056
115	0xbdf4fe1c	-0.1196253
116	0xbdd4751d	-0.103739
117	0xbc3f0711	-0.0116594
118	0x3db4d2b1	0.08829249
119	0x3ddfb1db	0.10922595
120	0xbda300b6	-0.0795912
121	0x3c75cb15	0.015002032
122	0x3baa907a	0.005205211
123	0x3dbf2999	0.09334106
124	0xbe088657	-0.13332497
125	0xbe13cac4	-0.14432818
126	0xbb706b42	-0.0036685024
127	0xbe0d0b71	-0.13773896
128	0xbdb4afb4	-0.08822575
129	0xbdb70235	-0.08935968
130	0xbb01989f	-0.0019774807
131	0x3d4bcf85	0.049758453
132	0x3d73ea36	0.059549533
133	0xbdf8ca96	-0.12148015
134	0xbe0048c3	-0.12527756
135	0xbe1e1f6b	-0.15441673
136	0x3d536b3f	0.05161595
137	0x3b6d8292	0.0036241156
138	0xbb15ae0e	-0.002283934
139	0x3cbbdc85	0.0229323
140	0xbe0bedf0	-0.13664985
141	0xbe09af2b	-0.13445728
142	0xbd0d7771	-0.034537736
143	0x3e198265	0.14991148
144	0xbd04243b	-0.032261115
145	0xbe122933	-0.14273529
146	0x3dfc6840	0.123245716
147	0x3dbf2a80	0.09334278
148	0xbd8aca02	-0.06776811
149	0xbe00dbd8	-0.12583864
150	0x3e16c67c	0.14724153
151	0xbd9ecb4e	-0.07753621
152	0x3d2620ab	0.0405585
153	0x3d5cbf9e	0.053893678
154	0xbc9ea7e2	-0.019367162
155	0x3e1c90cd	0.15289612
156	0xbd39012e	-0.04516714
157	0x3d67a31c	0.056552038
158	0x3c38b330	0.01127319
159	0x3d9262de	0.07147764
160	0x3c5ba2a8	0.0134054795
161	0xbc9cf3b5	-0.019159177
162	0xbe106f24	-0.14104897
163	0xbcb75fe1	-0.022384586
164	0xbdf93e52	-0.1217009
165	0x3e11f3c6	0.14253148
166	0xbd5593aa	-0.052142777
167	0x3c9e0b9a	0.019292641
168	0xbdb05f6a	-0.08611949
169	0xbdb9f4aa	-0.09079869
170	0xbe097bd4	-0.13426143
171	0xbd4bfdcc	-0.049802586
172	0x3d2319cb	0.03981952
173	0x3d5c4088	0.05377248
174	0x3d662472	0.0561871
175	0xbe07c057	-0.13256966
176	0xbe1252eb	-0.14289443
177	0x3e0e3b6d	0.13889857
178	0xbd74a4ef	-0.059727605
179	0xbdac4ec5	-0.084134616
180	0xbd990c9a	-0.07473107
181	0xbe161db3	-0.14659767
182	0xbd90ace3	-0.070642255
183	0x3cd231b2	0.025658462
184	0x3db35d29	0.08758003
185	0x3e09caa9	0.13456215
186	0xbcbb0567	-0.022829724
187	0xbe1084cd	-0.1411316
188	0x3cd7a274	0.02632258
189	0x3c503695	0.012708326
190	0x3d1d099c	0.038339242
191	0x3d793671	0.060842935
192	0x3db189bc	0.08668849
193	0xbdbfa4d1	-0.09357608
194	0x3d5533b2	0.052051254
195	0x3dfaeaa5	0.12251786
196	0xbd7307b3	-0.059333514
197	0x3d5bc99e	0.053659074
198	0xbe0c430e	-0.13697454
199	0xbd2c540e	-0.04207235
200	0xbdcffcaa	-0.10155614
201	0xbe0b48b8	-0.13601959
202	0x3dff82d5	0.12476126
203	0xbe18e12b	-0.14929645
204	0xbb0bb599	-0.0021317957
205	0xbdca2cf4	-0.098718554
206	0xbdae931e	-0.08524154
207	0xbd13c918	-0.03608045
208	0xbdde9321	-0.10867906
209	0xbcabd578	-0.020975813
210	0xbdff4e7a	-0.1246614
211	0xbe07196e	-0.13193294
212	0x3d69a830	0.05704516
213	0x3d017524	0.031605855
214	0xbc8db0d2	-0.017296229
215	0x3dded8f1	0.10881222
216	0xbda37f4d	-0.07983265
217	0xbe117388	-0.14204228
218	0x3c2bd3b9	0.01048749
219	0x3de86e59	0.11349172
220	0x3dc7fcd4	0.0976502
221	0x3e176c86	0.14787492
222	0x3be6843e	0.0070348075
223	0xbdf2830b	-0.11841401
224	0xbded7497	-0.115945034
225	0xbd5eb856	-0.054375015
226	0xbbbddef8	-0.005794402
227	0x3d7b81f0	0.061403215
228	0x3dab3c28	0.08361083
229	0xbcea9349	-0.028634684
230	0xbd13fc17	-0.036129083
231	0xbd0881cc	-0.03332691
232	0xbd87276e	-0.065993175
233	0xbdb5d37b	-0.08878227
234	0x3ddfaa90	0.10921204
235	0x3e05e0ff	0.1307411
236	0xbc78d93c	-0.015188511
237	0xbe10db98	-0.14146268
238	0x3c3dd2f2	0.011585938
239	0xbe0e5cd3	-0.13902597
240	0x3d956797	0.07295149
241	0x3d853f0f	0.06506168
242	0xbdeb6a6c	-0.11494908
243	0x3c5cd4a5	0.013478433
244	0xbd782afd	-0.06058787
245	0xbe0b832c	-0.13624257
246	0xbd639f12	-0.055571623
247	0xbdcd356b	-0.10019954
248	0xbddf2417	-0.108955555
249	0x3e18ffa3	0.14941268
250	0xbd014b68	-0.031566054
251	0x3ba6f62d	0.0050952644
252	0xbd3c6cfa	-0.046002366
253	0xbc6944ad	-0.014237565
254	0xbc517284	-0.01278365
255	0xbe05419e	-0.13013312

net.1.linear.bias f4 [256]
0	0xbd569304	-0.0523863
1	0xbc53a5c3	-0.012917939
2	0x3d6792e8	0.056536585
3	0x3d7c48cd	0.061592866
4	0xbce15a51	-0.027508887
5	0x3cc7902a	0.024360735
6	0x3d03be0f	0.032163676
7	0x3d216e75	0.03941198
8	0x3d5da2fa	0.054110505
9	0xbd4d2fda	-0.050094463
10	0x3d499502	0.04921437
11	0x3ca0104a	0.019539017
12	0x3b3101a9	0.0027009046
13	0xbcd63f17	-0.02615313
14	0x3cfa47d5	0.03055183
15	0x3d515b8e	0.051112704
16	0xbd487daa	-0.048947968
17	0xbcd1596a	-0.025555331
18	0x3d0ee38e	0.03488498
19	0xbca8bbb8	-0.020597324
20	0x3d504d7f	0.050855156
21	0xbc67fc50	-0.014159277
22	0x3d2312aa	0.03981272
23	0x3cc795f6	0.0243635
24	0xbd017bd7	-0.031612244
25	0xbd6c64dd	-0.05771338
26	0xbcfc7cd1	-0.030821236
27	0xbd64b84f	-0.055839833
28	0xbd6e5b57	-0.058192577
29	0x3d4b2c65	0.049602885
30	0x3cbef0aa	0.023308117
31	0x3d59a894	0.053139284
32	0xbd464dbb	-0.048413973
33	0x3b574b8e	0.003285143
34	0x3d132f68	0.035933882
35	0xbd610692	-0.054937907
36	0x3c0fbdf1	0.008773313
37	0x3d373bd9	0.04473481
38	0x3d0de945	0.03464629
39	0x3d3dea81	0.04636622
40	0x3ca8b373	0.02059338
41	0x3ba13f56	0.0049208803
42	0xbd042c91	-0.032269064
43	0x3d216fb5	0.039413173
44	0xbd561017	-0.05226144
45	0xbc9f8a0c	-0.019475006
46	0xbd4e70ff	-0.05040073
47	0x3d081809	0.033226047
48	0xbc86ae76	-0.016440611
49	0x3d11a7d8	0.03556046
50	0xbd154bff	-0.03644943
51	0x3c9721ad	0.018448675
52	0xbce43f49	-0.027862208
53	0xbd3a4f3d	-0.045485724
54	0x3d6ec3df	0.058292266
55	0xbd13e743	-0.03610922
56	0x3d65c8a9	0.056099568
57	0xbba65e84	-0.005077185
58	0xbd7e9294	-0.062151507
59	0x3d2b072b	0.041754883
60	0xbd26c7c2	-0.040717848
61	0x3d207084	0.039169803
62	0xbbd98efe	-0.0066393605
63	0xbb80325a	-0.0039122524
64	0x3b5d3294	0.003375207
65	0xbd6f83f5	-0.058475453
66	0x3ce05fa5	0.027389357
67	0xbc707fcb	-0.014678906
68	0x3c422bdf	0.01185128
69	0x3cda7a37	0.026669605
70	0x3d310398	0.043216318
71	0x3cbd8f89	0.023139732
72	0xbcb4fd1f	-0.022093354
73	0xbd573bd7	-0.052547302
74	0xbcd5851f	-0.026064454
75	0xbcb914de	-0.022592958
76	0x3d7c9e68	0.061674505
77	0xbd0ea76e	-0.034827642
78	0x3d379684	0.044821277
79	0xbc2d2577	-0.010568014
80	0x3d401518	0.046895117
81	0x3d6a39ff	0.057184216
82	0xbd1d2272	-0.038362928
83	0xbca13346	-0.01967777
84	0x3c1ffe5c	0.009765234
85	0x3ce3c7d9	0.027805256
86	0x3d141702	0.036154754
87	0xbd0d9201	-0.03456307
88	0xbd745c63	-0.05965842
89	0xbd30fb47	-0.043208387
90	0xbbd6a049	-0.006549869
91	0xbd768e44	-0.06019427
92	0x3d257572	0.040395208
93	0x3c1c6cba	0.009547407
94	0x3bf0e6c0	0.0073517263
95	0xbc2cf99a	-0.0105575565
96	0x3d7a5606	0.061117195
97	0xbc6a4eed	-0.014301044
98	0x3c8dec4c	0.01732459
99	0xbce640f3	-0.028107142
100	0xbd144bc7	-0.03620508
101	0xbb55e4ce	-0.00326376
102	0x3c9eb8b7	0.019375188
103	0x3cbb5128	0.022865847
104	0x39c5ebd2	0.00037750468
105	0x3d717027	0.058944847
106	0xbd04e6a2	-0.03244651
107	0xbd509dd1	-0.050931755
108	0xbc77c9cf	-0.0151237985
109	0x3b5404f6	0.003235159
110	0x3d3f505e	0.046707503
111	0x3c887806	0.016658794
112	0x3a5117fa	0.000797629
113	0x3c9417f2	0.018077824
114	0xbd424d9e	-0.047437303
115	0xbcf8ed5f	-0.030386625
116	0x3bc3e388	0.0059780516
117	0x3c876291	0.016526492
118	0xbd60967e	-0.05483102
119	0x3d3a4d39	0.0454838
120	0xbc00183d	-0.007818279
121	0x3d4a2f54	0.049361542
122	0xbd183ab3	-0.037165355
123	0x3d7a14cb	0.061054986
124	0x3a9414fc	0.0011297758
125	0x3d0efd5d	0.034909595
126	0xbc827c19	-0.015928315
127	0x3d64afa5	0.05583157
128	0x3c6aafd1	0.014324144
129	0x3c74076e	0.0148943495
130	0xbd313e84	-0.04327251
131	0xbcc4c694	-0.02402047
132	0xbcdd9ec8	-0.027053252
133	0x3bad5e25	0.005290764
134	0x3d3c9207	0.0460377
135	0xbd33c01f	-0.043884393
136	0xbca56aa9	-0.020192461
137	0xbd608ca4	-0.054821625
138	0xbd105ec8	-0.03524664
139	0x3c611bd9	0.01373955
140	0xbc7617bc	-0.015020307
141	0xbc02cce2	-0.007983418
142	0xbced0e79	-0.028937565
143	0x3c611303	0.013737443
144	0x3d000d87	0.0312629
145	0x3d2c7167	0.042100336
146	0xbd7970f0	-0.06089872
147	0xbd38067b	-0.044928055
148	0xbc88e8ad	-0.016712511
149	0x3d02a5f0	0.03189653
150	0xbc23b99e	-0.009992985
151	0xbd5d47cd	-0.054023553
152	0xbd0aac30	-0.033855617
153	0xbd003484	-0.031300083
154	0xbd426db7	-0.047467913
155	0x3cb2899a	0.02179413
156	0x3d405602	0.046957023
157	0xbc22c036	-0.009933522
158	0xbcf47d60	-0.02984494
159	0x3bc85d8c	0.0061146673
160	0xbc9721dd	-0.018448764
161	0x3c027165	0.007961606
162	0xbcd314b4	-0.025766708
163	0xbcbc23cc	-0.022966288
164	0x3d6cbd2a	0.05779759
165	0xbc39745a	-0.011319244
166	0x3cff54f6	0.031168442
167	0xbcd305da	-0.025759626
168	0x3d254ae9	0.040354643
169	0x3d1d68e7	0.03843012
170	0x3c218555	0.009858449
171	0xbb3a004b	-0.0028381522
172	0xbd5f6baa	-0.054546036
173	0x3d381bb1	0.044948284
174	0x3d7a0948	0.061044008
175	0xbd3a335f	-0.045459148
176	0xbd4253ea	-0.047443308
177	0xbd793753	-0.060843777
178	0x3c263b07	0.010145909
179	0xbcef8bf0	-0.029241532
180	0x3c777718	0.015104078
181	0xbb965087	-0.0045872363
182	0x3d25a36a	0.040439047
183	0x3c0f724a	0.008755276
184	0x3c7145fe	0.01472616
185	0xbd54aa8c	-0.05192046
186	0x3c313fc9	0.01081843
187	0x3d061fcf	0.03274518
188	0xbc84f382	-0.016229395
189	0xbcfe8332	-0.031068418
190	0xbc2ff9ae	-0.010740681
191	0x3d57519b	0.05256806
192	0xbd5118cd	-0.051049042
193	0x3d09169e	0.033468835
194	0xbd7a1cc9	-0.061062608
195	0xbd0fa560	-0.035069823
196	0xbcdb950d	-0.026804471
197	0xbd63ea9e	-0.05564367
198	0x3d51a757	0.05118498
199	0x3c038e21	0.008029492
200	0x3d40ce30	0.047071636
201	0x3cea2214	0.028580703
202	0xbd6ffba7	-0.058589604
203	0x3d63c161	0.055604342
204	0x3cac4c0f	0.021032361
205	0x3d3f2f62	0.046676047
206	0x3c8eaf57	0.017417593
207	0x3d3d1683	0.046164047
208	0x3d4e3f6e	0.05035346
209	0xbd2fb11f	-0.042893525
210	0x3d05275e	0.032508247
211	0x3d528bd2	0.051402874
212	0x3c49e832	0.012323426
213	0x3d7aa20e	0.061189704
214	0x3aaa078a	0.0012972218
215	0xbcc4c5f5	-0.024020175
216	0x3d524378	0.051333874
217	0x3d1f5a3b	0.03890441
218	0x3c7ec685	0.01555026
219	0xbbc5b2cc	-0.006033277
220	0x3d672dfe	0.056440346
221	0x3c8459f3	0.016156172
222	0x3d4e0907	0.050301578
223	0xbd5eb212	-0.05436904
224	0xbc618fa3	-0.013767156
225	0xbd1a4095	-0.037659246
226	0x3bf2cd60	0.0074097365
227	0xbc53d705	-0.012929683
228	0x3d201b3d	0.039088476
229	0x3c039300	0.008030653
230	0xbc4eec6b	-0.012629609
231	0xbcbb5c80	-0.022871256
232	0x3d1af410	0.037830412
233	0x3ca39cb1	0.019972177
234	0xbd4f8900	-0.050667763
235	0x3c019535	0.007909109
236	0x3cb1520c	0.021645568
237	0xbd585c73	-0.05282254
238	0x3b23e386	0.002500744
239	0xbd3836bf	-0.044974085
240	0x3ced6b5a	0.028981853
241	0x3d7ee215	0.062227327
242	0xbc668593	-0.0140699325
243	0xbc840fba	-0.01612078
244	0x3d555601	0.052083973
245	0x3c09cf7b	0.008411284
246	0xbd368f1b	-0.04457007
247	0xbd5c11a9	-0.05372778
248	0xbcdf68f8	-0.027271733
249	0xbcd97bdb	-0.026548317
250	0xbc50de8b	-0.012748371
251	0xbd17594d	-0.0369504
252	0xbd7effed	-0.06225579
253	0x3ba45d84	0.0050160307
254	0xbb20cf1e	-0.0024537514
255	0xbd71146a	-0.05885736

net.2.linear.weight f4 [256, 256]
0	0xbdac3784	-0.08409026
1	0xbdecfc8d	-0.11571608
2	0xbdc8fc26	-0.098137185
3	0x3da2b0ee	0.07943903
4	0xbd88e1c2	-0.06683685
5	0x3dd932c4	0.10605386
6	0x3db572c7	0.08859783
7	0xbd2f264f	-0.042761143
8	0xbddfd5e2	-0.10929467
9	0xbc8a66a4	-0.016894646
10	0xbe05e293	-0.13074712
11	0xbe0962ea	-0.13416639
12	0xbdead46f	-0.114663
13	0xbddfa43a	-0.109199956
14	0xbd93c642	-0.07215549
15	0xbe071107	-0.13190089
16	0xbbdd5dbe	-0.0067555597
17	0x3df965cb	0.121776186
18	0x3da7b6bc	0.08189151
19	0x3def4509	0.11683089
20	0x3d4637ad	0.04839294
21	0xbc8819f0	-0.01661393
22	0x3e07db96	0.13267359
23	0x3dd46396	0.10370557
24	0x3d66a810	0.05631262
25	0xbdc20641	-0.09473849
26	0xbd04e245	-0.03244235
27	0xbdc27f06	-0.09496884
28	0x3d8caa30	0.06868398
29	0xbdcf792d	-0.10130534
30	0x3d327aa9	0.04357401
31	0x3d6f3d57	0.058408108
32	0xbd45b3db	-0.048267227
33	0x3d1ac36c	0.037784025
34	0x3e1600e2	0.14648774
35	0xbdf9661b	-0.12177678
36	0xbde240ed	-0.1104754
37	0xbd71af8b	-0.0590053
38	0x3d92886e	0.07154928
39	0xbd4704b9	-0.04858849
40	0x3e05650c	0.13026828
41	0x3ca6ee2e	0.020377245
42	0xbd88a932	-0.066728964
43	0xbd717c86	-0.058956645
44	0xbdb9396e	-0.09044157
45	0xbab6db5a	-0.001395087
46	0x3d211238	0.039324015
47	0xbe114ac2	-0.14188674
48	0xbdf9fa46	-0.12205939
49	0xbdd62b38	-0.10457462
50	0x3d63d5a9	0.055623684
51	0xbe03f1c7	-0.128852
52	0xbe039148	-0.12848389
53	0xbd5f73b6	-0.05455371
54	0xbd44c8d4	-0.048043087
55	0xbe0ef137	-0.13959204
56	0xbdd4404e	-0.10363828
57	0xbcb5cd5d	-0.022192651
58	0x3d71e3f5	0.059055287
59	0x3d841952	0.06450142
60	0x3c18ab13	0.009318131
61	0x3e07c8ea	0.13260236
62	0xbdb4304c	-0.087982744
63	0x3c97b75a	0.018520046
64	0xbd56a6c3	-0.05240513
65	0xbd30869b	-0.04309712
66	0x3db22481	0.08698369
67	0xbdf43d3d	-0.11925743
68	0x3dbcee46	0.092251346
69	0xbcee9953	-0.029125845
70	0x3e1282ba	0.1430768
71	0x3ddd42f2	0.108037844
72	0xbcc322d8	-0.023820326
73	0xbd27f95f	-0.041009303
74	0xbdd76b13	-0.1051847
75	0xbdaa4487	-0.08313852
76	0xbdc3f55e	-0.095682845
77	0x3d02539d	0.03181802
78	0xbe190e68	-0.14946902
79	0x3d1f388e	0.038872294
80	0xbd4bc570	-0.049748838
81	0x3d61d327	0.05513301
82	0xbd8ba9ef	-0.06819522
83	0xbde0c62f	-0.109753005
84	0xbd252755	-0.040320713
85	0x3e10a66d	0.14125986
86	0x3de4c1fd	0.11169813
87	0xbe0ee7b2	-0.13955572
88	0xbe037fbc	-0.12841696
89	0x3d4d90a6	0.050186776
90	0x3db797f7	0.08964532
91	0xbe0eacaf	-0.13933061
92	0x3dfb369a	0.12266274
93	0xbba22c68	-0.0049491413
94	0x3cf5f5b1	0.030024381
95	0x3da22b65	0.07918433
96	0xbe0ef4e5	-0.13960607
97	0x3ce34ef4	0.027747609
98	0x3e12092e	0.14261314
99	0x3de5eb4f	0.11226522
100	0xbc99288a	-0.018696088
101	0x3dac92ea	0.08426459
102	0x3dd6ea25	0.10493878
103	0x3d9d53f7	0.07682031
104	0xbda0384b	-0.07823237
105	0xbdb3a9fd	-0.08772657
106	0xbe0c3fd6	-0.13696226
107	0xbd6a9325	-0.057269234
108	0x3d8a6ab4	0.06758633
109	0x3d486d1d	0.048932184
110	0xbe0a3b0f	-0.13499092
111	0x3da294a4	0.07938507
112	0x3a393aa2	0.0007065927
113	0x3c360283	0.011108997
114	0x3dd1530c	0.10220918
115	0xbd18b5a9	-0.03728262
116	0x3c9f24c2	0.019426707
117	0xbe185784	-0.14877135
118	0xbd88d758	-0.066816986
119	0xbc85331b	-0.01625972
120	0x3de19552	0.11014809
121	0xbd918b1d	-0.07106612
122	0x3dd105cf	0.10206186
123	0xbe12c409	-0.14332594
124	0xbdc2ba9c	-0.09508249
125	0x3e00019b	0.12500612
126	0x3d766df5	0.060163457
127	0x3d8a98c6	0.067674205
128	0xbe05fe33	-0.1308525
129	0xbd5a9e96	-0.053373896
130	0x3d97423d	0.07385681
131	0xbd96b15a	-0.07358046
132	0x3d94afef	0.07260119
133	0xbe1b8a92	-0.15189579
134	0xbc67f4cb	-0.014157484
135	0xbdbc9453	-0.09207978
136	0x3da5573a	0.08073278
137	0xbad24e03	-0.0016044978
138	0xbd2efc46	-0.042721055
139	0x3e043228	0.12909758
140	0xbd056081	-0.032562736
141	0x3d156fff	0.03648376
142	0x3d1691a8	0.036760002
143	0x3dd2de3e	0.102962956
144	0x3e059e2d	0.1304862
145	0x3db58b37	0.08864444
146	0xbda54285	-0.08069328
147	0xbddb1a7a	-0.106984094
148	0x3e0f4bcf	0.13993762
149	0x3d46f98f	0.04857784
150	0x3cc6059b	0.024172595
151	0x3d77f3a9	0.060535107
152	0x3d1ab9c7	0.037774827
153	0x3d9100a0	0.07080197
154	0x3dcd53c9	0.100257464
155	0x3df3f9f9	0.11912913
156	0xbdcb45c6	-0.099254176
157	0xbddcffde	-0.1079099
158	0x3c1b00db	0.009460653
159	0x3da4fe49	0.080563135
160	0xbe1848a5	-0.14871462
161	0xbdd8a4ad	-0.105782844
162	0xbdfbfbc0	-0.12303877
163	0xbd8825a3	-0.06647804
164	0x3dc418d8	0.09575051
165	0xbd87c333	-0.06629028
166	0x3e1b90ea	0.15191999
167	0x3d5a6e99	0.05332813
168	0x3de7608c	0.11297712
169	0x3dedd88e	0.1161357
170	0x3cf220db	0.029556682
171	0x3db0f806	0.08641057
172	0x3beda389	0.007252161
173	0x3d5928ee	0.05301755
174	0xbd85d6bd	-0.06535099
175	0x3dd3c17a	0.10339637
176	0x3deeb02d	0.116546966
177	0xbd789eb3	-0.060698222
178	0x3da7c324	0.08191517
179	0xbdfe7899	-0.12425346
180	0x3d561df9	0.052274678
181	0x3d404e11	0.04694945
182	0xbdc548d9	-0.09633035
183	0xbce3cb8b	-0.027807018
184	0x3df955d1	0.12174571
185	0xbd45a130	-0.048249424
186	0xbe0ccdc4	-0.13750368
187	0x3de3f150	0.11130011
188	0x3dc7e3f4	0.097602755
189	0xbbc85ff2	-0.006114953
190	0x3d35d372	0.044391103
191	0xbd1bbcfd	-0.03802203
192	0xbdab5058	-0.08364934
193	0xbde3435d	-0.11096833
194	0x3d541029	0.051773224
195	0xbe18f7e6	-0.14938316
196	0x3c637945	0.013883893
197	0xbdfa1c8f	-0.12212478
198	0xbd5eab2f	-0.054362472
199	0xbdd933c7	-0.10605579
200	0x3dabdb4f	0.08391439
201	0xbc59a55a	-0.013284052
202	0x3de612a1	0.11234022
203	0x3d1d7cec	0.038449213
204	0xbe13a5dd	-0.1441874
205	0x3d8177ab	0.06321653
206	0x3dbe7046	0.09298758
207	0x3de08860	0.109635115
208	0xbd5faf6a	-0.054610647
209	0x3dd0b9a6	0.1019166
210	0xbc070e40	-0.008243144
211	0xbdcf62f8	-0.10126299
212	0x3dea0f1e	0.114286646
213	0x3ddbbc34	0.10729256
214	0x3df99ad7	0.121877365
215	0xbd81e512	-0.0634252
216	0x3c4842c9	0.012222954
217	0x3c7a528d	0.015278471
218	0x3dd8e4ec	0.105905384
219	0xbd5e75cc	-0.05431156
220	0x3de520ee	0.111879215
221	0x3d22b3da	0.0397223
222	0xbdfe384a	-0.1241308
223	0xbcd5712b	-0.02605494
224	0xbd87fc65	-0.06639937
225	0xbc332907	-0.010935075
226	0x3cbff757	0.02343337
227	0xbd3e48a7	-0.046456005
228	0xbdb3b302	-0.087743774
229	0xbdec67ab	-0.115432106
230	0x3c81d043	0.015846377
231	0xbe073618	-0.13204229
232	0xbe155141	-0.14581777
233	0x3c0eaf8b	0.008708845
234	0x3de5b591	0.11216272
235	0xbe0c8555	-0.13722737
236	0x3e118a04	0.14212805
237	0xbdc50448	-0.09619957
238	0xbc217173	-0.009853709
239	0x3df6dded	0.12054048
240	0x3d97e5ab	0.074168526
241	0x3dde0fbc	0.10842845
242	0xbd75faab	-0.06005351
243	0xbaf50c40	-0.0018695667
244	0xbbb3adc2	-0.00548336
245	0x3dc4b8ae	0.09605537
246	0x3c98be73	0.0186455
247	0xbe09460d	-0.13405629
248	0xbdfaa7d2	-0.122390404
249	0xbe0bd02c	-0.1365363
250	0x3c771fa4	0.015083227
251	0x3b0ff70c	0.002196732
252	0x3e0cfb8b	0.13767831
253	0x3d83f975	0.064440645
254	0xbe0bb492	-0.13643101
255	0x3e07ec3f	0.13273714

net.2.linear.bias f4 [256]
0	0x3cc2e8dc	0.023792677
1	0x3ca2589e	0.019817647
2	0x3c34cbfa	0.01103496
3	0xbc977e65	-0.018492887
4	0x3c8763dd	0.01652711
5	0x3d172c5e	0.036907546
6	0x3d00e99d	0.03147279
7	0xbd67767e	-0.056509487
8	0x3d39079e	0.04517328
9	0x3d0a3219	0.033739183
10	0xbcfb3a38	-0.03066741
11	0x3d18b951	0.037286106
12	0x3d6ad95a	0.05733619
13	0x3d34beac	0.04412715
14	0xbba1fa13	-0.0049431412
15	0xbd1480f0	-0.036255777
16	0x3d13b776	0.036063634
17	0x3d5aee0f	0.053449687
18	0x3d380800	0.044929504
19	0x3d2a2c31	0.04154605
20	0x3d73ae75	0.059492547
21	0xbd3e1b40	-0.046412706
22	0x3b532d2e	0.0032222974
23	0xbcbd121c	-0.023079924
24	0xbbc72d3a	-0.0060783895
25	0xbcdce8b2	-0.026966427
26	0x3d3b3bde	0.04571139
27	0x3d11d07d	0.03559922
28	0x3b5cb85a	0.0033679218
29	0xbd1a2555	-0.03763326
30	0xbd37a655	-0.04483636
31	0x3d6cccc2	0.05781246
32	0xbd808e82	-0.06277181
33	0xbbfed95f	-0.0077773775
34	0x3c9bfa12	0.019040141
35	0xbd6cab6f	-0.05778068
36	0xbcf56670	-0.029956073
37	0xbbc0fcc6	-0.005889508
38	0xbcb87a24	-0.022519179
39	0xbae26686	-0.0017272986
40	0x3c283a2b	0.010267775
41	0x3c95d08a	0.018287916
42	0xbd116a65	-0.035501856
43	0x3d2eb618	0.042654127
44	0xbc9aa97e	-0.018879648
45	0x3b2f9809	0.00267935
46	0x3d577fd6	0.05261215
47	0x3d51cf0c	0.051222846
48	0xbd339db5	-0.043851573
49	0xbb29795f	-0.0025859696
50	0x3c93daba	0.018048633
51	0xbd50682c	-0.050880596
52	0x3b251b42	0.002519325
53	0x3d183609	0.037160907
54	0x3c9983fa	0.01873969
55	0xbd280ad9	-0.04102597
56	0x3ca70d17	0.020391984
57	0xbd2da7d6	-0.04239639
58	0x3c63d62f	0.013906046
59	0xbd6f30d4	-0.058396176
60	0xbd24b101	-0.040207867
61	0x3cadd4d0	0.021219641
62	0x3d6ca214	0.057771757
63	0x3d67d146	0.056596063
64	0xbd521524	-0.051289693
65	0xbd045945	-0.032311697
66	0x3cfbfe9d	0.030761058
67	0x3d085acd	0.03328972
68	0xbd1e04f2	-0.038578935
69	0xbcbb2005	-0.022842417
70	0xbd677fa8	-0.056518227
71	0xbd77bbc3	-0.060481798
72	0xbd48e074	-0.04904218
73	0x3d79a5f2	0.060949273
74	0x3d271d9c	0.040799722
75	0xbcc71988	-0.024304166
76	0x3c6681b0	0.014069006
77	0x3cce3752	0.025172863
78	0xbcb51d47	-0.022108687
79	0x3d2ba6e2	0.0419072
80	0xbc1103e7	-0.008851028
81	0xbccb8c1f	-0.024847088
82	0x3d2de4c5	0.0424545
83	0x3d02aed3	0.031905007
84	0xbc386fe6	-0.011257147
85	0x3d00a27b	0.031404953
86	0xbd4da771	-0.050208513
87	0x3cc811fa	0.024422634
88	0xbd2389d8	-0.03992638
89	0xbd1cb8d4	-0.038262203
90	0x3d48c74d	0.049018193
91	0x3d21448f	0.039372023
92	0x3b865176	0.0040990664
93	0x3c35b381	0.01109016
94	0x3bc76712	0.006085285
95	0xbad15f46	-0.0015973828
96	0x3d40894d	0.04700594
97	0x3c7c0ade	0.01538345
98	0x3d680271	0.056642953
99	0x3cac6c86	0.021047842
100	0x3c25ffbb	0.010131772
101	0x3c716684	0.014733914
102	0x3d33527b	0.04377983
103	0x3bcf27fa	0.0063219042
104	0x3d4e634f	0.050387677
105	0x3d1c21e4	0.038118258
106	0xbc59d3d0	-0.013295129
107	0xbbf4f50c	-0.007475501
108	0x3ccc66e3	0.024951404
109	0x3c738aa2	0.014864596
110	0xbd7a6c7e	-0.061138622
111	0xbc3e706c	-0.011623483
112	0x3d7730dc	0.06034933
113	0xbc20fe66	-0.009826278
114	0xbd7ca08f	-0.061676558
115	0x3d02780a	0.03185276
116	0xbd258ed7	-0.040419426
117	0xbc9ebea3	-0.019378012
118	0xbce5b96b	-0.028042516
119	0xbd542d63	-0.051801097
120	0x3cb21b11	0.021741422
121	0x3d5c33c3	0.0537603
122	0x3c5c1987	0.013433821
123	0x3d0e7486	0.034779094
124	0xbd3f1207	-0.04664805
125	0x3d504c78	0.050854176
126	0x3d805507	0.06266218
127	0x3d3b2579	0.045690034
128	0x3b3a129f	0.0028392447
129	0xbd20c99e	-0.039254777
130	0xbd3f1285	-0.04664852
131	0xba5680f8	-0.000818267
132	0x3c40980a	0.011754999
133	0x3d6d0f12	0.0578757
134	0x3d7c04fe	0.0615282
135	0xbd047818	-0.032341093
136	0xbd29deb9	-0.04147217
137	0x3d705e7f	0.05868387
138	0x3d3a6491	0.045506064
139	0xbd3077d1	-0.043083016
140	0x3cdfa5da	0.027300764
141	0xbd64ad63	-0.055829417
142	0xbd3bccda	-0.04584966
143	0x3d76dd66	0.060269736
144	0x3d48ea7c	0.049051747
145	0x3bc45323	0.005991356
146	0x3cacbb63	0.021085447
147	0x3d16dc51	0.036831204
148	0x3c8ed47b	0.017435303
149	0xbd00157c	-0.03127049
150	0x3ce73216	0.028222125
151	0x3d1f4794	0.03888662
152	0xbd5c61e2	-0.053804286
153	0x3d05713a	0.032578684
154	0xbcc3b2ca	-0.023888964
155	0x3c51253d	0.012765226
156	0x3c5c8fe1	0.013462038
157	0x3ad5121a	0.0016256005
158	0xbd38de2c	-0.045133755
159	0xbce365c8	-0.027758494
160	0x3d27131e	0.040789716
161	0x3d52bf33	0.051451873
162	0x3d2ad057	0.041702595
163	0x3d045690	0.032309115
164	0x3cf119a6	0.029431175
165	0x3a7604e0	0.00093848817
166	0xbcdec733	-0.027194595
167	0x3d5c3df8	0.053770036
168	0x3ccabef4	0.024749257
169	0xbcd59efe	-0.02607679
170	0x3d51557c	0.051106915
171	0xbd3c9927	-0.046044495
172	0x3d30eb5a	0.0431932
173	0x3d283f3a	0.041075923
174	0x3d7452d7	0.059649315
175	0x3d01e7c4	0.03171517
176	0x3cdb8786	0.026798021
177	0xbbd60670	-0.006531529
178	0x3d3e203e	0.046417467
179	0xbcc10f77	-0.023566945
180	0xbd46b38a	-0.048511066
181	0x3cf48f81	0.029853584
182	0xbc175480	-0.009236455
183	0x3d4f69b5	0.05063792
184	0xbc9b9fb5	-0.018997053
185	0xbc6eddc7	-0.014579243
186	0x3c86c14c	0.016449593
187	0x3b91e5f8	0.0044524632
188	0xbcc750c7	-0.02433051
189	0x3c9c1e50	0.019057423
190	0xbd11a19a	-0.035554506
191	0xbd32547f	-0.043537613
192	0xbd6bcc81	-0.057568077
193	0x3d371422	0.044696935
194	0xbc1ee775	-0.009698738
195	0xbc9141f5	-0.017731646
196	0xbc20f80b	-0.009824763
197	0xbaed14b6	-0.0018087837
198	0x3d008aa7	0.03138223
199	0x3d3b5132	0.04573173
200	0xbcf73872	-0.030178282
201	0xbd11a013	-0.03555305
202	0x3d48cacb	0.049021523
203	0x3d6c2433	0.05765171
204	0xbd59d7d1	-0.053184334
205	0x3b425730	0.0029654019
206	0x3d0b5971	0.034020845
207	0xbd734ed4	-0.05940135
208	0x3cff1ebb	0.031142583
209	0xbd14a7b6	-0.036292754
210	0xbd7d2a92	-0.061808176
211	0xbc65772b	-0.014005463
212	0xbc16d3c6	-0.009205764
213	0x3d7a6bbb	0.061137896
214	0xbc5e6070	-0.013572797
215	0x3cb09843	0.021556979
216	0x3d1d0328	0.03833309
217	0xbc834c35	-0.01602755
218	0xbce4dbd8	-0.02793686
219	0x3c5a8d15	0.013339301
220	0xbcc577b2	-0.024104927
221	0xbcda1871	-0.026622983
222	0x3c67f251	0.014156894
223	0x3d19ed51	0.03757984
224	0x3c035898	0.008016728
225	0x3d15de7d	0.036589134
226	0x3c576d18	0.013148569
227	0xbd561922	-0.052270062
228	0x3b0835e0	0.0020784065
229	0xbbac9bfd	-0.0052676187
230	0x3cb822b6	0.022477489
231	0xbcefb25a	-0.02925985
232	0x3ce75ea8	0.028243378
233	0xb9f4c56a	-0.00046686392
234	0x3d5bcf73	0.053664636
235	0xbd743cf7	-0.059628453
236	0xbd33cdff	-0.043897625
237	0x3d6e9875	0.058250863
238	0xbc13cd31	-0.009021089
239	0x3d2e1151	0.042496983
240	0xbd256408	-0.0403786
241	0xbd426f91	-0.04746968
242	0x3d38cceb	0.0451173
243	0xbbed577f	-0.0072430964
244	0x3c3c13ba	0.011479313
245	0xbd50b1a3	-0.050950658
246	0xbd3ccea8	-0.04609552
247	0xbd5ae580	-0.053441525
248	0x3d7b85ed	0.06140702
249	0xbd6807f8	-0.056648225
250	0x3d633923	0.05547441
251	0xbd7e4ebc	-0.062086806
252	0xbc368906	-0.011141067
253	0xbc12345e	-0.008923618
254	0xbd1ec6a0	-0.038763642
255	0xbcf4fdf4	-0.02990625

net.3.linear.weight f4 [256, 256]
0	0xbd01c7ea	-0.031684794
1	0xbc22c870	-0.009935483
2	0xbde448aa	-0.11146672
3	0xbddd201e	-0.107971415
4	0x3dbf005b	0.0932624
5	0x3d95f2f2	0.07321729
6	0xbe05bfa3	-0.13061385
7	0xbc83a6ca	-0.016070742
8	0xbd011ceb	-0.03152172
9	0x3b847dea	0.0040433304
10	0x3dc400f5	0.09570495
11	0xbe0ec5e2	-0.13942674
12	0x3e003f51	0.12524153
13	0x3e0f6a75	0.14005454
14	0xbe04751f	-0.12935303
15	0xbcf62ef0	-0.030051678
16	0x3ad1a1ac	0.0015993617
17	0x3e1e164e	0.15438196
18	0x3e0c4f02	0.13702014
19	0x3e02f2c1	0.12787916
20	0xbde77406	-0.113014266
21	0xbb537e66	-0.0032271384
22	0xbd725586	-0.059163593
23	0xbdd19ce1	-0.102350004
24	0x3ca4cb97	0.02011661
25	0x3d17097a	0.036874272
26	0x3e1881e1	0.14893295
27	0xbdc3b47d	-0.0955591
28	0x3d2bb27f	0.041918274
29	0xbdbe4afe	-0.092916474
30	0xbc74f51e	-0.014951019
31	0x3dcd941b	0.100380145
32	0x3a662b84	0.0008780288
33	0xbcb0966c	-0.021556102
34	0xbe10324c	-0.14081687
35	0xbd69e26c	-0.0571007
36	0x3d94283a	0.07234235
37	0x3ccf7643	0.025324946
38	0x3daf556a	0.08561213
39	0xbe0145fc	-0.12624353
40	0x3c3265a1	0.010888488
41	0xbe091043	-0.1338511
42	0x3db7076b	0.08936962
43	0x3d153c38	0.036434382
44	0xbdd4a8e9	-0.103837796
45	0x3c9d5b59	0.019208597
46	0xbbf2bff2	-0.0074081356
47	0x3e03d84d	0.12875481
48	0xbdc51722	-0.09623553
49	0x3d93ee0a	0.07223137
50	0x3d99f841	0.07518054
51	0xbb720dda	-0.0036934526
52	0xbdd47210	-0.10373318
53	0xbe02dc08	-0.12779248
54	0xbd47c86f	-0.048775133
55	0x3c539abe	0.012915311
56	0x3d40d42c	0.047077343
57	0xbd76303a	-0.060104586
58	0xbdf7e324	-0.121038705
59	0x3cacb047	0.02108015
60	0xbde1ef7f	-0.110320084
61	0xbda70248	-0.08154732
62	0x3cfe8f69	0.031074243
63	0xbd2e7c00	-0.042598724
64	0x3de731f3	0.11288824
65	0x3c36b089	0.011150488
66	0x3d4ae39c	0.04953347
67	0x3dc28d1a	0.09499569
68	0xbd893488	-0.06699473
69	0x3b27f0f2	0.0025625792
70	0x3d87c145	0.0662866
71	0x3dbef3f7	0.09323876
72	0x3d563eb3	0.05230589
73	0x3cc7f758	0.024409935
74	0xbd1ece97	-0.03877124
75	0x3c8e50db	0.01737254
76	0xbdb63a31	-0.08897818
77	0xbd4e3cff	-0.05035114
78	0x3e066ec2	0.13128188
79	0x3df26f6b	0.118376575
80	0xbe1a03f3	-0.15040569
81	0x3dd76dfc	0.10519025
82	0x3d11aa82	0.035563
83	0xbdbcfefd	-0.09228323
84	0x3d66c3b8	0.056338996
85	0xbdca2f3c	-0.098722905
86	0xbdc424f5	-0.095773615
87	0xbdbf15ff	-0.09330367
88	0xbdd8a7c9	-0.105788775
89	0xbc2b8ada	-0.0104701165
90	0xbddf7a60	-0.10912013
91	0xbd2f044b	-0.042728703
92	0xbcc9d74b	-0.024638792
93	0x3df881e0	0.12134147
94	0xbdb41394	-0.08792797
95	0x3df8fd61	0.12157703
96	0xbd6a7a6c	-0.057245657
97	0x3d880b54	0.06642786
98	0xbc159a0c	-0.009130966
99	0x3dcff109	0.10153396
100	0xbd313f8f	-0.043273505
101	0x3dec94fd	0.11551855
102	0x3d79fca5	0.061031956
103	0xbe14d195	-0.14533074
104	0xbd4f1f2c	-0.050566837
105	0xbc11ffe8	-0.00891111
106	0x3d8f1850	0.06987059
107	0x3ddff350	0.1093508
108	0x3d435c98	0.047695726
109	0xbd9103f1	-0.0708083
110	0x3d96ad38	0.073572576
111	0x3d547358	0.051867813
112	0xbd8f1a48	-0.069874346
113	0xbdd2db94	-0.102957875
114	0x3dcd2e32	0.10018577
115	0x3deb9af6	0.11504166
116	0x3e1e3cf2	0.15452936
117	0xbc61008a	-0.013733039
118	0x3dab60a7	0.08368044
119	0xbde740a2	-0.112916246
120	0xbd534ef6	-0.051588975
121	0xbd3ea50b	-0.046544116
122	0xbc91db46	-0.017804753
123	0x3e0b287c	0.13589662
124	0x3d664312	0.056216307
125	0xbd3a1200	-0.045427322
126	0x3ca404fd	0.02002191
127	0xbb0e7acc	-0.0021740673
128	0x3d50f9cb	0.05101947
129	0x3d0e1cb5	0.034695346
130	0xbdfbf0a4	-0.12301758
131	0xbd6c5ce5	-0.05770578
132	0x3dbd631f	0.092474215
133	0x3dcbce59	0.09951467
134	0xbce62009	-0.028091447
135	0xbdfcb89a	-0.123398975
136	0xbe1751ba	-0.1477727
137	0x3decab5b	0.11556121
138	0x3d652bd4	0.05595
139	0xbdc9d189	-0.09854419
140	0x3e105a71	0.14097
141	0xbe0ed21d	-0.1394734
142	0x3de0a386	0.109686896
143	0x3d8f92fb	0.07010456
144	0x3dc63988	0.09678942
145	0x3d917b47	0.071035914
146	0x3d091306	0.033465408
147	0x3e0f509a	0.13995591
148	0xbcf7d54e	-0.030253079
149	0xbe13389c	-0.14377064
150	0x3cffe87d	0.031238789
151	0xbca9a599	-0.020708846
152	0x3e15630e	0.14588568
153	0x3d9747a8	0.07386714
154	0xbdc3bcd4	-0.095575005
155	0x3db364f6	0.08759491
156	0xbd9d8ebe	-0.076932415
157	0xbdeba3d4	-0.11505857
158	0x3d39142f	0.045185264
159	0xbda7f55b	-0.08201095
160	0xbdec4f10	-0.115385175
161	0xbcdd7729	-0.027034359
162	0xbd9691ff	-0.07352065
163	0xbda91a89	-0.08257014
164	0x3d94a722	0.072584406
165	0xbdb96f14	-0.090543896
166	0xbe11b0ad	-0.14227553
167	0x3da1ea77	0.07906049
168	0xbd2b4ca5	-0.04182114
169	0x3d88555e	0.066569075
170	0x3e0cc531	0.13747098
171	0x3de1b01f	0.110199206
172	0x3c9f3382	0.01943374
173	0x3daaf23f	0.08346986
174	0xbdc33ea6	-0.095334336
175	0xbd9ed669	-0.07755739
176	0x3d30e8d5	0.043190796
177	0x3c873e9d	0.016509349
178	0x3dc71c0f	0.097221486
179	0x3d5bdefd	0.053679455
180	0xbe040d38	-0.12895668
181	0x3d986732	0.07441558
182	0xbd564443	-0.052311193
183	0x3de8403c	0.11340377
184	0xbc4d6f74	-0.0125387795
185	0xbda8c43f	-0.08240556
186	0x3ded0afb	0.1157436
187	0x3e008219	0.12549628
188	0x3d06724d	0.03282385
189	0x3dd3487d	0.103165604
190	0x3b86220c	0.004093414
191	0xbb923384	-0.0044617075
192	0xbdb2b459	-0.08725805
193	0xbc91600f	-0.017746
194	0x3acd8615	0.0015680218
195	0xbc12c083	-0.008957031
196	0x3d14d11a	0.036332227
197	0x3dd1dbdb	0.10247012
198	0x3bde00e3	0.006775008
199	0xbda90739	-0.08253331
200	0xbdfb7fe6	-0.12280254
201	0x3d746d3c	0.059674487
202	0xbd910c71	-0.07082451
203	0xbd6e39d3	-0.058160614
204	0x3da79744	0.081831485
205	0x3dc692c1	0.0969596
206	0xbc3c2996	-0.011484524
207	0x3d85a6dc	0.065259665
208	0x3e0bb32f	0.13642572
209	0xbd9d5c7a	-0.07683654
210	0xbde4f3b3	-0.111792944
211	0x3cc821ec	0.024430238
212	0x3ce46f17	0.027885003
213	0xbdf279ed	-0.11839662
214	0xbcb7e829	-0.02244957
215	0x3e227edd	0.15868707
216	0x3e19f5cb	0.15035169
217	0x3d7a9801	0.06118012
218	0x3ce36ce2	0.02776188
219	0x3e1988bb	0.14993565
220	0x3d9144c8	0.07093197
221	0xbd8d0418	-0.068855464
222	0x3d4bd2b5	0.049761493
223	0xbdc8f9b9	-0.09813256
224	0xbc8d5181	-0.017250778
225	0x3d1c28e9	0.038124952
226	0xbe18fe24	-0.14940697
227	0xbd33a34c	-0.043856904
228	0x3b97b90b	0.004630213
229	0xbdfdb06c	-0.123871654
230	0xbd95b3c5	-0.07309679
231	0xbd9c3338	-0.07626957
232	0xbd6d2e94	-0.05790575
233	0xbd97f63e	-0.07420014
234	0x3c2146a8	0.009843506
235	0xbcd4c380	-0.025972128
236	0xbdd8794a	-0.10570009
237	0x3e05fa65	0.13083799
238	0x3d409755	0.04701932
239	0x3e1015bc	0.14070791
240	0xbd7d82c3	-0.061892282
241	0xbde618cd	-0.11235199
242	0x3d77d1fc	0.06050299
243	0xbcf1feaf	-0.029540388
244	0xbdf66edf	-0.12032866
245	0xbd3a2b87	-0.045451667
246	0x3ddf4b4f	0.10903036
247	0xbd0818fa	-0.033226945
248	0x3d493a5f	0.049127933
249	0x3e116bd0	0.14201283
250	0xbcea2227	-0.028580738
251	0x3c269feb	0.010169963
252	0x3d1a403c	0.037658915
253	0x3ddef498	0.10886496
254	0xbd94a0a6	-0.07257204
255	0xbe03ae52	-0.12859467
