geoinr/data/unconformities/plane_splus_model3L_256_50b.pth (torch, 797767 bytes, 9 tensors)

net.0.linear.weight f4 [256, 3]
0	0x3f4d329a	0.80155337
1	0xbec16a84	-0.37776577
2	0x3ec7d4a1	0.3902941
3	0x3f84ed14	1.038485
4	0x3e76657d	0.24062152
5	0x3e0768da	0.13223591
6	0x3f5f5db0	0.8725233
7	0x3f77421b	0.96585244
8	0x3eeb687c	0.45978153
9	0x3fb1cba5	1.3890272
10	0xbef774ea	-0.48331386
11	0xbe947443	-0.2899495
12	0xbec00486	-0.3750345
13	0xbf2e9faf	-0.6821241
14	0x3ec876a8	0.39153028
15	0x3d192162	0.037385352
16	0x3f9e5c32	1.2371886
17	0x3ebee28c	0.37282217
18	0xbfb44058	-1.4082136
19	0x3f96f035	1.1792055
20	0xbf79f537	-0.97639793
21	0x3f88dc69	1.0692264
22	0xbf3a714e	-0.7282914
23	0x3eab2d28	0.3343289
24	0x3d98e4af	0.07465493
25	0x3f210878	0.6290355
26	0x3ec9290c	0.3928913
27	0x3e805e96	0.25072163
28	0x3f7e66a9	0.99375397
29	0x3fb013e6	1.3756073
30	0x3f9662a7	1.1748856
31	0x3f9089b9	1.129203
32	0xbf821c1a	-1.0164826
33	0x3f75c1a5	0.95998603
34	0x3f5c8882	0.86145794
35	0xbf77ff76	-0.9687418
36	0x3eddba17	0.43306038
37	0xbf385cb4	-0.72016454
38	0xbfb3f5ea	-1.4059422
39	0x3f4fa9bb	0.81118363
40	0xbc443b78	-0.011977069
41	0x3fa72202	1.3057253
42	0x3f5191f1	0.81863314
43	0x3f53421f	0.8252277
44	0x3fae0c28	1.359746
45	0xbebe4b87	-0.37166998
46	0xbf154be3	-0.5831892
47	0x3f9988b1	1.199484
48	0x3f85ad02	1.0443423
49	0x3f1837bf	0.5946006
50	0xbf1b631a	-0.6069809
51	0x3e5a9615	0.21346314
52	0x3f01cd1a	0.50703585
53	0x3e214a05	0.15750892
54	0xbf9f0b4a	-1.242532
55	0x3f907e34	1.1288514
56	0xbf92e834	-1.1477113
57	0x3f19d079	0.6008373
58	0xbd09d25f	-0.03364789
59	0x3e651bb8	0.22373855
60	0xbf1b78f5	-0.6073144
61	0x3f52410a	0.8213049
62	0xbe2f3e6b	-0.17113654
63	0xbf35ffcf	-0.7109346
64	0xbc0655ca	-0.008199165
65	0xbf78ba7f	-0.9715957
66	0x3fa8f7c1	1.3200608
67	0xbf65d264	-0.89774156
68	0xbf20acb3	-0.6276352
69	0x3d70300c	0.05863957
70	0x3ed80246	0.42189234
71	0xbf6ab95b	-0.9168908
72	0xbefeae49	-0.49742344
73	0xbf94f9cf	-1.1638736
74	0xbe573c36	-0.21019062
75	0xbcf630f9	-0.030052649
76	0xbfa72eea	-1.3061192
77	0x3f6f0704	0.9337008
78	0xbdaa2d90	-0.083094716
79	0x3f302782	0.68810284
80	0x3ee6f498	0.45108485
81	0x3e41e2b3	0.18934135
82	0x3f8eb53c	1.1149058
83	0x3f85ce71	1.0453626
84	0xbf8f8930	-1.1213741
85	0x3dad7610	0.08469784
86	0xbf150ee3	-0.5822584
87	0x3f9e0856	1.2346294
88	0x3f1398c2	0.57654965
89	0xbea0a6c2	-0.31377226
90	0x3f3ae5a7	0.7300667
91	0x3e8c90d0	0.27454233
92	0xbd11609b	-0.03549252
93	0xbd532757	-0.05155119
94	0xbf9a493f	-1.2053603
95	0xbfa28169	-1.2695743
96	0x3f84574d	1.0339142
97	0x3f154cb1	0.58320147
98	0x3ecdbeae	0.4018454
99	0x3f5b14a0	0.85578346
100	0x3f4932aa	0.7859293
101	0x3f7ce198	0.9878173
102	0xbf2d7e2a	-0.67770636
103	0x3f6ab443	0.9168131
104	0xbf314748	-0.6924939
105	0x3de78154	0.11303964
106	0x3f4eb831	0.80749804
107	0x3e21e554	0.15810138
108	0x3f56c88e	0.8389977
109	0x3f868dcb	1.0512022
110	0x3efc4cab	0.49277243
111	0x3ec01425	0.3751537
112	0xbfa0f730	-1.2575436
113	0x3eebbcbd	0.46042433
114	0xbe336b4e	-0.17521402
115	0x3f862789	1.0480815
116	0x3fa89bf2	1.3172591
117	0xbfa14d65	-1.2601744
118	0x3f9a9375	1.207625
119	0xbf0ecd92	-0.55782425
120	0x3f04a960	0.51820946
121	0x3f0e45fb	0.5557553
122	0x3f8f2ba9	1.1185199
123	0xbec9ab51	-0.39388517
124	0x3f816b50	1.0110874
125	0x3f8ec403	1.1153568
126	0x3f4a714e	0.7907914
127	0x3e962b28	0.293298
128	0xbd99dc5e	-0.07512735
129	0x3f18b018	0.596437
130	0xbf99cc51	-1.2015477
131	0xbf81692a	-1.0110219
132	0xbf6cbf53	-0.9247944
133	0xbf143389	-0.57891136
134	0xbf2cd6cc	-0.67515254
135	0x3fa12473	1.2589248
136	0x3f78d9fb	0.9720761
137	0x3f843698	1.0329161
138	0x3eb4a4cc	0.3528198
139	0x3f8fbc1c	1.1229281
140	0xbe81de4b	-0.2536491
141	0xbf4fdfb9	-0.8120075
142	0x3f2aa3a8	0.6665597
143	0x3f0c5b5a	0.5482689
144	0xbe636dc5	-0.22209843
145	0xbedbfc8b	-0.42966112
146	0xbfb2c95b	-1.3967699
147	0xbf529099	-0.8225189
148	0xbe3e1d3f	-0.18565844
149	0x3f25cc1a	0.6476456
150	0x3f83b597	1.0289792
151	0x3dd025ea	0.101634815
152	0x3f4d27c6	0.80138814
153	0xbf8f5166	-1.1196716
154	0xbf825897	-1.0183285
155	0x3e3f7c78	0.18699825
156	0x3efbaa13	0.49153194
157	0x3f5fd40c	0.8743293
158	0xbf9290be	-1.1450422
159	0xbf9272c6	-1.1441276
160	0x3f7b203a	0.9809605
161	0x3cce85b6	0.025210243
162	0x3f933387	1.15001
163	0xbfa29312	-1.2701132
164	0xbf26d09a	-0.6516205
165	0x3fa4d175	1.2876421
166	0xbf4489d3	-0.76772803
167	0xbf056dcb	-0.52120656
168	0xbf00faac	-0.50382495
169	0xbf704e3f	-0.93869394
170	0xbfa1569c	-1.2604556
171	0x3f8c6355	1.0967814
172	0xbe836110	-0.2565999
173	0xbfa5dc44	-1.2957845
174	0xbd91ed2e	-0.071253166
175	0xbf8ae55b	-1.0851244
176	0x3f73d405	0.9524539
177	0x3ee8f8f5	0.4550244
178	0xbf980cc1	-1.1878892
179	0xbe8e015c	-0.27735412
180	0x3ee56161	0.44800857
181	0xbf8bc89f	-1.09206
182	0x3f9b15ea	1.2116063
183	0x3d740f64	0.05958499
184	0x3f2b5cba	0.66938365
185	0xbf0d9950	-0.5531206
186	0x3d859bfc	0.06523892
187	0x3f30a65e	0.69003856
188	0x3f95550d	1.166658
189	0x3eee0851	0.4649072
190	0x3f89826b	1.0742925
191	0xbf0bc03f	-0.5459022
192	0xbfa8cdda	-1.3187821
193	0xbf6c0cdd	-0.9220713
194	0x3f291793	0.66051596
195	0x3eaa47e0	0.3325796
196	0x3f58bf44	0.8466685
197	0x3f9f83d5	1.2462107
198	0x3f0d9d2d	0.55317956
199	0x3f98e392	1.1944449
200	0x3f915441	1.1353837
201	0xbe4a7ac7	-0.19773398
202	0x3e874d2c	0.26426065
203	0xbf5c2d5e	-0.86006725
204	0xbd08f880	-0.033440113
205	0x3d9e0ded	0.077175
206	0xbf9b05af	-1.211111
207	0xbf14da3e	-0.5814551
208	0xbd30d0b3	-0.04316778
209	0x3f037174	0.5134499
210	0x3f551b2a	0.83244574
211	0xbf96123c	-1.1724315
212	0xbf8e4e24	-1.1117597
213	0xbf71f009	-0.9450689
214	0x3f58b1a1	0.8464604
215	0xbf511384	-0.81670403
216	0x3d8809be	0.06642483
217	0x3f5d6fcb	0.8649871
218	0x3fa061d1	1.2529851
219	0xbf720f92	-0.9455501
220	0xbfae0f45	-1.359841
221	0xbf9cd13c	-1.2251353
222	0xbfaf2633	-1.3683532
223	0xbf9a3e06	-1.2050178
224	0x3dec9f56	0.115538284
225	0x3e954970	0.2915759
226	0x3f78fb49	0.9725843
227	0xbfa6b313	-1.3023399
228	0x3e6d770c	0.23189944
229	0xbf7f14fc	-0.99641395
230	0xbfaaf921	-1.3357278
231	0xbf99ecfb	-1.2025446
232	0xbc63f9b7	-0.013914517
233	0xbf994a26	-1.1975753
234	0x3f89f0dc	1.077663
235	0x3f245356	0.6418966
236	0xbeab8490	-0.33499575
237	0xbc120a95	-0.008913656
238	0x3f42139b	0.75811166
239	0xbf5955c1	-0.84896475
240	0x3f7581d2	0.95901215
241	0xbd994369	-0.074835606
242	0xbfa2317f	-1.2671355
243	0xbe90b2b4	-0.2826134
244	0xbf43d52f	-0.7649717
245	0xbfa6efb1	-1.3041898
246	0x3ef76f5f	0.48327157
247	0xbf83ca52	-1.0296118
248	0x3f7c1154	0.9846394
249	0xbf422ddd	-0.7585123
250	0x3c1beeeb	0.009517412
251	0x3f6af519	0.9178024
252	0xbe66508d	-0.22491665
253	0xbfa74de4	-1.3070645
254	0xbf8cc43e	-1.0997388
255	0x3f36c9cb	0.7140166

net.0.linear.bias f4 [256]
0	0x3e406360	0.18787909
1	0x3d1a6af2	0.037699647
2	0xbea901bb	-0.33009133
3	0xbd6042b9	-0.05475113
4	0x3ef73dfc	0.48289478
5	0x3db5d080	0.08877659
6	0xbe4e544e	-0.20149347
7	0xbe984bef	-0.29745433
8	0xbec4eb50	-0.3846078
9	0x3cbcf178	0.02306436
10	0xbeb2aa0a	-0.34895355
11	0xbedf2f2e	-0.43590683
12	0xbe8640c6	-0.26221293
13	0x3ebef06c	0.37292802
14	0xbe476b55	-0.19474538
15	0xbf09bfaf	-0.5380811
16	0xbe211075	-0.15728934
17	0xbe500078	-0.20312679
18	0xbeb6217d	-0.35572425
19	0xbf0adfec	-0.5424793
20	0x3d5029ae	0.050821
21	0xbefb07c7	-0.4902937
22	0x3d6ebabe	0.05828356
23	0xbf0ca51f	-0.54939455
24	0xbef62619	-0.4807594
25	0xbe82f0ec	-0.25574434
26	0xbd68a40d	-0.056797076
27	0xbed364c1	-0.41287807
28	0x3eb5d4a9	0.3551381
29	0xbee0ba11	-0.43891957
30	0xbcb813ff	-0.022470472
31	0x3d9ba383	0.07599547
32	0xbea932a2	-0.33046442
33	0x3f0a57c3	0.54040164
34	0xbdba6e42	-0.09103061
35	0xbee63882	-0.44964987
36	0xbefc54fb	-0.49283585
37	0x3e4f6887	0.20254718
38	0xbf0e1001	-0.5549317
39	0xbce62a7b	-0.028096428
40	0xbe348c8d	-0.17631741
41	0x3ca7383a	0.020412553
42	0xbf077e70	-0.52927303
43	0xbf0ee966	-0.5582489
44	0xbe09bdf3	-0.13451366
45	0xbe8a9a6b	-0.27070937
46	0x3d1d9a6c	0.038477346
47	0xbeae241b	-0.3401192
48	0x3f00c50f	0.5030069
49	0xbea6ade1	-0.32554534
50	0xbef4bfdb	-0.47802624
51	0x3dc6597f	0.09685039
52	0x3e9058e3	0.28192815
53	0xbe537e03	-0.20653538
54	0xbe841cf0	-0.25803328
55	0xbd649240	-0.055803537
56	0xbf01b540	-0.5066719
57	0x3e715fe6	0.23571739
58	0xbddff7a2	-0.10935904
59	0x3d26e5d1	0.040746514
60	0x3d1f3ec5	0.03887822
61	0xbd0678d0	-0.03283006
62	0xbe8603e8	-0.26174855
63	0xbedd8940	-0.43268776
64	0xbeaed34f	-0.3414559
65	0x3ef3cb00	0.47615814
66	0xbd484be1	-0.04890049
67	0x3dd988e2	0.106218114
68	0xbeb48283	-0.35255823
69	0x3e43b29a	0.191111
70	0x3e3e4c97	0.18583904
71	0xbf0884c6	-0.53327596
72	0x3f04ca81	0.51871496
73	0x3d7bc2b1	0.06146497
74	0xbeab76e6	-0.3348915
75	0x3ed3a489	0.41336468
76	0xbe348bb0	-0.17631412
77	0xbea0c489	-0.31399944
78	0x3d0e6485	0.03476383
79	0xbedbe7b2	-0.42950207
80	0xbec0b2f6	-0.37636536
81	0xbd009a2a	-0.031397022
82	0x3e26073b	0.16213696
83	0xbdf688ca	-0.12037809
84	0x3f0d7de2	0.55270207
85	0x3ebe4dc9	0.3716872
86	0xbee28760	-0.44243908
87	0x3e95b02b	0.29235968
88	0x3e98f3e2	0.29873568
89	0xbf090ca9	-0.5353494
90	0x3f00c6ed	0.50303537
91	0xbc938f68	-0.018012717
92	0x3e870c50	0.2637658
93	0xbedbfeeb	-0.42967924
94	0xbe6de364	-0.23231274
95	0xbe8620d0	-0.2619691
96	0x3ec1caad	0.37849942
97	0x3dec8fd8	0.115508735
98	0xbecb50f7	-0.3971021
99	0xbe51db38	-0.20493782
100	0xbf0e4754	-0.5557759
101	0xbf0bf8a2	-0.5467626
102	0xbd38ff9a	-0.045165636
103	0x3eb66006	0.35620135
104	0xbed9f6ef	-0.42571208
105	0x3e1d5cc5	0.1536742
106	0xbe73f48a	-0.23823753
107	0xbeb13df6	-0.34617585
108	0xbe967140	-0.29383278
109	0x3ec07883	0.37591943
110	0x3dcb00e1	0.09912277
111	0xbec28be1	-0.37997344
112	0x3e5fe437	0.21864401
113	0x3e1c9f66	0.1529518
114	0xbdafd9ee	-0.08586489
115	0xbe1fa396	-0.15589747
116	0xbe885707	-0.26628897
117	0xbb9596d5	-0.0045650997
118	0x3f134d45	0.5753978
119	0xbcf64afe	-0.030065056
120	0x3ea0d7e5	0.31414714
121	0xbf032bc4	-0.51238656
122	0x3f006306	0.501511
123	0xbefe9ed9	-0.49730566
124	0xbdb5011e	-0.08838104
125	0xbdaaa93a	-0.08333059
126	0x3e7c04a1	0.24611141
127	0x3ecd516b	0.4010118
128	0xbeb51e61	-0.3537474
129	0xbe09d080	-0.13458443
130	0xbeb854d0	-0.36002207
131	0xbe26e32d	-0.16297598
132	0xbee311c1	-0.44349483
133	0xbf0cd56b	-0.5501315
134	0x3dd6ca97	0.1048786
135	0x3dfd7ca2	0.123772874
136	0x3d9ba969	0.07600672
137	0xbe45c770	-0.1931436
138	0x3ea979aa	0.33100635
139	0xbe140054	-0.1445325
140	0x3d2dc5ba	0.042424895
141	0x3e950251	0.2910333
142	0xbe62c3d3	-0.22145014
143	0x3db8ea4e	0.09029065
144	0x3dfc437c	0.12317559
145	0xbf097d1b	-0.5370652
146	0xbe87755e	-0.26456732
147	0xbebf9321	-0.37416938
148	0xbea26902	-0.3172074
149	0x3f0d559c	0.55208755
150	0xbe5524f2	-0.20814875
151	0xbf021ee5	-0.5082839
152	0xbec84611	-0.39115956
153	0xbd521a6d	-0.051294733
154	0x3eaae9a3	0.33381376
155	0x3dbb186e	0.09135519
156	0x3e0803b7	0.13282667
157	0xbe8ad81c	-0.27118003
158	0xbf034a92	-0.5128566
159	0xbee912bd	-0.4552211
160	0x3de583a9	0.11206753
161	0xbf06cca2	-0.52655995
162	0x3f0802a8	0.53129053
163	0xbe0cace9	-0.13737835
164	0x3db798e7	0.08964711
165	0x3e6b7ca5	0.22996767
166	0xbe816d50	-0.2527871
167	0xbeefa98d	-0.46809044
168	0x3e2f1d2d	0.17100973
169	0x3d4b81fe	0.049684517
170	0x3ed981bf	0.424818
171	0x3d93fc2f	0.072258346
172	0x3e95ccda	0.29257852
173	0xbed81b42	-0.42208296
174	0x3e9bc3b1	0.30422738
175	0xbd2bc7ca	-0.04193858
176	0xbef9ef18	-0.48815227
177	0xbcc1996b	-0.023632726
178	0xbeb94a42	-0.36189467
179	0x3f059ef5	0.52195674
180	0x3edece6d	0.43516865
181	0x3eb47395	0.35244432
182	0xbe015602	-0.12630466
183	0x3d158549	0.036504064
184	0x3e23e3f3	0.16004924
185	0xbed9d622	-0.42546183
186	0x3e1fce67	0.1560608
187	0x3e8a8ba0	0.2705965
188	0xbf04b1d3	-0.5183384
189	0xbecbf799	-0.3983734
190	0xbe43e336	-0.19129643
191	0xbea1d6e3	-0.31609258
192	0x3f02f204	0.51150537
193	0xbed205e0	-0.41020107
194	0xbf11f0bc	-0.57007957
195	0xbde7662d	-0.11298785
196	0xbeb67d52	-0.35642487
197	0x3f0fa2ca	0.5610777
198	0xbedaddce	-0.4274735
199	0xbdbd43d9	-0.092414565
200	0x3f02013e	0.50783145
201	0xbea278ac	-0.3173269
202	0x3ebc7a85	0.36812225
203	0xbf00825f	-0.5019893
204	0xbcfc8cb0	-0.030828804
205	0xbe1cf751	-0.15328719
206	0xbe89e58e	-0.2693295
207	0x3ebabf80	0.36474228
208	0xbdd55ea6	-0.104184434
209	0xbea83602	-0.32853705
210	0x3e008ec1	0.12554456
211	0xbec2f00e	-0.38073772
212	0xbef4f6dd	-0.47844592
213	0xbd37ee82	-0.044905193
214	0xbe19d5fc	-0.15023035
215	0xbdd6aac7	-0.10481792
216	0xbe3ff46d	-0.18745585
217	0x3f10552d	0.5637997
218	0x3ec1d919	0.37860945
219	0x3e0acc61	0.13554527
220	0x3d3313cb	0.043720048
221	0xbedfb8d3	-0.43695697
222	0x3e4e5f23	0.2015348
223	0xbde14a31	-0.11000479
224	0x3f07e8b9	0.5308948
225	0x3ecd118d	0.40052453
226	0x3eb60745	0.3555242
227	0xbebe8003	-0.3720704
228	0xbdcbeb5e	-0.09957002
229	0xbe28ca25	-0.16483362
230	0xbd0deefe	-0.03465175
231	0xbee200cd	-0.44141236
232	0x3eea777d	0.45794287
233	0xbd202652	-0.039099045
234	0x3e779d9c	0.24181217
235	0xbf011525	-0.5042289
236	0xbed07184	-0.40711606
237	0xbec6b0e2	-0.38806826
238	0x3f06e8a6	0.52698743
239	0x3f0ec845	0.5577434
240	0x3e161ad7	0.14658676
241	0xbf07aa8e	-0.5299462
242	0xbe2191b6	-0.1577824
243	0x3e456abc	0.19278997
244	0xbeb97f6e	-0.36230034
245	0x3e19a2e1	0.1500354
246	0x3e8ac88d	0.27106133
247	0xbe91c34e	-0.28469318
248	0xbe5673b4	-0.20942575
249	0x3f0a12c9	0.53934914
250	0xbf0bee78	-0.5466075
251	0xbe330cc4	-0.17485338
252	0xbe4de32e	-0.20106193
253	0xbf0614e1	-0.5237561
254	0xba9e587b	-0.0012080813
255	0xbf089e41	-0.53366476

net.1.linear.weight f4 [256, 256]
0	0x3d9f726f	0.07785498
1	0x3c95a990	0.01826933
2	0x3d58b091	0.05290276
3	0xbe01464d	-0.12624474
4	0x3d0160b4	0.031586364
5	0x3d3f0ce5	0.046643157
6	0x3dbea561	0.09308887
7	0xbe16d66e	-0.14730236
8	0x3e1a2dd0	0.15056539
9	0xbb83fbca	-0.0040278183
10	0x3d8c0111	0.06836141
11	0xbdaf67ec	-0.085647434
12	0xbd2c49a6	-0.042062424
13	0xbcefedc1	-0.029288175
14	0x3cfbe121	0.030746998
15	0xb993fe79	-0.00028227622
16	0x3ddf06ba	0.10889955
17	0x3cbd628d	0.023118282
18	0x3e15e18d	0.14636822
19	0x3e07f413	0.132767
20	0xbdf494fb	-0.11942478
21	0x3df5f82a	0.12010224
22	0x3d968227	0.07349043
23	0xbd4e1bf5	-0.05031963
24	0xbd9e6899	-0.07734794
25	0xbccaf75e	-0.024776157
26	0xbdd3b40c	-0.103370756
27	0xbbdfc3e4	-0.006828772
28	0x3e03daab	0.12876384
29	0xbbd3fd2f	-0.006469391
30	0x3d824319	0.06360454
31	0xbcac09dc	-0.021000795
32	0xbddd6269	-0.10809786
33	0x3d8b5c2b	0.06804689
34	0x3bad54ab	0.005289634
35	0xbd91565c	-0.0709655
36	0xbd88bec4	-0.06677011
37	0x3defd770	0.11711013
38	0xbd515bc2	-0.051112898
39	0x3d9b0ead	0.075711586
40	0xbde5c566	-0.112192914
41	0xbd22a9a0	-0.03971255
42	0x3e0ed8d0	0.13949895
43	0xbcef2237	-0.02919112
44	0x3d8372af	0.064183585
45	0x3a882555	0.0010387102
46	0x3dbbec6c	0.09175953
47	0xbdb09981	-0.086230285
48	0xbe0306cd	-0.12795563
49	0xbcee9876	-0.029125433
50	0xbda97400	-0.08274078
51	0x3d03c3d9	0.032169197
52	0xbd18fc3b	-0.03734992
53	0x3e15b11f	0.14618348
54	0x3d80d0eb	0.06289848
55	0x3d59cd13	0.05317409
56	0xbe192f15	-0.14959367
57	0x3d82d7fb	0.06388851
58	0xbe139494	-0.14412147
59	0x3d972341	0.07379771
60	0x3bbbd465	0.0057321065
61	0x3dfa5c9b	0.12224694
62	0xbb922af3	-0.0044606864
63	0xbcb17c46	-0.021665704
64	0x3dd9dcca	0.10637815
65	0x3ce6b1b7	0.028160913
66	0xbddf9eba	-0.109189466
67	0xbbc87af4	-0.006118173
68	0xbe016467	-0.12635957
69	0xbd48d2cd	-0.04902916
70	0xbba42247	-0.005008969
71	0x3d3ca17c	0.04605244
72	0xbd728785	-0.059211273
73	0xbdbedc4d	-0.09319363
74	0x3e0006f4	0.12502652
75	0xbd208315	-0.03918751
76	0x3db9f561	0.090800054
77	0x3dceb3ef	0.10092913
78	0x3bbbae89	0.0057275933
79	0x3db5b9ac	0.08873305
80	0x3d0a696e	0.03379195
81	0xbdf83d83	-0.121211074
82	0xbd868557	-0.06568401
83	0x3dcd9109	0.10037429
84	0xbcd14de6	-0.02554984
85	0x3d91ce0d	0.07119379
86	0x3d79f7af	0.061027225
87	0xbca4e215	-0.020127336
88	0xbd029ece	-0.03188973
89	0x3d2cbedf	0.042174216
90	0xbdd8b412	-0.10581221
91	0x3d1a998a	0.037744083
92	0xbce2dbfe	-0.027692791
93	0x3e02c6d0	0.12771153
94	0x3d237894	0.039909914
95	0x3dc9ae36	0.09847681
96	0x3e05eb1e	0.13077971
97	0xbdc5facd	-0.09666977
98	0x3def3228	0.116794884
99	0xbdc4203c	-0.09576461
100	0x3dc42b1a	0.095785335
101	0x3de74859	0.11293096
102	0x3cb29a60	0.021802127
103	0xbc98e8e3	-0.018665737
104	0x3daa1836	0.08305399
105	0x3d5841a0	0.05279696
106	0xbdaa9eaa	-0.08331044
107	0xbe17cf9d	-0.14825292
108	0x3d8c9d40	0.068659306
109	0xbd9042ff	-0.070440285
110	0x3dab5109	0.083650656
111	0x3c85b10f	0.01631978
112	0xbd9ff596	-0.07810514
113	0x3e0cee17	0.13762699
114	0xbdbf1016	-0.0932924
115	0xbd85c590	-0.06531823
116	0x3de703a7	0.112799935
117	0x3cfd9160	0.03095311
118	0x3c9d7834	0.019222356
119	0x3de011c6	0.1094089
120	0xbca8c787	-0.020602955
121	0xbe0761e1	-0.13220932
122	0x3dc12d74	0.094324976
123	0x3dfffbb9	0.12499184
124	0xbba7238d	-0.0051006735
125	0x3dd1c51d	0.102426745
126	0x3be7c304	0.007072808
127	0x3d04e78b	0.03244738
128	0xbdecbffa	-0.11560054
129	0xbe172c1c	-0.1476292
130	0xbc415e0d	-0.011802209
131	0xbd33e048	-0.043915063
132	0xbe0fa406	-0.14027414
133	0xbe0d4fa3	-0.1379991
134	0xbdcc10fd	-0.09964178
135	0xbe159afe	-0.14609906
136	0xbe01cb07	-0.12675105
137	0xbd9c52b6	-0.07632963
138	0xbcd2ea5a	-0.025746513
139	0xbdcd89b6	-0.10036032
140	0x3dfa1b61	0.12212253
141	0xbc8cf2aa	-0.017205555
142	0x3a5f9788	0.0008529355
143	0x3da676de	0.08128141
144	0xbc752597	-0.014962575
145	0xbd48a224	-0.048982754
146	0x3d2dccc5	0.04243161
147	0x3dab59a8	0.0836671
148	0xbdff6c8c	-0.124718755
149	0xbbe9f5b9	-0.007139888
150	0x3cecc4b4	0.02890239
151	0xbdd3c9fc	-0.1034126
152	0x3bd38035	0.0064544925
153	0x3dcd67d7	0.100295715
154	0xbdc077a7	-0.09397822
155	0xbdc6bbee	-0.097038135
156	0xbab89281	-0.0014081748
157	0xbe0cd810	-0.13754296
158	0x3c995f7d	0.01872229
159	0xbdf05d0a	-0.11736496
160	0x3def74c1	0.11692191
161	0xbdb3cba5	-0.087790765
162	0xbe08b76b	-0.13351218
163	0xbe0781af	-0.13233064
164	0xbe170e6d	-0.14751597
165	0x3d8eb671	0.06968392
166	0xbe0afeff	-0.13573836
167	0x3d818dd5	0.063258804
168	0xbd2225b4	-0.039586738
169	0x3e0ae612	0.13564327
170	0x3db31162	0.0874355
171	0x3e095409	0.13410963
172	0x3e13633e	0.14393327
173	0x3d8c24bd	0.06842945
174	0x3d1db899	0.038506124
175	0x3cbc0ff0	0.022956818
176	0x3de8f400	0.11374664
177	0x3d87cfad	0.06631408
178	0x3cbd7142	0.023125295
179	0x3dceafaf	0.10092103
180	0xbd8badea	-0.06820281
181	0xbc9f87b5	-0.01947389
182	0xbd7ccaab	-0.061716717
183	0x3ce79755	0.028270403
184	0xbc059d67	-0.008155203
185	0x3dc36bef	0.09542071
186	0xbdff538c	-0.12467107
187	0xbe0f6aea	-0.14005628
188	0xbe046598	-0.1292938
189	0xbd646c4f	-0.055767354
190	0xbd83175c	-0.0640094
191	0xbdf8f036	-0.121551916
192	0x3dfe4d6e	0.12417112
193	0xbe0e379a	-0.13888398
194	0x3c31b797	0.010846994
195	0xbcea4d1c	-0.028601222
196	0xbda46a6c	-0.08028111
197	0xbd7dca3a	-0.061960436
198	0x3d5804e2	0.05273903
199	0x3d8a49b8	0.06752342
200	0x3db5761b	0.088604175
201	0xbdba7c7d	-0.091057755
202	0xbd42eaa8	-0.047587067
203	0xbaf9ee42	-0.0019068199
204	0x3ddebead	0.10876212
205	0xbdd43eb7	-0.103635244
206	0xbd83181c	-0.06401083
207	0xbe14d139	-0.14532937
208	0xbdbc25e4	-0.091869146
209	0x3ddbe305	0.1073666
210	0x3d249cd9	0.040188644
211	0xbd54e9e2	-0.05198086
212	0xbc744bc6	-0.014910644
213	0x3c128338	0.008942418
214	0x3d8eff06	0.069822356
215	0xbdf89c1e	-0.12139152
216	0xbdc3d12a	-0.09561379
217	0xbdb15467	-0.086586766
218	0x3e015f56	0.12634024
219	0x3db5949c	0.088662356
220	0x3e0ef83f	0.13961886
221	0x3de12add	0.10994504
222	0xbcd59d75	-0.026076058
223	0x3d81ad7a	0.06331916
224	0x3d3dc2a8	0.046328217
225	0x3d88e835	0.06684915
226	0x3c15c046	0.00914008
227	0xbdeb75a9	-0.11497051
228	0x3dab936e	0.08377729
229	0xbd4e2515	-0.050328333
230	0xbdac2c30	-0.084068656
231	0x3df53f77	0.119749956
232	0x3e17cfc5	0.14825352
233	0x3c380749	0.011232206
234	0x3d1bed0b	0.03806786
235	0xbd8404ba	-0.06446214
236	0xbdf859bb	-0.1212649
237	0x3dfc603b	0.12323042
238	0xbdbb13a0	-0.091346025
239	0x3c8eb55d	0.017420465
240	0x3d418b10	0.04725176
241	0xbdd379d2	-0.1032597
242	0xbe17d9af	-0.14829133
243	0x3d38d440	0.045124292
244	0x3c859c99	0.016310023
245	0xbdef184a	-0.11674555
246	0x3c33529f	0.010944991
247	0x3d73c859	0.05951724
248	0xbcc0f548	-0.02355446
249	0xbd757924	-0.05992998
250	0xbdd0c2ce	-0.10193406
251	0xbd46d0e4	-0.048539057
252	0xbe068b2c	-0.13139027
253	0xbe0e8880	-0.13919258
254	0x3c260923	0.010134014
255	0xbc18061d	-0.009278801

net.1.linear.bias f4 [256]
0	0xbccf75f5	-0.025324801
1	0x3cd27bc0	0.025693774
2	0xbc636e8e	-0.013881339
3	0x3c3950ff	0.011310815
4	0xbc8e5279	-0.01737331
5	0x3b8b1457	0.004244368
6	0x3d510904	0.05103399
7	0xbd801fa5	-0.06256036
8	0x3d169a08	0.03676799
9	0xbd6a264d	-0.057165433
10	0x3d088d13	0.033337664
11	0xbd32188b	-0.043480437
12	0x3d5ad8ec	0.05342953
13	0x3d228b5f	0.039683696
14	0xbd42b0ab	-0.047531765
15	0xbc1887ea	-0.009309748
16	0x3d0e2672	0.034704633
17	0xbd6b4f1e	-0.0574485
18	0xbd112f50	-0.03544551
19	0xbb72ebaa	-0.0037066736
20	0x3c7739d6	0.015089473
21	0xbcd8be64	-0.026457973
22	0xbc3c3d51	-0.011489228
23	0xbb79a064	-0.0038089985
24	0xbd1b6241	-0.0379355
25	0x3ceff561	0.02929181
26	0x3bb2588f	0.005442686
27	0x3b581e64	0.0032977099
28	0xbc37722a	-0.011196652
29	0xbd026ad9	-0.03184018
30	0x3c0b2f42	0.008495154
31	0xbcccdae2	-0.025006715
32	0x3d0bcc20	0.034130216
33	0xbca0a094	-0.01960782
34	0x3d5aa08b	0.053375762
35	0xbc098922	-0.008394511
36	0xbc04c93c	-0.008104619
37	0xbd35b9cc	-0.044366643
38	0xbd596872	-0.053078122
39	0xbcc07aec	-0.023496114
40	0x3d6413c3	0.05568291
41	0xbc56a672	-0.013101207
42	0xbd00d2a8	-0.031450897
43	0xbd68e7dc	-0.056861743
44	0xbc82047b	-0.015871277
45	0x3d4214fb	0.04738329
46	0xbd5af373	-0.053454828
47	0xbd22e59c	-0.039769754
48	0x3c542c07	0.01294995
49	0xbc90c3d4	-0.017671503
50	0xbc106405	-0.008812909
51	0xbd419f97	-0.047271337
52	0x3c21cbb5	0.009875228
53	0x3c5ac978	0.013353698
54	0xbd31e1fe	-0.043428414
55	0xbc8b92d5	-0.017037788
56	0x3a8a868a	0.001056866
57	0x3d81e80b	0.06343087
58	0xbd807cd7	-0.06273811
59	0xbcaf1f94	-0.021377362
60	0xbd343ef2	-0.04400534
61	0xbd01a058	-0.031647056
62	0xbc4de4a4	-0.012566719
63	0x3cf3e95e	0.029774364
64	0xbc9f58ca	-0.019451518
65	0xbbee5d68	-0.0072743185
66	0x3ce56cbf	0.028005956
67	0xbd78aab4	-0.06070967
68	0xbce00c1b	-0.027349522
69	0x3d179b19	0.037013147
70	0xbd5cedf1	-0.053937856
71	0x3cf48720	0.029849589
72	0xbd6fb09f	-0.05851805
73	0x3b9d781b	0.0048055775
74	0xbc6db1c1	-0.014507712
75	0xbd5225da	-0.05130563
76	0xbd6b903b	-0.057510596
77	0xbcc02b99	-0.023458289
78	0x3d288834	0.04114552
79	0x3ceb155e	0.028696712
80	0x3d799a82	0.060938366
81	0xbc9d18ce	-0.019176867
82	0x3d7a4b91	0.061107222
83	0x3d105275	0.035234887
84	0xbc0ab048	-0.00846488
85	0xbcc75291	-0.024331363
86	0xbc940fad	-0.018073881
87	0x3ccf5cb3	0.025312757
88	0x3ad34424	0.001611833
89	0x3bf17efe	0.007369875
90	0xbd3110fd	-0.043229092
91	0x3d2f5d28	0.04281345
92	0x3d40b492	0.047047205
93	0x3cdf26d1	0.027240189
94	0xbcb6fbbb	-0.022336831
95	0xbd76fa34	-0.060297206
96	0xbaacec37	-0.0013192956
97	0xbc793edc	-0.015212741
98	0x3b8b6c82	0.0042548785
99	0x3c6f88bf	0.014620005
100	0x3bbd2ee5	0.0057734125
101	0x3c994f3e	0.018714543
102	0x3d03c0b2	0.03216619
103	0x3b75466f	0.0037426015
104	0x3a975f38	0.0011548763
105	0xbd5b6d6f	-0.05357116
106	0xbbf1d2a4	-0.0073798466
107	0x3d17d4c1	0.037068132
108	0x3cce919e	0.02521592
109	0x3c2b9af8	0.010473959
110	0xbd2d0084	-0.04223682
111	0x3cd48830	0.025943846
112	0x3c5db254	0.013531286
113	0xbd41d1df	-0.04731929
114	0xbb54b57f	-0.0032456813
115	0x3c6ed3a5	0.014576827
116	0xbcf16cf3	-0.029470896
117	0xbd0bfafb	-0.0341749
118	0x3d46b741	0.04851461
119	0xbcd10216	-0.02551369
120	0x3c205ef0	0.00978826
121	0x3cc2304d	0.023704672
122	0xbd3cea6f	-0.04612201
123	0xbcd6dbc1	-0.026227834
124	0xbc518be5	-0.012789701
125	0xbbff927b	-0.0077994443
126	0xbca509b9	-0.020146238
127	0xbd18ea4e	-0.037332825
128	0xbbdb1920	-0.0066863447
129	0x3d14f0a9	0.036362324
130	0xbd1956e5	-0.037436385
131	0xbca65443	-0.020303851
132	0xbd745cb3	-0.059658717
133	0xbd0e4a53	-0.03473885
134	0xbd0e1127	-0.034684326
135	0x3c840023	0.016113346
136	0x3d5826cc	0.052771375
137	0xbc788177	-0.015167586
138	0x3d2c322c	0.042040035
139	0xbcbb3aca	-0.022855181
140	0x3d4ceebc	0.050032362
141	0x3bb307f1	0.005463593
142	0x3ba1b822	0.0049352804
143	0x3d1ece04	0.03877069
144	0xbcb88f3b	-0.022529235
145	0x3d40e836	0.047096454
146	0xbc96ad2b	-0.01839312
147	0xbcd8f5d3	-0.026484406
148	0x3d13ec7c	0.0361142
149	0x3d216f2a	0.039412655
150	0x3c802d21	0.01564652
151	0xbcd29961	-0.025707902
152	0xbbb8b9b3	-0.0056373714
153	0x3c824571	0.015902253
154	0x3cafb0f6	0.021446686
155	0x3d30e7dd	0.043189872
156	0x3d0f2265	0.03494491
157	0xbd59e487	-0.053196456
158	0xbd22a6a7	-0.039709713
159	0xbc885dac	-0.016646229
160	0xbd2aebe2	-0.04172886
161	0xbbc51776	-0.0060147597
162	0x3d145f84	0.036223903
163	0x3c0e6dea	0.008693198
164	0x3c8be9aa	0.017079193
165	0xbd4721ec	-0.048616335
166	0xbd2b014a	-0.041749276
167	0xbd4771da	-0.04869256
168	0x3cf9d301	0.030496122
169	0xbd3beaf1	-0.045878354
170	0xbd0f1bab	-0.034938496
171	0x3d226271	0.039644662
172	0x3c90bdca	0.017668623
173	0xbd2fd032	-0.04292316
174	0xbc613b75	-0.013747086
175	0x3d010b32	0.031504817
176	0x3bbf98de	0.0058470806
177	0x3d4bfd89	0.049802337
178	0x3d1835e6	0.037160777
179	0xbb48428a	-0.0030557238
180	0x3b50879c	0.003181911
181	0x3d35068c	0.044195697
182	0x3d40519e	0.046952836
183	0xbcc63428	-0.024194792
184	0x3d141830	0.03615588
185	0x3d15141d	0.036396135
186	0x3cfcf761	0.030879678
187	0xbd247e54	-0.04015954
188	0x3d753a82	0.05987025
189	0xba9d2e20	-0.0011991896
190	0x3d5d1738	0.05397722
191	0xbd3e6053	-0.04647858
192	0x3d1dfd5d	0.038571704
193	0x3c4b7bc9	0.012419649
194	0x3d3e2eaa	0.04643122
195	0xbd7cb8cf	-0.061699685
196	0x3c7d0222	0.015442403
197	0x3d2dbba1	0.042415265
198	0xbcda2cca	-0.026632685
199	0xbd65a009	-0.056060825
200	0xbc13f71a	-0.009031082
201	0xbd0c2ef6	-0.034224473
202	0xbc612f2b	-0.013744156
203	0xbc10e9a9	-0.008844771
204	0x3c0eecf6	0.008723488
205	0x3a7aed64	0.0009572117
206	0xbd59239b	-0.05301247
207	0x3cb21a74	0.02174113
208	0x3c105a16	0.008810541
209	0xbb8b5729	-0.0042523337
210	0x3d83eb4e	0.06441365
211	0xbd7847dd	-0.06061541
212	0xbcd5c969	-0.026097016
213	0xbd3caf05	-0.04606535
214	0x3d3d504c	0.046219155
215	0x3d170230	0.03686732
216	0x3d408a63	0.047006976
217	0x3cb332c1	0.021874787
218	0x3d0480eb	0.03234951
219	0xbc00b450	-0.00785549
220	0x3c88b6df	0.016688762
221	0x3bfdb48e	0.007742471
222	0xbd240b13	-0.040049624
223	0xbd1e3558	-0.03862509
224	0x3cad5252	0.021157417
225	0xbb58acc6	-0.0033061965
226	0xbcc0357d	-0.023463005
227	0x3c63a3da	0.013894046
228	0x3cf98d6b	0.030462941
229	0x3c20b9c4	0.009809915
230	0xbd214ff4	-0.03938289
231	0xbce25a8d	-0.027631069
232	0xbd03bd1f	-0.03216278
233	0x3d0a6d6d	0.033795763
234	0xbaef96cc	-0.0018279194
235	0xba0aebf5	-0.00052994426
236	0xbcee46a9	-0.029086428
237	0x3bfa9e06	0.0076482324
238	0x3d013128	0.03154102
239	0x3c5e3c1b	0.013564135
240	0x3be1a0fe	0.006885647
241	0x3cca16df	0.024669109
242	0xbca43ff0	-0.020050019
243	0x3d62ea6c	0.055399343
244	0x3b174bd5	0.002308597
245	0xbcfb6629	-0.030688362
246	0xbcae4e79	-0.021277653
247	0x3ced3cb2	0.028959606
248	0xbcd0dc49	-0.025495665
249	0x3d3aeb94	0.04563482
250	0xbd79d94a	-0.06099824
251	0x3ccce4f0	0.02501151
252	0x3d477b8b	0.048701804
253	0x3d6e66a0	0.05820334
254	0x3d1b7dc0	0.03796172
255	0x3b341263	0.002747678

net.2.linear.weight f4 [256, 256]
0	0xbc9efe15	-0.019408265
1	0x3c7b919c	0.01535454
2	0x3d2ca3d7	0.042148437
3	0x3cedc4c8	0.029024497
4	0xbe1558d2	-0.14584664
5	0xbc54bb08	-0.012984045
6	0x3d89ace2	0.06722428
7	0x3dfe55d9	0.12418718
8	0x3d222b93	0.039592337
9	0xbd7eef09	-0.06223968
10	0x3d51b123	0.05119432
11	0x3d82646b	0.063668095
12	0x3daeb39b	0.08530351
13	0xbe04bca2	-0.12962583
14	0xbd751e12	-0.05984313
15	0xbde26585	-0.110545196
16	0x3e14c8c2	0.14529708
17	0x3c8f9bc8	0.017530337
18	0xbd6251d1	-0.055253807
19	0xbd2c9223	-0.042131554
20	0xbda3d18a	-0.07998951
21	0xbd0c1a94	-0.034205034
22	0xbdb045a6	-0.086070344
23	0x3cdbe16a	0.026840884
24	0xbde2ddc0	-0.11077452
25	0x3e012aba	0.12613955
26	0xbe006d76	-0.12541756
27	0x3dc7ed1a	0.097620204
28	0x3d9b1191	0.0757171
29	0x3cad19f7	0.021130545
30	0x3d56d651	0.05245048
31	0xbdb80b48	-0.08986527
32	0x3d99e8e7	0.07515126
33	0xbdb70fed	-0.089385845
34	0xbd3f8dbc	-0.046766028
35	0x3d1fc603	0.039007198
36	0xbd7c95a4	-0.061666146
37	0xbdaafe65	-0.08349303
38	0xbd83f5c1	-0.06443358
39	0xbdb03c74	-0.086052805
40	0x3bdf8258	0.006820958
41	0x3ddf0d31	0.10891188
42	0x3e0556fc	0.13021463
43	0x3e074da9	0.13213219
44	0x3df5c6f8	0.12000841
45	0x3d8a5a8d	0.067555524
46	0x3c08a3fa	0.008339876
47	0x3def8919	0.11696071
48	0x3df7b207	0.12094503
49	0xbc17cf07	-0.009265668
50	0x3ce07ba5	0.027402708
51	0x3de6a9aa	0.112628296
52	0x3dcc832f	0.09985959
53	0xbd333743	-0.043753874
54	0xbdf9c6cd	-0.12196121
55	0x3dabfad6	0.083974525
56	0xbdc0f3f8	-0.09421533
57	0xbd9894f4	-0.074502856
58	0xbccb1288	-0.02478911
59	0xbe014438	-0.1262368
60	0xbda8db46	-0.08244948
61	0xbdfbb50b	-0.122903906
62	0xbbcad300	-0.006189704
63	0x3dfd75a2	0.12375952
64	0x3da818ab	0.0820783
65	0xbd3e873d	-0.046515692
66	0xbccc9888	-0.024975076
67	0xbd8d9ccc	-0.06914672
68	0x3d38e4e6	0.04514017
69	0x3da0e345	0.07855848
70	0xbd36b11e	-0.044602506
71	0x3e0247ec	0.12722749
72	0x3dfb983d	0.122848965
73	0x3d09775f	0.033561107
74	0x3e1161fc	0.14197534
75	0xbd880b51	-0.066427834
76	0x3de2acec	0.110681385
77	0xbdf24607	-0.11829763
78	0x3e1c3254	0.15253574
79	0xbdb3c54a	-0.08777864
80	0xbcb57b09	-0.022153394
81	0x3e097ddb	0.13426916
82	0x3df9f7f3	0.12205496
83	0xbe03bc48	-0.12864792
84	0x3e034e04	0.1282273
85	0x3de6abfd	0.11263273
86	0x3dfcac21	0.123375185
87	0x3d89039b	0.06690141
88	0xbd02b82e	-0.03191393
89	0xbd4e5b87	-0.050380256
90	0x3e1a8821	0.15090992
91	0xbdcc6618	-0.0998041
92	0xbe0caa05	-0.13736732
93	0xbe13644e	-0.14393732
94	0x3e15294b	0.14566533
95	0xbe0000b4	-0.12500268
96	0x3c0d4326	0.0086219665
97	0x3e0298b5	0.12753566
98	0x3e15f759	0.14645137
99	0xbcf11bb4	-0.029432155
100	0xbdc109a6	-0.094256684
101	0xbd6b65c7	-0.05747011
102	0xbdba5ae4	-0.09099367
103	0xbb36a759	-0.0027870743
104	0xbd83bbc4	-0.06432298
105	0xbdb9bdc0	-0.09069395
106	0x3d3f8033	0.04675312
107	0xbaab794a	-0.0013082412
108	0x3da70df2	0.08156957
109	0x3e14d65d	0.14534898
110	0x3d6ece53	0.058302235
111	0xbc66c910	-0.014086023
112	0xbdd3cef4	-0.103422076
113	0x3d3305ad	0.043706585
114	0x3d26baf5	0.04070564
115	0xbde7ae0d	-0.113124944
116	0x3c580688	0.013185151
117	0x3e0a6986	0.13516816
118	0xbdba9dab	-0.09112104
119	0xbcd8e247	-0.026475085
120	0xbd23596b	-0.039880197
121	0x3d8bc4f6	0.06824677
122	0xbd9cf052	-0.07663025
123	0x3dae521b	0.08511754
124	0x3d15ab93	0.03654058
125	0xbd0a1842	-0.03371454
126	0xbdbf732e	-0.09348141
127	0xbe0aee61	-0.13567497
128	0x3da88052	0.082276
129	0x3e0c6b08	0.13712704
130	0xbd56eeb7	-0.05247375
131	0x3e0ce9be	0.1376104
132	0xbde95b97	-0.113944225
133	0xbd0bbcc9	-0.034115586
134	0x3d90bc69	0.070671864
135	0xbdd2b3dd	-0.102882124
136	0xbd7948b2	-0.060860343
137	0x3df0834d	0.11743794
138	0x3e1cbb2e	0.15305778
139	0x3d285235	0.041094024
140	0x3e0ec9fc	0.13944238
141	0x3c742b02	0.014902832
142	0x3da77a20	0.0817759
143	0x3beee0b7	0.0072899717
144	0xbdbfada8	-0.09359294
145	0x3d88b163	0.06674459
146	0x3e0f9707	0.14022456
147	0x3dba2e19	0.09090824
148	0xbdbdad15	-0.092615284
149	0xbd71527c	-0.058916554
150	0xbcdc6a92	-0.026906285
151	0x3e06a672	0.13149431
152	0x3d91e3b5	0.0712351
153	0x3c55d825	0.013052021
154	0x3db6bf17	0.08923166
155	0x3e09f382	0.13471797
156	0xbe034411	-0.12818934
157	0x3d763f2c	0.06011884
158	0xbdd99dd4	-0.106258065
159	0x3bb9a03b	0.005664853
160	0x3d3cafb5	0.046066005
161	0x3daf061c	0.08546087
162	0xbe081147	-0.13287841
163	0x3d593ef7	0.053038564
164	0x3d943008	0.07235724
165	0x3bec5f00	0.0072134733
166	0x3d3306ad	0.04370754
167	0x3d80748c	0.062722296
168	0xbcda2f0e	-0.026633766
169	0xbd88f261	-0.06686855
170	0xbe15e040	-0.14636326
171	0x3df7edfa	0.12105937
172	0xbd075e03	-0.03304864
173	0x3e0c49fb	0.13700096
174	0xbd77d83b	-0.060508948
175	0xbd5702e1	-0.05249298
176	0xbdf33bfb	-0.11876675
177	0x3deb4e10	0.114894986
178	0x3b9478dd	0.0045310096
179	0xbda4b467	-0.080422215
180	0x3e0a7bea	0.13523832
181	0xbdb14deb	-0.0865744
182	0xbd6c2a68	-0.05765763
183	0xbd85f8aa	-0.065415695
184	0xbc371dd0	-0.011176541
185	0xbdeedb38	-0.116629064
186	0x3d1feeee	0.03904622
187	0x3dc97635	0.09836999
188	0xbdabc49c	-0.0838711
189	0xbd393c8e	-0.045223765
190	0x3e0252b9	0.12726869
191	0x3da394ac	0.07987341
192	0xbe056b3f	-0.13029192
193	0x3dd096f4	0.10185042
194	0xbe035951	-0.1282704
195	0xbd94f3f5	-0.072730936
196	0x3dfcff22	0.1235335
197	0x3e0552fb	0.13019936
198	0x3ddadad0	0.106862664
199	0x3cec2ae3	0.028829044
200	0x3e17f5ff	0.14839934
201	0xbd5e462f	-0.05426615
202	0x3c13d732	0.0090234745
203	0xbdb9b6f5	-0.090680994
204	0xbdb804a2	-0.08985259
205	0xbd568960	-0.052377105
206	0xbdc07c43	-0.09398701
207	0xbcd47ec7	-0.025939358
208	0xbca66454	-0.020311512
209	0x3d23a229	0.03994957
210	0x3d26a4d0	0.04068452
211	0xbe06e23c	-0.13172239
212	0x3e033ddf	0.1281657
213	0x3d4b3da6	0.04961934
214	0x3e09a705	0.13442619
215	0xbdd3b6e6	-0.103376195
216	0x3e1a8899	0.1509117
217	0x3cb889ab	0.022526583
218	0xbe0aa3fe	-0.1353912
219	0xbdb3b5fa	-0.08774944
220	0x3c1f25c2	0.009713592
221	0xbe018115	-0.12646897
222	0xbd984e21	-0.07436777
223	0xbe0206e4	-0.12697941
224	0xbe15f12e	-0.14642784
225	0xbceb26d1	-0.028705033
226	0x3d8df471	0.06931389
227	0xbd474115	-0.04864605
228	0x3dfbdbf9	0.12297816
229	0x3d850bad	0.064963676
230	0xbe1c80bd	-0.15283485
231	0xbde154d8	-0.11002511
232	0xbdd85a52	-0.10564102
233	0xbd5272e4	-0.0513791
234	0xbc425512	-0.011861103
235	0x3e0f71c4	0.14008242
236	0xbc51ee1f	-0.01281312
237	0x3de61998	0.1123535
238	0x3b71f6ef	0.0036920866
239	0x3df04c68	0.11733323
240	0xbddf9774	-0.10917559
241	0xbd4eaff5	-0.050460774
242	0x3d87f57b	0.066386186
243	0x3d10d95c	0.03536354
244	0x3c064b81	0.0081967125
245	0xbe1bddd3	-0.15221338
246	0x3d02daaa	0.031946816
247	0x3e1440ac	0.14477795
248	0xbd46a734	-0.0484993
249	0xbdcf8135	-0.10132066
250	0xbddd06ac	-0.10792288
251	0xbd95df03	-0.07317927
252	0x3d46de31	0.048551742
253	0x3e19e2f6	0.15027985
254	0x3dac0cb7	0.08400863
255	0x3ddb2112	0.10699667

net.2.linear.bias f4 [256]
0	0x3b9fba5b	0.00487451
1	0x3d147924	0.03624834
2	0x3b9900d5	0.0046692886
3	0xbbf77912	-0.0075522745
4	0x3d4e968d	0.050436545
5	0x3cbbb029	0.022911148
6	0xbd7ad3a1	-0.06123698
7	0xbcac9cea	-0.021070916
8	0x3c939553	0.01801554
9	0x3d3b1754	0.045676544
10	0xbc048522	-0.008088382
11	0xbd78ebe0	-0.060771823
12	0x3bd155ac	0.0063883867
13	0xbd030cf1	-0.031994764
14	0xbd27dd49	-0.04098252
15	0xbd6855d0	-0.056722462
16	0x3d00b597	0.031423178
17	0x3b45bd69	0.0030172712
18	0x3d481e1b	0.048856836
19	0xbc60138a	-0.0136765335
20	0xbcb8a245	-0.022538314
21	0xbc02f652	-0.007993298
22	0xbd1b6d10	-0.037945807
23	0x3c04d545	0.008107488
24	0x3d0d1a6d	0.03444903
25	0x3cf6ad1a	0.030111838
26	0xbd457a36	-0.048212253
27	0x3d5014d0	0.0508011
28	0xbcf0eaa4	-0.02940876
29	0xbd55e224	-0.052217618
30	0x3bd7f124	0.0065900255
31	0xbd52cb81	-0.051463608
32	0xbd821c0b	-0.06353005
33	0x3c3a46ea	0.011369446
34	0x3c17a5ed	0.009255868
35	0x3d4dc6ad	0.0502383
36	0xbca60f99	-0.02027111
37	0x3cdf6538	0.027269945
38	0xbc57fd53	-0.013182956
39	0xbd1e27eb	-0.038612287
40	0x3d0f9d97	0.0350624
41	0x3d7a1965	0.061059374
42	0x3ba37e78	0.0049894415
43	0xbd42aabb	-0.047526103
44	0x39163d09	0.00014327852
45	0x3b5b2027	0.0033435912
46	0xbd8102a2	-0.0629933
47	0x3d59dcaa	0.053188957
48	0xbc00a660	-0.007852167
49	0x3d6d1f08	0.05789092
50	0xbd564362	-0.052310355
51	0xbd3c4f89	-0.045974288
52	0xbcd3dfec	-0.02586361
53	0x3d230cfd	0.03980731
54	0x3cbd4666	0.023104858
55	0x3c1aa14d	0.009437871
56	0xbc3c4189	-0.011490234
57	0xbd471aaa	-0.048609413
58	0xbd3bca2e	-0.04584711
59	0x3c6ed738	0.014577679
60	0xbd0a1aa0	-0.033716798
61	0x3c19c9aa	0.009386459
62	0xbd2fc139	-0.04290888
63	0x3d196407	0.03744891
64	0xbd16dc17	-0.036830988
65	0xbc5ccc0d	-0.013476384
66	0xbc3e3378	-0.011608951
67	0xbd3a23c7	-0.045444276
68	0xbcd8d97e	-0.026470896
69	0xbc0d64e9	-0.008630016
70	0x3cc9f9a9	0.02465518
71	0x3c4b7a81	0.012419344
72	0xbd3f2484	-0.046665683
73	0xbd1ebabc	-0.038752303
74	0xbc8be98e	-0.017079141
75	0xbca60677	-0.020266755
76	0x3c866b3e	0.016408559
77	0xbc611183	-0.013737085
78	0xbb7a791a	-0.0038219155
79	0xbd5f76b2	-0.054556556
80	0xbd71d37c	-0.059039578
81	0xbc403710	-0.011731878
82	0x3d4e9626	0.05043616
83	0x3d23e970	0.040017545
84	0xbaf9fb8b	-0.0019072158
85	0x3d0bfd1e	0.03417694
86	0x3c9dbc0b	0.019254705
87	0x3d1e515d	0.038651813
88	0x3b633345	0.003466801
89	0x3d27ba69	0.04094926
90	0x3d4fe1ea	0.050752558
91	0xbd6b60af	-0.05746525
92	0x3d6ffa8e	0.058588557
93	0xbcc98b16	-0.024602454
94	0x3d791e56	0.060819946
95	0x3d29d9cd	0.041467477
96	0x3cd51be1	0.02601427
97	0x3a923138	0.0011153584
98	0x3d0015ce	0.031270795
99	0xbd64d5b2	-0.05586786
100	0x3c00a586	0.007851964
101	0x3d4a8ffb	0.049453717
102	0x3d2cf84c	0.04222898
103	0xbd093ab0	-0.033503234
104	0x3d53356a	0.05156461
105	0x3c48a3ae	0.0122460555
106	0x3d04793d	0.032342184
107	0x3d743b1d	0.059626687
108	0xbc79c177	-0.0152438795
109	0xbcf52186	-0.029923212
110	0xba92dde6	-0.0011205047
111	0xbd5c745a	-0.0538219
112	0x3c3ff103	0.0117151765
113	0x3cec2878	0.02882789
114	0xbc1134fa	-0.008862728
115	0x3c9016eb	0.017589053
116	0xbcafa37c	-0.02144026
117	0x3bc9e223	0.006160991
118	0xbd6bc434	-0.05756016
119	0x3d63b897	0.05559596
120	0xbd006d55	-0.031354267
121	0x3cd817bb	0.026378503
122	0xbd7dacf2	-0.06193251
123	0x3ca60eac	0.020270668
124	0xbb3a9038	-0.0028467309
125	0xbd2be7c7	-0.041969087
126	0x3d65fe6d	0.056150842
127	0xbbf2ee96	-0.0074136956
128	0x3cab6422	0.02092177
129	0x3c5ea0ef	0.013588174
130	0xbd2bdb69	-0.041957293
131	0x3d279176	0.040910207
132	0x3b0d607c	0.0021572402
133	0xbc96e682	-0.018420462
134	0xbd0758cf	-0.03304368
135	0xbd4fab4f	-0.050700482
136	0xbd1d454f	-0.038396176
137	0x3c6343aa	0.013871113
138	0x3d1966c7	0.03745153
139	0xbd167cbd	-0.036740053
140	0xbd7b1272	-0.061296888
141	0xbd0005c6	-0.031255506
142	0x3d1acf84	0.03779556
143	0x3d032ffa	0.032028176
144	0x3c16b4c2	0.009198369
145	0xbd30668b	-0.043066543
146	0x3cad53f0	0.021158189
147	0x3c0316b8	0.008001022
148	0x3b99bc26	0.0046916185
149	0x3c003d8b	0.007827173
150	0x3c950852	0.018192444
151	0x3d5a15de	0.05324351
152	0xbd353945	-0.04424407
153	0x3d4f1cd9	0.05056462
154	0xbc8f0c4f	-0.017461924
155	0xbd30e74c	-0.043189332
156	0xbb8a7a2e	-0.0042259907
157	0x3d5fffe9	0.054687414
158	0x3b2d817b	0.0026474881
159	0x3d6671a2	0.056260712
160	0x3d6e0fde	0.0581206
161	0xbd60cf07	-0.054884937
162	0xbd26f52a	-0.04076115
163	0xbc8f6595	-0.017504493
164	0xb9fbf8a9	-0.00048059717
165	0xbcb88699	-0.022525119
166	0x3d5c4a2b	0.05378167
167	0x3d121ff7	0.035675015
168	0xbd714ebe	-0.058912985
169	0xbccbb902	-0.024868492
170	0xbcf70bdf	-0.030157028
171	0x3ba2f1a9	0.004972656
172	0xbccf299f	-0.025288401
173	0xbc96e13a	-0.018417943
174	0xb85b58d1	-5.2296386e-05
175	0xbd451891	-0.04811913
176	0x3d755249	0.059892926
177	0xbd5465ac	-0.051854774
178	0x3c522c8f	0.012828006
179	0xbc88767a	-0.016658057
180	0xbc876915	-0.0165296
181	0xbc888ce2	-0.01666874
182	0xbd2f9edb	-0.042876106
183	0x3c53c2d2	0.012924867
184	0x3c9c26c5	0.019061456
185	0x3d496752	0.0491708
186	0x3ca0572a	0.019572813
187	0x3d2c62ce	0.042086415
188	0x3c9c1c9d	0.019056613
189	0x3d615bf7	0.055019345
190	0xbd472efb	-0.04862879
191	0xbd5678f9	-0.052361462
192	0x3d43e72e	0.047827892
193	0x3d3f2d3e	0.046674006
194	0xbc93d13f	-0.018044112
195	0x3d2c1f5c	0.042022094
196	0x3cfde235	0.030991653
197	0xbbcc6ba2	-0.006238417
198	0xbce4751e	-0.027887877
199	0xbd0d3634	-0.03447552
200	0x3d1d3ea1	0.038389806
201	0x3d60193b	0.05471156
202	0x3cf43239	0.029809104
203	0xbd718c5f	-0.05897176
204	0xbc0759f6	-0.008261194
205	0x3c0a88a5	0.00845543
206	0xbd3d4a7b	-0.04621361
207	0x3d373751	0.04473049
208	0xbd29cfd5	-0.04145797
209	0x3b933d8f	0.0044934223
210	0xbafad320	-0.0019136406
211	0xbd59ebf3	-0.053203534
212	0x3bd64aaa	0.0065396624
213	0xbd0d8020	-0.034546018
214	0x3bb99e43	0.005664618
215	0xbd374445	-0.04474284
216	0x3d61a516	0.05508908
217	0x3c844e49	0.01615061
218	0xbcac9aef	-0.021069972
219	0xbcecfc9f	-0.028929053
220	0xbcbe457b	-0.02322649
221	0xbbd5b91a	-0.00652231
222	0x3d349e7f	0.044096466
223	0xbd217d35	-0.039426047
224	0xbd3ba3a9	-0.045810375
225	0xbd5b2ca4	-0.05350937
226	0xbd61db67	-0.05514088
227	0x3c3e4f67	0.011615611
228	0xbb62fdcf	-0.0034636145
229	0xbd03e0cd	-0.03219681
230	0x3bfe62c5	0.007763239
231	0xbc974ad9	-0.018468307
232	0x3d6e9afd	0.058253277
233	0x3cfc3a71	0.030789586
234	0x3d492f74	0.04911752
235	0xbbffb551	-0.007803597
236	0x38a680e3	7.939504e-05
237	0x3baf5f85	0.005351963
238	0x3cab15b2	0.020884369
239	0x3cd10830	0.0255166
240	0x3d65af0b	0.056075137
241	0x3b5f87d3	0.0034108057
242	0x3d7af924	0.061272755
243	0x3d3590e4	0.04432763
244	0xbd07c33d	-0.033145178
245	0xbce94485	-0.028475055
246	0x3d6a1ba8	0.05715528
247	0xbcce4250	-0.025178105
248	0xbc4ad1e1	-0.012379141
249	0x3c3f2703	0.011667016
250	0x3d53ff03	0.05175687
251	0x3cb5f752	0.022212658
252	0x3d6890e6	0.05677881
253	0x3c2700ad	0.010193032
254	0xbc5c1dab	-0.013434808
255	0xbbf1549a	-0.0073648216

net.3.linear.weight f4 [256, 256]
0	0xbe15233d	-0.14564224
1	0xbca3747d	-0.019953007
2	0xbd9ff15a	-0.07809706
3	0xbbefae81	-0.0073145037
4	0x3da58360	0.080816984
5	0xbda57e21	-0.08080698
6	0x3da4b7fc	0.08042905
7	0x3bc3058c	0.005951589
8	0x3d98be44	0.07458165
9	0x3db52606	0.08845143
10	0x3c262f5f	0.01014313
11	0x3c7a6f2e	0.015285296
12	0x3e106b07	0.14103328
13	0x3d58d471	0.052936975
14	0x3dabeeb2	0.08395137
15	0x3d959afc	0.073049515
16	0xbd38b798	-0.045096964
17	0x3d34589a	0.04402981
18	0x3a16d354	0.0005753536
19	0x3e05c9f3	0.13065319
20	0x3d89b709	0.06724364
21	0x3de0c43e	0.1097493
22	0x3d3a4d12	0.045483656
23	0xbdbadd33	-0.09124222
24	0x3b80d9b2	0.0039322013
25	0x3dd7c0a6	0.10534792
26	0xba8ffdff	-0.0010985731
27	0x3d9467e5	0.07246379
28	0xbe131b6b	-0.14365928
29	0xbe0a9bae	-0.1353595
30	0x3d929216	0.0715677
31	0xbd622fb3	-0.05522127
32	0x3dfaacbc	0.12239978
33	0xbd2da2d0	-0.0423916
34	0xbd8cacb5	-0.06868879
35	0xbccbbe35	-0.024870971
36	0x3dad750e	0.08469592
37	0xbda0e59f	-0.07856297
38	0x3d568bf1	0.052379552
39	0xbb841df8	-0.004031893
40	0x3dc1734a	0.09445818
41	0x3d977852	0.07395996
42	0x3c93b0fb	0.018028727
43	0xbdf8c731	-0.12147368
44	0xbd920377	-0.07129567
45	0xbb2406d6	-0.0025028489
46	0xbdf69776	-0.12040608
47	0x3e18baf0	0.14915061
48	0x3da1e05d	0.07904122
49	0xbdc58722	-0.09644915
50	0xbdeacc84	-0.114647895
51	0x3dea101f	0.11428856
52	0x3cb2f534	0.021845438
53	0xbe02404c	-0.1271984
54	0xbdc98b1f	-0.09840988
55	0x3e088d63	0.13335185
56	0x3d4d152c	0.05006902
57	0x3d75d722	0.06001962
58	0x3dc0a38c	0.09406194
59	0x3c78b2db	0.015179361
60	0xbd0deb65	-0.034648318
61	0xb860df69	-5.361383e-05
62	0x3d16df4e	0.036834054
63	0x3cdb0b36	0.026738744
64	0xbdb9b883	-0.09068396
65	0x3df324ee	0.11872278
66	0xbd75a6bf	-0.059973475
67	0x3dca703b	0.098846875
68	0x3cee9717	0.02912478
69	0x3ddf2dd5	0.10897414
70	0x3dd23aad	0.10265098
71	0x3defd98d	0.117114164
72	0x3dbd2dea	0.09237273
73	0x3dbb2383	0.09137633
74	0x3e166c45	0.14689739
75	0x3d8ff838	0.07029766
76	0xbda9a768	-0.08283883
77	0x3ca29e22	0.019850794
78	0x3d0357e0	0.032066226
79	0x3e131314	0.14362746
80	0xbdba2103	-0.09088328
81	0xbdafddab	-0.08587202
82	0xbd9ebb10	-0.07750523
83	0xbdd8006d	-0.10546956
84	0xbe146296	-0.14490733
85	0xbdbcee80	-0.09225178
86	0x3c7536ff	0.014966725
87	0xbc38d8dc	-0.011282172
88	0x3e123c39	0.14280786
89	0xbe06e5d0	-0.13173604
90	0xbc7e17ec	-0.015508633
91	0x3cbc9757	0.023021383
92	0x3e0df2ef	0.13862203
93	0xbd43290c	-0.047646567
94	0xbde4744d	-0.11154995
95	0xbc212a0f	-0.009836688
96	0xbdd55013	-0.104156636
97	0xbd5c8ced	-0.053845335
98	0x3d9d1c26	0.076713845
99	0x3e0093db	0.12556402
100	0x3e10fdf4	0.14159375
101	0xbba1c7c4	-0.004937144
102	0xbd0385e9	-0.03211013
103	0xbda82223	-0.08209636
104	0xbcf3e47e	-0.02977204
105	0x3d5f5fda	0.05453477
106	0xbd443beb	-0.047908705
107	0xbde469ab	-0.11152967
108	0x3e14fb46	0.14548978
109	0x3e01072f	0.12600397
110	0x3e0b16d8	0.13582933
111	0xbdfdb7ef	-0.12388598
112	0x3b08bf0a	0.0020865821
113	0xbdec9036	-0.115509436
114	0x3e125a4d	0.1429226
115	0x3d14e263	0.03634871
116	0x3e0a4bc0	0.13505459
117	0x3da5d345	0.08096937
118	0xbe121eb3	-0.14269523
119	0x3d6641ae	0.05621498
120	0xbe099a03	-0.13437657
121	0x3d02c7f9	0.03192899
122	0xbdb26099	-0.08709831
123	0x3d122ad1	0.035685364
124	0x3dedfaf3	0.116201304
125	0x3dad9440	0.08475542
126	0xbdc257b5	-0.09489385
127	0xbdda689e	-0.106644854
128	0x3d735489	0.05940679
129	0x3d373ddc	0.044736728
130	0x3dc46268	0.09589082
131	0xbc040c93	-0.008059639
132	0x3dbdd203	0.09268572
133	0xbda4514b	-0.08023318
134	0x3e14a983	0.14517789
135	0x3e0a78da	0.13522664
136	0x3df374a3	0.11887481
137	0x3d48b107	0.04899695
138	0xbd96e5e8	-0.0736807
139	0x3de5c9ef	0.112201564
140	0xbd9a3221	-0.075290926
141	0xbd6072b9	-0.054796908
142	0x3b36e576	0.0027907765
143	0x3db0ff71	0.086424716
144	0x3df786c1	0.12086249
145	0x3cd8e683	0.026477104
146	0x3e15eba2	0.14640668
147	0x3d755bc3	0.059901964
148	0xbda71033	-0.08157387
149	0x3d382db3	0.044965457
150	0x3dbefb3f	0.09325265
151	0xbca9e677	-0.020739777
152	0xbd8bba1a	-0.068226054
153	0x3db47161	0.08810688
154	0x3d473dc8	0.048642904
155	0x3dfb0e91	0.12258638
156	0x3dcef9e2	0.10106255
157	0xbd050e5d	-0.0324844
158	0x3e00d358	0.12580621
159	0xbe0f82a7	-0.14014684
160	0xbd8cb851	-0.06871093
161	0x3ddbe205	0.10736469
162	0x3dd1b06e	0.102387294
163	0x3de0d13b	0.109774075
164	0xbdd111a5	-0.102084436
165	0xbd5c71ff	-0.053819653
166	0xbda67b81	-0.08129025
167	0x3d15959c	0.03651963
168	0xbe092991	-0.13394763
169	0xbdc49e1e	-0.09600471
170	0x3d787d9e	0.060666673
171	0xbdc9deeb	-0.09856971
172	0xbc383b5a	-0.011244619
173	0xbdf55e2b	-0.11980852
174	0x3da1bae1	0.078969724
175	0xbd23d60d	-0.039999057
176	0x3cf18653	0.029482996
177	0x3da4ac44	0.080406696
178	0xbdb4cfa0	-0.08828664
179	0xbe01d604	-0.12679297
180	0xbdd24642	-0.10267307
181	0xbda115ac	-0.07865462
182	0xbdaa8651	-0.083264
183	0x3dca6d90	0.09884179
184	0x3c0e51ee	0.008686526
185	0xbe0d8045	-0.13818462
186	0xbca73490	-0.020410806
187	0xbda5edb7	-0.08101981
188	0xbde44ae5	-0.111470975
189	0xbe17cffb	-0.14825432
190	0xbd0858d3	-0.033287834
191	0x3cc32d32	0.023825262
192	0xbc1b910d	-0.009495032
193	0xbd881dab	-0.06646284
194	0x3c2048e4	0.0097830035
195	0xbd8ef476	-0.06980221
196	0x3dd12196	0.10211484
197	0xbb925d57	-0.0044666934
198	0xbd68dba5	-0.056850094
199	0xbda4e74c	-0.08051929
200	0xbde11c8a	-0.109917715
201	0x3e0a2dae	0.13493988
202	0x3d199bdc	0.037502155
203	0xbcca499a	-0.0246933
204	0xbd04eba6	-0.032451294
205	0xbdccee76	-0.1000642
206	0xba7d5c5e	-0.0009664948
207	0x3db5793d	0.08861015
208	0x3e01cb8d	0.12675305
209	0xbe01f941	-0.12692739
210	0x3d87e924	0.06636265
211	0xbd157f1f	-0.036498185
212	0x3e189148	0.1489917
213	0x3d9f176b	0.077681385
214	0x3db62cd6	0.088952705
215	0xbdc53e05	-0.0963097
216	0x3c5899ba	0.013220245
217	0x3e142257	0.14466225
218	0xbd050cbf	-0.03248286
219	0x3dbcef60	0.09225345
220	0xbe1a4537	-0.15065466
221	0xbd132793	-0.035926413
222	0xbdf7a47f	-0.12091922
223	0x3d9a7520	0.07541871
224	0x3dac4e2d	0.08413348
225	0xbd24152f	-0.040059265
226	0x3dad5f47	0.08465438
227	0xbdb6eae6	-0.08931522
228	0xbd9a1e21	-0.07525278
229	0x3d6b963b	0.057516318
230	0xbdcac53d	-0.099009015
231	0x3d8a2fcf	0.067474
232	0x3bf97fac	0.0076140966
233	0xbe06f073	-0.13177662
234	0xb911ad92	-0.00013892938
235	0x3bf2fd47	0.007415447
236	0x3daa5d48	0.08318573
237	0xbd84ec23	-0.06490352
238	0xbc12670b	-0.0089357
239	0x3daa279e	0.08308338
240	0xbdbb0be6	-0.09133129
241	0x3e0cf79f	0.13766335
242	0xbb286be9	-0.0025699085
243	0xbbc11e22	-0.0058934847
244	0xbdb8ae13	-0.09017577
245	0x3de1c336	0.11023562
246	0x3e109869	0.1412064
247	0x3da4fefa	0.080564454
248	0x3cb73385	0.022363434
249	0xbc28ec29	-0.010310211
250	0x3cd85494	0.026407517
251	0x3d7d399b	0.061822515
252	0xbb8e0860	-0.0043344945
253	0x3e130b08	0.14359677
254	0xbce954e6	-0.028482866
255	0x3e08c6b7	0.13357054
